Solvation_1/Run_results/ResNet/BoB_Class_Res1/best/best_val_model.pt (torch, 36563 bytes, 105 tensors)

first_block_conv.conv.weight f4 [2, 1, 3]
000000 19 88 ff be ed e4 06 bf 36 de 3d 3e ac 52 87 be
       -0.49908522 -0.52693063 0.18541798 -0.2643026
000010 d0 35 9f 3e 3e 79 a0 3d
       0.31095743 0.07835625

first_block_conv.conv.bias f4 [2]
000000 9e f5 ec be ea 65 cf 3e
       -0.4628114 0.40507442

first_block_bn.weight f4 [2]
000000 23 98 85 3f 61 f7 73 3f
       1.0437053 0.95299345

first_block_bn.bias f4 [2]
000000 ff d1 61 3d df dc 18 bd
       0.05513191 -0.037320014

first_block_bn.running_mean f4 [2]
000000 ec 6a 0b bf 16 a1 d5 3e
       -0.54460025 0.4172446

first_block_bn.running_var f4 [2]
000000 f7 67 05 3f 7f ae ae 3c
       0.5211176 0.02132344

basicblock_list.0.bn1.weight f4 [2]
000000 00 00 80 3f 00 00 80 3f
       1.0 1.0

basicblock_list.0.bn1.bias f4 [2]
000000 00 00 00 00 00 00 00 00
       0.0 0.0

basicblock_list.0.bn1.running_mean f4 [2]
000000 00 00 00 00 00 00 00 00
       0.0 0.0

basicblock_list.0.bn1.running_var f4 [2]
000000 00 00 80 3f 00 00 80 3f
       1.0 1.0

basicblock_list.0.conv1.conv.weight f4 [2, 2, 3]
000000 39 e7 db be 57 01 81 be 92 69 35 be 34 bd 98 3e
       -0.42949846 -0.25196335 -0.17716053 0.2983185
000010 bd 26 65 be ee 64 65 be af 0e bb 3e de 15 6c 3e
       -0.22378059 -0.22401783 0.3653464 0.23055217
000020 6d df b8 be 2e c4 c7 bd 9f 13 67 3c d2 de ed 3d
       -0.3610796 -0.09754215 0.014103799 0.11614765

basicblock_list.0.conv1.conv.bias f4 [2]
000000 11 c0 be 3c c6 fa 01 3e
       0.023284944 0.12693319

basicblock_list.0.bn2.weight f4 [2]
000000 9a d7 87 3f 68 14 75 3f
       1.0612671 0.9573426

basicblock_list.0.bn2.bias f4 [2]
000000 11 4d 7c 3d de b1 75 3d
       0.061596934 0.05998408

basicblock_list.0.bn2.running_mean f4 [2]
000000 f7 99 90 be 3f 12 56 3e
       -0.28242466 0.20905398

basicblock_list.0.bn2.running_var f4 [2]
000000 6e 72 38 3e 9f 0e b2 3c
       0.18012401 0.021735488

basicblock_list.0.conv2.conv.weight f4 [2, 2, 3]
000000 ab e7 16 3d e1 66 55 be aa 9f d3 be 3c 9f 8b 3e
       0.03684203 -0.20840026 -0.41332752 0.27269924
000010 22 e7 3d 3d 3f 43 a8 3e f1 31 2c 3c 03 8f 8d 3d
       0.046363004 0.32863805 0.010509954 0.06912043
000020 a1 ee 62 be 7c 4f e6 bd 4a 46 09 3d af d1 8e 3d
       -0.22161342 -0.11245629 0.0335143 0.06973588

basicblock_list.0.conv2.conv.bias f4 [2]
000000 33 e5 03 3e 50 8a 6a 3e
       0.12880401 0.22904325

basicblock_list.1.bn1.weight f4 [2]
000000 44 d4 7b 3f 13 86 81 3f
       0.98370767 1.0119041

basicblock_list.1.bn1.bias f4 [2]
000000 99 94 3d bd 50 63 19 3d
       -0.046284292 0.037448227

basicblock_list.1.bn1.running_mean f4 [2]
000000 99 a8 d7 3e 06 e0 b5 3e
       0.42120817 0.3552248

basicblock_list.1.bn1.running_var f4 [2]
000000 0b 6d 84 3f 6a ba e9 3e
       1.0345777 0.45650035

basicblock_list.1.conv1.conv.weight f4 [2, 2, 3]
000000 05 bd 53 be 03 1b 13 3e 1b eb 98 bd 55 c7 85 3e
       -0.20677574 0.14365773 -0.07466718 0.2612864
000010 9c bb 3e 3e 1f 86 77 3e a3 c3 cd bd 63 45 d7 be
       0.18626255 0.24172257 -0.1004708 -0.42045125
000020 67 eb 87 bd f2 18 9c be fe ec 70 be 46 67 f7 3c
       -0.06636696 -0.30487782 -0.23527905 0.030200612

basicblock_list.1.conv1.conv.bias f4 [2]
000000 c8 28 41 bd 21 f9 bb 3e
       -0.047158033 0.36713508

basicblock_list.1.bn2.weight f4 [2]
000000 99 93 75 3f 32 cf 80 3f
       0.9592834 1.0063231

basicblock_list.1.bn2.bias f4 [2]
000000 ca 08 f5 bc f3 3d 43 3d
       -0.029911418 0.0476665

basicblock_list.1.bn2.running_mean f4 [2]
000000 fd db 75 3d 21 6c 8f 3d
       0.06002425 0.07003046

basicblock_list.1.bn2.running_var f4 [2]
000000 27 82 ff 3e ec a3 22 3f
       0.49903986 0.63531375

basicblock_list.1.conv2.conv.weight f4 [2, 2, 3]
000000 e8 8c b2 bd 3a f6 99 be c6 88 14 3e 4c 7b cd 3d
       -0.08718282 -0.30070668 0.145053 0.10033283
000010 37 a1 c6 3e 92 19 0f 3e a5 ab a6 be 3b da a0 3e
       0.38794872 0.13974598 -0.3255283 0.31416497
000020 1d 2a 7d 3e 21 16 9d 3d cc 20 af be a2 9a 92 3e
       0.24723096 0.076702364 -0.3420471 0.286336

basicblock_list.1.conv2.conv.bias f4 [2]
000000 34 f5 7c 3e 0b 2f fa bc
       0.24702913 -0.03054001

basicblock_list.2.bn1.weight f4 [2]
000000 c9 53 80 3f 3a 1c 7b 3f
       1.0025569 0.98089945

basicblock_list.2.bn1.bias f4 [2]
000000 c1 15 5f bd f8 bd 6e 3d
       -0.054464106 0.058286637

basicblock_list.2.bn1.running_mean f4 [2]
000000 75 c0 74 3f 31 14 ec 3e
       0.95606166 0.46109155

basicblock_list.2.bn1.running_var f4 [2]
000000 c4 42 9f 3f 2e bf a1 3f
       1.244225 1.2636468

basicblock_list.2.conv1.conv.weight f4 [2, 2, 3]
000000 42 86 59 be 16 bc 8d be 64 35 15 be 8f ab a4 bd
       -0.21242622 -0.2768256 -0.14571148 -0.08040535
000010 5f 77 9e be fc 80 1b be 19 ee 6b be 18 50 bd be
       -0.30950448 -0.15185922 -0.23040046 -0.3697517
000020 35 06 e6 be cf b9 95 3e 50 a0 c0 be bb 8b a3 be
       -0.4492661 0.29243323 -0.3762231 -0.31942543

basicblock_list.2.conv1.conv.bias f4 [2]
000000 cc 7b d3 3c 62 da 59 be
       0.025815867 -0.21274713

basicblock_list.2.bn2.weight f4 [2]
000000 bc d1 81 3f 9a 19 76 3f
       1.0142131 0.96132815

basicblock_list.2.bn2.bias f4 [2]
000000 11 92 46 3d 90 30 21 3d
       0.048479144 0.039352953

basicblock_list.2.bn2.running_mean f4 [2]
000000 05 cb 88 be 44 4d 19 bf
       -0.26717392 -0.59883523

basicblock_list.2.bn2.running_var f4 [2]
000000 c0 8a 1c 3f d0 fb ac 3f
       0.61149216 1.3514347

basicblock_list.2.conv2.conv.weight f4 [2, 2, 3]
000000 2a e7 9e 3d 15 06 ce 3e 35 94 9e 3e e8 6c ab 3e
       0.07758935 0.40239015 0.30972448 0.33481526
000010 b3 73 f6 bd 60 dc a6 3e b1 bf ae bd 6e 3c 36 be
       -0.120337866 0.32590008 -0.08532656 -0.1779649
000020 6a 9d 3e 3b ef 65 80 3e 54 be 9a 3d dc df cc bd
       0.0029085525 0.2507777 0.075558335 -0.10003635

basicblock_list.2.conv2.conv.bias f4 [2]
000000 e2 2a ac 3e 07 76 9b be
       0.33626467 -0.30363485

final_bn.weight f4 [2]
000000 36 da 85 3f cd 9e 80 3f
       1.0457218 1.0048462

final_bn.bias f4 [2]
000000 d8 ae 70 3d ed d2 52 bd
       0.058760494 -0.051470686

final_bn.running_mean f4 [2]
000000 fb ba d1 3f 5c 01 14 3e
       1.6385187 0.14453644

final_bn.running_var f4 [2]
000000 1d ab 95 3f 6b 55 a3 3f
       1.1692845 1.2760442

dense.weight f4 [1, 2]
000000 93 4d 1c bf 9e da 68 3d
       -0.6105587 0.056849115

exp_avg f4 [2, 1, 3]
000000 81 02 06 3d d9 94 19 3d e0 3a 47 3e 32 05 9d be
       0.03271723 0.037495468 0.19456053 -0.30668026
000010 f6 e8 51 be 5c 33 61 be
       -0.20499024 -0.21992248

exp_avg_sq f4 [2, 1, 3]
000000 e6 2b 4e 3c de 29 84 3c 44 44 c9 3e 92 56 c5 3f
       0.012583708 0.016133245 0.39309895 1.5417044
000010 9d b7 20 3f ca d1 92 3f
       0.6278017 1.1470273

exp_avg f4 [2]
000000 cb c7 1e 38 e9 13 70 36
       3.7856207e-05 3.5774376e-06

exp_avg_sq f4 [2]
000000 66 e4 d8 33 2f 9f 88 2f
       1.0099829e-07 2.4851363e-10

exp_avg f4 [2]
000000 b6 48 73 be 11 70 24 3e
       -0.23758206 0.16058375

exp_avg_sq f4 [2]
000000 31 09 1b 3f 7e 5e 60 3e
       0.605609 0.21911046

exp_avg f4 [2]
000000 52 19 e8 be 69 72 98 3b
       -0.45331818 0.0046523106

exp_avg_sq f4 [2]
000000 0c 7e d6 3f 32 9e 23 3c
       1.6757216 0.009986447

exp_avg f4 [2, 2, 3]
000000 c5 33 96 3d 97 41 96 3d 51 65 a8 3d 5c db 17 3e
       0.07334093 0.07336729 0.082224496 0.14829773
000010 7c 52 16 bd fb 6d 5c bd 45 5e dd be 94 f7 cc be
       -0.036699757 -0.053815823 -0.43235984 -0.40032637
000020 bf 6c e7 be 1a 6f f8 3f ce 83 f3 3f 96 79 09 40
       -0.45200154 1.9408906 1.9024599 2.148046

exp_avg_sq f4 [2, 2, 3]
000000 f8 af 39 3c 52 73 33 3c 62 ea 51 3c 96 5b 88 3d
       0.011333458 0.0109527875 0.012812229 0.06658094
000010 48 d1 cd 3b 5d a9 12 3c 37 16 75 40 0f 16 56 40
       0.006281052 0.008951512 3.829481 3.3450963
000020 ac 70 72 40 bc b4 a5 41 b9 e1 b5 41 5f 36 f6 41
       3.788127 20.71325 22.735216 30.776548

exp_avg f4 [2]
000000 fc 85 f5 34 52 da 0e b9
       4.5732293e-07 -0.00013623506

exp_avg_sq f4 [2]
000000 91 88 d2 2d 99 72 cc 34
       2.3934884e-11 3.8081342e-07

exp_avg f4 [2]
000000 36 d5 55 be 49 25 6c 3e
       -0.20882115 0.23061098

exp_avg_sq f4 [2]
000000 a3 cc 76 3d 74 9c e3 3d
       0.06025375 0.111138254

exp_avg f4 [2]
000000 61 28 c5 be 96 0f 02 bf
       -0.3850737 -0.5080503

exp_avg_sq f4 [2]
000000 0f 75 6a 3e d7 4d fd 3e
       0.22896217 0.4947345

exp_avg f4 [2, 2, 3]
000000 73 ee 9f 3e 6f 4d 05 3f 28 c9 ad 3e e7 3e 4c 3e
       0.3123661 0.5207128 0.33942533 0.1994587
000010 b6 5b 31 3d 4c 73 d8 3e ef ee 83 bd a4 05 da bd
       0.043300353 0.42275465 -0.06442057 -0.10645607
000020 50 4d 31 39 6b aa 13 3d 6d 2c d1 bc a8 9c d4 ba
       0.00016908837 0.036051195 -0.02553388 -0.0016221004

exp_avg_sq f4 [2, 2, 3]
000000 00 0a 6a 3e 7e 16 d3 3e 49 d6 23 3e 23 ca 39 3e
       0.22855377 0.41228098 0.15999712 0.18143515
000010 11 ab 94 3d e3 e5 db 3e e1 6d 39 3c db 0f b2 3c
       0.07259191 0.42948827 0.011317701 0.021736076
000020 30 8f 1e 3b 8d 31 f3 3b cf 40 84 3c b9 28 73 3c
       0.0024194233 0.0074216784 0.016144184 0.014841252

exp_avg f4 [2]
000000 2a a6 bd b9 9e 4d 48 35
       -0.0003617269 7.4618754e-07

exp_avg_sq f4 [2]
000000 2f 4e 05 35 a8 f7 7a 2e
       4.9660133e-07 5.7063382e-11

exp_avg f4 [2]
000000 a3 b0 8c ba d4 d7 59 3b
       -0.0010733794 0.0033240216

exp_avg_sq f4 [2]
000000 67 50 a3 39 fc cb 8f 39
       0.00031149687 0.00027427066

exp_avg f4 [2]
000000 7e cd 2a 3d 4e 8d 25 bc
       0.04169988 -0.01010449

exp_avg_sq f4 [2]
000000 2f f8 90 3b 19 57 a5 3a
       0.004424117 0.0012614458

exp_avg f4 [2, 2, 3]
000000 84 bd 19 3d f9 f2 47 bd 11 77 69 bc a5 66 6e 3d
       0.03753425 -0.0488157 -0.014249579 0.05820336
000010 22 df 71 3c bb 20 90 bc db 77 eb bd 4b 52 c0 3c
       0.014762672 -0.017593732 -0.1149747 0.02347674
000020 4e 49 0b be 90 a1 c8 3c 12 c9 f2 3c 5a a2 fb 3d
       -0.13602182 0.024491102 0.029636893 0.122868255

exp_avg_sq f4 [2, 2, 3]
000000 f8 e8 2d 3c 22 f1 7d 3c 17 11 d7 3b b2 3e 35 3c
       0.010614626 0.015499385 0.0065633166 0.011062311
000010 8e a9 92 3b 1b 06 d7 3b 30 94 cc 3c 6b 8a ca 3a
       0.004475779 0.006562007 0.024973005 0.0015452629
000020 f8 1a 06 3d 3b 18 ff 3a a1 f2 dc 3a 7b eb 63 3d
       0.032740563 0.0019462177 0.0016856977 0.055644494

exp_avg f4 [2]
000000 58 e1 5a b5 45 f7 85 b6
       -8.1539247e-07 -3.992495e-06

exp_avg_sq f4 [2]
000000 27 18 4a 2d ec 00 93 2f
       1.14877335e-11 2.67398e-10

exp_avg f4 [2]
000000 0a ae 03 3e 31 e3 08 bb
       0.1285936 -0.002088737

exp_avg_sq f4 [2]
000000 f0 d3 eb 3d a7 5a 07 3b
       0.11515033 0.0020653398

exp_avg f4 [2]
000000 a2 e0 ef 3c c7 37 d2 bd
       0.029281918 -0.10264545

exp_avg_sq f4 [2]
000000 f8 bc d8 3b 74 7a ee 3c
       0.0066143237 0.029111125

exp_avg f4 [2, 2, 3]
000000 24 c1 38 3d 18 40 15 be 42 07 08 3f 84 2e 91 3d
       0.04510607 -0.14575231 0.53136075 0.0708895
000010 7c 3d 71 bd 35 c3 46 3d fa 14 34 bd 0c 85 9e bc
       -0.058896527 0.048526008 -0.043965317 -0.019350551
000020 00 b6 35 bc 39 33 a1 3b e0 76 46 ba 7c 1c 97 3b
       -0.011090755 0.0049194363 -0.00075708143 0.00461155

exp_avg_sq f4 [2, 2, 3]
000000 05 24 7a 3e d8 75 c4 3e 9a dc c0 3f 1e c4 55 3c
       0.24427803 0.38371158 1.5067322 0.013047246
000010 f3 d5 27 3c 09 2d 3b 3c 07 19 89 3c 03 c9 0b 3b
       0.010243881 0.011424311 0.016735567 0.002132953
000020 8b 07 70 3a d0 ee c5 39 5a 42 47 39 17 95 b0 39
       0.00091563974 0.00037752697 0.00019002837 0.00033680417

exp_avg f4 [2]
000000 ce 32 76 33 94 89 25 b3
       5.7322545e-08 -3.8542183e-08

exp_avg_sq f4 [2]
000000 74 37 79 2d db 4d 01 2a
       1.4166324e-11 1.1484513e-13

exp_avg f4 [2]
000000 ea bf 38 3d 68 2d c4 bc
       0.0451049 -0.023947433

exp_avg_sq f4 [2]
000000 6d 30 8f 3b 08 89 0c 3b
       0.0043697865 0.0021443982

exp_avg f4 [2]
000000 98 7d a2 3e 90 2c 9d bd
       0.31736445 -0.07674515

exp_avg_sq f4 [2]
000000 47 b1 8a 3e 05 d3 94 3c
       0.27088377 0.018167028

exp_avg f4 [2, 2, 3]
000000 26 54 7e bd 3c 4b fe bc d5 7e e9 bd 05 fa 99 3d
       -0.06209197 -0.031041734 -0.114011444 0.075183906
000010 c6 69 93 3d a9 34 88 3d 2c d9 70 bb 51 12 44 3c
       0.07197909 0.06650669 -0.0036750538 0.011967258
000020 33 bd 7a 3c 82 f9 30 3e 53 63 52 3d 43 2e 85 3d
       0.015303898 0.1728268 0.051364254 0.06502964

exp_avg_sq f4 [2, 2, 3]
000000 78 f8 16 3c c0 d5 2d 3b bc 21 84 3c 41 23 29 3c
       0.009214513 0.002652511 0.016129367 0.010323347
000010 36 4a 27 3c 03 84 15 3c 56 54 1c 3b 23 a4 13 3b
       0.010210564 0.009125712 0.002385398 0.0022528253
000020 e2 30 56 3b e3 a2 2c 3e 3e ac 49 3c bf e4 7c 3c
       0.0032682945 0.16859011 0.012309132 0.015435397

exp_avg f4 [2]
000000 0b 98 7a 37 58 8a 28 b6
       1.49365615e-05 -2.5114477e-06

exp_avg_sq f4 [2]
000000 b0 38 64 30 31 e2 1e 2f
       8.3026475e-10 1.4450376e-10

exp_avg f4 [2]
000000 4f d6 49 3c 92 f6 71 3d
       0.012319162 0.05907304

exp_avg_sq f4 [2]
000000 64 dd 90 3b 26 5e a4 3c
       0.004420923 0.020064425

exp_avg f4 [2]
000000 87 4f 30 be 76 f9 01 bd
       -0.17217837 -0.031732045

exp_avg_sq f4 [2]
000000 fa ab a9 3d 6f 0b 13 3d
       0.08284755 0.035899576

exp_avg f4 [2, 2, 3]
000000 4a b7 d5 3d 57 e1 bc bc b7 94 32 3c 22 52 eb 3d
       0.1043535 -0.02305667 0.010899714 0.11490275
000010 5d 6d 35 3e fa 7c e1 3d b6 48 7e bb 18 cd 15 bc
       0.177175 0.110101655 -0.0038800663 -0.009143136
000020 d3 e7 81 ba 5a 4b 0d 3c d0 ff cf 39 48 ff 43 bb
       -0.0009911008 0.008623922 0.00039672712 -0.0029906798

exp_avg_sq f4 [2, 2, 3]
000000 2e 71 f0 3c 85 f1 16 3c 65 06 08 3c 5d 57 76 3d
       0.029350843 0.009212856 0.008302306 0.06014191
000010 61 0c 28 3d 4e b7 3d 3d dd 2c a3 38 ab 50 7a 39
       0.04102743 0.04631739 7.780802e-05 0.00023871909
000020 61 6a a0 37 8b 52 3d 39 82 3e 09 38 39 eb be 38
       1.9123023e-05 0.00018055194 3.272156e-05 9.10372e-05

exp_avg f4 [2]
000000 d7 c1 95 b5 17 12 c8 b2
       -1.115778e-06 -2.329129e-08

exp_avg_sq f4 [2]
000000 00 ce d4 2d e6 64 10 28
       2.4193092e-11 8.015485e-15

exp_avg f4 [2]
000000 e3 fc af bf 1d 13 04 3d
       -1.374905 0.03224479

exp_avg_sq f4 [2]
000000 cc b6 fd 40 12 a1 03 3d
       7.928564 0.03213603

exp_avg f4 [2]
000000 f5 c6 55 c0 42 45 bc 3d
       -3.3402684 0.091928974

exp_avg_sq f4 [2]
000000 bf 4a c7 41 41 fc ef 3c
       24.911497 0.029295089

exp_avg f4 [1, 2]
000000 61 45 2b 40 4f 12 f9 3e
       2.6761096 0.4864678

exp_avg_sq f4 [1, 2]
000000 5e 23 dd 41 8d 9e 10 41
       27.64227 9.038709
