Solvation_1/Run_results/ResNet/Class_BAT_Res1/best/best_val_model.pt (torch, 36627 bytes, 105 tensors)

first_block_conv.conv.weight f4 [2, 1, 3]
000000 12 91 d5 be 3d e5 2a 3e 9a 30 53 3e 9c 62 d0 be
       -0.41712242 0.1668901 0.20624009 -0.40700233
000010 5e d0 ff 3c 77 5d f5 3d
       0.031227287 0.11980718

first_block_conv.conv.bias f4 [2]
000000 b9 28 0d 3e 16 ac a7 3e
       0.13785066 0.3274848

first_block_bn.weight f4 [2]
000000 18 9f 2c 3f 17 7a 90 3e
       0.6743026 0.28218147

first_block_bn.bias f4 [2]
000000 00 bb a6 be 7a d5 a0 be
       -0.32564545 -0.3141287

first_block_bn.running_mean f4 [2]
000000 f3 63 08 3e 0f d2 99 3e
       0.13319378 0.30043074

first_block_bn.running_var f4 [2]
000000 85 23 a3 3d e9 23 66 3e
       0.07965759 0.22474636

basicblock_list.0.bn1.weight f4 [2]
000000 00 00 80 3f 00 00 80 3f
       1.0 1.0

basicblock_list.0.bn1.bias f4 [2]
000000 00 00 00 00 00 00 00 00
       0.0 0.0

basicblock_list.0.bn1.running_mean f4 [2]
000000 00 00 00 00 00 00 00 00
       0.0 0.0

basicblock_list.0.bn1.running_var f4 [2]
000000 00 00 80 3f 00 00 80 3f
       1.0 1.0

basicblock_list.0.conv1.conv.weight f4 [2, 2, 3]
000000 0f 1e 96 bd 53 28 26 3c a3 4c 3a bd 25 4a c1 3d
       -0.07329952 0.01014145 -0.045483243 0.0943797
000010 18 83 11 3e 8e 72 91 3e 08 7c fd 3c 3d 76 23 3d
       0.14210165 0.2840771 0.030942932 0.039907683
000020 50 6a ef bd 83 de 11 bf 6a 86 cb bd 67 4d 02 3d
       -0.116901994 -0.5698015 -0.09937747 0.031812098

basicblock_list.0.conv1.conv.bias f4 [2]
000000 cf 18 56 be 37 57 78 bd
       -0.20907901 -0.06063005

basicblock_list.0.bn2.weight f4 [2]
000000 27 6c 76 3f 8b 2d fe 3f
       0.9625878 1.9857649

basicblock_list.0.bn2.bias f4 [2]
000000 1f 4e 06 be b5 95 40 be
       -0.13115738 -0.18807109

basicblock_list.0.bn2.running_mean f4 [2]
000000 cc d6 56 be bc 86 81 bd
       -0.20980376 -0.06324527

basicblock_list.0.bn2.running_var f4 [2]
000000 55 65 0b 3a 16 21 c3 3a
       0.0005317529 0.001488718

basicblock_list.0.conv2.conv.weight f4 [2, 2, 3]
000000 04 fd 6e be ac 4b 19 be 7e ca da bd db 03 34 3f
       -0.23338705 -0.14970273 -0.106831536 0.7031838
000010 fe 4a e3 3e b3 91 cd 3e 18 82 a7 bd 2f 8e 9b bd
       0.44393152 0.40150222 -0.0817911 -0.07595479
000020 3c 3d 12 be 23 7f 7f 3f df f6 84 3d e7 68 86 3f
       -0.14281172 0.9980337 0.064923994 1.0500764

basicblock_list.0.conv2.conv.bias f4 [2]
000000 19 b7 1c be 47 64 91 be
       -0.15304221 -0.28396818

basicblock_list.1.bn1.weight f4 [2]
000000 0a 08 75 3f e7 ce 81 3f
       0.9571539 1.0141267

basicblock_list.1.bn1.bias f4 [2]
000000 3f bb 13 bd 9b 43 9e be
       -0.036067244 -0.30910954

basicblock_list.1.bn1.running_mean f4 [2]
000000 51 17 d2 bd 76 4b 6b be
       -0.102583535 -0.22978005

basicblock_list.1.bn1.running_var f4 [2]
000000 e5 68 19 3f 03 b8 57 3f
       0.5992568 0.84265155

basicblock_list.1.conv1.conv.weight f4 [2, 2, 3]
000000 e5 91 c8 be ff d6 80 be 13 eb 73 bd c0 6a 42 be
       -0.3917381 -0.2516403 -0.059550356 -0.18986034
000010 c2 74 a8 bd 46 6e c9 3d b5 47 62 bd 24 ea 65 be
       -0.08225395 0.09835486 -0.055244166 -0.22452599
000020 5a 93 38 3e 36 40 c5 3e 80 52 ee 3d 8b b8 a1 be
       0.1802496 0.38525552 0.116368294 -0.31586108

basicblock_list.1.conv1.conv.bias f4 [2]
000000 84 a5 bc be 75 48 55 be
       -0.36845028 -0.20828421

basicblock_list.1.bn2.weight f4 [2]
000000 fe 33 83 3f cf df 43 3f
       1.0250242 0.7651338

basicblock_list.1.bn2.bias f4 [2]
000000 74 8c a4 bd 30 0e e6 bb
       -0.08034602 -0.0070207343

basicblock_list.1.bn2.running_mean f4 [2]
000000 23 25 da be 6f 73 51 be
       -0.42606458 -0.2045419

basicblock_list.1.bn2.running_var f4 [2]
000000 20 81 43 3f 3a 1f cf 3e
       0.76368904 0.4045351

basicblock_list.1.conv2.conv.weight f4 [2, 2, 3]
000000 70 0a d1 3d 27 fe 87 3e 4a d1 d8 3e 87 7f 0a 3e
       0.10207069 0.2656109 0.42347175 0.1352521
000010 51 83 fa 3b 5b 25 ac bd 96 0d af 3b bf 7f 6d 3d
       0.0076450487 -0.084055625 0.0053421957 0.057983156
000020 f1 23 f8 3e 24 86 43 3e a5 61 4a 3d f0 e9 cb bd
       0.4846492 0.1909414 0.049409527 -0.099567294

basicblock_list.1.conv2.conv.bias f4 [2]
000000 2f 7e 05 be 7e 59 49 be
       -0.13036416 -0.19663045

basicblock_list.2.bn1.weight f4 [2]
000000 9f fc 8e 3f 9c 1f 5a 3f
       1.1170844 0.8520448

basicblock_list.2.bn1.bias f4 [2]
000000 d6 6c 15 be f9 9d 04 be
       -0.14592299 -0.12950887

basicblock_list.2.bn1.running_mean f4 [2]
000000 a8 f0 4a be 10 46 c0 be
       -0.19818366 -0.37553453

basicblock_list.2.bn1.running_var f4 [2]
000000 a5 bd 62 3f 74 0a cd 3f
       0.88570625 1.6018815

basicblock_list.2.conv1.conv.weight f4 [2, 2, 3]
000000 be ec b5 3d d0 17 53 be 5a 2a b1 be 47 23 dd 3d
       0.088830456 -0.20614552 -0.34602624 0.10797744
000010 55 0d 93 bd 2d 55 da 3d 99 8b 85 3d d4 72 b2 be
       -0.07180277 0.10660777 0.06520767 -0.34853232
000020 fc 03 f1 3d 5d 0a d9 bc 49 46 94 be d0 21 48 bc
       0.11768338 -0.0264942 -0.28959873 -0.012215093

basicblock_list.2.conv1.conv.bias f4 [2]
000000 c2 01 c2 3e 08 df 9d 3e
       0.37891966 0.30834222

basicblock_list.2.bn2.weight f4 [2]
000000 42 ad a2 3f 3d dd a2 3f
       1.2709124 1.2723767

basicblock_list.2.bn2.bias f4 [2]
000000 67 ba 93 bd 0e 8b a0 bd
       -0.07213288 -0.078390226

basicblock_list.2.bn2.running_mean f4 [2]
000000 e0 5c b0 3e c7 c0 8a 3e
       0.34445858 0.27100202

basicblock_list.2.bn2.running_var f4 [2]
000000 a9 16 d8 3e ae 4b f4 3e
       0.42204788 0.4771399

basicblock_list.2.conv2.conv.weight f4 [2, 2, 3]
000000 6e 3f ad 3e 2a 9f 84 3e ce 27 3a be b1 52 d8 bd
       0.33837456 0.25902683 -0.18179247 -0.10562647
000010 d8 82 b6 3e 07 30 9c 3e d9 86 00 3f 58 ed cf 3e
       0.356467 0.30505392 0.5020576 0.40610766
000020 71 55 ec 3d 57 4b 51 3e c0 b0 21 3f de df 12 3f
       0.11539734 0.20438896 0.63160324 0.57372844

basicblock_list.2.conv2.conv.bias f4 [2]
000000 f7 7b 0c bd bc bd 8b bc
       -0.03429791 -0.017058246

final_bn.weight f4 [2]
000000 6e d2 0d 40 da 5d 1d 40
       2.2159686 2.4588532

final_bn.bias f4 [2]
000000 e5 0d c9 3c 5c bb a1 3d
       0.024542758 0.07897064

final_bn.running_mean f4 [2]
000000 94 ab 57 be cb 05 ad be
       -0.21061546 -0.33793482

final_bn.running_var f4 [2]
000000 8b 5c 83 3f 25 71 0f 40
       1.0262617 2.2412808

dense.weight f4 [1, 2]
000000 d9 bc a2 bf 48 39 d8 bf
       -1.2713882 -1.6892481

exp_avg f4 [2, 1, 3]
000000 fe ab 0b 40 c4 e5 88 be ea 39 94 40 0a cd 2b 3f
       2.1823726 -0.26737797 4.6320696 0.6710974
000010 12 d3 03 41 20 7c 08 3e
       8.239031 0.133286

exp_avg_sq f4 [2, 1, 3]
000000 21 f9 19 44 45 33 3b 44 fe 09 60 44 51 3f 8a 43
       615.89264 748.8011 896.1561 276.49466
000010 a8 49 09 45 25 26 1c 45
       2196.6035 2498.384

exp_avg f4 [2]
000000 b0 e4 0d b8 4a db f1 38
       -3.383e-05 0.00011532621

exp_avg_sq f4 [2]
000000 f0 bc ba 36 5d bc 32 35
       5.565227e-06 6.658427e-07

exp_avg f4 [2]
000000 5a 93 d0 3e 80 7c 1d 40
       0.4073742 2.4607239

exp_avg_sq f4 [2]
000000 40 4b 8f 42 3f 8e e1 43
       71.64697 451.1113

exp_avg f4 [2]
000000 ac 0b 0a 3f 75 58 15 40
       0.5392406 2.333524

exp_avg_sq f4 [2]
000000 68 0a 0e 43 2e 3a 28 43
       142.04065 168.22726

exp_avg f4 [2, 2, 3]
000000 13 c5 f2 3f 0a 4e 6b 40 98 96 1f be 8d a6 4e 3e
       1.8966392 3.6766381 -0.1558479 0.20180722
000010 da 70 c1 3e 7e cb a3 3d 8d e1 67 40 b0 bf 9f 3f
       0.3778141 0.079977974 3.6231415 1.2480373
000020 bc 54 28 3e 2b be 27 3e e2 8f 09 3f 94 72 10 3d
       0.16438574 0.16381137 0.5373517 0.03526552

exp_avg_sq f4 [2, 2, 3]
000000 b0 d0 ea 42 02 de b7 43 d5 8c 27 44 da ec 9d 40
       117.40759 367.73444 670.2005 4.9351625
000010 f8 6c 1f 41 d7 2c 6f 41 fa 63 27 45 fa 95 98 45
       9.964104 14.948447 2678.2485 4882.747
000020 be 80 35 43 d2 51 66 41 36 3d 9a 42 e3 82 94 40
       181.5029 14.394976 77.11955 4.6409774

exp_avg f4 [2]
000000 d0 3f 4a b7 95 65 b6 3b
       -1.2054996e-05 0.0055663087

exp_avg_sq f4 [2]
000000 16 a9 0b 35 6d eb ce 3a
       5.202759e-07 0.0015786715

exp_avg f4 [2]
000000 7c 9f c1 3d cc b9 8c be
       0.09454247 -0.27485502

exp_avg_sq f4 [2]
000000 fd b7 a8 3f 99 da f7 3f
       1.3181149 1.9363586

exp_avg f4 [2]
000000 24 f2 90 bb b8 9b d0 bf
       -0.0044233967 -1.6297522

exp_avg_sq f4 [2]
000000 de 8d c2 3d bb c7 0b 42
       0.09499715 34.94505

exp_avg f4 [2, 2, 3]
000000 15 f7 3a be 4a 64 59 be 92 0e 8d 3d a0 4f 8e bb
       -0.18258317 -0.21229663 0.06887545 -0.004342988
000010 07 93 a3 be 56 cf 1a bc 95 06 51 be 0e 6d 82 bd
       -0.3194811 -0.009448847 -0.20412667 -0.06368457
000020 b8 ab ab bc 0c 92 ca bc ba 5a de 3d 2f 52 8e bd
       -0.020955905 -0.024727844 0.108571485 -0.06949269

exp_avg_sq f4 [2, 2, 3]
000000 1e 04 22 40 db 40 92 40 4f d3 40 40 90 a9 b4 3f
       2.5315013 4.570417 3.0128973 1.4114246
000010 33 2d ba 3f fa 84 5a 3f 7f d4 8f 3f 36 d5 b8 3f
       1.4545044 0.85359156 1.1236724 1.4440067
000020 9c 14 1e 3f 29 50 c7 3e 4f 3c a2 3e 55 47 05 3f
       0.617502 0.38928345 0.31686637 0.5206197

exp_avg f4 [2]
000000 68 e1 2d ba 75 be 95 3a
       -0.00066330144 0.0011424558

exp_avg_sq f4 [2]
000000 a8 0b d7 39 03 90 3f 3a
       0.0004101668 0.0007307531

exp_avg f4 [2]
000000 8d 50 e7 bd 12 e7 de 3d
       -0.11294661 0.10883917

exp_avg_sq f4 [2]
000000 f9 93 1e 3e d1 1b 1a 3e
       0.15486135 0.15049674

exp_avg f4 [2]
000000 41 a1 a8 bc 2a 0a 20 3c
       -0.020584704 0.009768048

exp_avg_sq f4 [2]
000000 91 b7 ee 3c e2 6c b5 3c
       0.029140266 0.022146646

exp_avg f4 [2, 2, 3]
000000 fc 98 01 3d 0d f5 88 bb 08 e5 87 3e 76 36 ac 3c
       0.031640038 -0.004179603 0.26541924 0.021022063
000010 e8 42 cf bc 45 32 97 3e 12 7f 4c 3e 75 9d 2f 3e
       -0.025300458 0.2953054 0.19970348 0.17149909
000020 5c 63 2e be 27 82 11 3e b3 65 b5 3e 62 95 4c 3d
       -0.1703009 0.14209805 0.35429153 0.04994715

exp_avg_sq f4 [2, 2, 3]
000000 eb 67 0b 3e 63 fb 1b 3e 68 8d f4 3f 48 0d be 3d
       0.1361386 0.15232615 1.9105654 0.09279877
000010 82 e4 16 3e 36 a3 48 41 b4 84 03 3f 37 47 f8 3e
       0.14735606 12.539846 0.51374364 0.48491833
000020 46 c4 9f 3f 69 3f 33 3f 63 d5 f0 3f f6 3f 04 3f
       1.2481773 0.7001863 1.881512 0.51660097

exp_avg f4 [2]
000000 92 12 1e b8 2d 18 bb b6
       -3.768743e-05 -5.5758487e-06

exp_avg_sq f4 [2]
000000 83 19 33 32 62 57 e1 2f
       1.0424972e-08 4.098935e-10

exp_avg f4 [2]
000000 84 45 6b 3b d2 64 ec bb
       0.003589959 -0.007214167

exp_avg_sq f4 [2]
000000 08 c8 a2 3d 25 01 a5 3e
       0.07948309 0.32227436

exp_avg f4 [2]
000000 97 39 12 3e 5f dd 15 bc
       0.14279781 -0.009147017

exp_avg_sq f4 [2]
000000 68 ae 55 40 71 b9 73 3d
       3.33877 0.059503023

exp_avg f4 [2, 2, 3]
000000 8a 8c 72 3d d4 e2 8a bc 1a 8c 00 3d 92 ec 47 3e
       0.05921606 -0.016953863 0.03138361 0.19523838
000010 f9 ec 25 bf df ea 83 3e 57 6b a0 3c b8 43 2c bd
       -0.64814717 0.2576513 0.019582434 -0.04205677
000020 bd 77 2b bd 2c ce dc bc dc e3 9a be 63 3a 18 be
       -0.04186224 -0.02695378 -0.30251968 -0.14866023

exp_avg_sq f4 [2, 2, 3]
000000 a3 93 db 3d 17 26 8a 3d d9 12 c7 3d ae 3d ab 40
       0.10721519 0.06745546 0.09720392 5.3512793
000010 fb 24 d4 40 5f e5 50 40 9a 87 2c 3d 3e 14 25 3d
       6.629514 3.2639997 0.042121507 0.040302508
000020 c1 90 30 3d 74 f4 e6 3f 27 52 01 40 64 cd aa 3f
       0.043106798 1.8043351 2.0206392 1.334393

exp_avg f4 [2]
000000 2d 21 d6 b5 ea a8 d7 b5
       -1.5953898e-06 -1.6067909e-06

exp_avg_sq f4 [2]
000000 29 6a 6f 30 46 18 52 30
       8.7098556e-10 7.643205e-10

exp_avg f4 [2]
000000 58 e9 3b bc 6c 37 8b 3c
       -0.011469208 0.0169942

exp_avg_sq f4 [2]
000000 7f 91 0e 3f 27 4c 68 3f
       0.5569076 0.907412

exp_avg f4 [2]
000000 34 7c f5 3c 0b 00 ab bc
       0.029966451 -0.020874044

exp_avg_sq f4 [2]
000000 12 38 92 3e 08 c9 ad 3d
       0.28558403 0.08485609

exp_avg f4 [2, 2, 3]
000000 05 f5 ab bf 00 64 e1 38 02 c3 10 be 6b 6a ed 3e
       -1.3434149 0.000107474625 -0.1413689 0.46370253
000010 96 79 49 bf 2d dc ad be 3e c5 92 3f aa 8f aa 3e
       -0.7870115 -0.33957043 1.1466444 0.33312732
000020 e6 a4 4d 3f de 94 af 3f 88 fb b5 3d 3f 31 38 bf
       0.8032974 1.3717306 0.088858664 -0.71950144

exp_avg_sq f4 [2, 2, 3]
000000 72 0a 1f 42 b8 15 1e 40 55 c6 10 40 71 03 92 41
       39.7602 2.4700756 2.2621052 18.25168
000010 9e aa 0e 41 77 c7 61 41 e3 72 44 42 0e 13 9b 40
       8.916655 14.111197 49.112194 4.846076
000020 d4 d0 83 42 09 a8 52 41 2c 51 19 40 d8 8b 78 41
       65.90787 13.166024 2.3955793 15.534142

exp_avg f4 [2]
000000 5b 75 21 b8 f6 c8 ae 37
       -3.8494687e-05 2.0835996e-05

exp_avg_sq f4 [2]
000000 9d 1e 4b 33 6a cf 8c 33
       4.7292463e-08 6.5569864e-08

exp_avg f4 [2]
000000 5c 4f 81 3b 64 db 57 3d
       0.003946228 0.05269946

exp_avg_sq f4 [2]
000000 23 44 90 3e bd 78 2c 3f
       0.28176984 0.6737173

exp_avg f4 [2]
000000 e4 eb 00 3e 4c 34 ea be
       0.12589985 -0.45743024

exp_avg_sq f4 [2]
000000 0a c1 16 40 02 89 9d 40
       2.3555322 4.9229746

exp_avg f4 [2, 2, 3]
000000 6e d3 d1 bc b1 db 0e 3d bc 3a 21 3d d0 a2 c8 3d
       -0.025613513 0.034877483 0.039362654 0.09796679
000010 f0 ed da 3c 75 f8 9f 3d d6 10 06 bd 09 a6 db 3c
       0.026724786 0.07811061 -0.0327309 0.02681257
000020 f2 ab 92 3d 45 c0 38 3d 25 52 03 3d be 09 b4 3d
       0.07161702 0.045105238 0.03206076 0.08790921

exp_avg_sq f4 [2, 2, 3]
000000 9c be ad 3e 41 80 96 3e 8c 51 cb 3e d3 93 82 3e
       0.33934486 0.29394725 0.39710653 0.25503406
000010 75 61 95 3e 6e 1c 99 3e 60 8b 66 3e 73 1e 71 3e
       0.29175916 0.29904503 0.22514105 0.23546772
000020 59 d4 4a 3e 22 4e b0 3e d7 ed 95 3e 94 fb 99 3e
       0.19807567 0.3443461 0.2928302 0.3007475

exp_avg f4 [2]
000000 c4 88 00 b6 6b 9b c3 35
       -1.9153094e-06 1.4573865e-06

exp_avg_sq f4 [2]
000000 ac 0a 0a 30 41 8d 22 30
       5.0219273e-10 5.913599e-10

exp_avg f4 [2]
000000 d7 00 af be a8 24 c2 be
       -0.34180328 -0.37918591

exp_avg_sq f4 [2]
000000 85 41 12 41 cb 91 7d 41
       9.140996 15.848094

exp_avg f4 [2]
000000 0a d0 09 3d ac 1a 6d bd
       0.033645667 -0.057886764

exp_avg_sq f4 [2]
000000 19 8c 24 40 2a f6 93 40
       2.571051 4.6237993

exp_avg f4 [1, 2]
000000 c8 58 18 3f 7e fd 0d 3f
       0.5951047 0.55464923

exp_avg_sq f4 [1, 2]
000000 44 b7 e0 41 dc 8a 0a 42
       28.089485 34.635605
