Solvation_1/Run_results/ResNet/BAT_Morgan_2_124_Res2/best/best_val_model.pt (torch, 36627 bytes, 105 tensors)

first_block_conv.conv.weight f4 [2, 1, 3]
-0.4444941 -0.105809435 0.15181366 0.38477322 0.0070748786 0.45282313
00000000: bb94 e3be 9eb2 d8bd 0a75 1b3e ff00 c53e
00000010: 62d4 e73b 6fd8 e73e

first_block_conv.conv.bias f4 [2]
0.4870966 -0.30108866
00000000: ba64 f93e 4b28 9abe

first_block_bn.weight f4 [2]
0.41895175 0.5556416
00000000: d880 d63e 873e 0e3f

first_block_bn.bias f4 [2]
-0.014078151 0.11490231
00000000: 0ca8 66bc e751 eb3d

first_block_bn.running_mean f4 [2]
0.46060365 -0.24495167
00000000: 3ed4 eb3e 9cd4 7abe

first_block_bn.running_var f4 [2]
0.11289441 0.41669977
00000000: 2f35 e73d ac59 d53e

basicblock_list.0.bn1.weight f4 [2]
1.0 1.0
00000000: 0000 803f 0000 803f

basicblock_list.0.bn1.bias f4 [2]
0.0 0.0
00000000: 0000 0000 0000 0000

basicblock_list.0.bn1.running_mean f4 [2]
0.0 0.0
00000000: 0000 0000 0000 0000

basicblock_list.0.bn1.running_var f4 [2]
1.0 1.0
00000000: 0000 803f 0000 803f

basicblock_list.0.conv1.conv.weight f4 [2, 2, 3]
0.0024660826 -0.01333832 -0.011604238 0.053145688 -0.22349995 0.111358866 -0.31212917 -0.43420675
0.057902306 -0.09718751 -0.18516777 -0.09742508
00000000: 009e 213b f888 5abc b41f 3ebc 4baf 593d
00000010: 2cdd 64be 1e10 e43d 65cf 9fbe 5950 debe
00000020: f82a 6d3d 3f0a c7bd 9f9c 3dbe cd86 c7bd

basicblock_list.0.conv1.conv.bias f4 [2]
0.05558579 -0.25883237
00000000: edad 633d ad85 84be

basicblock_list.0.bn2.weight f4 [2]
1.5512903 1.127899
00000000: ae90 c63f ff5e 903f

basicblock_list.0.bn2.bias f4 [2]
-0.06328338 -0.0481694
00000000: b79a 81bd 474d 45bd

basicblock_list.0.bn2.running_mean f4 [2]
0.041076366 -0.40378237
00000000: b13f 283d 90bc cebe

basicblock_list.0.bn2.running_var f4 [2]
0.002941601 0.03363158
00000000: e0c7 403b 45c1 093d

basicblock_list.0.conv2.conv.weight f4 [2, 2, 3]
0.60776263 0.67039204 0.7063819 -0.37691826 -0.1728281 -0.24007809 -0.0044888766 0.47979665
-0.035791915 -0.19146034 -0.19185454 -0.12051219
00000000: 5596 1b3f d09e 2b3f 72d5 343f 6efb c0be
00000010: d9f9 30be 08d7 75be 6d17 93bb e8a7 f53e
00000020: 8b9a 12bd 2e0e 44be 8475 44be 18cf f6bd

basicblock_list.0.conv2.conv.bias f4 [2]
-0.22127779 0.06371025
00000000: a596 62be 857a 823d

basicblock_list.1.bn1.weight f4 [2]
0.95786077 0.75782067
00000000: 5d36 753f 8900 423f

basicblock_list.1.bn1.bias f4 [2]
-0.0025304134 -1.2316731
00000000: 4bd5 25bb 77a7 9dbf

basicblock_list.1.bn1.running_mean f4 [2]
0.11010239 0.23885123
00000000: 5d7d e13d 6b95 743e

basicblock_list.1.bn1.running_var f4 [2]
1.5808779 0.4498373
00000000: 355a ca3f 1351 e63e

basicblock_list.1.conv1.conv.weight f4 [2, 2, 3]
-0.25380194 -0.2602905 -0.025389103 0.36433253 0.33190733 0.39281964 -0.012568781 -0.12707776
-0.1359349 0.18515095 0.1673601 0.19595714
00000000: 54f2 81be cc44 85be cffc cfbc cb89 ba3e
00000010: c2ef a93e a81f c93e 4aed 4dbc ac20 02be
00000020: 8532 0bbe 3698 3d3e 7260 2b3e fda8 483e

basicblock_list.1.conv1.conv.bias f4 [2]
-0.2765569 0.27799407
00000000: de98 8dbe 3d55 8e3e

basicblock_list.1.bn2.weight f4 [2]
1.0932156 1.1225876
00000000: 7dee 8b3f f3b0 8f3f

basicblock_list.1.bn2.bias f4 [2]
0.037297305 0.008538969
00000000: 0fc5 183d 08e7 0b3c

basicblock_list.1.bn2.running_mean f4 [2]
-0.33057332 0.25003073
00000000: e840 a9be 0704 803e

basicblock_list.1.bn2.running_var f4 [2]
0.35653418 0.09378979
00000000: a68b b63e dd14 c03d

basicblock_list.1.conv2.conv.weight f4 [2, 2, 3]
-0.12721793 -0.0339928 -0.16682409 -0.055010132 -0.1106645 -0.24803182 -0.45952904 -0.327286
-0.49605224 -0.42609382 -0.3156933 -0.5543482
00000000: 6b45 02be 093c 0bbd efd3 2abe 4e52 61bd
00000010: 12a4 e2bd 0efc 7dbe 6447 ebbe 0892 a7be
00000020: 8ffa fdbe f828 dabe 8da2 a1be c3e9 0dbf

basicblock_list.1.conv2.conv.bias f4 [2]
0.3871063 0.26812974
00000000: cc32 c63e 4d48 893e

basicblock_list.2.bn1.weight f4 [2]
1.055424 0.9510057
00000000: 2218 873f 1c75 733f

basicblock_list.2.bn1.bias f4 [2]
0.027720692 -0.13847317
00000000: 8116 e33c e9cb 0dbe

basicblock_list.2.bn1.running_mean f4 [2]
0.510779 0.17518622
00000000: 6ac2 023f 0464 333e

basicblock_list.2.bn1.running_var f4 [2]
2.0886908 2.4943714
00000000: 1cad 0540 c8a3 1f40

basicblock_list.2.conv1.conv.weight f4 [2, 2, 3]
0.20341466 -0.11208111 -0.20627259 0.34330934 -0.1016643 -0.001128859 0.22473969 0.005584427
0.27955353 0.24861881 0.030659897 0.4060342
00000000: ef4b 503e c88a e5bd 1f39 53be 3ec6 af3e
00000010: 5f35 d0bd 39f6 93ba 2922 663e 92fd b63b
00000020: a421 8f3e ee95 7e3e 772a fb3c b7e3 cf3e

basicblock_list.2.conv1.conv.bias f4 [2]
0.24270594 0.107727714
00000000: e887 783e 59a0 dc3d

basicblock_list.2.bn2.weight f4 [2]
1.0289209 1.0876844
00000000: aeb3 833f 3e39 8b3f

basicblock_list.2.bn2.bias f4 [2]
0.010704853 -0.15401998
00000000: 6863 2f3c 6ab7 1dbe

basicblock_list.2.bn2.running_mean f4 [2]
0.23346116 0.27107412
00000000: 7110 6f3e 3aca 8a3e

basicblock_list.2.bn2.running_var f4 [2]
0.19052559 0.4058812
00000000: 2419 433e a9cf cf3e

basicblock_list.2.conv2.conv.weight f4 [2, 2, 3]
0.31634262 0.18329492 -0.24637817 0.058666006 0.14880776 0.20789225 -0.067231216 0.26393998
-0.4475263 0.6703897 0.83052474 0.8575693
00000000: a9f7 a13e aab1 3b3e 8f4a 7cbe c44b 703d
00000010: 1061 183e b5e1 543e 85b0 89bd 2423 873e
00000020: 2b22 e5be a99e 2b3f 459d 543f a989 5b3f

basicblock_list.2.conv2.conv.bias f4 [2]
0.30648035 0.33117995
00000000: feea 9c3e 6b90 a93e

final_bn.weight f4 [2]
1.9589909 1.7011577
00000000: 37c0 fa3f 89bf d93f

final_bn.bias f4 [2]
0.10085138 0.042384695
00000000: 2b8b ce3d 939b 2d3d

final_bn.running_mean f4 [2]
0.9099909 0.8077161
00000000: 2af5 683f 7bc6 4e3f

final_bn.running_var f4 [2]
2.9385135 8.292969
00000000: 9b10 3c40 00b0 0441

dense.weight f4 [1, 2]
-1.4590292 -1.2249905
00000000: 78c1 babf 7dcc 9cbf

exp_avg f4 [2, 1, 3]
-0.11723259 -0.06391889 -0.38795424 -0.309684 0.67274874 0.2525844
00000000: a417 f0bd e8e7 82bd f0a1 c6be e78e 9ebe
00000010: 4339 2c3f be52 813e

exp_avg_sq f4 [2, 1, 3]
0.13742842 0.67761093 2.7241163 2.927014 77.11028 2.1542547
00000000: 09ba 0c3e e977 2d3f ec57 2e40 3354 3b40
00000010: 7738 9a42 4fdf 0940

exp_avg f4 [2]
-0.00016165718 1.6847256e-05
00000000: 8582 29b9 3553 8d37

exp_avg_sq f4 [2]
3.2738998e-07 5.0726774e-09
00000000: 23c4 af34 be4b ae31

exp_avg f4 [2]
-0.2448488 0.11456635
00000000: a5b9 7abe c3a1 ea3d

exp_avg_sq f4 [2]
6.9970703 24.689415
00000000: 00e8 df40 ec83 c541

exp_avg f4 [2]
-0.42262435 -0.44470012
00000000: 3862 d8be bcaf e3be

exp_avg_sq f4 [2]
21.93614 446.67764
00000000: 377d af41 bd56 df43

exp_avg f4 [2, 2, 3]
-2.1362484 0.7058815 0.9214103 -0.75540745 1.5381474 3.6758165 0.07492621 0.07303449
0.13125977 -0.11902113 -0.15738197 -0.06964012
00000000: 4bb8 08c0 a6b4 343f 8ce1 6b3f 6262 41bf
00000010: 04e2 c43f 9440 6b40 ea72 993d 1b93 953d
00000020: f668 063e 5ac1 f3bd bd28 21be 7b9f 8ebd

exp_avg_sq f4 [2, 2, 3]
6173.1465 7040.567 5650.1284 13382.938 9120.473 14634.931 4.3609343 4.4158134
5.027787 13.717049 14.743672 13.875263
00000000: 2ce9 c045 8904 dc45 0791 b045 c11b 5146
00000010: e481 0e46 b9ab 6446 c68c 8b40 584e 8d40
00000020: a2e3 a040 0879 5b41 15e6 6b41 1401 5e41

exp_avg f4 [2]
-0.0012199569 -6.1439505e-07
00000000: f6e6 9fba e8ec 24b5

exp_avg_sq f4 [2]
0.0013703906 4.410021e-07
00000000: ae9e b33a dec2 ec34

exp_avg f4 [2]
0.09143392 0.023522103
00000000: b541 bb3d 6db1 c03c

exp_avg_sq f4 [2]
1.0667206 2.235597
00000000: 4d8a 883f 0514 0f40

exp_avg f4 [2]
0.42967823 0.10386775
00000000: c9fe db3e 9db8 d43d

exp_avg_sq f4 [2]
40.628002 10.487478
00000000: 1383 2242 b6cc 2741

exp_avg f4 [2, 2, 3]
0.025706314 0.03361918 -0.023771483 -0.025800511 0.014594471 -0.013514396 -0.08196601 0.17661081
-0.22803994 -0.031572655 -0.020257246 -0.009523115
00000000: 0c96 d23c 44b4 093d 6abc c2bc 985b d3bc
00000010: a61d 6f3c 7c6b 5dbc ccdd a7bd 77d9 343e
00000020: 4d83 69be 5452 01bd 86f2 a5bc d706 1cbc

exp_avg_sq f4 [2, 2, 3]
3.3312097 0.7312163 3.6440444 1.681075 4.8441744 2.3392231 3.823213 2.908078
1.7367785 0.32493258 0.43028983 0.41502437
00000000: 8a32 5540 fe30 3b3f 0638 6940 772d d73f
00000010: 7a03 9b40 d5b5 1540 86af 7440 f31d 3a40
00000020: c24e de3f 905d a63e f34e dc3e 137e d43e

exp_avg f4 [2]
-1.0287947e-05 1.5619962e-06
00000000: 659a 2cb7 c8a5 d135

exp_avg_sq f4 [2]
1.0200085e-08 6.1222133e-10
00000000: 733c 2f32 3f49 2830

exp_avg f4 [2]
-0.11839847 0.29234383
00000000: e67a f2bd 17ae 953e

exp_avg_sq f4 [2]
1.602965 4.7423844
00000000: f52d cd3f 9dc1 9740

exp_avg f4 [2]
-0.067418575 0.08793843
00000000: c012 8abd 1019 b43d

exp_avg_sq f4 [2]
3.7734854 0.36372367
00000000: c980 7140 fd39 ba3e

exp_avg f4 [2, 2, 3]
0.20881486 0.17065392 -0.14066033 0.019510478 0.23235084 0.024457965 0.9364643 -0.34692538
0.38062418 0.07827319 0.33450353 -0.26071274
00000000: 90d3 553e e7bf 2e3e 4309 10be 70d4 9f3c
00000010: 61ed 6d3e 125c c83c 20bc 6f3f 34a0 b1be
00000020: 2ce1 c23e b24d a03d 0c44 ab3e 247c 85be

exp_avg_sq f4 [2, 2, 3]
1.4030054 1.9031781 2.6523678 0.52154744 0.63218594 0.5395487 16.47309 8.888648
7.0042377 3.0520146 3.4225523 2.3985739
00000000: ae95 b33f 579b f33f 65c0 2940 2284 053f
00000010: f0d6 213f dd1f 0a3f e3c8 8341 e737 0e41
00000020: b722 e040 3554 4340 190b 5b40 3c82 1940

exp_avg f4 [2]
1.1739996e-05 1.7534738e-05
00000000: e6f6 4437 9017 9337

exp_avg_sq f4 [2]
1.2596576e-08 6.485113e-08
00000000: 5468 5832 4944 8b33

exp_avg f4 [2]
0.11195731 -0.018554565
00000000: e049 e53d beff 97bc

exp_avg_sq f4 [2]
0.35099065 0.43108675
00000000: 0cb5 b33e 67b7 dc3e

exp_avg f4 [2]
-0.13013528 -0.08419131
00000000: 2f42 05be 7e6c acbd

exp_avg_sq f4 [2]
8.857996 10.153297
00000000: 5aba 0d41 e873 2241

exp_avg f4 [2, 2, 3]
-0.2619705 -0.31959534 -0.027691815 -0.08970287 0.1302797 0.110956505 -0.042485446 -0.11089091
-0.026013387 -0.057846814 0.030718798 -0.00090256706
00000000: ff20 86be 00a2 a3be f2d9 e2bc 23b6 b7bd
00000010: 0b68 053e 2a3d e33d 3805 2ebd c61a e3bd
00000020: 071a d5bc c8f0 6cbd fda5 fb3c 409a 6cba

exp_avg_sq f4 [2, 2, 3]
0.9437478 1.2540672 0.79041916 0.92228615 1.0259625 0.8399051 0.12663738 0.1607877
0.13674787 0.12557971 0.16752419 0.14752643
00000000: 7599 713f 4685 a03f e958 4a3f f21a 6c3f
00000010: bd52 833f 0504 573f 3bad 013e 88a5 243e
00000020: a207 0c3e f897 003e 768b 2b3e 2b11 173e

exp_avg f4 [2]
-1.0540359e-05 1.037655e-06
00000000: 7fd6 30b7 8e45 8b35

exp_avg_sq f4 [2]
1.0436382e-09 9.983658e-11
00000000: c16f 8f30 008b db2e

exp_avg f4 [2]
0.030993529 -0.022250734
00000000: 24e6 fd3c 2c47 b6bc

exp_avg_sq f4 [2]
0.1380633 0.25140837
00000000: 7760 0d3e 99b8 803e

exp_avg f4 [2]
-0.13728712 0.05600226
00000000: ff94 0cbe a062 653d

exp_avg_sq f4 [2]
5.9733005 2.8444538
00000000: 4725 bf40 880b 3640

exp_avg f4 [2, 2, 3]
0.023882117 0.031065935 0.002407658 0.00033342256 0.009926151 -0.010915817 0.18167996 0.23520273
-0.050530106 -0.084000364 -0.078782685 -0.011661931
00000000: 6ea4 c33c fd7d fe3c ccc9 1d3b 38cf ae39
00000010: 4ba1 223c 41d8 32bc 500a 3a3e fcd8 703e
00000020: a8f8 4ebd 6208 acbd d158 a1bd af11 3fbc

exp_avg_sq f4 [2, 2, 3]
0.20746674 0.106440924 0.07492668 0.021371813 0.006878448 0.013392338 1.6836632 3.5684576
1.783239 0.38920525 0.3956979 0.3992198
00000000: 2972 543e b3fd d93d 2973 993d f113 af3c
00000010: 9b64 e13b 896b 5b3c 4782 d73f 9c61 6440
00000020: 2d41 e43f e945 c73e ea98 ca3e 8a66 cc3e

exp_avg f4 [2]
-5.398735e-06 7.7474215e-06
00000000: c826 b5b6 ecfa 0137

exp_avg_sq f4 [2]
1.1328769e-09 5.4892258e-08
00000000: 90b3 9b30 adc2 6b33

exp_avg f4 [2]
0.01286619 -0.15139127
00000000: b6cc 523c 5006 1bbe

exp_avg_sq f4 [2]
0.0100086145 0.5252431
00000000: 2cfb 233c 5576 063f

exp_avg f4 [2]
0.011049957 -0.02387396
00000000: e10a 353c 5393 c3bc

exp_avg_sq f4 [2]
0.07180348 5.862393
00000000: b40d 933d b998 bb40

exp_avg f4 [2, 2, 3]
0.06667292 0.06349541 0.058222067 -0.14039439 -0.09867441 -0.0731919 -0.0031088796 0.031137958
0.03007599 -0.054450836 -0.05153028 -0.050791617
00000000: d08b 883d e209 823d 437a 6e3d 8cc3 0fbe
00000010: cf15 cabd a3e5 95bd 58be 4bbb 0815 ff3c
00000020: ec61 f63c d707 5fbd 6a11 53bd df0a 50bd

exp_avg_sq f4 [2, 2, 3]
0.2314331 0.36690167 0.23736224 2.1917324 2.8891337 2.3475575 0.03611909 0.06571377
0.025615074 0.049792767 0.044023357 0.044469353
00000000: ccfc 6c3e 89da bb3e 160f 733e 5845 0c40
00000010: 91e7 3840 623e 1640 9cf1 133d f194 863d
00000020: b4d6 d13c 80f3 4b3d d651 343d 7f25 363d

exp_avg f4 [2]
-7.4975414e-06 1.3003628e-06
00000000: 6493 fbb6 2088 ae35

exp_avg_sq f4 [2]
3.1904157e-10 5.3675626e-11
00000000: 1c65 af2f 6211 6c2e

exp_avg f4 [2]
-0.27444652 -0.15517032
00000000: 4184 8cbe f8e4 1ebe

exp_avg_sq f4 [2]
13.68683 4.1227136
00000000: 41fd 5a41 45ed 8340

exp_avg f4 [2]
0.0395519 0.16031477
00000000: 2c01 223d 8e29 243e

exp_avg_sq f4 [2]
72.23749 28.592634
00000000: 9879 9042 b7bd e441

exp_avg f4 [1, 2]
0.36575443 0.20993868
00000000: 2a44 bb3e 2afa 563e

exp_avg_sq f4 [1, 2]
30.58193 8.946947
00000000: cba7 f441 b226 0f41
