Solvation_1/Runs/Macro_TESA_Lin5/ep_10.pt (torch, 915476 bytes, 21 tensors)

linear_relu_stack.0.weight f4 [512, 16]
-0.16355975 0.2290411 -0.06141208 0.194428 0.13003013 -0.32065028 0.15162568 -0.0156001225
-0.08450248 -0.13341959 -0.085518725 0.23095427 -0.2536393 0.14052682 -0.190009 0.0035019084
-0.19211903 0.25633162 -0.07853554 -0.24120957 0.13762708 -0.067448914 -0.074694164 0.11917505
-0.0033859056 -0.03854016 0.1735586 -0.21282679 0.02859226 -0.06506126 0.019908518 0.0847531
-0.17741574 -0.17655782 0.13992086 -0.027325263 -0.16714737 0.16207778 0.09465663 0.11936772
-0.19985749 0.23750664 0.097886406 -0.13008457 0.09081782 0.10446815 -0.05940869 -0.21975861
-0.0006024789 -0.12889868 0.1379822 0.012995498 -0.16327477 0.03663272 0.06573587 0.108962566
0.011632404 0.19916153 0.23052844 0.07464777 -0.16427113 -0.22766414 0.09760356 0.08650923
0.15049827 -0.15251951 0.13282162 0.11400896 -0.19264765 -0.086239606 -0.08321551 -0.11732974
0.20558816 -0.09915537 0.033615112 0.089392364 0.10434186 -0.070647985 -0.0561395 0.07280769
0.14667442 -0.029700192 -0.10398316 -0.12365553 0.1860408 0.02684938 -0.2742243 0.05196617
0.1637328 0.099257365 0.14682467 0.11487984 -0.2405667 -0.28194147 -0.1699206 -0.243602
0.25380695 0.04801125 -0.11133901 0.14798686 -0.15097652 0.199064 0.06777369 0.046692193
0.055483703 0.16249667 0.095427364 -0.05005614 0.0061183996 -0.1591518 -0.10367248 0.066709675
0.08292283 0.29636514 0.34993204 -0.06869802 0.21743602 0.024601983 -0.13035059 0.1763551
-0.12492656 0.15778138 -0.2537067 -0.18982188 0.108253755 -0.17343776 0.15379207 -0.14102173
-0.014989958 0.034923926 -0.316206 -0.06533187 0.22349538 0.08045868 -0.38803428 -0.0057707513
-0.049585663 0.22863445 -0.11570789 -0.1830677 -0.14243661 0.030975072 -0.01929915 -0.0883645
-0.23897168 0.2090039 0.04491681 -0.060937136 0.0076811016 0.01695767 -0.05384496 -0.06074053
-0.08384317 -0.17545912 0.0041846037 -0.10273084 -0.114368975 -0.12848139 0.01334247 -0.21233585
0.14102843 0.14461762 0.05603261 0.011083625 0.016005492 -0.122300684 0.35359707 -0.083238706
0.18150218 -0.065906756 0.14167593 0.12901586 -0.1391838 -0.05129888 0.16590604 0.24375407
0.010506834 -0.23203033 -0.24352628 0.08022517 0.16804859 0.10961149 -0.16906556 0.102976784
-0.13943107 0.18717228 -0.24886711 0.12022331 -0.24231255 0.2344802 0.14513601 0.13233064
-0.17009185 -0.0128518175 0.023960307 -0.20179594 -0.11243755 -0.015288222 0.121285 -0.01859989
0.07624202 -0.1695056 -0.13362673 -0.19396386 0.14610508 0.10625666 -0.24680081 0.1387518
0.23156138 -0.16563667 0.015555553 -0.12179055 0.054756284 -0.017305488 0.068207964 0.012648458
-0.23931429 0.15362288 -0.261535 0.041965157 0.14157592 0.1038501 -0.110800825 0.097161606
0.14794666 0.09862461 -0.04862034 0.07615817 -0.018863762 0.07489295 0.287501 0.20590465
0.105914295 0.14868511 0.101146676 0.21233971 0.25333714 0.26634687 -0.20869622 -0.19847606
0.055639368 -0.076720424 0.112591214 0.033521652 0.0715467 -0.03032461 0.056352157 0.12793614
-0.22540717 0.11034768 0.05030875 0.08689077 0.023185981 0.029732559 0.2713815 0.15677175
00000000: 357c 27be c089 6a3e 3c8b 7bbd 2218 473e
00000010: 9e26 053e 462c a4be c343 1b3e a897 7fbc
00000020: a30f adbd 259f 08be 7124 afbd 477f 6c3e
00000030: 03dd 81be 43e6 0f3e b891 42be 4680 653b
00000040: daba 44be e63d 833e 3ed7 a0bd a4ff 76be
00000050: 1dee 0c3e a822 8abd 41f9 98bd 0c12 f43d
00000060: 12e6 5dbb 49dc 1dbd 58b9 313e 44ef 59be
00000070: 513a ea3c d63e 85bd 3017 a33c 0993 ad3d
00000080: 79ac 35be 93cb 34be 6a47 0f3e 3bd9 dfbc
00000090: ae28 2bbe b8f7 253e 56db c13d 1077 f43d
000000a0: 71a7 4cbe f134 733e ab78 c83d e434 05be
000000b0: b1fe b93d 66f3 d53d 8756 73bd 6708 61be
000000c0: adef 1dba 04fe 03be 354b 0d3e 12eb 543c
000000d0: 8031 27be 310c 163d 87a0 863d c427 df3d
000000e0: d795 3e3c 00f1 4b3e a60f 6c3e eee0 983d
000000f0: b136 28be ca20 69be 60e4 c73d c02b b13d
00000100: 381c 1a3e 132e 1cbe 6402 083e 887d e93d
00000110: 6d45 45be 649e b0bd e56c aabd 934a f0bd
00000120: b485 523e f811 cbbd 00b0 093d 5813 b73d
00000130: 2fb1 d53d e4af 90bd 88f2 65bd 331c 953d
00000140: d231 163e d14d f3bc 1ff5 d4bd 1c3f fdbd
00000150: 7b81 3e3e 3bf3 db3c 2167 8cbe 7bda 543d
00000160: 92a9 273e 7247 cb3d 3559 163e 1f46 eb3d
00000170: 1e57 76be a25a 90be aaff 2dbe cd72 79be
00000180: fcf2 813e 72a7 443d b505 e4bd de89 173e
00000190: 9799 1abe 6fd7 4b3e efcc 8a3d 5040 3f3d
000001a0: e142 633d 8765 263e 6c6f c33d ab07 4dbd
000001b0: db7c c83b b1f8 22be 3d52 d4bd 159f 883d
000001c0: 72d3 a93d 2cbd 973e 4b2a b33e 8cb1 8cbd
000001d0: 8ca7 5e3e 198a c93c a07a 05be 6e96 343e
000001e0: 7fd9 ffbd 7191 213e d8e5 81be ab60 42be
000001f0: 25b4 dd3d ab99 31be ab7b 1d3e 0068 10be
00000200: 7198 75bc 640c 0f3d c1e5 a1be b7cc 85bd
00000210: f9db 643e 85c7 a43d 6eac c6be 9218 bdbb
00000220: 561a 4bbd 261f 6a3e 42f8 ecbd 1976 3bbe
00000230: e7da 11be 6fbf fd3c 4019 9ebc 72f8 b4bd
00000240: feb4 74be 1e05 563e b0fa 373d 3899 79bd
00000250: c0b1 fb3b d0ea 8a3c 888c 5cbd 10cb 78bd
00000260: f8b5 abbd 8eab 33be 001f 893b 8c64 d2bd
00000270: 483a eabd a090 03be 609a 5a3c 926e 59be
00000280: c269 103e a416 143e 7382 653d 1898 353c
00000290: f31d 833c c878 fabd ad0a b53e 0e79 aabd
000002a0: b5db 393e 1ffa 86bd 7f13 113e bc1c 043e
000002b0: 3386 0ebe c61e 52bd 46e3 293e ab9a 793e
000002c0: db24 2c3c 5c99 6dbe f45e 79be 184d a43d
000002d0: ee14 2c3e fd7b e03d 861f 2dbe 7ee5 d23d
000002e0: 05c7 0ebe 17aa 3f3e 05d7 7ebe a437 f63d
000002f0: c820 78be 941b 703e 899e 143e af81 073e
00000300: 8f2c 2ebe 6e90 52bc 6848 c43c 98a3 4ebe
00000310: a945 e6bd 737b 7abc 4564 f83d cc5e 98bc
00000320: c724 9c3d e092 2dbe 72d5 08be 769e 46be
00000330: 929c 153e 179d d93d 5ab9 7cbe f414 0e3e
00000340: 6d1e 6d3e a99c 29be b8dc 7e3c 536d f9bd
00000350: 2048 603d 3dc4 8dbc 9eb0 8b3d 7a3b 4f3c
00000360: ce0e 75be 514f 1d3e eae7 85be a8e3 2b3d
00000370: 47f9 103e 5caf d43d 8beb e2bd aafc c63d
00000380: 547f 173e b3fb c93d 1f26 47bd d1f8 9b3d
00000390: 2d88 9abc 7a61 993d 5533 933e abd8 523e
000003a0: 98e9 d83d e940 183e fd25 cf3d 956f 593e
000003b0: 68b5 813e 9e5e 883e 76b4 55be 4f3d 4bbe
000003c0: 1be6 633d 991f 9dbd 3996 e63d 004e 093d
000003d0: 1487 923d 516b f8bc 85d1 663d b101 033e
000003e0: 23d1 66be f7fd e13d 8c10 4e3d caf3 b13d
000003f0: 87f0 bd3c b291 f33c 84f2 8a3e c688 203e

linear_relu_stack.0.bias f4 [512]
0.1274434 -0.13482903 0.076885805 0.20085981 -0.07270615 -0.23617446 -0.078803465 0.22499587
-0.03346367 0.19455859 0.23515931 -0.20540872 -0.234521 -0.13316044 -0.17156053 -0.022035778
-0.21004018 -0.059569914 0.073281415 -0.16768709 0.1964538 -0.03598207 0.023394495 -0.15056297
-0.12895839 0.027214859 -0.009926688 0.20893368 -0.12818791 0.10026435 0.123412415 0.06198048
0.18185858 -0.055130947 -0.063335285 -0.19105598 0.09142915 -0.21885353 -0.20420662 -0.033070415
0.022431271 0.009542141 -0.10734863 0.01243546 0.19886225 -0.16945967 -0.17501917 -0.15437199
-0.18255842 0.12100921 -0.061475802 -0.20915738 -0.01628378 -0.11737624 0.20792294 -0.040658876
0.18378398 -0.2726213 0.020629765 -0.040979486 -0.106066465 -0.17777961 0.065383606 -0.0565225
-0.0021680768 -0.14974074 -0.18821988 -0.16595761 0.15872706 -0.08389364 0.17641783 0.24454242
-0.29515418 -0.0008174615 0.1034078 0.16950858 0.038996734 0.19116071 -0.06743869 0.18344939
0.17716481 -0.18642454 -0.13801025 0.20391043 -0.1913735 -0.044830173 0.29974633 -0.13511135
0.22290997 -0.11843658 0.22294948 0.10679895 0.15256095 -0.15844831 -0.23844653 0.18938038
-0.219683 0.16517156 -0.11087197 0.00416856 -0.14935346 -0.22114162 0.048126187 0.18144417
0.04228247 -0.20488061 -0.02620397 -0.19251025 -0.17654106 -0.17006099 0.022849903 -0.009859701
-0.13741365 0.22683665 -0.10109403 -0.13615227 0.04054585 0.18554968 0.19551606 0.059728287
0.05842141 0.077528745 -0.22913216 -0.16621602 0.15526384 0.2051278 -0.13868046 -0.08542459
-0.16287811 -0.22892924 0.16343111 0.07790771 0.059991263 0.04486441 0.24787775 -0.23930727
0.37601942 0.16312161 -0.22196081 -0.014154498 0.20478494 -0.060422756 0.009663014 -0.21587887
-0.19771655 -0.08888176 0.21413787 -0.023725173 -0.2067312 -0.08994905 0.22163989 -0.1154817
0.19726767 0.056214616 0.15327236 -0.23329613 0.18608665 0.10052546 0.035671193 -0.23791717
0.00091761205 -0.23283482 0.16007996 0.056126885 0.07826317 0.20328854 0.044244252 0.08115456
0.009777518 0.061986566 0.14611842 0.058616973 0.18721963 -0.14541483 0.18342325 -0.123158865
-0.20948596 -0.014102843 0.08670958 0.017741913 -0.07020195 0.20295978 -0.16786659 -0.10981085
0.087859765 -0.2480467 -0.03457939 0.25348803 0.21299821 -0.021094298 -0.10077422 0.011920312
0.046977475 -0.13200784 0.0426301 -0.20614648 0.13924074 0.028716698 0.2443036 0.027737396
0.02949445 -0.068901464 -0.06809524 0.02237698 -0.1432952 0.03838244 -0.015340236 0.13423964
0.14764157 -0.06289496 -0.07760287 0.0074233185 0.12460063 0.2220051 -0.24327578 -0.22466275
0.24723345 -0.17544006 -0.19677138 0.13775894 0.19570751 -0.12346004 0.16044912 -0.052207373
-0.21840936 0.1399946 0.03301975 0.06644771 0.21377856 -0.13044135 0.071954556 -0.096348085
0.17091925 0.14657949 -0.12886903 0.13238241 -0.17559862 -0.12922066 -0.12879524 -0.033085182
-0.18376024 -0.117317416 -0.23347515 0.1129165 0.044106714 0.04292351 -0.19581081 -0.21730217
-0.120915145 0.015001659 0.06318423 -0.15591279 -0.20465839 0.1523801 -0.022127189 -0.25353935
00000000: 8680 023e 9f10 0abe 4e76 9d3d 32ae 4d3e
00000010: f6e6 94bd b8d7 71be b663 a1bd 5165 663e
00000020: 3411 09bd 5e3a 473e 9acd 703e aa56 52be
00000030: 4626 70be 365b 08be 90ad 2fbe 6084 b4bc
00000040: c614 57be 95ff 73bd 9114 963d 2ab6 2bbe
00000050: 2f2b 493e ef61 13bd d0a5 bf3c 2e2d 1abe
00000060: ab0d 04be b2f1 de3c 8ca3 22bc b6f2 553e
00000070: b143 03be 6557 cd3d a6bf fc3d 3edf 7d3d
00000080: 2339 3a3e fdd0 61bd eeb5 81bd 2ea4 43be
00000090: 353f bb3d 241b 60be 8a1b 51be d874 07bd
000000a0: c9c1 b73c a456 1c3c 99d9 dbbd 1abe 4b3c
000000b0: 8ca2 4b3e d686 2dbe 3a38 33be b113 1ebe
000000c0: 98f0 3abe add3 f73d 0dce 7bbd 5a2d 56be
000000d0: 9065 85bc f462 f0bd c0e9 543e ec89 26bd
000000e0: de31 3c3e 0595 8bbe c1ff a83c 1bda 27bd
000000f0: 6039 d9bd dc0b 36be d7e7 853d 2384 67bd
00000100: 4b16 0ebb a355 19be b6bc 40be cbf0 29be
00000110: 5989 223e 6ed0 abbd e0a6 343e 5469 7a3e
00000120: 731e 97be ea4a 56ba 78c7 d33d a893 2d3e
00000130: 0abb 1f3d a2bf 433e 4c1d 8abd 28da 3b3e
00000140: b16a 353e 13e6 3ebe 8f52 0dbe e5cd 503e
00000150: 6af7 43be d89f 37bd 5a78 993e a15a 0abe
00000160: 8342 643e e18e f2bd de4c 643e 68b9 da3d
00000170: f038 1c3e 4640 22be 542b 74be eeec 413e
00000180: 95f4 60be bc22 293e d810 e3bd 6a98 883b
00000190: 1df0 18be f372 62be f71f 453d 80cc 393e
000001a0: 6230 2d3d 39cc 51be b5a9 d6bc 6821 45be
000001b0: 2ec7 34be 7824 2ebe b82f bb3c 958a 21bc
000001c0: 2ab6 0cbe de47 683e 630a cfbd 806b 0bbe
000001d0: 6813 263d bc00 3e3e 5d35 483e a6a5 743d
000001e0: 4a4b 6f3d 64c7 9e3d 9fa1 6abe 8834 2abe
000001f0: 7cfd 1e3e 060d 523e 4002 0ebe 16f3 aebd
00000200: 85c9 26be 6d6c 6abe 7c5a 273e 148e 9f3d
00000210: 66b9 753d bec3 373d aad3 7d3e f70c 75be
00000220: 9e85 c03e 5a09 273e b249 63be 45e8 67bc
00000230: 25b3 513e da7d 77bd 9e51 1e3c 5a0f 5dbe
00000240: 3576 4abe a407 b6bd f546 5b3e 4b5b c2bc
00000250: 58b1 53be 3537 b8bd 91f5 623e ab81 ecbd
00000260: 8900 4a3e 4c41 663d 6ef3 1c3e 2ee5 6ebe
00000270: 808d 3e3e 4be0 cd3d f51b 123d 8fa0 73be
00000280: e78b 703a 406c 6ebe 00ec 233e 4ee5 653d
00000290: 7148 a03d df2a 503e 7639 353d 5d34 a63d
000002a0: e231 203c a0e5 7d3d 11a0 153e 5a18 703d
000002b0: 81b6 3f3e a0e7 14be 4ed3 3b3e b73a fcbd
000002c0: 7d83 56be 9c0f 67bc cb94 b13d 7d57 913c
000002d0: 0ac6 8fbd b0d4 4f3e 38e5 2bbe 83e4 e0bd
000002e0: d2ef b33d f4ff 7dbe 1ea3 0dbd 2fc9 813e
000002f0: 341c 5a3e f3cd acbc b762 cebd 6a4d 433c
00000300: 746b 403d 102d 07be e69c 2e3d 1018 53be
00000310: 2095 0e3e 483f eb3c b92a 7a3e 8939 e33c
00000320: 589e f13c 361c 8dbd 8475 8bbd ee4f b73c
00000330: fabb 12be e836 1d3d 9d55 7bbc 1e76 093e
00000340: 5a2f 173e 13cf 80bd 41ee 9ebd 4f3f f33b
00000350: 9d2e ff3d 4e55 633e 491d 79be fe0d 66be
00000360: c42a 7d3e 8fa6 33be 707e 49be ae10 0d3e
00000370: 8d67 483e 9ed8 fcbd c64c 243e 66d7 55bd
00000380: b4a6 5fbe bf5a 0f3e b83f 073d bd15 883d
00000390: c4e8 5a3e 6b92 05be e95c 933d 2552 c5bd
000003a0: 7505 2f3e ef18 163e 3ef6 03be 418f 073e
000003b0: 20d0 33be 6c52 04be e6e2 03be 5484 07bd
000003c0: a52b 3cbe 1d44 f0bd 1c14 6fbe c440 e73d
000003d0: 3ea9 343d 90d0 2f3d a182 48be 7684 5ebe
000003e0: 5ca2 f7bd 85c9 753c bc66 813d 9aa7 1fbe
000003f0: f891 51be 8709 1c3e 1444 b5bc e9cf 81be

linear_relu_stack.2.weight f4 [128, 512]
-0.09359032 0.035205852 -0.009061787 0.01574923 -0.0401951 -0.012809395 0.0354938 0.021736957
0.006841691 0.04213242 -0.032109458 -0.014465609 -0.0011649616 0.013301744 -0.041490555 -0.008263287
0.029730272 -0.0070985085 -0.018727792 0.04026411 0.008783922 0.031153785 -0.039475244 0.033730023
0.012010825 -0.0139203295 -0.02911614 -0.05052894 0.020609498 -0.02392186 0.028571488 -0.020237
-0.07253832 0.0055460925 0.0010503805 -0.0041218773 -0.046760347 -0.0026148076 0.0157829 0.026684735
-0.01996821 0.04278924 -0.02319025 -0.040026497 -0.03376578 -0.038081523 -0.00785995 -0.030346688
-0.039935127 -0.06153655 0.039185263 0.03026526 -0.08283615 0.021363495 -0.034404945 -0.025574176
0.003164165 0.006924298 0.017712148 0.05408607 -0.028234795 -0.01873328 0.008155241 0.032104496
-0.010445958 -0.025965273 0.017857356 -0.03558874 -0.041970853 0.03564671 -0.0233385 -0.024146076
0.054980166 -0.041940615 0.037852883 0.035123594 -0.019793777 0.037415292 0.034427546 -0.0393895
-0.0114737395 -0.013533967 -0.0047980705 -0.015495008 0.030175606 0.031836968 0.0216582 -0.034474988
-0.039349604 0.011226266 0.0095026605 0.025084272 -0.014851212 -0.013097982 -0.046736658 0.026985241
0.0076031433 -0.037648585 -0.03740088 -0.028772006 -0.013694286 -0.06773308 -0.010842008 -0.013688792
-0.043157678 -0.03872142 -0.04153933 -0.06405891 0.036783274 -0.04182317 -0.04519407 0.005386228
0.05439239 -0.021466793 -0.034825746 -0.017084442 0.038503002 -0.08577047 0.02086233 0.04525732
-0.07984442 -0.029196765 -0.042658884 -0.014009024 -0.028317278 -0.038353294 -0.029939197 -0.009759858
0.008777526 0.026568668 -0.056649126 -0.014527308 0.01839897 -0.0041864403 0.03873352 0.026308417
0.016855827 -0.0037156674 -0.017808475 -0.002380069 -0.029770734 0.014682757 0.037382018 -0.023841951
-0.038924888 0.030428145 0.020634975 0.044568922 0.0070290416 -0.019976724 -0.017086986 0.0029510942
-0.0178968 0.02238589 -0.0037950985 0.010803424 -0.066919394 -0.03571975 -0.013352224 -0.017574716
0.027168944 0.017812641 -0.013880406 -0.0069028623 0.016926786 -0.0581562 0.0075885137 0.054090384
-0.047026128 -0.02763208 -0.03742953 -0.020353142 0.018952593 0.009756176 0.029290095 -0.018133808
0.03053446 0.024673345 0.023432277 -0.027301297 0.047911257 -0.047521424 -0.04339859 -0.034308836
0.009342855 0.034845762 0.112335175 -0.018829325 0.015935604 0.022675999 -0.08597917 -0.0073545673
0.042152848 -0.009445983 0.008117521 -0.035250563 -0.021740314 -0.016295258 -0.031035397 -0.0453487
-0.043067183 0.021700537 -0.011751522 0.029898714 -0.03985908 0.031692978 -0.020997275 0.018431172
-0.032658592 -0.023224188 0.00408307 0.032228276 0.04439267 0.007858699 -0.007225266 -0.002006378
-0.0020616064 0.02399265 -0.012760568 0.029255616 0.028378977 0.050962348 0.04471275 0.027653906
0.028377527 -0.041133445 -0.017436799 -0.035569027 -0.030284548 -0.070841774 -0.01702737 -0.041992962
0.01771382 -0.010228511 0.019959671 -0.030058455 0.021034507 0.009210036 -0.0147703905 0.0046885395
0.009350053 0.039823666 0.016417034 -0.033585038 0.013129725 -0.05153829 -0.00066122407 0.065200955
0.009424419 0.044516463 0.050093055 0.032471713 0.033750933 0.051868875 0.028313063 -0.023008928
00000000: 48ac bfbd 0334 103d e477 14bc 8704 813c
00000010: 9ea3 24bd 7fde 51bc f261 113d b411 b23c
00000020: 4430 e03b 0b93 2c3d 3585 03bd 2901 6dbc
00000030: a0b1 98ba 8fef 593c 00f2 29bd bd62 07bc
00000040: e68c f33c 9b9a e8bb 076b 99bc fbeb 243d
00000050: 70ea 0f3c 3936 ff3c cbb0 21bd 7e28 0a3d
00000060: 0dc9 443c 1812 64bc f984 eebc 6ff7 4ebd
00000070: 40d5 a83c c7f7 c3bc c10e ea3c 11c8 a5bc
00000080: f98e 94bd ffbb b53b ecac 893a d010 87bb
00000090: c787 3fbd 315d 2bbb 244b 813c f299 da3c
000000a0: 5f94 a3bc c543 2f3d 7bf9 bdbc d3f2 23bd
000000b0: fd4d 0abd 5ffb 1bbd 05c7 00bc 9e99 f8bc
000000c0: 0493 23bd c00d 7cbd ba80 203d daee f73c
000000d0: 00a6 a9bd 7f02 af3c 33ec 0cbd ef80 d1bc
000000e0: e15d 4f3b 39e5 e23b 1119 913c 5b89 5d3d
000000f0: a84c e7bc 8976 99bc 8f9d 053c 0180 033d
00000100: 8625 2bbc 20b5 d4bc 9749 923c 80c5 11bd
00000110: a1e9 2bbd 4902 123d 6230 bfbc fecd c5bc
00000120: e232 613d ecc9 2bbd a00b 1b3d c2dd 0f3d
00000130: 8f26 a2bc c740 193d e603 0d3d e256 21bd
00000140: 5afc 3bbc 92bd 5dbc 2239 9dbb c6de 7dbc
00000150: d532 f73c 7b67 023d 8a6c b13c a535 0dbd
00000160: 0d2d 21bd 5fee 373c 0cb1 1b3c 887d cd3c
00000170: 7f52 73bc eb98 56bc f06e 3fbd 2710 dd3c
00000180: ca23 f93b 6735 1abd aa31 19bd 45b3 ebbc
00000190: 005e 60bc a4b7 8abd ada2 31bc f446 60bc
000001a0: 1bc6 30bd 5a9a 1ebd 2525 2abd 5131 83bd
000001b0: 0faa 163d c64e 2bbd 6b1d 39bd f57e b03b
000001c0: 8eca 5e3d 21db afbc 71a5 0ebd acf4 8bbc
000001d0: 53b5 1d3d 6ea8 afbd 7ae7 aa3c bd5f 393d
000001e0: 7985 a3bd 0e2e efbc 15bb 2ebd 1b86 65bc
000001f0: a3f9 e7bc 5818 1dbd 0c43 f5bc d0e7 1fbc
00000200: 9dcf 0f3c 89a6 d93c ea08 68bd f203 6ebc
00000210: 70b9 963c 682e 89bb 0aa7 1e3d c084 d73c
00000220: 3b15 8a3c 8e82 73bb 14e3 91bc effa 1bbb
00000230: c1e1 f3bc f28f 703c e31d 193d 3250 c3bc
00000240: b46f 1fbd 7244 f93c ae0a a93c e78d 363d
00000250: e053 e63b 3aa6 a3bc 02fa 8bbc 2567 413b
00000260: 4f9c 92bc 9d62 b73c 30b7 78bb d800 313c
00000270: 090d 89bd df4e 12bd 49c3 5abc daf8 8fbc
00000280: 6891 de3c d1eb 913c a46a 63bc 6831 e2bb
00000290: 0baa 8a3c 3235 6ebd 11a9 f83b e18d 5d3d
000002a0: 789e 40bd ac5c e2bc b54f 19bd a2bb a6bc
000002b0: 7842 9b3c 5ed8 1f3c c8f1 ef3c 5a8d 94bc
000002c0: 6723 fa3c c11f ca3c 0cf5 bf3c f8a6 dfbc
000002d0: 983e 443d d3a5 42bd b8c2 31bd 6c87 0cbd
000002e0: c612 193c 6eba 0e3d fc0f e63d f53f 9abc
000002f0: 628b 823c 04c3 b93c d915 b0bd 95fe f0bb
00000300: 77a8 2c3d 53c3 1abc 5aff 043c e562 10bd
00000310: be18 b2bc a27d 85bc f23d febc 8fbf 39bd
00000320: 3767 30bd 53c5 b13c 7589 40bc 26ee f43c
00000330: 4643 23bd 7fd0 013d 7a02 acbc f8fc 963c
00000340: 04c5 05bd a740 bebc 46cb 853b cc01 043d
00000350: 17d5 353d c6c1 003c edc1 ecbb 707d 03bb
00000360: 041c 07bb 3c8c c43c b411 51bc 79a9 ef3c
00000370: 077b e83c e5bd 503d b724 373d 728a e23c
00000380: fd77 e83c 8b7b 28bd 9ed7 8ebc d4b0 11bd
00000390: 4d17 f8bc 7e15 91bd fc7c 8bbc d000 2cbd
000003a0: 931c 913c 7c95 27bc 7782 a33c 263d f6bc
000003b0: 8f50 ac3c b1e5 163c 82ff 71bc 52a2 993b
000003c0: f730 193c 241e 233d 047d 863c 7790 09bd
000003d0: 0f1e 573c d019 53bd ff55 2dba 1488 853d
000003e0: e168 1a3c e556 363d 602e 4d3d 0f01 053d
000003f0: 6b3e 0a3d 7574 543d ccf0 e73c 387d bcbc

linear_relu_stack.2.bias f4 [128]
-0.037114676 0.01861134 0.01536548 -0.033147246 -0.02326542 0.042060766 -0.003206152 0.030837499
0.01081891 -0.010427274 0.02587223 -0.045843296 0.022872275 -0.04350125 0.029580122 -0.038237814
-0.025629727 0.02861613 -0.039798632 -0.016833728 -0.0215981 -0.034448624 -8.895049e-05 -0.04747725
0.033402275 0.01877574 -0.015873265 0.014926795 -0.04392914 0.016272034 -0.013857871 0.05285431
-0.0047760666 0.009796319 -0.0118748695 0.016941018 -0.047854677 0.021684729 0.0276975 -0.046765964
-0.014256973 -0.04228356 0.024880953 -0.029024163 -0.04754833 -0.006020602 0.011821028 -0.030084979
-0.026884027 -0.03637199 -0.002937253 0.026957251 0.025952801 0.0029472315 -0.003603056 -0.0038913041
0.0471051 0.039824717 -0.019643402 0.034023624 -0.00475778 0.03451753 0.028262964 -0.043716304
0.004102122 -0.019259593 -0.002909208 -0.03120312 -0.013556539 0.016171027 -0.042738583 -0.032347046
0.04549232 0.044097096 0.03175619 -0.03060417 0.025336536 -0.031069791 0.086058855 -0.008399146
0.012263851 -0.024616625 0.033696763 -0.00026449427 -0.028506452 -0.00017833356 0.028441293 0.044495456
-0.006205483 -0.0040234616 -0.029341225 0.0004348429 0.029808238 0.0333963 -0.011895147 -0.0112178605
0.014449295 -0.030907936 -0.036022957 0.036408883 0.014043672 0.012821409 -0.013071391 0.028762093
-0.025185123 0.01460418 -0.040434636 -0.037171163 -0.016331421 0.03069924 -0.017705515 -0.030999854
-0.030797035 -0.0415583 0.0066190124 0.01871917 0.052630424 0.04132748 -0.0049643083 0.016284028
-0.03206002 -0.008600253 -0.024548963 0.005883871 0.020283353 0.052211832 0.010394872 0.012311958
00000000: 8f05 18bd cf76 983c 7fbf 7b3c 68c5 07bd
00000010: 1f97 bebc e947 2c3d 4e1e 52bb ec9e fc3c
00000020: cc41 313c 28d7 2abc 00f2 d33c 2ec6 3bbd
00000030: a35e bb3c 5e2e 32bd 0352 f23c 419f 1cbd
00000040: 6ff5 d1bc 606c ea3c e403 23bd e3e6 89bc
00000050: 80ee b0bc 001a 0dbd ee8a bab8 8177 42bd
00000060: d3d0 083d 95cf 993c a608 82bc 848f 743c
00000070: 0bef 33bd ee4c 853c 200c 63bc c37d 583d
00000080: 8d80 9cbb bd80 203c d08e 42bc e4c7 8a3c
00000090: 4403 44bd 2ca4 b13c dee5 e23c ab8d 3fbd
000000a0: 1496 69bc 8731 2dbd 24d3 cb3c 15c4 edbc
000000b0: 0ac2 42bd 7848 c5bb fcac 413c c674 f6bc
000000c0: e43b dcbc ccfa 14bd ee7e 40bb 74d5 dc3c
000000d0: f89a d43c 5726 413b 4021 6cbb 4005 7fbb
000000e0: 47f1 403d 3e1f 233d 33eb a0bc 5b5c 0b3d
000000f0: 27e7 9bbb 4162 0d3d bb87 e73c de0f 33bd
00000100: 186b 863b 4bc6 9dbc 69a8 3ebb af9d ffbc
00000110: 3f1c 5ebc 1a79 843c a70e 2fbd 567e 04bd
00000120: 2856 3a3d 289f 343d c712 023d 99b5 fabc
00000130: 918e cf3c 1386 febc a03f b03d 929c 09bc
00000140: 52ee 483c cea8 c9bc 9e05 0a3d d2ab 8ab9
00000150: 5d86 e9bc 0dff 3ab9 b7fd e83c de40 363d
00000160: 5d57 cbbb 3ed7 83bb 025d f0bc a0fb e339
00000170: 6830 f43c 8fca 083d dde3 42bc 1ecb 37bc
00000180: bcbc 6c3c a432 fdbc cf8c 13bd 7b21 153d
00000190: 6e17 663c e310 523c 6329 56bc 7b9e eb3c
000001a0: 0851 cebc 5f46 6f3c ca9e 25bd ca40 18bd
000001b0: 79c9 85bc f97c fb3c 280b 91bc 68f3 fdbc
000001c0: 104a fcbc 0939 2abd 4de4 d83b f258 993c
000001d0: 0093 573d 0147 293d a3ab a2bb 1566 853c
000001e0: 5e51 03bd 13e8 0cbc e81a c9bc 7dcd c03b
000001f0: 4629 a63c 13dc 553d 414f 2a3c 18b8 493c

linear_relu_stack.4.weight f4 [10, 128]
-0.090755865 -0.08039562 0.029243384 0.060836695 -0.013881721 0.014323793 0.030071411 0.03894162
0.0503003 -0.049129993 -0.06494141 0.008483171 -0.0341536 -0.05932934 -0.026907505 -0.07104632
-0.081140265 -0.06570963 -0.08767877 0.020806529 -0.020707877 0.054591015 0.00535367 -0.06018007
-0.02334206 0.042565852 0.038744554 -0.016530856 -0.0003984645 -0.015817424 -0.08616919 -0.048137013
-0.069809906 -0.05667239 0.004540503 0.033805355 0.07923043 -0.024644623 -0.08731912 -0.053037394
0.039242923 0.02733055 -0.026085088 0.014020172 0.0721494 0.065342404 -0.030245159 0.07105454
0.029017774 -0.07673186 -0.021261359 -0.07850476 0.045284703 0.01680225 -0.03905837 0.05665133
-0.063535534 0.029550219 0.0036554486 0.08466559 -0.033611264 -0.07682256 -0.091475375 -0.06541532
0.061670147 0.008800961 -0.029472154 0.062460076 -0.035576 0.079282835 -0.036882043 0.03846182
0.034879826 -0.027756814 0.054732338 -0.07136996 -0.042589422 0.003805277 -0.06320791 -0.025370108
-0.04383545 -0.05016026 -0.006337926 -0.022452788 -0.06830013 -0.08024799 -0.09318241 0.035614967
0.0672856 0.043937504 -0.08186703 -0.051111408 0.045699716 0.06493667 0.06080542 -0.02284919
-0.017862106 -0.049567234 -0.08398968 0.0436934 -0.04038153 0.0812685 0.07388957 -0.08028794
0.04902465 0.023720404 0.010056332 -0.0044924133 0.066909134 -0.08935027 0.017713865 -0.03138412
-0.060055666 0.081403725 -0.0728984 -0.018349305 -0.014778689 0.002922659 0.03002733 -0.032845452
0.06591197 0.07064875 0.021349572 0.02754669 -0.00018331409 -0.018623404 0.03724827 -0.066254705
-0.021833472 -0.017841116 -0.047206376 -0.06411509 -0.069162175 0.030904956 -0.060828608 0.06352333
0.06464382 -0.027748462 -0.06286852 0.04574097 -0.042984135 0.01333268 0.031423226 0.08153776
-0.0303118 -0.057518214 0.058727674 0.07820632 0.052167036 0.025977023 -0.08150686 -0.01651226
-0.07650492 0.07951436 -0.039724227 -0.07256632 -0.07201999 -0.038141824 -0.028389528 -0.057635866
-0.034411006 0.053404607 0.08640588 0.00015150756 -0.020192787 -0.06511056 -0.057114016 0.009605832
-0.07154572 -0.08272165 0.075940765 0.06280648 0.081929274 -0.0147477165 0.07865817 0.012072712
-0.05869177 0.034686983 -0.0046575814 -0.08304171 0.029070988 0.013250895 0.0014806539 -0.025626011
0.020606667 -0.030287832 -0.04422301 -0.07677299 0.022847198 -0.06405072 -0.06240161 -0.047477316
0.006150469 0.020599894 -0.07045233 0.05499343 -0.081660435 -0.045153845 0.044706874 -0.002505295
-0.031239476 -0.022645049 0.030515105 -0.022361398 -0.069903225 -0.039744236 0.03787247 0.0008278042
-0.06312278 0.08073182 -0.07184989 -0.03978479 0.019161157 -0.06879966 -0.07329045 -0.060314637
-0.031073563 0.07848074 0.044083692 0.07002061 -0.05125086 -0.014046006 -0.0045487285 0.028581671
-0.08061023 0.016828828 -0.05289517 0.04760196 0.024438418 0.031041227 0.008087873 -0.062754646
0.026302055 -0.013551898 -0.056944594 -0.02137091 0.041775428 -0.076724134 0.016056865 -0.047463715
0.023172177 0.062487178 -0.088359475 -0.048244253 0.037769444 0.076704435 0.06016738 0.044287585
-0.008027054 -0.040599648 -0.030092437 0.08254369 -0.0066655427 0.054876216 0.023431234 0.06539712
00000000: 36de b9bd 75a6 a4bd d28f ef3c e62f 793d
00000010: 2870 63bc 58ae 6a3c 5258 f63c 4081 1f3d
00000020: b007 4e3d 883c 49bd 0100 85bd 00fd 0a3c
00000030: a5e4 0bbd 5203 73bd 216d dcbc bc80 91bd
00000040: de2c a6bd c592 86bd ed90 b3bd 7472 aa3c
00000050: 91a3 a9bc d49a 5f3d d76d af3b 617f 76bd
00000060: d937 bfbc 8859 2e3d 9cb2 1e3d b86b 87bc
00000070: 00e9 d0b9 8b93 81bc 7979 b0bd 512b 45bd
00000080: 7ff8 8ebd 4f21 68bd 80c8 943b 7c77 0a3d
00000090: 9043 a23d 85e3 c9bc 5ed4 b2bd bd3d 59bd
000000a0: 30bd 203d 51e4 df3c 65b0 d5bc ddb4 653c
000000b0: 11c3 933d 3dd2 853d b2c4 f7bc 0b85 913d
000000c0: afb6 ed3c 9825 9dbd 4d2c aebc 1bc7 a0bd
000000d0: 747c 393d dfa4 893c abfb 1fbd 3a0b 683d
000000e0: eb1e 82bd 4d13 f23c 4090 6f3b 2765 ad3d
000000f0: f7ab 09bd 2555 9dbd 7157 bbbd 78f8 85bd
00000100: d699 7c3d e831 103c 966f f1bc 23d6 7f3d
00000110: 24b8 11bd 0a5f a23d a011 17bd 248a 1d3d
00000120: 26de 0e3d 4262 e3bc 042f 603d 6a2a 92bd
00000130: 3f72 2ebd f461 793b 2673 81bd f9d4 cfbc
00000140: cd8c 33bd d874 4dbd 60ae cfbb e9ee b7bc
00000150: f0e0 8bbd 0f59 a4bd 6bd6 bebd 00e1 113d
00000160: 08cd 893d d0f7 333d e7a9 a7bd 325a 51bd
00000170: a02f 3b3d 84fd 843d 1b0f 793d 392e bbbc
00000180: 8d53 92bc 0307 4bbd c802 acbd daf7 323d
00000190: 1a67 25bd 1970 a63d 6a53 973d 016e a4bd
000001a0: 12ce 483d 4b51 c23c 50c3 243c 1835 93bb
000001b0: a807 893d 46fd b6bd ab1c 913c a38c 00bd
000001c0: eefc 75bd ffb6 a63d c24b 95bd 4851 96bc
000001d0: 5022 72bc 158a 3f3b e0fb f53c f488 06bd
000001e0: dbfc 863d 4bb0 903d 4ce5 ae3c 99a9 e13c
000001f0: 0038 40b9 1c90 98bc a491 183d 8cb0 87bd
00000200: 1cdc b2bc 8827 92bc 795b 41bd c64e 83bd
00000210: e6a4 8dbd 642c fd3c 6b27 79bd 8518 823d
00000220: fb63 843d be50 e3bc 36c1 80bd e25a 3b3d
00000230: 2210 30bd 5071 5a3c a4b5 003d 45fd a63d
00000240: 7450 f8bc 3898 6bbd 6e8c 703d a32a a03d
00000250: 1aad 553d c4cd d43c 12ed a6bd b844 87bc
00000260: 9dae 9cbd 6dd8 a23d dfb5 22bd a79d 94bd
00000270: 377f 93bd 9a3a 1cbd 2891 e8bc 9613 6cbd
00000280: 8ef2 0cbd cabe 5a3d 91f5 b03d 00de 1e39
00000290: 586b a5bc af58 85bd 63f0 69bd c861 1d3c
000002a0: 9086 92bd f869 a9bd d586 9b3d afa0 803d
000002b0: 89ca a73d 68a0 71bc 8917 a13d a0cc 453c
000002c0: c866 70bd f013 0e3d a09e 98bb c611 aabd
000002d0: 4826 ee3c 481a 593c 8012 c23a a4ed d1bc
000002e0: 50cf a83c 301e f8bc 3023 35bd 283b 9dbd
000002f0: 0c2a bb3c 062d 83bd d598 7fbd 9377 42bd
00000300: e089 c93b 1cc1 a83c 5049 90bd ca40 613d
00000310: 963d a7bd 3df3 38bd 8e1e 373d e02f 24bb
00000320: eee9 ffbc 1c82 b9bc d0fa f93c 402f b7bc
00000330: 6c29 8fbd daca 22bd 2a20 1b3d 0001 593a
00000340: 8446 81bd b956 a53d 0926 93bd 60f5 22bd
00000350: dcf7 9c3c d6e6 8cbd 4e19 96bd 7b0c 77bd
00000360: fc8d febc 83ba a03d 1a91 343d f766 8f3d
00000370: 6cec 51bd 3821 66bc 800d 95bb 1c24 ea3c
00000380: fa16 a5bd 9cdc 893c 9ba8 58bd 46fa 423d
00000390: 1433 c83c 2c4a fe3c 0083 043c 8285 80bd
000003a0: 6877 d73c c808 5ebc bc3e 69bd 0c12 afbc
000003b0: b61c 2b3d 8b21 9dbd b089 833c 5069 42bd
000003c0: 94d3 bd3c 8ef2 7f3d d0f5 b4bd c49b 45bd
000003d0: 22b4 1a3d 3717 9d3d 1272 763d e666 353d
000003e0: e883 03bc d14b 26bd 6a84 f6bc ab0c a93d
000003f0: a06a dabb e2c5 603d dcf2 bf3c edee 853d

linear_relu_stack.4.bias f4 [10]
-0.09204177 -0.001623936 0.02937074 -0.004463684 -0.072122395 -0.061646614 0.013536165 0.07915527
-0.038696393 -0.021588312
00000000: 6580 bcbd 40da d4ba e89a f03c 1844 92bb
00000010: e8b4 93bd 2981 7cbd cac6 5d3c 281c a23d
00000020: 1c80 1ebd f9d9 b0bc

linear_relu_stack.6.weight f4 [1, 10]
0.09465591 0.2335281 0.04265362 0.1939302 0.15990849 0.10010347 -0.22876741 -0.06883188
-0.22807786 0.22979294
00000000: f5da c13d fe21 6f3e 90b5 2e3d a395 463e
00000010: 0dbf 233e 0c03 cd3d 0142 6abe bbf7 8cbd
00000020: 3e8d 69be d74e 6b3e

exp_avg f4 [512, 16]
0.005964195 0.014265638 -0.0082972795 2.1991174 1.771883 0.011488366 0.007979904 3.3131104
0.93105215 2.3973262 1.3882138 4.6111873e-05 1.1961888 0.09701909 -0.027950045 0.17231835
0.00059257937 -0.0017291087 -0.013515256 0.21068445 0.12602858 -0.006455294 -0.0069110594 -0.19730079
0.0692791 -0.12468506 0.15003124 0.0 0.09371004 0.025029836 0.0 -0.0133395605
-0.0014694994 -0.00042443982 -0.011505665 0.25487185 0.20819108 -0.0068828044 -0.008004872 -0.13989478
-0.06579576 -0.10376245 -0.072102115 -9.8753977e-17 0.10344362 0.04169419 0.00028062062 0.0026251974
9.9927965e-05 0.00017297795 0.009761563 -0.3039811 -0.17501137 0.0036326724 0.0058833947 0.0718875
-0.11029114 0.042142056 -0.20693548 -1.7909974e-06 -0.08569494 -0.026226804 0.0 0.009565392
0.006555741 0.00085015985 -0.0064062322 0.5217021 0.27613908 -0.0009223516 -0.0025589254 0.6060085
0.5348114 0.39881095 0.73237467 6.501566e-06 0.1651945 0.027858863 0.0067809103 -0.014146312
0.005445253 -0.00015906505 0.009990924 -0.23830958 -0.30894637 0.0046015526 0.0064747357 0.20338628
0.013613241 0.073047265 -0.020417633 -6.4172846e-06 -0.08511991 -0.015720094 0.0 -0.0061020562
-0.001988284 -0.0005051259 -0.010332072 0.28170386 0.22082609 -0.0034214514 -0.004840956 -0.13820685
0.044833355 -0.088796735 0.098142214 5.0573744e-06 0.15578721 0.041391023 0.00051631965 -0.0028365592
-0.004896457 -0.0007882463 -0.014914459 0.20998092 0.37231964 -0.009263873 -0.0064557865 -0.3329291
-0.13894242 -0.19239804 -0.15768546 3.4215075e-06 0.22127844 0.02790841 -0.009526005 0.0005704239
0.011350957 -0.0011776442 0.015447731 -0.30209854 -0.39943105 0.009173728 0.010622543 0.6337521
0.2010878 0.33497566 0.17398027 -2.3422915e-06 -0.17127882 -0.028388977 0.0 0.0136353355
0.0 0.0 0.0 0.0 0.0 0.0 0.0 0.0
0.0 0.0 0.0 0.0 0.0 0.0 0.0 0.0
0.0043883766 -0.0011682444 -0.009557628 0.39225692 0.038240645 0.0006874071 -0.0072327703 0.109272376
0.20328298 0.054547537 0.4337968 9.955459e-06 0.27112412 0.07780899 0.0 0.0036708652
0.005254171 0.0012393852 0.0044302265 0.11259585 0.066470005 0.000723452 0.00086882495 0.3874121
0.118356444 0.23790969 0.12228396 -4.4376357e-06 0.003384102 0.0036926742 0.006015137 0.006551699
-0.0006649304 0.0001648005 -0.0015545624 -0.00411487 -0.01102024 0.0014164501 0.0006593586 -0.0034214247
0.012739763 0.017704295 0.00791119 0.0 -0.0314006 -0.021041483 0.0 0.013817947
0.008110238 -0.0004255357 -0.018445816 0.5652556 0.4587976 -0.009366951 -0.0053407717 0.10720042
0.102282785 0.06787306 0.010483349 0.0 0.21729136 0.026348481 -0.012367802 0.06442447
0.0031771988 0.0010638572 -0.016661769 0.7368252 0.5439894 -0.0058485866 -0.009120619 0.4156795
0.3082996 0.32012534 0.4443175 5.5875507e-06 0.27519244 0.04218178 -0.010224208 -0.005896644
0.0036801167 -0.00042507812 -0.00039470318 0.019452397 -0.04891637 -0.0015830676 -0.00092936103 0.1289817
0.02107417 0.066625185 0.006595783 -3.8815497e-06 -0.022738926 0.013425061 0.0027508931 0.007251058
00000000: 4b6f c33b 6cba 693c 50f1 07bc 57be 0c40
00000010: 10cd e23f b339 3c3c 25be 023c 000a 5440
00000020: 6f59 6e3f cb6d 1940 fdb0 b13f 3f68 4138
00000030: b71c 993f f2b1 c63d 7ef7 e4bc 3974 303e
00000040: 5457 1b3a 43a3 e2ba 186f 5dbc aabd 573e
00000050: a30d 013e ee86 d3bb 2b76 e2bb 3809 4abe
00000060: 33e2 8d3d e15a ffbd caa1 193e 0000 0000
00000070: 0deb bf3d 5f0b cd3c 0000 0000 2c8e 5abc
00000080: 389c c0ba 5987 deb9 4282 3cbc 907e 823e
00000090: 0b30 553e 2689 e1bb de26 03bc 9440 0fbe
000000a0: edbf 86bd 6881 d4bd 46aa 93bd 0fb6 e3a4
000000b0: 40da d33d 87c7 2a3d 4320 9339 810b 2c3b
000000c0: 6b90 d138 6a61 3539 f6ee 1f3c 69a3 9bbe
000000d0: 2e36 33be 2112 6e3b 7ec9 c03b c139 933d
000000e0: 52e0 e1bd 269d 2c3d e5e6 53be 3462 f0b5
000000f0: d480 afbd 98d9 d6bc 0000 0000 29b8 1c3c
00000100: 8bd1 d63b 43dd 5e3a 5feb d1bb 458e 053f
00000110: 1a62 8d3e f8c9 71ba a5b3 27bb 6023 1b3f
00000120: 66e9 083f f330 cc3e e87c 3b3f 0728 da36
00000130: bf28 293e 4538 e43c 6632 de3b efc5 67bc
00000140: 186e b23b b3ca 26b9 f9b0 233c 6d07 74be
00000150: 382e 9ebe 9fc8 963b 052a d43b 7e44 503e
00000160: 120a 5f3c ce99 953d e142 a7bc 0e54 d7b6
00000170: 5953 aebd 6dc7 80bc 0000 0000 c2f3 c7bb
00000180: df4d 02bb 6d6a 04ba da47 29bc 7d3b 903e
00000190: 3c20 623e 6e3a 60bb e2a0 9ebb 1986 0dbe
000001a0: 2ea3 373d 10db b5bd c9fe c83d 84b2 a936
000001b0: af86 1f3e a289 293d a059 073a 91e5 39bb
000001c0: 7572 a0bb 50a2 4eba c65b 74bc 3d05 573e
000001d0: aea0 be3e 80c7 17bc 108b d3bb af75 aabe
000001e0: ec46 0ebe fe03 45be 4c78 21be 0d9d 6536
000001f0: d196 623e 2ea0 e43c f612 1cbc 8088 153a
00000200: 5df9 393c 2f5b 9aba 7b18 7d3c a9ac 9abe
00000210: 3a82 ccbe 674d 163c 2d0a 2e3c 943d 223f
00000220: f6e9 4d3e ee81 ab3e e227 323e 4330 1db6
00000230: b763 2fbe 0090 e8bc 0000 0000 be66 5f3c
00000240: 0000 0000 0000 0000 0000 0000 0000 0000
00000250: 0000 0000 0000 0000 0000 0000 0000 0000
00000260: 0000 0000 0000 0000 0000 0000 0000 0000
00000270: 0000 0000 0000 0000 0000 0000 0000 0000
00000280: 5fcc 8f3b c71f 99ba 9997 1cbc e6d5 c83e
00000290: 39a2 1c3d 1c33 343a e000 edbb 32ca df3d
000002a0: 6a29 503e 3d6d 5f3d 9d1a de3e 5f06 2737
000002b0: c8d0 8a3e 525a 9f3d 0000 0000 e692 703b
000002c0: 2e2b ac3b de72 a23a 6f2b 913b a798 e63d
000002d0: 6d21 883d 0ba6 3d3a dbc1 633a e15a c63e
000002e0: dd64 f23d 999e 733e 0370 fa3d 00e7 94b6
000002f0: cfc7 5d3b cb00 723b a01a c53b a2af d63b
00000300: b94e 2eba 4cce 2c39 75c2 cbba 08d6 86bb
00000310: 3d8e 34bc 2ea8 b93a ced8 2c3a fb39 60bb
00000320: 70ba 503c 9908 913c f09d 013c 0000 0000
00000330: ea9d 00bd 305f acbc 0000 0000 ac64 623c
00000340: cee0 043c 6f1a dfb9 ae1b 97bc 97b4 103f
00000350: 85e7 ea3e d777 19bc a401 afbb e58b db3d
00000360: a379 d13d 0801 8b3d 5ac2 2b3c 0000 0000
00000370: a081 5e3e c5d8 d73c 52a2 4abc faf0 833d
00000380: 8d38 503b 2071 8b3a 437e 88bc 94a0 3c3f
00000390: e442 0b3f 80a5 bfbb a66e 15bc f2d3 d43e
000003a0: 72d9 9d3e 78e7 a33e 957d e33e b27c bb36
000003b0: 06e6 8c3e cdc6 2c3d 7083 27bc a338 c1bb
000003c0: 1d2e 713b 05dd deb9 2af0 ceb9 a25a 9f3c
000003d0: 885c 48bd ef7e cfba 5da0 73ba c713 043e
000003e0: bda3 ac3c c972 883d 7021 d83b 423e 82b6
000003f0: fc46 babc c9f4 5b3c 5448 343b 489a ed3b

exp_avg_sq f4 [512, 16]
0.00454001 0.00073744514 0.0003136005 14.584171 7.284218 0.00019144331 3.818538e-05 16.988354
2.0147395 6.674531 2.5427878 2.8545795e-09 1.2134254 0.17699802 0.037326563 0.033230316
0.0027157224 4.371927e-05 0.00012138613 2.4766533 0.3054316 6.178628e-05 3.2931654e-05 19.624043
3.151849 8.021251 4.369363 0.0 0.4620721 0.016635286 0.0 0.049813084
0.0075928015 0.00014156145 0.00046526655 7.1076603 1.0087333 0.00018529248 9.048947e-05 51.378155
5.6920896 20.682606 6.500898 7.8164225e-11 2.0567234 0.08056761 0.0022851394 0.19576702
0.015220712 0.000135255 0.00046036884 12.8065605 0.912307 0.000477983 7.72819e-05 63.64625
12.116829 23.955927 15.021763 3.0902822e-11 2.5166905 0.1464176 0.0 0.21496344
0.0033708992 0.000111226436 0.00019367921 3.674926 0.79263645 9.1136266e-05 6.342207e-05 10.042277
5.333638 3.8556702 8.838415 6.907637e-10 0.9552899 0.067347415 0.0066470597 0.07751771
0.0024705222 7.707748e-05 0.00016256623 2.5061538 0.5774725 5.880018e-05 3.9071212e-05 13.57524
4.102133 5.4747605 6.998215 2.782616e-10 0.40389168 0.018717183 0.0 0.046540707
0.005888082 0.00010250101 0.00026730154 5.7992625 0.8559274 0.00012725536 5.303472e-05 40.472466
5.430338 16.519009 7.052366 3.0452682e-10 1.2813026 0.06061624 0.0026055656 0.10661938
0.0037485913 9.254317e-05 0.00018578481 4.214887 0.86380756 0.00012965333 3.1011266e-05 26.090652
1.9895242 10.617474 1.7333124 1.8100976e-10 1.0590461 0.042974707 0.0036464834 0.0871903
0.0030906135 0.00012499695 0.00022877673 3.685669 1.0163293 0.00011432216 5.9631802e-05 24.34847
1.8602978 9.853485 1.8583474 4.9690394e-11 0.80352145 0.027333787 0.0 0.0819861
0.0 0.0 0.0 0.0 0.0 0.0 0.0 0.0
0.0 0.0 0.0 0.0 0.0 0.0 0.0 0.0
0.0036131013 0.0001237685 0.00014656714 3.8579054 0.8866795 7.8726036e-05 7.755488e-05 12.513443
7.2539387 4.7621694 12.19626 4.404265e-10 0.45658824 0.03416259 0.0 0.050873492
0.0005285966 1.4493717e-05 1.6155618e-05 0.6175184 0.1227724 2.940254e-05 5.244383e-06 3.6536222
0.36118484 1.5621206 0.35424843 7.3108755e-11 0.16071329 0.009980904 0.0010572416 0.019734893
0.00046722978 7.68267e-07 1.9347384e-05 0.27785832 0.0036186215 6.523009e-05 1.7742797e-05 0.25746885
0.01710435 0.031387676 0.0061028437 0.0 0.44714132 0.074298024 0.0 0.019422846
0.0036477738 5.2921187e-05 0.00018598666 3.1556816 0.43592194 0.00012081208 3.706899e-05 29.76009
1.2661823 12.161492 0.6888798 0.0 1.2513479 0.046710573 0.0013463225 0.093008816
0.010257799 0.00019661809 0.00051055057 10.076607 1.690415 0.00024777715 0.00010796423 66.05456
8.448601 26.590002 10.310535 4.2284617e-10 2.3427002 0.119869135 0.004159733 0.19181485
0.0017895197 1.7314309e-05 4.863696e-05 1.5113012 0.17615324 4.45582e-05 8.200414e-06 11.110074
1.1498276 4.5087514 1.1832973 4.0890628e-11 0.40699574 0.014455011 0.0004808131 0.05049412
00000000: 5dc4 943b 1b51 413a bf6a a439 c458 6941
00000010: 5018 e940 2cbe 4839 3d29 2038 26e8 8741
00000020: 7ef1 0040 c295 d540 09bd 2240 4b2a 4431
00000030: 8651 9b3f f83e 353e bde3 183d 831c 083d
00000040: 43fa 313b 355f 3738 af90 fe38 7d81 1e40
00000050: 8861 9c3e 4293 8138 1820 0a38 0afe 9c41
00000060: e5b7 4940 0b57 0041 d2d1 8b40 0000 0000
00000070: b794 ec3e b946 883c 0000 0000 ce08 4c3d
00000080: 09cd f83b 1d70 1439 05ef f339 f471 e340
00000090: 2c1e 813f 124b 4239 2ac5 bd38 3b83 4d42
000000a0: 9925 b640 fa75 a541 5b07 d040 8ce2 ab2e
000000b0: 5ba1 0340 a200 a53d 47c2 153b 2677 483e
000000c0: 4b60 793c 3dd3 0d39 a95d f139 ace7 4c41
000000d0: f48c 693f cb99 fa39 6712 a238 c395 7e42
000000e0: 88de 4141 bda5 bf41 2459 7041 7ce9 072e
000000f0: 7511 2140 7fee 153e 0000 0000 601f 5c3e
00000100: 4eea 5c3b 3d42 e938 5e16 4b39 fd31 6b40
00000110: 39ea 4a3f 6920 bf38 7701 8538 2bad 2041
00000120: 2aad aa40 4dc3 7640 266a 0d41 2de0 3d30
00000130: e18d 743f 71ed 893d 94cf d93b 9bc1 9e3d
00000140: 7ce8 213b a8a4 a138 8a76 2a39 d364 2040
00000150: 3dd5 133f 36a0 7638 65e0 2338 2f34 5941
00000160: ac44 8340 3d31 af40 61f1 df40 d7f9 982f
00000170: e4ca ce3e c754 993c 0000 0000 78a1 3e3d
00000180: d0f0 c03b d0f5 d638 9b24 8c39 8f93 b940
00000190: 0f1e 5b3f da6f 0539 9971 5e38 cee3 2142
000001a0: 54c5 ad40 ee26 8441 fbac e140 576a a72f
000001b0: b901 a43f bc48 783d 23c2 2a3b 435b da3d
000001c0: edaa 753b bc13 c238 3bcf 4239 5be0 8640
000001d0: 7e22 5d3f 8df3 0739 1812 0238 a8b9 d041
000001e0: bba8 fe3f 2ce1 2941 2edd dd3f b805 472f
000001f0: d38e 873f 3f06 303d d7f9 6e3b d490 b23d
00000200: e48b 4a3b 9d11 0339 c9e3 6f39 00e2 6b40
00000210: 1417 823f 3ec0 ef38 291d 7a38 abc9 c241
00000220: 3d1e ee3f e0a7 1d41 54de ed3f 698a 5a2e
00000230: 95b3 4d3f 1beb df3c 0000 0000 54e8 a73d
00000240: 0000 0000 0000 0000 0000 0000 0000 0000
00000250: 0000 0000 0000 0000 0000 0000 0000 0000
00000260: 0000 0000 0000 0000 0000 0000 0000 0000
00000270: 0000 0000 0000 0000 0000 0000 0000 0000
00000280: c8c9 6c3b dbc7 0139 d1af 1939 ece7 7640
00000290: 6dfd 623f b819 a538 f6a4 a238 1037 4841
000002a0: 4420 e840 b163 9840 e223 4341 8520 f22f
000002b0: efc5 e93e 12ee 0b3d 0000 0000 b960 503d
000002c0: 8491 0a3a 0a2a 7337 ed85 8737 b015 1e3f
000002d0: 1970 fb3d 79a5 f637 e8f8 af36 f2d4 6940
000002e0: 38ed b83e 91f3 c73f 0d60 b53e 92c4 a02e
000002f0: 0692 243e f286 233c 2493 8a3a 12ab a13c
00000300: 85f6 f439 e83a 4e35 314c a237 7243 8e3e
00000310: 6526 6d3b 23cc 8838 5ed6 9437 f5d2 833e
00000320: 6c1e 8c3c 5d90 003d 5dfa c73b 0000 0000
00000330: b5ef e43e 9029 983d 0000 0000 a91c 9f3c
00000340: 7d0f 6f3b b1f7 5d38 6a05 4339 b0f6 4940
00000350: 2931 df3e 7e5c fd38 867a 1b38 aa14 ee41
00000360: 4312 a23f 7995 4241 6d5a 303f 0000 0000
00000370: 2b2c a03f 9653 3f3d 1677 b03a 687b be3d
00000380: 5410 283c 442b 4e39 78d6 053a c839 2141
00000390: 855f d83f 16e8 8139 db6a e238 ef1b 8442
000003a0: 782d 0741 53b8 d441 f4f7 2441 4f76 e82f
000003b0: cdee 1540 f37d f53d 5f4e 883b 1d6b 443e
000003c0: 518e ea3a 323e 9137 8aff 4b38 5172 c13f
000003d0: 8461 343e 01e4 3a38 8394 0937 ddc2 3141
000003e0: 8d2d 933f b147 9040 4976 973f c1d6 332e
000003f0: bf61 d03e b6d4 6c3c a415 fc39 ecd2 4e3d

exp_avg f4 [512]
0.002621805 0.0005744959 -0.00085468055 0.00012318268 0.004186739 0.0036127632 -0.0015666946 -0.0029605997
0.0073480387 0.0 0.0021416328 0.003872388 -0.0006904141 0.006220537 0.002117768 0.0028022379
0.003632971 -0.027688695 -0.0026777247 0.0015911326 0.001321795 0.0034018967 0.0 0.00021108905
0.016474262 -0.00023758254 0.002265584 0.00093865034 -0.00013628787 -0.0011507382 -0.003320927 -0.004776229
-0.0023126227 -0.0019195301 -0.0009972465 0.0 0.020435723 0.0066717933 -0.0007991941 0.0
2.7144516e-14 0.0014703787 -0.102691874 0.011074109 0.0006778995 0.029494312 -0.0014296729 -2.0623986e-05
0.0028276972 0.054873064 -0.00869624 0.0 -0.018828 0.009866724 -0.0017825501 0.017575834
0.0031647948 0.0020759637 -0.0006012821 0.0027031736 -0.0015788773 0.0023754744 0.011664649 0.0019777706
0.00088486535 0.0013648183 0.0027152584 0.005003279 -0.0031806848 0.0008819223 -0.0049252124 0.0
0.0015387549 0.01464463 0.0042307274 -0.0044618505 0.0006497601 0.0 -0.012928204 -0.00030058715
0.0015667618 -0.0018947474 0.002562948 0.026869062 0.0066306028 0.0 -0.07314273 -0.0438166
-0.0011683964 0.0068521393 -0.0011939659 0.0032852353 0.00080029666 0.003225546 0.004390814 -0.00015960533
0.0013133137 0.002627466 -0.00301877 0.001487752 -0.002377094 -0.00013936985 0.004419905 -0.007125198
-0.0004983552 -0.004488252 0.00040249838 -0.01855262 0.0 0.002324303 -0.010646347 -0.00114606
0.01661373 -0.0020882 0.0031173525 0.0010471139 0.0 0.00017242481 -0.005481768 0.002391369
-0.031966493 0.0 0.018594977 0.0012153324 0.011382733 -0.0011533162 -0.00027259285 -0.007960746
0.00042307808 0.015043539 -0.0425685 0.0 0.0019437857 -0.00035185486 0.0009368272 0.004893454
-0.00801079 0.030163858 -0.0003904472 0.005361297 -0.00046631534 0.003996872 -0.0029502388 0.0016796312
0.0127810715 -0.0013630566 0.00030895852 0.00092172105 0.0 0.00095979637 -0.01470896 0.0015394128
-0.015986254 0.00760658 0.0 0.0 0.0044939066 0.0001736162 -0.03264215 -0.0037991675
-0.0035360416 0.001023421 0.000641847 -0.002825634 0.0039293487 0.0002559412 -0.00024365455 0.004077326
0.0008532076 0.0 0.0024714987 0.0017972515 -0.004774485 -0.016972154 -0.00012973101 0.009737701
0.0037837594 -0.0045976606 0.0035201928 0.0032871997 0.00415791 -0.0034174176 0.00066856464 0.016159236
0.0015078015 0.00083648745 0.025183748 -0.011657539 0.0 0.0043867524 -0.012233054 -9.904468e-05
-0.0027841227 0.011559753 0.0039334157 0.0 -0.00085437007 -0.018172225 -0.023239356 -0.0026951346
-0.00041162528 0.004244265 0.010495436 0.0052891234 0.005420435 0.00084391027 -5.6386012e-05 -0.01833632
0.0007948039 0.0011428423 -0.00020868581 -0.0019538477 0.0026893253 -0.0017538815 0.0011000029 0.0
-0.005209429 -0.0060426053 0.0 -0.0017701029 0.004748167 0.05551333 -0.001182734 -0.0023600415
0.0005147637 0.0011382548 0.0 0.0008231252 -0.0017944276 0.0012937448 0.0012897967 -0.006375369
-0.0044855108 0.007946098 0.0043499186 -0.00053718203 0.0030273693 -0.0009059958 0.00797604 0.009551469
-0.0034189576 0.0044404906 -0.002897418 0.0 0.0029408862 -0.0023259118 0.005420319 -0.00065007794
-0.009181028 -0.0062050563 0.001008512 0.0 0.0023347852 -0.0013526634 0.0021374822 0.0037992687
00000000: 97d2 2b3b c499 163a a40c 60ba 992a 0139
00000010: ea30 893b 1cc4 6c3b 8c59 cdba 9f06 42bb
00000020: d1c7 f03b 0000 0000 a35a 0c3b e4c7 7d3b
00000030: e8fc 34ba a5d5 cb3b 40ca 0a3b c0a5 373b
00000040: 2417 6e3b 67d3 e2bc c47c 2fbb 8d8d d03a
00000050: 1540 ad3a 5bf2 5e3b 0000 0000 c957 5d39
00000060: 08f5 863c 941f 79b9 317a 143b c20f 763a
00000070: 7fe8 0eb9 5ed4 96ba e9a3 59bb ea81 9cbb
00000080: 5f8f 17bb be98 fbba 0ab6 82ba 0000 0000
00000090: d168 a73c 0f9f da3b 0281 51ba 0000 0000
000000a0: fe7e f428 b9b9 c03a 1e50 d2bd 2e70 353c
000000b0: 11b5 313a 0e9e f13c dd63 bbba ac01 adb7
000000c0: e350 393b 94c2 603d ad7a 0ebc 0000 0000
000000d0: 2e3d 9abc 0aa8 213c 75a4 e9ba 32fb 8f3c
000000e0: 7268 4f3b e40c 083b 5c9f 1dba ba27 313b
000000f0: 55f2 ceba d9ad 1b3b 151d 3f3c 7c9d 013b
00000100: 4ff6 673a b4e3 b23a 7af2 313b 8cf2 a33b
00000110: 0973 50bb ce30 673a ad63 a1bb 0000 0000
00000120: 0cb0 c93a 08f0 6f3c eaa1 8a3b b734 92bb
00000130: aa54 2a3a 0000 0000 d1d0 53bc 2098 9db9
00000140: cd5b cd3a 2c59 f8ba 22f7 273b 821c dc3c
00000150: 8745 d93b 0000 0000 dbcb 95bd 0979 33bd
00000160: e124 99ba e987 e03b d97e 9cba 1a4d 573b
00000170: 00cb 513a af63 533b d1e0 8f3b bb5b 27b9
00000180: 7f23 ac3a 9131 2c3b 8ed6 45bb ac00 c33a
00000190: 05c9 1bbb cf23 12b9 dad4 903b 7e7a e9bb
000001a0: 0da4 02ba 3012 93bb 6b06 d339 aafb 97bc
000001b0: 0000 0000 5553 183b 046e 2ebc 6437 96ba
000001c0: 8419 883c 2fda 08bb 7f4c 4c3b 503f 893a
000001d0: 0000 0000 efcc 3439 67a0 b3bb 84b8 1c3b
000001e0: 4cef 02bd 0000 0000 7e54 983c ca4b 9f3a
000001f0: a47e 3a3c df2a 97ba cbea 8eb9 ca6d 02bc
00000200: 94d0 dd39 2d79 763c 4f5c 2ebd 0000 0000
00000210: a0c6 fe3a 2979 b8b9 6995 753a 4459 a03b
00000220: b03f 03bc 321a f73c f0b4 ccb9 d2ad af3b
00000230: c97b f4b9 31f8 823b cb58 41bb 1227 dc3a
00000240: b367 513c 97a8 b2ba b6fb a139 a79f 713a
00000250: 0000 0000 d89a 7b3a dafd 70bc 1fc6 c93a
00000260: 9bf5 82bc 9e40 f93b 0000 0000 0000 0000
00000270: 9f41 933b be0c 3639 c6b3 05bd 74fb 78bb
00000280: efbc 67bb 4f24 863a 9f41 283a 462e 39bb
00000290: c4c1 803b d92f 8639 857d 7fb9 179b 853b
000002a0: cba9 5f3a 0000 0000 def8 213b c191 eb3a
000002b0: 4873 9cbb 3009 8bbc 6708 08b9 e18a 1f3c
000002c0: f3f8 773b f9a7 96bb 09b3 663b 0f6e 573b
000002d0: 143f 883b c1f6 5fbb 9d42 2f3a 6060 843c
000002e0: 6ca1 c53a b947 5b3a 264e ce3c 43ff 3ebc
000002f0: 0000 0000 bfbe 8f3b 266d 48bc 35b6 cfb8
00000300: d475 36bb 1e65 3d3c e2e3 803b 0000 0000
00000310: cef7 5fba ebdd 94bc 7660 bebc dba0 30bb
00000320: 69cf d7b9 7a13 8b3b 0df5 2b3c 6250 ad3b
00000330: e89d b13b dc39 5d3a 0580 6cb8 0d36 96bc
00000340: 635a 503a 6dcb 953a acd2 5ab9 200c 00bb
00000350: 643f 303b 7fe2 e5ba f92d 903a 0000 0000
00000360: dcb3 aabb 0c01 c6bb 0000 0000 cc02 e8ba
00000370: 8396 9b3b f261 633d f805 9bba edaa 1abb
00000380: 35f1 063a 7e31 953a 0000 0000 ffc6 573a
00000390: 0033 ebba df92 a93a 650e a93a 79e8 d0bb
000003a0: 31fb 92bb 5a30 023c c389 8e3b add1 0cba
000003b0: d466 463b 5980 6dba f0ad 023c c47d 1c3c
000003c0: 9710 60bb 8981 913b 9ce2 3dbb 0000 0000
000003d0: e2bb 403b 536e 18bb ee9c b13b fe69 2aba
000003e0: 066c 16bc c953 cbbb 0c30 843a 0000 0000
000003f0: 3203 193b da4b b1ba 0015 0c3b 27fd 783b
