Solvation_1/Runs/Macro_TESA_Lin5/ep_5_best.pt (torch, 915476 bytes, 21 tensors)

linear_relu_stack.0.weight f4 [512, 16]
0	0xbe480f33	-0.19537048
1	0x3e50fd75	0.20409186
2	0xbe09d15c	-0.1345877
3	0x3e379785	0.17928894
4	0x3dead3ce	0.1146618
5	0xbe7b577d	-0.24545093
6	0x3e4ecc95	0.2019523
7	0xbcea4f4d	-0.028602267
8	0xbde11213	-0.109897755
9	0xbe1223ec	-0.14271516
10	0xbdd51f30	-0.10406339
11	0x3e76e82c	0.24112004
12	0xbe746a6a	-0.23868719
13	0x3dfcbbe2	0.12340523
14	0xbe37923f	-0.17926882
15	0x3d221ab2	0.03957624
16	0xbe49486b	-0.19656532
17	0x3e5c47ca	0.2151176
18	0xbe2e7f4b	-0.17040746
19	0xbe768a05	-0.24076088
20	0x3e061734	0.13094789
21	0xbde67e1b	-0.112545215
22	0xbe2dad02	-0.16960528
23	0x3df2af2a	0.11849816
24	0xbb9194bd	-0.00444278
25	0xbd181139	-0.0371258
26	0x3e3333df	0.17500256
27	0xbe59ef44	-0.21282679
28	0x3ce1102f	0.027473537
29	0xbd7bbfe6	-0.061462305
30	0x3ca31730	0.019908518
31	0x3db10928	0.086443245
32	0xbe36ecd9	-0.17863788
33	0xbe492998	-0.19644773
34	0x3dc42674	0.09577647
35	0xbcc9692d	-0.024586285
36	0xbe2a4cb9	-0.1663083
37	0x3e0f4da0	0.13994455
38	0x3d2e4078	0.04254195
39	0x3df73a1c	0.1207163
40	0xbe4c3b18	-0.19944417
41	0x3e75352c	0.23946065
42	0x3dcc9bf5	0.09990684
43	0xbe0534e4	-0.13008457
44	0x3dbd6d53	0.092493676
45	0x3de9fb76	0.114249155
46	0xbd53da8a	-0.051722087
47	0xbe5b9f7f	-0.21447562
48	0x3afb625c	0.0019179094
49	0xbde39cd8	-0.111139
50	0x3e2fbaf2	0.17161158
51	0x3c5cdd09	0.013480433
52	0xbe249edf	-0.1607623
53	0x3d422692	0.047400065
54	0x3dece5d4	0.11567274
55	0x3de149be	0.11000393
56	0x3c5484c7	0.01297111
57	0x3e4be58e	0.19911787
58	0x3e6c44ff	0.23073195
59	0x3da0298e	0.07820426
60	0xbe272f0b	-0.16326539
61	0xbe69ae85	-0.2282048
62	0x3dc7e460	0.09760356
63	0x3db4a384	0.08820251
64	0x3e14ffdc	0.14550728
65	0xbe2d8175	-0.16943915
66	0x3dad9503	0.08475687
67	0x3df0a647	0.11750465
68	0xbe432cc7	-0.1906005
69	0xbdb35ce0	-0.08757949
70	0xbdde481b	-0.10853597
71	0xbdee5a71	-0.11638344
72	0x3e536996	0.20645747
73	0xbdc2db6a	-0.09514506
74	0x3d1025ee	0.035192423
75	0x3dafc2f9	0.0858211
76	0x3de5ce31	0.112209685
77	0xbd8f0d5e	-0.069849715
78	0xbd2180c4	-0.03942944
79	0x3d95a32c	0.07306513
80	0x3e22ea75	0.15909751
81	0xbc0f6f2c	-0.008754533
82	0xbd40a11c	-0.047028646
83	0xbdf0e099	-0.117615886
84	0x3e422262	0.18958429
85	0x3d93bb6e	0.07213484
86	0xbe55d5b8	-0.20882308
87	0x3d6fee5e	0.058576934
88	0x3e2be0b7	0.1678494
89	0x3dd1e4e4	0.102487355
90	0x3e17f990	0.14841294
91	0x3ddc8097	0.10766714
92	0xbe6ee659	-0.23330058
93	0xbe8dd5a5	-0.2770206
94	0xbe2dffaa	-0.1699206
95	0xbe7d12a9	-0.2471415
96	0x3e80fb4a	0.25191718
97	0x3cd342a4	0.025788613
98	0xbe2719d4	-0.16318446
99	0x3e1a42cd	0.15064545
100	0xbe192c1a	-0.1495823
101	0x3e3e84b0	0.18605304
102	0x3cd6cc12	0.026220355
103	0x3d4307b6	0.047614776
104	0x3d640abf	0.05567431
105	0x3e286cda	0.16447774
106	0x3dc5da21	0.096607454
107	0xbd4112c5	-0.04713704
108	0x3c1e1553	0.009648639
109	0xbe1c3b0c	-0.152569
110	0xbdc122b5	-0.09430448
111	0x3d8cfaff	0.06883811
112	0x3da266e6	0.079297826
113	0x3e865a92	0.26240975
114	0x3e8b03ca	0.27151328
115	0xbd9226a8	-0.07136279
116	0x3e5562a5	0.20838411
117	0x3a8d9382	0.0010801407
118	0xbe3b2b06	-0.18278131
119	0x3e33c952	0.17557266
120	0xbe03fc0e	-0.1288912
121	0x3e216902	0.15762714
122	0xbe83a5ec	-0.25712526
123	0xbe34e44a	-0.1766521
124	0x3de1e291	0.11029542
125	0xbe2801ac	-0.16406888
126	0x3e1c44dc	0.15260643
127	0xbe06a426	-0.13148555
128	0xba9991b2	-0.0011716394
129	0x3d681a99	0.05666599
130	0xbe773bd0	-0.2414391
131	0xbd7dc92e	-0.061959438
132	0x3e6083bf	0.21925257
133	0x3e0b0294	0.13575202
134	0xbe942785	-0.289364
135	0x39592dea	0.00020711837
136	0xbd31c4b5	-0.043400485
137	0x3e6d14ef	0.23152517
138	0xbdeeb66b	-0.11655887
139	0xbe4a921b	-0.19782297
140	0xbe10246b	-0.14076392
141	0x3c945070	0.018104762
142	0xbc9e1940	-0.01929915
143	0xbdc08aba	-0.0940146
144	0xbe74b4fe	-0.23897168
145	0x3e56051e	0.2090039
146	0x3d37fab0	0.04491681
147	0xbd799938	-0.060937136
148	0x3bfbb1c0	0.0076811016
149	0x3c8aead0	0.01695767
150	0xbd5c8c88	-0.05384496
151	0xbd78cb10	-0.06074053
152	0xbdabb5f8	-0.08384317
153	0xbe33ab8e	-0.17545912
154	0x3b891f00	0.0041846037
155	0xbdd2648c	-0.10273084
156	0xbdea3a48	-0.114368975
157	0xbe0390a0	-0.12848139
158	0x3c5a9a60	0.01334247
159	0xbe596e92	-0.21233585
160	0x3e0a5017	0.13507114
161	0x3dfb5832	0.12272681
162	0x3a28e89c	0.0006443353
163	0x3c2c6053	0.010521012
164	0x3bc80e4f	0.0061052213
165	0xbe01ed5c	-0.12688202
166	0x3e9b255f	0.3030195
167	0xbdb1fa5f	-0.086903326
168	0x3e371fd1	0.17883231
169	0xbd83cf41	-0.06436015
170	0x3e109b9b	0.14121859
171	0x3e08bfc3	0.13354401
172	0xbe064893	-0.13113622
173	0xbd7ce773	-0.061744165
174	0x3e29e346	0.16590604
175	0x3e74d004	0.23907477
176	0x3c9c56fd	0.019084448
177	0xbe4fdec7	-0.20299827
178	0xbe2f4fd7	-0.171203
179	0x3db2ce03	0.087307
180	0x3e34c757	0.17654167
181	0x3de431ba	0.11142297
182	0xbe099ed6	-0.13439497
183	0x3de0082a	0.10939057
184	0xbe05482a	-0.1301581
185	0x3e4588a3	0.19290404
186	0xbe75f1ad	-0.24017973
187	0x3ddf0ad9	0.10890741
188	0xbe798b1d	-0.24369474
189	0x3e6c8c1a	0.2310032
190	0x3e15af0b	0.14617555
191	0x3e093195	0.1339782
192	0xbe2811ef	-0.16413091
193	0x3cde34fa	0.02712487
194	0xbccec54d	-0.025240565
195	0xbe42cf2c	-0.19024342
196	0xbe06a8ba	-0.13150302
197	0x3c9b7731	0.018977733
198	0x3e20db9d	0.15708776
199	0xbc4ed471	-0.012623892
200	0x3dbbcc4a	0.091698244
201	0xbe1f6bee	-0.15568516
202	0xbdfd5ab9	-0.123708196
203	0xbe469e76	-0.19396386
204	0x3e17f0bf	0.14837931
205	0x3dd4f770	0.103987575
206	0xbe7cb95a	-0.24680081
207	0x3e1cee55	0.15325291
208	0x3e7287fa	0.23684683
209	0xbe50256d	-0.20326777
210	0xbda12fe1	-0.0787046
211	0xbde48d63	-0.1115978
212	0x3d8200a7	0.06347781
213	0xbd808810	-0.06275952
214	0xbc937b5e	-0.018003162
215	0x3c92647b	0.017870178
216	0xbe6e2d0b	-0.2325937
217	0x3e234e2a	0.15947786
218	0xbe80e303	-0.25173196
219	0x3d2be3a8	0.041965157
220	0x3e12845e	0.14308307
221	0x3df57b3d	0.119863965
222	0xbe04987f	-0.12948798
223	0x3dea4125	0.114382066
224	0x3e133a57	0.14377724
225	0x3d99cfe9	0.07510359
226	0xbde1c389	-0.110236235
227	0x3d9fa1ba	0.07794519
228	0xbc9e058c	-0.019289754
229	0x3d694b33	0.05695648
230	0x3e66644d	0.22499199
231	0x3e53222d	0.20618506
232	0x3dd7717f	0.105196945
233	0x3e1ae9f0	0.15128303
234	0x3dd1abe6	0.10237865
235	0x3e5ec9b4	0.21756631
236	0x3e82a497	0.25516197
237	0x3e86c6d3	0.26323566
238	0xbe583640	-0.21114445
239	0xbe4a5d4b	-0.19762151
240	0x3d7408df	0.059578773
241	0xbda0f61d	-0.078594424
242	0x3dd4d3c1	0.10391951
243	0x3d15bf1b	0.036559206
244	0x3d917a8c	0.07103452
245	0xbd431fb9	-0.047637675
246	0x3c80ee64	0.015738674
247	0x3e0528b1	0.13003804
248	0xbe641920	-0.2227521
249	0x3de704db	0.11280223
250	0x3d5b1184	0.0534835
251	0x3da7f3d5	0.08200804
252	0x3cc6d7a0	0.02427274
253	0x3d13d766	0.03609409
254	0x3e8858aa	0.26630145
255	0x3e2440d4	0.16040355

linear_relu_stack.0.bias f4 [512]
0	0x3dbb3ad8	0.09142083
1	0xbe0e2238	-0.13880241
2	0x3d9b690d	0.07588396
3	0x3e503ac6	0.2033492
4	0xbda16013	-0.07879653
5	0xbe65fcb2	-0.22459677
6	0xbda58ee1	-0.080838926
7	0x3e62c416	0.22145113
8	0xbcad1929	-0.021130161
9	0x3e473a5e	0.19455859
10	0x3e69aa8b	0.22818963
11	0xbe488fac	-0.19586056
12	0xbe6c9caf	-0.23106645
13	0xbe01cf41	-0.12676717
14	0xbe3421ee	-0.17591068
15	0xbc8eb839	-0.017421829
16	0xbe58d5e0	-0.21175337
17	0xbd878e70	-0.06618965
18	0x3d936c55	0.07198397
19	0xbe29f8d2	-0.16598824
20	0x3e49589e	0.19662711
21	0xbc2de22e	-0.0106130075
22	0x3cbfa5d0	0.023394495
23	0xbe19809b	-0.14990465
24	0xbe067c2f	-0.1313331
25	0x3ce531ea	0.027977902
26	0xbc3088ba	-0.010774786
27	0x3e5236c7	0.20528708
28	0xbe03eb1c	-0.12882656
29	0x3dc9f6c1	0.09861518
30	0x3e0160e6	0.1263462
31	0x3d924c82	0.07143499
32	0x3e2a5caf	0.16636918
33	0xbd59d09e	-0.05317747
34	0xbd9cbc22	-0.07653071
35	0xbe43a42e	-0.19105598
36	0x3dae811b	0.08520719
37	0xbe5f760f	-0.2182238
38	0xbe546797	-0.20742641
39	0xbd0774d8	-0.033070415
40	0x3cb7c1c9	0.022431271
41	0x3c1e9c11	0.009680764
42	0xbe0e2702	-0.13882068
43	0xba1a16b0	-0.00058780145
44	0x3e44b95c	0.19211334
45	0xbe2dae25	-0.16960962
46	0xbe3657fc	-0.17807001
47	0xbe212a91	-0.15738894
48	0xbe43bd88	-0.19115269
49	0x3dfcea25	0.12349347
50	0xbd87fbaa	-0.06639798
51	0xbe562d5a	-0.20915738
52	0xbd016ef3	-0.03159995
53	0xbdd4af3e	-0.10384987
54	0x3e5377fe	0.20651242
55	0xbd43076d	-0.047614504
56	0x3e3d2c8f	0.18474029
57	0xbe8b4422	-0.2720042
58	0x3cf03d6e	0.029326167
59	0xbd10920a	-0.035295524
60	0xbde17bcd	-0.11009941
61	0xbe342cec	-0.17595261
62	0x3d91f1c6	0.07126193
63	0xbd5b6326	-0.053561352
64	0xbbe87b9d	-0.007094814
65	0xbe1a4adc	-0.15067619
66	0xbe446670	-0.19179702
67	0xbe2bbc49	-0.16771044
68	0x3e22c7a4	0.1589647
69	0xbda1a84d	-0.07893429
70	0x3e261a18	0.16220891
71	0x3e7a6954	0.24454242
72	0xbe8c3eeb	-0.27391753
73	0x3a88b51a	0.0010429949
74	0x3dbdcd22	0.092676416
75	0x3e2a41b4	0.16626626
76	0x3d23df35	0.04000779
77	0x3e43bfa2	0.19116071
78	0xbd91bc0b	-0.071159445
79	0x3e38395d	0.17990632
80	0x3e3356ec	0.17513627
81	0xbe418c8b	-0.18901269
82	0xbe0623a7	-0.13099538
83	0x3e4d9872	0.20077685
84	0xbe4cfeae	-0.20019028
85	0xbd379fd8	-0.044830173
86	0x3e8a4ce6	0.27011794
87	0xbe327ea9	-0.1743113
88	0x3e636954	0.22208148
89	0xbdf3d175	-0.11905185
90	0x3e666602	0.2249985
91	0x3df06767	0.117384724
92	0x3e1b6382	0.15174678
93	0xbe208745	-0.15676601
94	0xbe75ef08	-0.24016964
95	0x3e3f7719	0.18697776
96	0xbe5dbf7c	-0.21655077
97	0x3e1b080a	0.15139785
98	0xbdeb3806	-0.11485295
99	0xbb0681b3	-0.0020524084
100	0xbe193297	-0.14960705
101	0xbe621c25	-0.22081049
102	0x3d497b65	0.049189944
103	0x3e41594c	0.1888172
104	0x3d3e6101	0.04647923
105	0xbe54ac07	-0.20768748
106	0xbd07f2ae	-0.03319042
107	0xbe4d622e	-0.20056984
108	0xbe34c72e	-0.17654106
109	0xbe2805cd	-0.16408463
110	0x3c64021f	0.013916521
111	0x3b4fc4c9	0.0031702986
112	0xbdddde61	-0.10833431
113	0x3e650ece	0.22368929
114	0xbdccf6ed	-0.10008035
115	0xbe06e4eb	-0.13173263
116	0x3d261368	0.04054585
117	0x3e39cd9e	0.18144843
118	0x3e36785f	0.17819355
119	0x3d0aa962	0.033852942
120	0xbc1fe5d5	-0.009759386
121	0x3d9ec764	0.077528745
122	0xbe69a448	-0.22816575
123	0xbe22f663	-0.15914302
124	0x3e10a853	0.1412671
125	0x3e4d90d2	0.20074776
126	0xbe0f0fbe	-0.13970849
127	0xbdd1c0fb	-0.10241886
128	0xbe22c550	-0.15895581
129	0xbe4ba9c9	-0.19888987
130	0x3e128d59	0.14311732
131	0x3d9f8e14	0.07790771
132	0x3d7bbfe3	0.061462294
133	0x3d334964	0.043771163
134	0x3e7d96a3	0.24764495
135	0xbe54b154	-0.2077077
136	0x3ead488a	0.33844405
137	0x3e22f2d3	0.15912943
138	0xbe64e41c	-0.22352642
139	0xbc81b721	-0.015834393
140	0x3e51dfce	0.20495531
141	0xbd07eef4	-0.033186868
142	0x3c2ac286	0.010422355
143	0xbe580e0a	-0.21099105
144	0xbe4d2640	-0.20034122
145	0xbdb6c572	-0.089243785
146	0x3e62b442	0.22139075
147	0xbcecbe10	-0.028899223
148	0xbe53b158	-0.2067312
149	0xbdbbc095	-0.091675915
150	0x3e5e976f	0.21737455
151	0xbde86cde	-0.1134889
152	0x3e2bbd96	0.1677154
153	0x3d03363d	0.032034148
154	0x3e1cf36e	0.15327236
155	0xbe6ee52e	-0.23329613
156	0x3e3a01fa	0.18164816
157	0x3dc6b777	0.09702962
158	0x3c8d8704	0.017276295
159	0xbe76bad3	-0.24094705
160	0xba0f00f8	-0.00054551614
161	0xbe6e2713	-0.23257093
162	0x3e259b6a	0.16172567
163	0x3d6345c1	0.055486444
164	0x3dab2b21	0.083578356
165	0x3e50664e	0.20351526
166	0x3d3a2773	0.045447778
167	0x3dbb46bc	0.09144351
168	0x3c1fb34d	0.0097473385
169	0x3d7de5a0	0.061986566
170	0x3e0c1c0f	0.13682579
171	0x3d6dd56e	0.05806487
172	0x3e3c0438	0.18360984
173	0xbdf81eff	-0.12115287
174	0x3e3af195	0.18256219
175	0xbdf61133	-0.12014999
176	0xbe51d4a6	-0.20491275
177	0xbc936773	-0.017993664
178	0x3dbcf2ea	0.0922602
179	0x3ca08885	0.019596348
180	0xbd8250fa	-0.06363101
181	0x3e4e20ba	0.20129672
182	0xbe1ef457	-0.15522896
183	0xbe0e487f	-0.13894843
184	0x3db7aacc	0.08968124
185	0xbe80f62f	-0.25187823
186	0xbc0b9d87	-0.008521444
187	0x3e808f73	0.25109443
188	0x3e5a1c34	0.21299821
189	0xbbba35e0	-0.005682692
190	0xbdf68248	-0.12036568
191	0x3c6fe5b4	0.014642168
192	0x3d4e894b	0.0504239
193	0xbe05aa22	-0.13053182
194	0x3d289f2e	0.04116743
195	0xbe531810	-0.20614648
196	0x3e08c516	0.13356432
197	0x3d1308bf	0.035897013
198	0x3e58a4e7	0.21156655
199	0x3ccf011c	0.025269084
200	0x3c6c522a	0.014423886
201	0xbd868e25	-0.06570081
202	0xbd6c9089	-0.057755027
203	0x3cab8ebf	0.02094209
204	0xbe08a42b	-0.13343875
205	0x3d18b3a2	0.037280686
206	0xbc66d922	-0.014089854
207	0x3de4acd9	0.111657806
208	0x3e0b23a9	0.13587822
209	0xbd722d42	-0.059125192
210	0xbd82f774	-0.06394854
211	0x39f0c774	0.0004592497
212	0x3e060894	0.1308921
213	0x3e6191c0	0.22028255
214	0xbe7a0689	-0.24416555
215	0xbe660dfe	-0.22466275
216	0x3e7dca29	0.24784149
217	0xbe35418d	-0.17700787
218	0xbe497e70	-0.19677138
219	0x3e106119	0.1409954
220	0x3e4545b4	0.19264871
221	0xbe019214	-0.1265338
222	0x3e25c400	0.1618805
223	0xbd62134b	-0.05519418
224	0xbe794cda	-0.24345723
225	0x3e045883	0.1292439
226	0x3d073fb8	0.03301975
227	0x3d845790	0.06462014
228	0x3e534761	0.20632698
229	0xbe2d4f47	-0.16924773
230	0x3d8b5032	0.068024054
231	0xbdceb89e	-0.10093807
232	0x3e2d71ca	0.16937938
233	0x3e134219	0.14380683
234	0xbde5262a	-0.1118892
235	0x3e057e49	0.13036455
236	0xbe323ae8	-0.17405283
237	0xbe027431	-0.12739636
238	0xbe00b91a	-0.1257061
239	0xbcd63bd7	-0.02615158
240	0xbe3a7ff9	-0.1821288
241	0xbde1313b	-0.10995718
242	0xbe72d49a	-0.23713914
243	0x3de740c4	0.1129165
244	0x3d3e8eb5	0.046522815
245	0x3d0f94fa	0.035054184
246	0xbe3e4e3c	-0.18584532
247	0xbe64a211	-0.22327448
248	0xbdd7cda0	-0.10537267
249	0x3c2c0c26	0.010500943
250	0x3d91d8ef	0.07121455
251	0xbe1fa79a	-0.15591279
252	0xbe453d9c	-0.19261783
253	0x3e20e032	0.15710524
254	0xbc53b369	-0.012921193
255	0xbe7e2a41	-0.24820806

linear_relu_stack.2.weight f4 [128, 512]
0	0xbd3338f6	-0.043755494
1	0x3cf7e1a1	0.030258955
2	0xbc1f435e	-0.009720651
3	0x3c6aad02	0.014323475
4	0xbd23b8d0	-0.039971173
5	0xbc943871	-0.01809332
6	0x3d0fe114	0.03512676
7	0x3c9ea2d7	0.019364757
8	0x3a889ad9	0.0010422125
9	0x3d2c930b	0.04213242
10	0xbcdb4974	-0.026768424
11	0xbc8fa7dd	-0.017536098
12	0xba98b1a0	-0.0011649616
13	0x3c700f1c	0.01465204
14	0xbd2a671f	-0.04160225
15	0xbc2697f9	-0.010168069
16	0x3d0bc6d0	0.03412515
17	0xbc97de36	-0.018538576
18	0xbc820ace	-0.015874293
19	0x3d20ffa0	0.039306283
20	0x3be61df1	0.0070226123
21	0x3d018baf	0.031627353
22	0xbd21b0cb	-0.039475244
23	0x3d0890b0	0.03334111
24	0x3c07eb6e	0.008295877
25	0xbc652233	-0.0139852045
26	0xbcf0da68	-0.02940102
27	0xbd19da87	-0.03756192
28	0x3ca8d540	0.020609498
29	0xbcc7014b	-0.024292609
30	0x3cf73af5	0.03017948
31	0xbbc23b71	-0.005927496
32	0xbcd8ab87	-0.026448978
33	0x3b8ff497	0.004393171
34	0x3c04deba	0.008109743
35	0xbb8710d0	-0.0041218773
36	0xbcf7852e	-0.030214872
37	0x3b930c7c	0.0044875722
38	0x3c6560e3	0.01400015
39	0x3cda99f2	0.026684735
40	0xbca3945f	-0.01996821
41	0x3d2290ea	0.039688982
42	0xbcfad029	-0.030616837
43	0xbd0302be	-0.031985037
44	0xbd0394ec	-0.032124445
45	0xbcdcf1bf	-0.026970742
46	0xbc0c09c2	-0.008547248
47	0xbcd91e89	-0.026503818
48	0xbd2a2579	-0.041539643
49	0xbd65fa4c	-0.056146905
50	0x3d1e91ba	0.038713194
51	0x3cf7eeda	0.03026526
52	0xbcd0e96c	-0.02550193
53	0x3c45e89a	0.012079382
54	0xbd0a9f6d	-0.033843447
55	0x3b1af1f8	0.002364276
56	0x3bb3f2ac	0.005491575
57	0x3b212080	0.0024586022
58	0x3c94515e	0.018105205
59	0x3d48ed31	0.04905433
60	0xbc66128d	-0.014042509
61	0xbc734375	-0.014847626
62	0x3bdf3cb2	0.0068126554
63	0x3cf0585a	0.029339004
64	0xbc32a34f	-0.010903194
65	0xbcfeee43	-0.031119471
66	0x3c924998	0.017857358
67	0xbd1277fb	-0.035758954
68	0xbd26c382	-0.040713795
69	0x3cebb6e6	0.028773736
70	0x3c9a41cd	0.018830204
71	0xbcc5cdfe	-0.024146076
72	0x3d61174d	0.054953862
73	0xbd251182	-0.0402999
74	0x3d1e3450	0.038624108
75	0x3d0e9d9e	0.034818284
76	0xbcaafaa9	-0.020871477
77	0x3d1940c7	0.037415292
78	0x3c4d7be5	0.012541746
79	0xbd1f2280	-0.03885126
80	0xbc47a300	-0.012184858
81	0xbc32242d	-0.010872883
82	0xbc197066	-0.009365177
83	0xbccc9c35	-0.024976829
84	0x3c9f1551	0.019419344
85	0x3d02677b	0.031836968
86	0x3d0ebb11	0.03484637
87	0xbcc93283	-0.024560219
88	0xbd25e1c0	-0.040498495
89	0x3c8954a4	0.016763993
90	0x3c406ffe	0.011745451
91	0x3c9e61af	0.019333689
92	0xbc80e744	-0.015735276
93	0xbc634f40	-0.013873875
94	0xbd368d0e	-0.044568114
95	0x3ce31ff5	0.0277252
96	0x3b812197	0.003940772
97	0xbd098a71	-0.033579294
98	0xbd116122	-0.035493024
99	0xbc9a2a6a	-0.018819053
100	0xbc672502	-0.014107944
101	0xbd5122f3	-0.05105872
102	0xbc2aa6bc	-0.010415729
103	0xb9a57f3e	-0.00031566055
104	0xbd1d34cc	-0.03838043
105	0xbd1055b9	-0.035238
106	0xbd2b5e07	-0.04183772
107	0xbd3ed52f	-0.046590026
108	0x3d16aa0f	0.036783274
109	0xbcedda2a	-0.029034693
110	0xbce7f903	-0.02831698
111	0x3b830533	0.0039984225
112	0x3ce44e41	0.027869346
113	0xbcb695e3	-0.022288268
114	0xbd102e8d	-0.035200644
115	0xbc8bf4ac	-0.017084442
116	0x3d1db553	0.038503002
117	0xbd787208	-0.060655624
118	0x3c82336e	0.015893664
119	0x3ca5128f	0.020150451
120	0xbcd79954	-0.02631823
121	0xbcef2e0e	-0.029196765
122	0xbd1da2d5	-0.038485367
123	0xbbce6346	-0.0062984554
124	0xbcc0cc58	-0.023534939
125	0xbd1bac2b	-0.03800599
126	0xbcd3fbef	-0.025876967
127	0xbb8a5c7f	-0.004222452
128	0x3b6bcdf3	0.003598091
129	0x3c69837f	0.0142525425
130	0xbca8351c	-0.020533137
131	0xbc6e03f2	-0.014527308
132	0x3cb582d7	0.022157116
133	0xbb9c5f5a	-0.004772109
134	0x3d1edcc3	0.038784754
135	0x3d16b923	0.036797654
136	0x3cf18855	0.029483953
137	0xbb094c4f	-0.0020950024
138	0xbcade968	-0.02122946
139	0xba538296	-0.000806847
140	0xbd005b3e	-0.031337015
141	0x3b43159b	0.0029767517
142	0x3cfcd845	0.030864844
143	0xbc740964	-0.014894817
144	0xbc92c346	-0.01791538
145	0x3d0218fd	0.031762112
146	0x3ca90aae	0.020634975
147	0x3d368de7	0.044568922
148	0x3be653e0	0.0070290416
149	0xbca3a63a	-0.019976724
150	0xbc431ff3	-0.011909473
151	0x3b4cc48e	0.0031245085
152	0xbc92858f	-0.017885951
153	0x3cf15416	0.02945904
154	0xbb78b730	-0.0037950985
155	0x3c3100d8	0.010803424
156	0xbd76096b	-0.060067575
157	0xbd19d674	-0.037558034
158	0xbc5a95c2	-0.013341369
159	0xbc9a2f38	-0.018821344
160	0x3cde9168	0.027168944
161	0x3c937545	0.018000254
162	0xbc76f44f	-0.015072896
163	0xbb9b4f03	-0.0047396435
164	0x3c8fa32c	0.017533861
165	0xbd2de11a	-0.042451
166	0x3c15be58	0.00913962
167	0x3d3c0bf4	0.045909837
168	0xbd3e2272	-0.04641957
169	0xbce25cac	-0.02763208
170	0xbd02be09	-0.031919513
171	0xbca295f8	-0.019846901
172	0x3ca88b64	0.02057428
173	0x3c83b958	0.01607959
174	0x3cf26e6f	0.029593674
175	0xbc9ce89a	-0.019153882
176	0x3cfaac58	0.030599758
177	0x3cc95e48	0.02458109
178	0x3ca6023c	0.020264737
179	0xbce53612	-0.027979884
180	0x3d3296c5	0.043600816
181	0xbd302b18	-0.043009847
182	0xbcade45b	-0.021227052
183	0xbb8f117a	-0.004366097
184	0x3c08cab4	0.008349109
185	0x3d1a8311	0.03772265
186	0x3d8aa332	0.06769408
187	0xbc9a3eb2	-0.018828724
188	0x3c828b62	0.015935604
189	0x3ca23f6d	0.019805634
190	0xbd183f7d	-0.037169922
191	0xbbf0fe8a	-0.007354562
192	0x3d279523	0.040913712
193	0x3ca44196	0.020050805
194	0x3bfae21c	0.007656349
195	0xbd1062e5	-0.035250563
196	0xbc81a796	-0.015826982
197	0xbca19afb	-0.01972722
198	0xbd0e3167	-0.034715082
199	0xbd2bd3a6	-0.04194989
200	0xbce64a2d	-0.028111542
201	0x3cd2584b	0.025676867
202	0xbcab29cf	-0.02089396
203	0x3d0289d7	0.031869736
204	0xbd2bc420	-0.041935086
205	0x3ce8ec04	0.028432854
206	0xbca277d8	-0.019832537
207	0x3c9713b8	0.01844202
208	0xbd05f083	-0.032700073
209	0xbccf2071	-0.025284024
210	0x3b6063bc	0.0034239134
211	0x3d0e766b	0.0347809
212	0x3d255ceb	0.040371817
213	0x3c005a11	0.0078339735
214	0xbc03341a	-0.008008027
215	0xbb037d70	-0.002006378
216	0xbb5b1916	-0.00334317
217	0x3cc104f1	0.023561927
218	0xbc5111b4	-0.012760568
219	0x3cd2416e	0.025665965
220	0x3cf11ec8	0.029433623
221	0x3d1ce014	0.038299635
222	0x3d334947	0.043771055
223	0x3cf4ffee	0.029907193
224	0x3b003897	0.001956498
225	0xbd260aa5	-0.040537495
226	0xbc8ed79e	-0.017436799
227	0xbd189197	-0.03724822
228	0xbcb81198	-0.022469327
229	0xbc26696c	-0.0101569705
230	0xbc90f505	-0.01769496
231	0xbcc2fb15	-0.023801366
232	0x3ca9e9ff	0.02074146
233	0xbc82a6a9	-0.01594861
234	0x3c88fa42	0.016720895
235	0xbcf5636c	-0.029954635
236	0x3ca71ee8	0.02040048
237	0x3b2b5331	0.0026142115
238	0xbc70348a	-0.014660964
239	0xbb38fc87	-0.002822669
240	0x3d0f2edc	0.034956798
241	0x3d100a1e	0.0351659
242	0x3c88e5fb	0.016711226
243	0xbd099077	-0.033585038
244	0x3c3f9972	0.011694299
245	0xbd3e2c51	-0.046428982
246	0xbb84ecc3	-0.0040565445
247	0x3d762bd1	0.06010038
248	0x3c08e3c5	0.008355086
249	0x3cc29108	0.023750797
250	0x3d32c098	0.043640703
251	0x3d05010f	0.032471713
252	0x3cf4431b	0.029817155
253	0x3d4885a8	0.04895559
254	0x3cbe3d1f	0.023222504
255	0xbccf19bf	-0.025280831

linear_relu_stack.2.bias f4 [128]
0	0xbceb3818	-0.028713271
1	0x3c87e6f0	0.016589612
2	0x3c8bc44c	0.017061375
3	0xbcc35f0e	-0.023849037
4	0xbcbe971f	-0.02326542
5	0x3d2c47e9	0.042060766
6	0xbbe34857	-0.006936114
7	0x3cd4bcd6	0.02596895
8	0x3c27c580	0.010239959
9	0xbc6a0824	-0.014284167
10	0x3cbf9988	0.02338864
11	0xbd3bc62e	-0.045843296
12	0x3ca42fa3	0.020042246
13	0xbd322e5e	-0.04350125
14	0x3cde9daf	0.027174799
15	0xbd1c9f41	-0.038237814
16	0xbcb11af8	-0.021619305
17	0x3cea6c61	0.028616132
18	0xbd2303e4	-0.039798632
19	0xbc89e6e3	-0.016833728
20	0xbcb0ee80	-0.0215981
21	0xbd0d1a00	-0.034448624
22	0xbb4953f7	-0.0030720213
23	0xbd427781	-0.04747725
24	0x3d08d0d3	0.033402275
25	0x3c812b9e	0.015767869
26	0xbc8208a6	-0.015873265
27	0x3c748f84	0.014926795
28	0xbccaa9ba	-0.024739135
29	0x3c854cee	0.016272034
30	0xbc630c20	-0.013857871
31	0x3d4ae0d0	0.049530804
32	0xbb9c808d	-0.0047760666
33	0x3c2080bd	0.009796319
34	0xbc428ed0	-0.0118748695
35	0x3c8ac7e4	0.016941018
36	0xbd222770	-0.03958839
37	0x3c8d3df7	0.017241461
38	0x3cc87538	0.024469957
39	0xbd3f8dab	-0.046765964
40	0xbc6c2465	-0.014412974
41	0xbd2d3187	-0.04228356
42	0x3cbb1ddd	0.022841388
43	0xbcedc415	-0.029024163
44	0xbd42c20a	-0.04754833
45	0xbbc54878	-0.006020602
46	0x3c41acfc	0.011821028
47	0xbcf674c6	-0.030084979
48	0xbcdc3be4	-0.026884027
49	0xbcff9ba7	-0.03120215
50	0xbbb6bb8a	-0.0055765556
51	0x3cdcd574	0.026957251
52	0x3cf6be8d	0.030120159
53	0x3b41265b	0.0029472325
54	0xbb6c2140	-0.003603056
55	0xbb7f0540	-0.0038913041
56	0x3d372dfc	0.04472159
57	0x3d1992cf	0.037493523
58	0xbca0eb33	-0.019643402
59	0x3d0b5c5b	0.034023624
60	0xbc04aa87	-0.0080972975
61	0x3cfd612a	0.03093012
62	0x3ce787bb	0.028262964
63	0xbd330fde	-0.043716304
64	0x3b866b18	0.004102122
65	0xbc9dc64b	-0.019259593
66	0xbb3ea865	-0.002909207
67	0xbcff9daf	-0.03120312
68	0xbc5e1c3f	-0.013556539
69	0x3c84791a	0.016171027
70	0xbd2f0ea7	-0.042738583
71	0xbd0b85ce	-0.034063153
72	0x3d260359	0.040530536
73	0x3d2c1062	0.04200781
74	0x3ce4a564	0.027910896
75	0xbcfab599	-0.03060417
76	0x3c974b24	0.018468447
77	0xbcfe8613	-0.031069791
78	0x3d8d038e	0.06885444
79	0x3b606c12	0.0034244102
80	0x3c48ee5f	0.012263863
81	0xbcc9a800	-0.024616241
82	0x3ceb0d98	0.028693005
83	0xb98aab8d	-0.00026449226
84	0xbce9865d	-0.028506452
85	0xbae7e075	-0.0017690795
86	0x3ce386ed	0.027774299
87	0x3d2c81f9	0.04211614
88	0xbc0e11c1	-0.008671225
89	0xbb83d73e	-0.0040234616
90	0xbd03e4b0	-0.032200515
91	0xbad07eb5	-0.0015906902
92	0x3ce1a7bb	0.0275458
93	0x3d08ca8f	0.0333963
94	0xbc42e3dd	-0.011895147
95	0xbc37cb1e	-0.0112178605
96	0x3c7d3970	0.015455589
97	0xbcde131a	-0.027108718
98	0xbd138ccf	-0.036022957
99	0x3d15217b	0.036408883
100	0x3ca1aac8	0.019734755
101	0x3cb7d9fc	0.02244281
102	0xbc562963	-0.013071391
103	0x3cde0291	0.027100833
104	0xbcce5108	-0.025185123
105	0x3c6f465f	0.01460418
106	0xbd259eca	-0.040434636
107	0xbd172a97	-0.03690585
108	0xbc85c979	-0.016331421
109	0x3cdadd0d	0.026716733
110	0xbcd123b1	-0.025529714
111	0xbcfdf368	-0.030999854
112	0xbcfc4a10	-0.030797035
113	0xbd2a3909	-0.0415583
114	0x3b7deffd	0.003874778
115	0x3c9958f2	0.01871917
116	0x3d4a6382	0.049411304
117	0x3d1ff6e6	0.03905382
118	0xbba2aba3	-0.0049643083
119	0x3c856615	0.016284028
120	0xbd03515e	-0.03206002
121	0xbc904cc7	-0.017614735
122	0xbcc91ae8	-0.024548963
123	0x3bc1bd6a	0.0059124725
124	0x3ca62946	0.020283353
125	0x3d4861b4	0.048921302
126	0x3c2a4f41	0.010394872
127	0x3c49b818	0.012311958

linear_relu_stack.4.weight f4 [10, 128]
0	0xbdb9de36	-0.090755865
1	0xbda4a675	-0.08039562
2	0x3cef8fd2	0.029243384
3	0x3d792fe6	0.060836695
4	0xbc637028	-0.013881721
5	0x3c6aae58	0.014323793
6	0x3cf65852	0.030071411
7	0x3d1f8140	0.03894162
8	0x3d4e07b0	0.0503003
9	0xbd493c88	-0.049129993
10	0xbd850001	-0.06494141
11	0x3c0afd00	0.008483171
12	0xbd0be4a5	-0.0341536
13	0xbd730352	-0.05932934
14	0xbcdc6d21	-0.026907505
15	0xbd9180bc	-0.07104632
16	0xbda62cde	-0.081140265
17	0xbd8692c5	-0.06570963
18	0xbdb390ed	-0.08767877
19	0x3caa7274	0.020806529
20	0xbca9a391	-0.020707877
21	0x3d5f9ad4	0.054591015
22	0x3baf6dd7	0.00535367
23	0xbd767f61	-0.06018007
24	0xbcbf37d9	-0.02334206
25	0x3d2e5988	0.042565852
26	0x3d1eb29c	0.038744554
27	0xbc876bb8	-0.016530856
28	0xb9d0e900	-0.0003984645
29	0xbc81938b	-0.015817424
30	0xbdb07979	-0.08616919
31	0xbd452b51	-0.048137013
32	0xbd8ef87f	-0.069809906
33	0xbd68214f	-0.05667239
34	0x3b94c880	0.004540503
35	0x3d0a777c	0.033805355
36	0x3da24390	0.07923043
37	0xbcc9e385	-0.024644623
38	0xbdb2d45e	-0.08731912
39	0xbd593dbd	-0.053037394
40	0x3d20bd30	0.039242923
41	0x3cdfe451	0.02733055
42	0xbcd5b065	-0.026085088
43	0x3c65b4dd	0.014020172
44	0x3d93c311	0.0721494
45	0x3d85d23d	0.065342404
46	0xbcf7c4b2	-0.030245159
47	0x3d91850b	0.07105454
48	0x3cedb6af	0.029017774
49	0xbd9d2598	-0.07673186
50	0xbcae2c4d	-0.021261359
51	0xbda0c71b	-0.07850476
52	0x3d397c74	0.045284703
53	0x3c89a4df	0.01680225
54	0xbd1ffbab	-0.03905837
55	0x3d680b3a	0.05665133
56	0xbd821eeb	-0.063535534
57	0x3cf2134d	0.029550219
58	0x3b6f9040	0.0036554486
59	0x3dad6527	0.08466559
60	0xbd09abf7	-0.033611264
61	0xbd9d5525	-0.07682256
62	0xbdbb5771	-0.091475375
63	0xbd85f878	-0.06541532
64	0x3d7c99d6	0.061670147
65	0x3c1031e8	0.008800961
66	0xbcf16f96	-0.029472154
67	0x3d7fd623	0.062460076
68	0xbd11b824	-0.035576
69	0x3da25f0a	0.079282835
70	0xbd1711a0	-0.036882043
71	0x3d1d8a24	0.03846182
72	0x3d0ede26	0.034879826
73	0xbce36242	-0.027756814
74	0x3d602f04	0.054732338
75	0xbd922a6a	-0.07136996
76	0xbd2e723f	-0.042589422
77	0x3b7961f8	0.0038052779
78	0xbd817326	-0.06320791
79	0xbccfd4f9	-0.025370108
80	0xbd338ccd	-0.04383545
81	0xbd4d74d8	-0.05016026
82	0xbbcfae60	-0.006337926
83	0xbcb7eee9	-0.022452788
84	0xbd8be0f0	-0.06830013
85	0xbda4590f	-0.08024799
86	0xbdbed66b	-0.09318241
87	0x3d11e100	0.035614967
88	0x3d89cd08	0.0672856
89	0x3d33f7d0	0.043937504
90	0xbda7a9e7	-0.08186703
91	0xbd515a32	-0.051111408
92	0x3d3b2fa0	0.045699716
93	0x3d84fd84	0.06493667
94	0x3d790f1b	0.06080542
95	0xbcbb2e39	-0.02284919
96	0xbc92538d	-0.017862106
97	0xbd4b0703	-0.049567234
98	0xbdac02c8	-0.08398968
99	0x3d32f7da	0.0436934
100	0xbd25671a	-0.04038153
101	0x3da67019	0.0812685
102	0x3d97536a	0.07388957
103	0xbda46e01	-0.08028794
104	0x3d48ce12	0.04902465
105	0x3cc2514b	0.023720404
106	0x3c24c350	0.010056332
107	0xbb933518	-0.0044924133
108	0x3d8907a8	0.066909134
109	0xbdb6fd46	-0.08935027
110	0x3c911cab	0.017713865
111	0xbd008ca3	-0.03138412
112	0xbd75fcee	-0.060055666
113	0x3da6b6ff	0.081403725
114	0xbd954bc2	-0.0728984
115	0xbc965148	-0.018349305
116	0xbc722250	-0.014778689
117	0x3b3f8a19	0.00292266
118	0x3cf5fbe0	0.03002733
119	0xbd0688f4	-0.032845452
120	0x3d86fcdb	0.06591197
121	0x3d90b04b	0.07064875
122	0x3caee54c	0.021349572
123	0x3ce1a999	0.02754669
124	0xb9403800	-0.00018331409
125	0xbc98901c	-0.018623404
126	0x3d1891a4	0.03724827
127	0xbd87b08c	-0.066254705
128	0xbcb2dc1c	-0.021833472
129	0xbc922788	-0.017841116
130	0xbd415b79	-0.047206376
131	0xbd834ec6	-0.06411509
132	0xbd8da4e6	-0.069162175
133	0x3cfd2c64	0.030904956
134	0xbd79276b	-0.060828608
135	0x3d821885	0.06352333
136	0x3d8463fb	0.06464382
137	0xbce350be	-0.027748462
138	0xbd80c136	-0.06286852
139	0x3d3b5ae2	0.04574097
140	0xbd301022	-0.042984135
141	0x3c5a7150	0.01333268
142	0x3d00b5a4	0.031423226
143	0x3da6fd45	0.08153776
144	0xbcf85074	-0.0303118
145	0xbd6b9838	-0.057518214
146	0x3d708c6e	0.058727674
147	0x3da02aa3	0.07820632
148	0x3d55ad1a	0.052167036
149	0x3cd4cdc4	0.025977023
150	0xbda6ed12	-0.08150686
151	0xbc8744b8	-0.01651226
152	0xbd9cae9d	-0.07650492
153	0x3da2d86d	0.07951436
154	0xbd22b5df	-0.039724227
155	0xbd949da7	-0.07256632
156	0xbd937f37	-0.07201999
157	0xbd1c3a9a	-0.038141824
158	0xbce89128	-0.028389528
159	0xbd6c1396	-0.057635866
160	0xbd0cf28e	-0.034411006
161	0x3d5abeca	0.053404607
162	0x3db0f591	0.08640588
163	0x391ede00	0.00015150756
164	0xbca56b58	-0.020192787
165	0xbd8558af	-0.06511056
166	0xbd69f063	-0.057114016
167	0x3c1d61c8	0.009605832
168	0xbd928690	-0.07154572
169	0xbda969f8	-0.08272165
170	0x3d9b86d5	0.075940765
171	0x3d80a0af	0.06280648
172	0x3da7ca89	0.081929274
173	0xbc71a068	-0.0147477165
174	0x3da11789	0.07865817
175	0x3c45cca0	0.012072712
176	0xbd7066c8	-0.05869177
177	0x3d0e13f0	0.034686983
178	0xbb989ea0	-0.0046575814
179	0xbdaa11c6	-0.08304171
180	0x3cee2648	0.029070988
181	0x3c591a48	0.013250895
182	0x3ac21280	0.0014806539
183	0xbcd1eda4	-0.025626011
184	0x3ca8cf50	0.020606667
185	0xbcf81e30	-0.030287832
186	0xbd352330	-0.04422301
187	0xbd9d3b28	-0.07677299
188	0x3cbb2a0c	0.022847198
189	0xbd832d06	-0.06405072
190	0xbd7f98d5	-0.06240161
191	0xbd427793	-0.047477316
192	0x3bc989e0	0.006150469
193	0x3ca8c11c	0.020599894
194	0xbd904950	-0.07045233
195	0x3d6140ca	0.05499343
196	0xbda73d96	-0.081660435
197	0xbd38f33d	-0.045153845
198	0x3d371e8e	0.044706874
199	0xbb242fe0	-0.002505295
200	0xbcffe9ee	-0.031239476
201	0xbcb9821c	-0.022645049
202	0x3cf9fad0	0.030515105
203	0xbcb72f40	-0.022361398
204	0xbd8f296c	-0.069903225
205	0xbd22cada	-0.039744236
206	0x3d1b202a	0.03787247
207	0x3a590100	0.0008278042
208	0xbd814684	-0.06312278
209	0x3da556b9	0.08073182
210	0xbd932609	-0.07184989
211	0xbd22f560	-0.03978479
212	0x3c9cf7dc	0.019161157
213	0xbd8ce6d6	-0.06879966
214	0xbd96194e	-0.07329045
215	0xbd770c7b	-0.060314637
216	0xbcfe8dfc	-0.031073563
217	0x3da0ba83	0.07848074
218	0x3d34911a	0.044083692
219	0x3d8f66f7	0.07002061
220	0xbd51ec6c	-0.05125086
221	0xbc662138	-0.014046006
222	0xbb950d80	-0.0045487285
223	0x3cea241c	0.028581671
224	0xbda516fa	-0.08061023
225	0x3c89dc9c	0.016828828
226	0xbd58a89b	-0.05289517
227	0x3d42fa46	0.04760196
228	0x3cc83314	0.024438418
229	0x3cfe4a2c	0.031041227
230	0x3c048300	0.008087873
231	0xbd808582	-0.062754646
232	0x3cd77768	0.026302055
233	0xbc5e08c8	-0.013551898
234	0xbd693ebc	-0.056944594
235	0xbcaf120c	-0.02137091
236	0x3d2b1cb6	0.041775428
237	0xbd9d218b	-0.076724134
238	0x3c8389b0	0.016056865
239	0xbd426950	-0.047463715
240	0x3cbdd394	0.023172177
241	0x3d7ff28e	0.062487178
242	0xbdb4f5d0	-0.088359475
243	0xbd459bc4	-0.048244253
244	0x3d1ab422	0.037769444
245	0x3d9d1737	0.076704435
246	0x3d767212	0.06016738
247	0x3d3566e6	0.044287585
248	0xbc0383e8	-0.008027054
249	0xbd264bd1	-0.040599648
250	0xbcf6846a	-0.030092437
251	0x3da90cab	0.08254369
252	0xbbda6aa0	-0.0066655427
253	0x3d60c5e2	0.054876216
254	0x3cbff2dc	0.023431234
255	0x3d85eeed	0.06539712

linear_relu_stack.4.bias f4 [10]
0	0xbdbc8065	-0.09204177
1	0xbad4da40	-0.001623936
2	0x3cf09ae8	0.02937074
3	0xbb924418	-0.004463684
4	0xbd93b4e8	-0.072122395
5	0xbd7c8129	-0.061646614
6	0x3c2a846e	0.01040755
7	0x3da00857	0.07814091
8	0xbd1bd80e	-0.038047843
9	0xbcb0d9f9	-0.021588312

linear_relu_stack.6.weight f4 [1, 10]
0	0x3dc1daf5	0.09465591
1	0x3e6f21fe	0.2335281
2	0x3d2eb590	0.04265362
3	0x3e4695a3	0.1939302
4	0x3e23bf0d	0.15990849
5	0x3dcd030c	0.10010347
6	0xbe64e1ac	-0.22351712
7	0xbd8e14b8	-0.069375455
8	0xbe678d5a	-0.22612515
9	0x3e6b4ed7	0.22979294

exp_avg f4 [512, 16]
0	0xbb48f9da	-0.0030666501
1	0x3af76af3	0.0018876478
2	0xbbeca858	-0.0072222166
3	0x3f2b0e5b	0.6681878
4	0x3e856d26	0.26059836
5	0x3c905428	0.017618254
6	0x3b92172f	0.00445833
7	0x3f877872	1.0583632
8	0x3d848a54	0.064716965
9	0x3f1290ea	0.5725237
10	0x3e92748b	0.2860454
11	0xb7b722ba	-2.183147e-05
12	0x3e95bc29	0.29245117
13	0xbc98f6c3	-0.018672353
14	0x3daf4d74	0.08559695
15	0x3d4aa1ec	0.049470827
16	0x3b29881a	0.0025868476
17	0xbba742a8	-0.0051043816
18	0xbc943344	-0.018090852
19	0x3e4cfe2f	0.20018838
20	0xbe0211ed	-0.1270215
21	0xbab26322	-0.0013609866
22	0xbbfc64b4	-0.0077024344
23	0x3edfc679	0.4370611
24	0x3e7a1253	0.24421053
25	0x3ed96b95	0.4246489
26	0x3eccd444	0.40005696
27	0x00000000	0.0
28	0xbd98d481	-0.07462407
29	0x3b95aa5a	0.0045674266
30	0x00000000	0.0
31	0xbd95b77b	-0.07310387
32	0x3ad764d7	0.0016433251
33	0xbc142dee	-0.009044154
34	0xbcd7b0d4	-0.026329435
35	0x3de50150	0.11181891
36	0xbeaa9bc7	-0.33321974
37	0x39296e7f	0.00016158259
38	0xbc094d77	-0.008380285
39	0x3ef98969	0.48737648
40	0x3e6daa3d	0.23209472
41	0x3ece3df9	0.40281656
42	0x3ec5902b	0.38586554
43	0xae63c5e0	-5.1789573e-11
44	0xbdf0ca55	-0.11757342
45	0x3d14f376	0.036364995
46	0x3c4a13ce	0.012333823
47	0xbc655f58	-0.0139997825
48	0xbb0f6e82	-0.0021885936
49	0x3b87b40c	0.0041413363
50	0x3c6d54ad	0.01448552
51	0xbe39dd95	-0.18150933
52	0x3dc2e931	0.09517134
53	0x3a38fd5a	0.00070567953
54	0x3bee74e9	0.0072771204
55	0xbee98870	-0.45611906
56	0xbe8141e7	-0.25245592
57	0xbee1b953	-0.44086704
58	0xbed6e207	-0.4196932
59	0x362b70e0	2.5546688e-06
60	0x3d82b54d	0.06382237
61	0xbc46cf57	-0.012134395
62	0x00000000	0.0
63	0x3d15e349	0.03659371
64	0xbb648da9	-0.0034874475
65	0xbb30a63d	-0.0026954554
66	0xbc748984	-0.014925364
67	0x3e9c014b	0.30469736
68	0x3d4104ba	0.04712365
69	0x3b839b01	0.0040162806
70	0xbb4ff889	-0.0031733832
71	0x3ecb63df	0.39724633
72	0x3ecf3bc3	0.40475282
73	0x3f02481b	0.50891274
74	0x3f0d32a8	0.5515542
75	0xb736770f	-1.0875766e-05
76	0xbcd5a556	-0.026079815
77	0xbd766333	-0.060153197
78	0x3cebe8ee	0.028797593
79	0x3ceba670	0.028765887
80	0x3c0af33a	0.008480841
81	0x3bd240c2	0.006416411
82	0x3c8c1805	0.017101297
83	0x3ea03100	0.31287384
84	0x3ead8f00	0.33898163
85	0x3b92b6a7	0.0044773403
86	0x3c05072a	0.008119384
87	0x3e3f3851	0.18673827
88	0x3d2fe7e7	0.04294577
89	0xbcb55093	-0.022133147
90	0xbdfa26da	-0.122144416
91	0x3697d827	4.525314e-06
92	0x3e40e630	0.1883781
93	0x3c49829d	0.012299207
94	0x00000000	0.0
95	0x3b978749	0.0046242815
96	0xbb9265a3	-0.0044676824
97	0xbbece897	-0.0072298753
98	0xbcb7f8d3	-0.022457516
99	0x3c37e8e8	0.011224963
100	0xbe7c428d	-0.24634762
101	0xb685704b	-3.9767815e-06
102	0xbbd0135a	-0.006349963
103	0x3e410f60	0.18853521
104	0x3de32de2	0.11092736
105	0x3e8a0033	0.26953277
106	0x3e77ffd8	0.2421869
107	0xb6a53117	-4.923098e-06
108	0xbe2bb4b0	-0.16768146
109	0xbc5b3b76	-0.013380876
110	0x3c412a3c	0.011789855
111	0xbd188478	-0.037235707
112	0xbbfd2b94	-0.007726142
113	0xbbe92792	-0.007115313
114	0xbcb33702	-0.021876816
115	0xbe73e3c2	-0.23817351
116	0xbec99688	-0.3937266
117	0xba0d7402	-0.00053960097
118	0xbb1afeef	-0.0023650487
119	0xbda15d59	-0.07879133
120	0xbd807c22	-0.062736765
121	0x3ab37819	0.0013692408
122	0xbc03204a	-0.008003304
123	0x35db87d7	1.6356306e-06
124	0xbea6cda5	-0.3257877
125	0xbd30b9d0	-0.043145955
126	0x3bbc7593	0.0057513206
127	0xbc972fd5	-0.018455425
128	0x3b347a62	0.0027538766
129	0x3bcb40fc	0.006202815
130	0x3cc14735	0.023593524
131	0xbd86c2c9	-0.06580121
132	0x3e5b358d	0.21407147
133	0x3b9eff37	0.0048522013
134	0x3c483c59	0.012221419
135	0xbe6b7619	-0.2299427
136	0xbe1e592d	-0.15463705
137	0xbe94d5af	-0.29069278
138	0xbed34067	-0.41260073
139	0xb5836dc1	-9.792203e-07
140	0x3e1ef1ef	0.15521978
141	0xbd1ab567	-0.037770655
142	0x00000000	0.0
143	0x3cc2cc01	0.023778917
144	0x00000000	0.0
145	0x00000000	0.0
146	0x00000000	0.0
147	0x00000000	0.0
148	0x00000000	0.0
149	0x00000000	0.0
150	0x00000000	0.0
151	0x00000000	0.0
152	0x00000000	0.0
153	0x00000000	0.0
154	0x00000000	0.0
155	0x00000000	0.0
156	0x00000000	0.0
157	0x00000000	0.0
158	0x00000000	0.0
159	0x00000000	0.0
160	0x3ba823b3	0.005131209
161	0xbb033247	-0.0020018981
162	0xbc1a8d76	-0.009433141
163	0x3eb58030	0.35449362
164	0xbcfd10ca	-0.030891795
165	0x3b24e8de	0.0025163214
166	0xbbaffeac	-0.0053709354
167	0x3ec721b7	0.3889291
168	0x3eb862db	0.3601292
169	0x3f062b88	0.52410173
170	0x3f0e501e	0.55591
171	0xb6c9340d	-5.9963263e-06
172	0x3e34454b	0.17604558
173	0xbd079f12	-0.033110686
174	0x00000000	0.0
175	0x3c69d032	0.014270829
176	0x3b2e8217	0.0026627833
177	0x3ac8fa67	0.0015333415
178	0x3b9503e6	0.004547584
179	0x3d721d0d	0.059109736
180	0x3da26126	0.07928686
181	0xba97fdd7	-0.0011596036
182	0x3a92a3e2	0.0011187757
183	0x3d427c89	0.047482047
184	0x3d85718a	0.065157965
185	0x3ce6093a	0.028080571
186	0x3d5e7737	0.05431291
187	0x359e83fd	1.1810331e-06
188	0x3da0e324	0.07855824
189	0x3c4e33ba	0.012585575
190	0xbc26a1ec	-0.010170441
191	0x3c71a819	0.01474955
192	0xbc82aef1	-0.01595256
193	0x381adc0b	3.6921392e-05
194	0xbbd139e1	-0.0063850735
195	0xbeb4cd5e	-0.35312933
196	0xbd721f88	-0.0591121
197	0x39da8740	0.0004168097
198	0x3941930b	0.00018460692
199	0xbea9db69	-0.3317521
200	0xbbaf4574	-0.0053488556
201	0xbbf46e4b	-0.007459437
202	0xbb5ba840	-0.0033517033
203	0x00000000	0.0
204	0xbf04f413	-0.5193493
205	0xbe67dc90	-0.22642732
206	0x00000000	0.0
207	0xbbbe8800	-0.0058145523
208	0xbb4ce449	-0.0031263998
209	0xbc0238e7	-0.007948137
210	0xbccbca50	-0.024876744
211	0xbe023f60	-0.12719488
212	0xbea79d3d	-0.3273715
213	0xbba10096	-0.0049134
214	0xbbd2509f	-0.006418302
215	0x3d1938d6	0.03740772
216	0x3c83013b	0.015991798
217	0x3dfc12cb	0.12308272
218	0x3ce6cb7a	0.028173197
219	0x00000000	0.0
220	0xbe80378d	-0.25042382
221	0xbb82fc97	-0.003997396
222	0xbc863755	-0.016383806
223	0xbc877649	-0.016535895
224	0xbbef682b	-0.007306119
225	0xbc07c354	-0.008286316
226	0xbd00d2b9	-0.03145096
227	0x3d0e5cba	0.0347564
228	0xbea4235c	-0.32058227
229	0x3996b647	0.00028746037
230	0xbc255b70	-0.010092601
231	0x3eb27c9c	0.34860694
232	0x3e9e594e	0.3092751
233	0x3f0f7cc7	0.5604977
234	0x3f1637f2	0.58679116
235	0xb67c6344	-3.7608706e-06
236	0xbea784a1	-0.32718375
237	0xbdccc572	-0.09998597
238	0xbc1a1f7d	-0.009406921
239	0xbd42236e	-0.04739707
240	0x3b8f35c3	0.0043704226
241	0xba33ab2e	-0.0006853816
242	0xbb66b654	-0.003520389
243	0x3e16e43d	0.14735503
244	0x3cb4f27d	0.022088284
245	0xbacba70c	-0.0015537455
246	0xbb22267f	-0.0024742184
247	0x3e55735c	0.20844787
248	0x3d9a3fca	0.07531698
249	0x3e53034c	0.20606726
250	0x3daef9b6	0.08543722
251	0x3631eeed	2.6514128e-06
252	0x3dd49500	0.10379982
253	0x3cc8eec8	0.024527922
254	0xbbc42830	-0.005986236
255	0xbb918905	-0.004441383

exp_avg_sq f4 [512, 16]
0	0x3a329f81	0.0006813929
1	0x38b86e8b	8.794394e-05
2	0x38204911	3.821502e-05
3	0x3fc2849a	1.5196717
4	0x3f52b71d	0.8231066
5	0x385000cf	4.9591818e-05
6	0x379204a4	1.7406717e-05
7	0x3fac3a29	1.3455249
8	0x3e2f2c85	0.17106827
9	0x3f0a73e0	0.5408306
10	0x3e7ad320	0.244946
11	0x30fe4d56	1.8502913e-09
12	0x3e57a1cf	0.21057819
13	0x3d35495e	0.04425942
14	0x3c801018	0.015632674
15	0x3b7b0058	0.0038299765
16	0x3b0543d4	0.0020334618
17	0x380456bc	3.155203e-05
18	0x3899cde6	7.33396e-05
19	0x3ff8731e	1.9410131
20	0x3e67db1a	0.22642174
21	0x381d445c	3.749538e-05
22	0x377ffea6	1.5258474e-05
23	0x4176e49b	15.430812
24	0x40297ccc	2.648242
25	0x40cdb7d7	6.4286914
26	0x407419a1	3.8140643
27	0x00000000	0.0
28	0x3e8387bf	0.25689504
29	0x3c1eda71	0.009695635
30	0x00000000	0.0
31	0x3cddc626	0.027072024
32	0x3bf0b54d	0.0073458315
33	0x39090113	0.00013065738
34	0x39eef41a	0.00045576767
35	0x40d922d3	6.785501
36	0x3f6e1c22	0.9301168
37	0x3929f951	0.00016209974
38	0x38a2ba05	7.759411e-05
39	0x42452fb7	49.296597
40	0x40aff423	5.498552
41	0x419f10e9	19.883257
42	0x40c9010d	6.2813783
43	0x2ec2c872	8.857705e-11
44	0x40039ff1	2.056637
45	0x3da7e6bd	0.08198307
46	0x3b1d7998	0.0024028774
47	0x3e477eb9	0.19481935
48	0x3c86a29d	0.016434962
49	0x390c7be3	0.00013397592
50	0x39f97118	0.00047577242
51	0x415c1f8c	13.757702
52	0x3f6746b3	0.90342253
53	0x3a06af7f	0.00051378453
54	0x388d2940	6.731087e-05
55	0x428575b3	66.72988
56	0x414d2644	12.821842
57	0x41c829bc	25.020378
58	0x417c7600	15.778809
59	0x2e1509d8	3.388742e-11
60	0x402e317d	2.7217705
61	0x3e248814	0.16067535
62	0x00000000	0.0
63	0x3e6afcb2	0.22947958
64	0x3b4a2332	0.0030843732
65	0x38c116cb	9.207203e-05
66	0x3939e622	0.00017728706
67	0x4051813b	3.2735126
68	0x3f23c694	0.6397488
69	0x38a921cc	8.064843e-05
70	0x38619b7b	5.3788983e-05
71	0x41166783	9.400271
72	0x409c839b	4.891065
73	0x406ad195	3.6690419
74	0x4101f91b	8.123317
75	0x30510489	7.60402e-10
76	0x3f58fb73	0.8475868
77	0x3d73d55c	0.059529647
78	0x3bd79eab	0.006580194
79	0x3d855268	0.06509858
80	0x3b0c36dc	0.0021395003
81	0x386edbec	5.694844e-05
82	0x3910965e	0.00013788926
83	0x3ffe3eba	1.9862893
84	0x3ec012dd	0.37514392
85	0x38255156	3.9414816e-05
86	0x380274cb	3.1103187e-05
87	0x41262fb2	10.386644
88	0x40861dd8	4.191143
89	0x4086d596	4.2135725
90	0x40ee3fb2	7.4452753
91	0x2f908692	2.6289065e-10
92	0x3ea06ba8	0.31332135
93	0x3c87cfc8	0.01657857
94	0x00000000	0.0
95	0x3d1c6128	0.038178593
96	0x3bc0f861	0.005888984
97	0x38bc9faf	8.994282e-05
98	0x39834adc	0.00025042042
99	0x40b5fe29	5.6872754
100	0x3f4526bc	0.7701223
101	0x38f45a11	0.00011651603
102	0x3841976b	4.6155805e-05
103	0x42242b41	41.04224
104	0x40aef763	5.4676986
105	0x41869c7f	16.826414
106	0x40e43432	7.1313715
107	0x2fb10ead	3.220654e-10
108	0x3fa0a42d	1.2550102
109	0x3d70054a	0.058598794
110	0x3b1bbf37	0.0023765096
111	0x3dcfa85f	0.10139536
112	0x3b502630	0.0031761043
113	0x38829d2c	6.2281586e-05
114	0x390c5723	0.00013383901
115	0x405f6381	3.4904482
116	0x3f230cb6	0.6369127
117	0x38d41c48	0.000101142155
118	0x379d2251	1.8731838e-05
119	0x41b73de4	22.90522
120	0x3feae666	1.8351562
121	0x411671e4	9.402805
122	0x3fd32777	1.6496419
123	0x2f346820	1.6407897e-10
124	0x3f50e62f	0.8160123
125	0x3cf9b243	0.03048051
126	0x3b31aa7f	0.002710968
127	0x3d85663d	0.06513641
128	0x3acc6afb	0.0015595848
129	0x38872066	6.443336e-05
130	0x391454ef	0.0001414602
131	0x3fe47114	1.7847009
132	0x3f042843	0.51623935
133	0x38485d99	4.7770885e-05
134	0x37fca541	3.0117693e-05
135	0x4132e38b	11.1805525
136	0x3f83874e	1.0275667
137	0x408fc044	4.49222
138	0x3f8edf0f	1.1161822
139	0x2e3e0e1c	4.321353e-11
140	0x3eee923c	0.46595943
141	0x3c8e2dc5	0.017355809
142	0x00000000	0.0
143	0x3d4d3121	0.05009568
144	0x00000000	0.0
145	0x00000000	0.0
146	0x00000000	0.0
147	0x00000000	0.0
148	0x00000000	0.0
149	0x00000000	0.0
150	0x00000000	0.0
151	0x00000000	0.0
152	0x00000000	0.0
153	0x00000000	0.0
154	0x00000000	0.0
155	0x00000000	0.0
156	0x00000000	0.0
157	0x00000000	0.0
158	0x00000000	0.0
159	0x00000000	0.0
160	0x3b36f25d	0.0027915456
161	0x38b481e5	8.6072636e-05
162	0x38e4dbe0	0.00010912842
163	0x40380cfa	2.875792
164	0x3f14e247	0.5815777
165	0x386feb15	5.7200978e-05
166	0x384b5c00	4.8484653e-05
167	0x41199831	9.599656
168	0x40b402fc	5.6253643
169	0x406b3687	3.675203
170	0x4118d75d	9.552579
171	0x2ff36ece	4.4280174e-10
172	0x3ea085c7	0.31352064
173	0x3ccf9274	0.025338389
174	0x00000000	0.0
175	0x3d06f175	0.032945115
176	0x3a03bc92	0.00050253526
177	0x371bfb15	9.2971795e-06
178	0x37397eb7	1.1056362e-05
179	0x3f0beb8c	0.5465629
180	0x3daa7367	0.083227925
181	0x37fb2fb2	2.9943742e-05
182	0x368f26fb	4.26627e-06
183	0x4064f48e	3.5774264
184	0x3eb96c2c	0.3621534
185	0x3fc5c816	1.5451686
186	0x3eb49a77	0.35274097
187	0x2e91eafb	6.6355775e-11
188	0x3e1d22f2	0.15345362
189	0x3bfbe823	0.007687585
190	0x3a4687e8	0.0007573352
191	0x3ca6974d	0.020335818
192	0x38a7d7d6	8.003383e-05
193	0x339f6055	7.421537e-08
194	0x368fecdb	4.2893057e-06
195	0x3d39b3ef	0.045337614
196	0x3a1c4ede	0.000596268
197	0x3727db92	1.0005098e-05
198	0x35f90684	1.8553842e-06
199	0x3d3cf372	0.046130605
200	0x3b789b15	0.0037934233
201	0x3be79fb2	0.0070685977
202	0x3ab9aede	0.0014166494
203	0x00000000	0.0
204	0x3d9bedb1	0.076136954
205	0x3c4d311e	0.0125239175
206	0x00000000	0.0
207	0x3b8e78b9	0.0043478874
208	0x3b1d3b82	0.0023991768
209	0x37d280f7	2.5094005e-05
210	0x38dbf882	0.00010489022
211	0x4004d3af	2.0754201
212	0x3e840cfb	0.25791153
213	0x387635a2	5.870092e-05
214	0x37583d6e	1.2888906e-05
215	0x419d68b7	19.67613
216	0x3f54d36b	0.831351
217	0x4100ef37	8.058402
218	0x3eea8e19	0.45811537
219	0x00000000	0.0
220	0x3f517497	0.81818527
221	0x3ceffaab	0.029294332
222	0x3a3e6725	0.00072632945
223	0x3d4acc98	0.049511522
224	0x3c1aea5e	0.009455292
225	0x391e69b4	0.00015107432
226	0x39e5ab56	0.0004380594
227	0x41114e21	9.081574
228	0x3fad0955	1.3518473
229	0x395f3b05	0.00021288924
230	0x389f236c	7.588309e-05
231	0x427766e6	61.850487
232	0x40e8c433	7.27395
233	0x41c808ef	25.004362
234	0x4108d6b5	8.552419
235	0x2ff1adad	4.396105e-10
236	0x40099c88	2.150179
237	0x3de167fc	0.110061616
238	0x3b6be480	0.003599435
239	0x3e2ad184	0.16681486
240	0x3b004aee	0.0019575912
241	0x37949f9d	1.77173e-05
242	0x385d1266	5.270764e-05
243	0x3fd1cece	1.6391237
244	0x3e3c05e6	0.18361625
245	0x38427385	4.636079e-05
246	0x3703c843	7.8548355e-06
247	0x4144473d	12.267392
248	0x3f9fb707	1.247773
249	0x409f7460	4.982956
250	0x3fa1fb06	1.2654731
251	0x2e1ca1f4	3.5614137e-11
252	0x3ede8e6b	0.4346803
253	0x3c6720bc	0.014106926
254	0x39e0c857	0.00042873874
255	0x3d6402d6	0.055666767
