Solvation_1/Runs/Macro_TESA_Lin3/ep_10.pt (torch, 915476 bytes, 21 tensors)

linear_relu_stack.0.weight f4 [512, 16]
0.10900612 0.09920823 0.19552918 -0.12120061 0.1211429 0.17343242 0.10185339 0.17656386
-0.17817274 0.11893005 -0.088894926 -0.23628926 -0.1469303 0.16558792 0.22571363 -0.07886459
-0.22038442 -0.20747578 0.3172756 0.079206124 0.056031406 0.2390684 0.2750042 0.19718565
0.022424774 -0.10937963 0.17815256 -0.19542295 -0.18599 -0.03172763 0.16870607 -0.032269064
0.010925138 0.27035365 0.2287317 -0.005585528 -0.05483589 0.24813841 -0.039554413 0.061477777
0.2456324 -0.09576512 -0.08392845 0.008579724 0.1891229 -0.15172066 -0.22846045 0.14468673
-0.103640825 0.00021827221 -0.08418304 -0.22860631 0.10701144 0.1907255 -0.23818791 -0.18242228
-0.22020736 -0.20335987 0.2081995 -0.24198118 -0.01251924 -0.08939257 0.08913401 0.0092846155
-0.018933142 0.0011933881 0.2163356 -0.07752461 -0.16891642 -0.017992048 -0.023384217 0.18993953
-0.07607488 -0.07542944 0.10622048 -0.19946048 -0.04585957 0.108787164 0.04357787 0.08719984
0.15897268 0.010217858 0.51069057 -0.014742508 0.11660902 -0.14447477 0.11681517 0.14577165
-0.17171901 -0.18320517 0.048733797 -0.16332676 0.14389572 0.24356048 -0.09324177 0.20356995
-0.13977498 0.123033404 -0.010157257 -0.16691688 -0.15408099 -0.21949646 0.019204289 -0.038698196
-0.17811349 -0.16784897 -0.16640112 0.15673202 -0.0466305 0.07238045 0.14520732 0.24590534
0.010834004 -0.052854057 -0.29902834 0.24358442 0.040718053 0.11711266 0.04437451 -0.23884088
-0.100194044 0.2146004 0.14609516 0.042049702 -0.21479703 0.09631511 -0.10825336 0.09088343
-0.21167178 -0.11652254 0.31282073 -0.023547454 0.19889262 0.20278725 -0.039765444 0.13295048
0.016286373 -0.07443152 -0.1788351 -0.10820521 0.047717582 0.15946077 -0.14802177 0.07572335
0.20804398 -0.086760774 0.22083096 0.01942724 0.18730947 -0.037845895 -0.11695071 -0.13792226
0.18172137 -0.228058 0.25079063 -0.22931829 -0.20628318 0.08607463 -0.16302952 0.096127525
-0.20297477 -0.16706356 -0.30161133 0.08328946 -0.06653793 0.07696707 -0.09507339 0.015982362
-0.23210353 -0.012734681 -0.05790395 0.25074947 -0.19781302 0.18809342 0.19708997 0.1329031
0.18562016 -0.12770599 0.26606914 -0.1823989 0.1940726 0.16282919 0.3470977 0.19585232
-0.17253228 -0.20607442 0.24092217 0.002453506 0.014129225 0.16278182 -0.16553645 -0.018282596
-0.06847505 0.21822669 -0.08847366 -0.114155136 -0.08499626 -0.06952806 0.05617942 0.10251199
-0.12956108 -0.032544132 -0.21839431 0.10145822 -0.107829705 0.043949395 0.14722994 0.13119853
-0.2389844 0.14048919 0.054150574 -0.20232302 -0.046401195 -0.16875848 -0.23444891 -0.24778149
0.11227774 0.18793482 -0.24723136 -0.17836776 0.1581167 -0.020220906 -0.121591896 -0.17654157
0.004655659 0.1353687 0.23287746 0.013959646 -0.12895691 0.15613806 -0.24456537 -0.11222288
-0.24265277 -0.11094344 -0.00805971 -0.21090126 -0.16585329 0.15869781 0.058734 -0.112093955
0.22951803 0.12292279 -0.030607602 -0.23564379 0.0072329473 -0.14512163 0.19980296 0.007162871
0.18191431 -0.0025918984 -0.17191425 -0.1111958 -0.24480647 -0.20454374 0.006566882 -0.22932652
00000000: 9a3e df3d af2d cb3d cd38 483e 0738 f8bd
00000010: c519 f83d 4598 313e 8398 d03d 28cd 343e
00000020: ea72 36be 9991 f33d 8b0e b6bd d0f5 71be
00000030: e674 16be e18f 293e 7921 673e c283 a1bd
00000040: 74ac 61be 8874 54be f371 a23e d236 a23d
00000050: 3081 653d 59ce 743e 5acd 8c3e 09eb 493e
00000060: 29b4 b73c 6d02 e0bd a06d 363e f41c 48be
00000070: 2a74 3ebe d5f4 01bd 49c1 2c3e 912c 04bd
00000080: 5aff 323c cb6b 8a3e a538 6a3e ce06 b7bb
00000090: 999b 60bd ff17 7e3e cf03 22bd 1fd0 7b3d
000000a0: 0f87 7b3e 8120 c4bd aee2 abbd f891 0c3c
000000b0: 6fa9 413e a95c 1bbe 89f1 69be c228 143e
000000c0: a441 d4bd 00e0 6439 2868 acbd c617 6abe
000000d0: d028 db3d 8c4d 433e 88e7 73be e8cc 3abe
000000e0: 0a7e 61be 923d 50be 4032 553e eac9 77be
000000f0: 801d 4dbc 7413 b7bd e48b b63d 801e 183c
00000100: ad19 9bbc 766b 9c3a 1487 5d3e 39c5 9ebd
00000110: 6df8 2cbe 0f64 93bc 4290 bfbc 827f 423e
00000120: 26cd 9bbd c07a 9abd 1f8a d93d 5e3f 4cbe
00000130: 3fd7 3bbd cecb de3d b57e 323d d495 b23d
00000140: bcc9 223e cd68 273c 9ebc 023f 8f8a 71bc
00000150: b6d0 ee3d 32f1 13be cb3c ef3d 2a45 153e
00000160: 1cd7 2fbe 239a 3bbe 179d 473d 213f 27be
00000170: 6659 133e eb67 793e 8bf5 bebd a474 503e
00000180: 2c21 0fbe f0f8 fb3d a06a 26bc 42ec 2abe
00000190: 68c7 1dbe aec3 60be 5052 9d3c 0082 1ebd
000001a0: 6263 36be 9ae0 2bbe 0e65 2abe 5c7e 203e
000001b0: a0ff 3ebd 343c 943d 3ab1 143e 9cce 7b3e
000001c0: 1b81 313c 7f7d 58bd 3e1a 99be 326e 793e
000001d0: f9c7 263d c3d8 ef3d 0cc2 353d b492 74be
000001e0: 8932 cdbd 35c0 5b3e f899 153e 4f3c 2c3d
000001f0: c1f3 5bbe db40 c53d f0b3 ddbd 1721 ba3d
00000200: 7dc0 58be 5fa3 eebd 0a2a a03e 97e6 c0bc
00000210: 82aa 4b3e 76a7 4f3e 17e1 22bd 2c24 083e
00000220: 006b 853c 8e6f 98bd 8c20 37be b19a ddbd
00000230: 8373 433d af49 233e 0593 17be d814 9b3d
00000240: 7b09 553e a2af b1bd 8321 623e e025 9f3c
00000250: 0ece 3f3e 4c04 1bbd db83 efbd 7e3b 0dbe
00000260: 2b15 3a3e 0988 69be a167 803e 6ad2 6abe
00000270: e63b 53be e547 b03d 36f1 26be 82de c43d
00000280: 9ed8 4fbe b612 2bbe cd6c 9abe aa93 aa3d
00000290: 0a45 88bd e9a0 9d3d d6b5 c2bd 71ed 823c
000002a0: 8cac 6dbe 20a5 50bc b12c 6dbd 3c62 803e
000002b0: 7f8f 4abe 909b 403e f4d1 493e c017 083e
000002c0: 3613 3e3e 5cc5 02be 373a 883e c7c6 3abe
000002d0: f8ba 463e b2bc 263e cab6 b13e 838d 483e
000002e0: 4dac 30be 2c05 53be 4db4 763e 00cb 203b
000002f0: 447e 673c 47b0 263e 6382 29be 62c5 95bc
00000300: a63c 8cbd d176 5f3e ae31 b5bd 2bca e9bd
00000310: 8512 aebd ba64 8ebd 641c 663d cef1 d13d
00000320: a9ab 04be ff4c 05bd c2a2 5fbe 54c9 cf3d
00000330: d2d5 dcbd 4804 343d 72c3 163e e858 063e
00000340: 54b8 74be 66dc 0f3e fecc 5d3d c42d 4fbe
00000350: 2e0f 3ebd 06cf 2cbe 6013 70be 6eba 7dbe
00000360: dff1 e53d fc71 403e 382a 7dbe 0aa6 36be
00000370: 58e9 213e 50a6 a5bc 2c05 f9bd 50c7 34be
00000380: 808e 983b 189e 0a3e 6e77 6e3e 00b7 643c
00000390: 480d 04be a8e2 1f3e 586f 7abe 1cd5 e5bd
000003a0: f879 78be 5036 e3bd e00c 04bc 80f6 57be
000003b0: 72d5 29be ae81 223e 1093 703d 8491 e5bd
000003c0: c606 6b3e f2be fb3d cbbc fabc 9b4c 71be
000003d0: 5c02 ed3b c49a 14be 2699 4c3e 84b6 ea3b
000003e0: bf47 3a3e d7dc 29bb 4a0a 30be a0ba e3bd
000003f0: 8cae 7abe ea73 51be 002f d73b 92d4 6abe

linear_relu_stack.0.bias f4 [512]
-0.19926222 0.19998218 -0.008024243 0.13579848 0.17111087 0.14545003 0.06990686 -0.12195584
-0.047983922 0.055131394 0.019830663 0.21682629 -0.15136154 0.0077340896 -0.2498264 -0.011503653
0.1026254 -0.032830797 -0.010891027 0.13304141 0.21714541 0.04576937 -0.09465492 0.20553833
0.025097013 0.19868496 -0.17121173 -0.24438933 -0.021423157 0.056853812 0.058255512 -0.014438262
0.21029451 0.15597674 -0.24400897 -0.05662122 -0.023736084 -0.022951305 -0.01365683 -0.14090866
0.21640101 0.20519228 -0.2652267 0.10962587 -0.17304 -0.0517398 -0.07510881 0.11188373
0.03609422 -0.061949924 -0.08271553 -0.02886054 -0.02391181 -0.09620775 -0.010704877 0.15928431
0.15354113 0.014675791 -0.119587116 0.16851956 0.024403967 -0.009787654 0.17531359 -0.22729437
-0.22875619 0.09545252 -0.22479169 -0.08712389 0.10215864 0.19667967 0.13884187 -0.19464381
0.08800241 0.04511113 -0.113877706 -0.18430065 0.2172829 0.15770999 -0.06644586 0.16756144
0.111791074 0.15950419 -0.25524932 -0.1508677 -0.032955777 0.13274331 -0.1696809 0.16996497
-0.1400466 -0.06173403 0.13370398 0.27548954 -0.048941433 0.11442146 0.09025433 0.088135734
-0.05462763 -0.16130015 0.047810983 -0.2079651 -0.17966573 -0.056584843 0.081923686 0.1336337
-0.08333105 0.08814945 0.01794978 -0.17908067 0.021455316 0.03455558 0.20773605 -0.12314449
-0.12667678 0.15481016 -0.12883817 0.18268234 -0.24826562 -0.2736607 0.23016267 0.000983635
0.094937325 0.10157138 -0.021583965 -0.025305383 -0.23522182 -0.02464521 0.022818424 0.042739477
-0.07763416 -0.03258806 -0.22497617 0.18319297 0.21153346 0.22724392 0.23473918 -0.17910635
-0.12468542 0.089368634 -0.063253716 0.19232734 -0.17023794 0.05732066 0.094579294 0.0030412409
-0.031951085 0.06604187 0.05897872 0.24290848 -0.17217532 0.24624649 -0.16358322 -0.0060263034
-0.24283887 0.17851283 0.18947499 0.053343646 -0.20260057 0.25861335 -0.08149793 -0.12077525
-0.21790539 0.1416892 0.006026843 0.21788129 0.04491714 0.17691767 -0.21989167 0.19809246
0.24681741 0.08303835 -0.024519255 0.0056057745 -0.16736092 0.23592235 0.02788133 0.17006245
0.12717405 0.04515132 0.04719642 -0.16548716 -0.2533284 -0.21099964 0.13484886 -0.055805743
-0.040702146 -0.06681007 0.07533813 0.17099819 0.16106203 -0.23288293 0.2415849 0.19042139
-0.1962872 -0.21078376 0.06806423 -0.19695055 -0.181588 -0.013964337 -0.17969479 -0.24559589
0.072998434 -0.11340678 -0.0741954 -0.010212194 -0.07374159 0.04648134 0.23417 0.16978408
0.042432994 0.08268915 0.2607641 0.06363099 0.16140322 -0.10186145 -0.08714622 0.09581788
0.05658513 -0.037625283 0.109625384 0.18751356 0.012748216 0.04713979 -0.23226163 0.23596242
-0.18076709 0.078035705 0.051793996 0.124670446 0.1943948 -0.19443552 0.056825455 -0.004154384
-0.18693903 0.057427704 0.18661892 -0.045324918 -0.04374498 0.15187101 -0.01991337 -0.14208809
0.12796053 0.17891672 -0.24307868 -0.26961082 -0.23012346 0.15533105 0.18882516 -0.05719046
-0.0819656 -0.007250566 0.21926264 -0.1312603 -0.25506768 0.14852574 0.048687607 0.13079968
00000000: 650b 4cbe 21c8 4c3e 1d78 03bc c20e 0b3e
00000010: b037 2f3e daf0 143e 542b 8f3d fcc3 f9bd
00000020: ca8a 44bd 75d1 613d ea73 a23c b607 5e3e
00000030: 85fe 1abe 3f6e fd3b 7ed2 7fbe d179 3cbc
00000040: 442d d23d 9679 06bd 4770 32bc 023c 083e
00000050: 5e5b 5e3e aa78 3b3d 70da c1bd a478 523e
00000060: 4098 cd3c 1274 4b3e 2152 2fbe 3241 7abe
00000070: 9e7f afbc 8bdf 683d 559d 6e3d 768e 6cbc
00000080: 7257 573e 5eb8 1f3e 7ddd 79be a7eb 67bd
00000090: 2d72 c2bc 6004 bcbc e6c0 5fbc 5c4a 10be
000000a0: 3a98 5d3e ed1d 523e cbcb 87be 8783 e03d
000000b0: 6631 31be 1ded 53bd a6d2 99bd 4c23 e53d
000000c0: 88d7 133d 34bf 7dbd c366 a9bd f06c ecbc
000000d0: b3e2 c3bc 9208 c5bd 8263 2fbc 6d1b 233e
000000e0: e339 1d3e bb72 703c 17ea f4bd 6490 2c3e
000000f0: d4ea c73c 655c 20bc 6885 333e dbbf 68be
00000100: 103f 6abe 9c7c c33d cb2f 66be 036e b2bd
00000110: 8d38 d13d 6566 493e 902c 0e3e b550 47be
00000120: 9c3a b43d 73c6 383d b738 e9bd 4fb9 3cbe
00000130: 697f 5e3e ba7e 213e c414 88bd 3a95 2b3e
00000140: b8f2 e43d 1155 233e 0ab0 82be 107d 1abe
00000150: a3fc 06bd dded 073e d4c0 2dbe 4c0b 2e3e
00000160: 6068 0fbe d2dc 7cbd b2e9 083e f70c 8d3e
00000170: d076 48bd cc55 ea3d 43d7 b83d 8280 b43d
00000180: 39c1 5fbd de2b 25be 73d5 433d cef4 54be
00000190: 4bfa 37be 82c5 67bd 9bc7 a73d 46d7 083e
000001a0: 78a9 aabd b387 b43d 6b0b 933c ec60 37be
000001b0: 0fc3 af3c 278a 0d3d c2b8 543e 2e33 fcbd
000001c0: 8fb7 01be 8e86 1e3e 27ee 03be 1411 3b3e
000001d0: 5839 7ebe 411d 8cbe c3af 6b3e 50ed 803a
000001e0: 806e c23d a804 d03d dbd0 b0bc 3c4d cfbc
000001f0: fddd 70be c0e4 c9bc b4ed ba3c 970f 2f3d
00000200: a9fe 9ebd 0f7b 05bd 2760 66be f096 3b3e
00000210: 3a9c 583e a1b2 683e 785f 703e a867 37be
00000220: 125b ffbd e706 b73d 2a8b 81bd 75f1 443e
00000230: db52 2ebe 12c9 6a3d cab2 c13d 8e4f 473b
00000240: 24df 02bd f640 873d ac93 713d 00bd 783e
00000250: ba4e 30be 0a28 7c3e 5c82 27be 4c78 c5bb
00000260: c1aa 78be 11cc 363e bb05 423e de7e 5a3d
00000270: 8676 4fbe f868 843e 63e8 a6bd 0459 f7bd
00000280: 9722 5fbe f916 113e d37c c53b 461c 5f3e
00000290: 09fb 373d e829 353e 482b 61be c0d8 4a3e
000002a0: b4bd 7c3e 0310 aa3d 9bdc c8bc a5b0 b73b
000002b0: a960 2bbe a195 713e 6367 e43c da24 2e3e
000002c0: ea39 023e 97f0 383d 0951 413d 7775 29be
000002d0: 43b4 81be 4a10 58be d215 0a3e 9094 64bd
000002e0: 4bb7 26bd b8d3 88bd e14a 9a3d 261a 2f3e
000002f0: 72ed 243e dd78 6ebe 0862 773e d3fd 423e
00000300: 83ff 48be b3d7 57be 4265 8b3d 68ad 49be
00000310: 34f2 39be adca 64bc e901 38be 7d7d 7bbe
00000320: 3480 953d d041 e8bd c2f3 97bd 0c51 27bc
00000330: d505 97bd 3863 3e3d 43ca 6f3e e1db 2d3e
00000340: 38ce 2d3d ee58 a93d df82 853e f750 823d
00000350: e346 253e bc9c d0bd b879 b2bd 2a3c c43d
00000360: cfc5 673d f81c 1abd 4683 e03d 8e03 403e
00000370: e5dd 503c a715 413d fed5 6dbe 22a0 713e
00000380: 021b 39be 2fd1 9f3d f125 543d 3853 ff3d
00000390: 6e0f 473e 1b1a 47be cfc1 683d 8021 88bb
000003a0: f26c 3fbe 5039 6b3d 0819 3f3e 9fa6 39bd
000003b0: f02d 33bd 1384 1b3e 5d21 a3bc 8a7f 11be
000003c0: 1608 033e f235 373e 9ee9 78be 6e0a 8abe
000003d0: 7ca5 6bbe 1a0f 1f3e 625b 413e 8b40 6abd
000003e0: 95dd a7bd 2896 edbb 6386 603e 1a69 06be
000003f0: 3b98 82be 2217 183e a86c 473d 5af0 053e

linear_relu_stack.2.weight f4 [128, 512]
-0.03360938 -0.026446242 0.007053139 0.028342377 -0.019338403 0.00021723924 -0.027307818 0.021541975
0.01699199 -0.025402913 0.018614834 -0.02640586 0.012788237 0.03432635 0.010083243 -0.009004116
-0.03440054 -0.04265471 -0.034775943 -0.01944962 0.023044545 1.9061628e-05 0.015418139 -0.0009539216
0.018697266 -0.04150408 0.012952813 -0.027091686 -0.037216514 -0.016173424 -0.009961118 0.025162797
0.019927505 -0.022615327 -0.0518375 0.028862257 -0.020359235 0.010705516 -0.019581586 0.022150503
-0.027779467 -0.049957246 0.03826716 -0.030142147 0.037790142 -0.028205432 0.014867808 0.006801054
-0.0005467414 -0.036890347 -0.04370913 -0.012213208 -0.035859868 0.019185357 0.008226891 -0.032581862
-0.03031497 1.7048864e-05 -0.03787476 -0.037227668 -0.0016617791 0.01478149 0.037668064 0.039286584
-0.00020633765 0.005398826 0.03203065 -0.04398394 -0.00608668 0.026331745 0.020131849 -0.03515418
0.018042758 0.0372004 0.015278286 -0.04264292 0.038585406 0.00089815323 -0.04188216 -0.033572774
0.013765124 -0.020775964 -0.043324433 0.024522085 0.010979648 -0.02046859 0.016806029 0.027332101
-0.012165318 0.034608647 0.0055946116 -0.035239257 0.029913384 0.0033893886 -0.032480378 0.030139124
-0.01899258 -0.00042586 -0.007307023 -0.047498018 0.017254816 -0.025114585 -0.0028626702 0.0021847005
-0.037180033 -0.03959369 0.01456147 -0.027607096 -0.043264583 0.00044609734 -0.03075935 0.021674095
-0.04110183 -0.021704154 0.0038002818 0.014586519 0.020932121 0.0027839148 -0.049238577 0.0029371213
0.037068136 -0.013961893 -0.004703548 0.031624198 -0.013402162 0.029551467 0.027745128 0.007436199
-0.029560832 -0.010953375 0.0137682 0.009468172 0.016095644 0.02786532 -0.0139598455 -0.018079331
0.03220194 -0.02074789 0.013336439 0.026134215 -0.027320603 -0.018640952 -0.01807771 0.031808
0.022553941 0.01591842 0.023212595 -0.03306718 -0.01670496 -0.036597118 0.0034111866 -0.039158314
0.03797322 -0.012554711 0.0040872567 -0.021709893 0.008377806 -0.02874593 -0.021923158 0.023516206
0.008969154 0.017365023 0.033882484 0.0038879106 0.03112158 0.014032042 0.04459063 0.016415302
0.003310701 0.0072954046 -0.03577288 0.016943637 -0.030782627 -0.0005304602 -0.031390797 0.016647082
-0.008876153 -0.021347012 -0.04177096 -0.040204667 -0.009760689 0.019520547 -0.009294102 -0.045670312
-0.049734674 0.011273403 -0.015563117 0.0058443304 0.0014862132 -0.043437086 0.010942679 -0.034359787
0.034916174 -0.01261024 -0.033099264 0.008585562 0.006781239 0.0018942049 -0.0448545 -0.0042912867
0.031991698 -0.029048894 0.017583573 0.0153739285 0.00078611745 -0.023269149 -0.001113231 0.0021730692
0.037226606 -0.007408375 0.032764338 0.011872421 0.0151866805 0.0029687285 0.02240144 -0.010547416
-0.0014847305 -0.046176627 -0.0346655 -0.01099759 -0.04031992 -0.008551672 -0.039637882 0.012784883
-0.02371314 0.025471767 -0.03279665 0.02642398 -0.011138842 -0.026439436 0.014705123 -0.02637262
-0.030499153 0.0064941 0.034742285 0.015915267 -0.040759593 -0.037807852 0.03181659 0.01020621
0.02186351 -0.011038687 0.03467635 0.009416306 0.0018072322 -0.009659547 0.03129274 -0.003803843
-0.0067057684 -0.0009978552 -0.02954548 0.022226032 -0.023017438 -0.044338472 -0.04304606 -0.03637077
00000000: fda9 09bd caa5 d8bc 051e e73b 462e e83c
00000010: 926b 9ebc b7ca 6339 a5b4 dfbc cc78 b03c
00000020: c932 8b3c c519 d0bc 237e 983c 1a51 d8bc
00000030: c185 513c c999 0c3d 3034 253c 0086 13bc
00000040: 95e7 0cbd b5b6 2ebd 3871 0ebd cf54 9fbc
00000050: eac7 bc3c 89e6 9f37 5d9c 7c3c 9810 7aba
00000060: 022b 993c 2f00 2abd 0938 543c 62ef ddbc
00000070: 5870 18bd 217e 84bc f533 23bc 3622 ce3c
00000080: 023f a33c c743 b9bc 8f53 54bd 8a70 ec3c
00000090: 69c8 a6bc 3066 2f3c 9069 a0bc f974 b53c
000000a0: c491 e3bc f89f 4cbd 07be 1c3d aaec f6bc
000000b0: d6c9 1a3d 140f e7bc 1b98 733c 60db de3b
000000c0: 3253 0fba 551a 17bd 5808 33bd e819 48bc
000000d0: cce1 12bd 9c2a 9d3c 15ca 063c 8f74 05bd
000000e0: 1a57 f8bc 2804 8f37 9022 1bbd 0a7c 18bd
000000f0: 0ed0 d9ba 102e 723c d449 1a3d f8ea 203d
00000100: 575c 58b9 a3e8 b03b 9232 033d 8128 34bd
00000110: c672 c7bb acb5 d73c 8ceb a43c d4fd 0fbd
00000120: 68ce 933c 725f 183d c751 7a3c 58aa 2ebd
00000130: bb0b 1e3d 0b72 6b3a a18c 2bbd 9b83 09bd
00000140: 1d87 613c 5b32 aabc f674 31bd 8ae2 c83c
00000150: fbe3 333c bfad a7bc ccac 893c 92e7 df3c
00000160: 0b51 47bc ccc1 0d3d 0153 b73b 0a57 10bd
00000170: ea0c f53c 8120 5e3b 250a 05bd 53e6 f63c
00000180: 5496 9bbc f645 dfb9 c06f efbb 488d 42bd
00000190: f959 8d3c 1abd cdbc a39b 3bbb 312d 0f3b
000001a0: 174a 18bd fe2c 22bd 3b93 6e3c 4728 e2bc
000001b0: 3436 31bd 2ce2 e939 08fb fbbc df8d b13c
000001c0: 645a 28bd e9cc b1bc 260e 793b 4cfc 6e3c
000001d0: d779 ab3c 5772 363b 64ae 49bd b87c 403b
000001e0: c2d4 173d 6cc0 64bc 3820 9abb 6088 013d
000001f0: be94 5bbc eb15 f23c c049 e33c 5cab f33b
00000200: 8f29 f2bc c975 33bc 0494 613c 6420 1b3c
00000210: 03db 833c d045 e43c d6b7 64bc 1b1b 94bc
00000220: 2ee6 033d 7bf7 a9bc 1481 5a3c 6c17 d63c
00000230: 75cf dfbc e9b4 98bc b517 94bc 1b49 023d
00000240: 0bc3 b83c 5967 823c 5728 be3c 7471 07bd
00000250: d7d8 88bc dce6 15bd 378e 5f3b 7864 20bd
00000260: cf89 1b3d 46b2 4dbc 65ee 853b f2d8 b1bc
00000270: 1143 093c 967c ebbc 3298 b3bc 0fa5 c03c
00000280: 5cf3 123c 1841 8e3c 5cc8 0a3d 51cc 7e3b
00000290: aff2 fe3c a6e6 653c aaa4 363d 6279 863c
000002a0: 59f8 583b 4a0e ef3b 9586 12bd 62cd 8a3c
000002b0: d92b fcbc 950e 0bba a393 00bd 765f 883c
000002c0: 496d 11bc eedf aebc 0718 2bbd a6ad 24bd
000002d0: 4ceb 1fbc 8ee9 9f3c 4a46 18bc cb10 3bbd
000002e0: 96b6 4bbd 14b4 383c 72fc 7ebc cc81 bf3b
000002f0: 0acd c23a 16eb 31bd ec48 333c d9bc 0cbd
00000300: 4304 0f3d 2e9b 4ebc 1893 07bd 75aa 0c3c
00000310: 2835 de3b f846 f83a 5ab9 37bd ec9d 8cbb
00000320: ba09 033d f2f7 edbc 6d0b 903c eee2 7b3c
00000330: 7313 4e3a f19e bebc d5e9 91ba 0d6a 0e3b
00000340: ed7a 183d f4c1 f2bb e633 063d 8b84 423c
00000350: 8ed1 783c 008f 423b 3a83 b73c 12cf 2cbc
00000360: 4a9b c2ba b423 3dbd 69fd 0dbd 3c2f 34bc
00000370: 8026 25bd 501c 0cbc 555b 22bd b077 513c
00000380: 0f42 c2bc 2baa d03c c855 06bd 1a77 d83c
00000390: b17f 36bc 8497 d8bc c2ed 703c 650b d8bc
000003a0: 5cd9 f9bc 76cc d43b ed4d 0e3d bc60 823c
000003b0: 88f3 26bd 68dc 1abd 1d52 023d f337 273c
000003c0: 1b1b b33c 9cdb 34bc ca08 0e3d da46 1a3c
000003d0: a6e0 ec3a 1443 1ebc d12c 003d e549 79bb
000003e0: 10bc dbbb 77ca 82ba 5d09 f2bc 5e13 b63c
000003f0: 118f bcbc 429c 35bd 1151 30bd 84f9 14bd

linear_relu_stack.2.bias f4 [128]
-0.04969442 0.046189215 -0.02587862 0.034645792 -0.014568811 0.03668044 -0.0018231574 0.010351723
-0.023706544 0.021917317 0.027231062 -0.0005503323 0.025277615 -0.009353954 0.023378562 -0.023303382
0.01803963 0.033698257 0.00554502 0.00025782612 0.03230372 0.03366148 0.043943513 0.0018847189
-0.030642748 0.025432302 -0.011713782 0.011195138 0.033992875 0.014403888 -0.0002508639 0.025759941
-0.016390534 -0.030492939 0.0005534311 -0.034193475 -0.027126255 -0.024099631 0.014026172 -0.029565088
-0.02469942 0.014574242 0.019803995 0.04078595 0.01655829 0.03727894 -0.019845305 0.045501865
-0.018408036 0.009086737 0.00950885 -0.04210431 0.025389101 -0.0218329 -0.021427533 -0.036614083
0.034038767 0.0063781096 0.021845317 -0.025364947 0.022630494 0.039100207 -0.026491135 -0.008121718
0.003896936 0.033133555 0.008723882 0.013655173 -0.040097576 -0.03204028 -0.026919955 0.01367414
-0.017303267 0.04123413 0.04376549 0.033147667 0.0035801365 -0.018626021 0.057065055 0.02976073
-0.024807025 0.009087312 0.016348636 0.012357743 -0.01205238 0.004822448 0.059671037 0.037956808
0.052466568 0.02032075 -0.00977402 -0.0011130141 -0.007346735 -0.021019693 0.028166536 -0.011690951
-0.04729786 0.016571363 -0.039010562 -0.04452429 -0.02536715 0.0031644069 -0.02109064 0.0073346524
-0.014188417 -0.025347501 -0.038356945 -0.020475935 0.041451555 -0.015594069 0.0056284983 0.02386306
-0.044769235 -0.038186066 0.030748826 0.028613029 0.0020960942 0.015576754 0.028459355 0.029398788
0.029994426 0.0013881273 0.03142407 0.024055624 0.008961485 0.03294298 0.038178127 -0.03302333
00000000: 608c 4bbd e730 3d3d 66ff d3bc bfe8 0d3d
00000010: 06b2 6ebc 3b3e 163d 03f7 eeba 469a 293c
00000020: 3a34 c2bc f28b b33c ad13 df3c 2d44 10ba
00000030: 0013 cf3c 5441 19bc 6684 bf3c bce6 bebc
00000040: d9c7 933c 2f07 0a3d 00b3 b53b d62c 8739
00000050: e850 043d 9fe0 093d 1dfe 333d ac08 f73a
00000060: 8006 fbbc 6757 d03c 2aeb 3fbc d06b 373c
00000070: 1d3c 0b3d 49fe 6b3c 6286 83b9 8306 d33c
00000080: 7145 86bc 54cc f9bc 2214 113a 750e 0cbd
00000090: e137 debc 976c c5bc 08ce 653c 7c32 f2bc
000000a0: 7056 cabc cdc8 6e3c fd3b a23c 2b0f 273d
000000b0: 40a5 873c cdb1 183d 9f92 a2bc 2a60 3a3d
000000c0: 73cc 96bc 8ae0 143c 02cb 1b3c 9275 2cbd
000000d0: cefc cf3c e9da b2bc cb88 afbc a6f8 15bd
000000e0: 3c6c 0b3d 76ff d03b f3f4 b23c 26ca cfbc
000000f0: 9663 b93c 8a27 203d f003 d9bc f410 05bc
00000100: bd63 7f3b 0db7 073d 9dee 0e3c f2b9 5f3c
00000110: 5b3d 24bd ab3c 03bd 3d87 dcbc 8009 603c
00000120: 95bf 8dbc 1ee5 283d 7143 333d d9c5 073d
00000130: b9a0 6a3b 9995 98bc 0cbd 693d c6cc f33c
00000140: 1a38 cbbc f3e2 143c 93ed 853c 2278 4a3c
00000150: 5877 45bc a005 9e3b 9e69 743d 9978 1b3d
00000160: 2fe7 563d b477 a63c 3623 20bc 8ee2 91ba
00000170: e1bc f0bb 7e31 acbc 82bd e63c 678b 3fbc
00000180: 67bb 41bd abc0 873c 8ac9 1fbd 1a5f 36bd
00000190: c5ce cfbc f061 4f3b 47c6 acbc 8657 f03b
000001a0: 8976 68bc 90a5 cfbc 2c1c 1dbd 26bd a7bc
000001b0: 1bc9 293d 447e 7fbc 446f b83b 777c c33c
000001c0: f25f 37bd fe68 1cbd f6e4 fb3c df65 ea3c
000001d0: a05e 093b a435 7f3c 9823 e93c bad5 f03c
000001e0: dfb6 f53c d3f1 b53a 87b6 003d 4d10 c53c
000001f0: 31d3 123c 38ef 063d ab60 1c3d 7943 07bd

linear_relu_stack.4.weight f4 [10, 128]
-0.040033188 -0.015697422 0.06507301 -0.024227023 -0.038742915 -0.082713895 0.09291139 0.046957467
0.04311959 -0.05597423 0.014850582 0.009213731 0.00916656 -0.072543964 -0.023896132 0.043260265
-0.013406614 -0.04560688 0.016768692 0.043868728 0.004406413 0.05060684 0.05944141 0.019633034
-0.04183331 -0.04584081 0.08875479 0.011007026 0.040750034 0.00094768486 0.0941747 -0.016179673
0.099295646 0.021360062 0.041650336 0.06472749 0.037196938 -0.01530379 -0.08241549 0.077589296
-0.0632006 0.09029652 0.083246455 0.08800081 0.028072719 -0.07881771 -0.02728993 0.06025585
0.0029372796 -0.01156543 0.025984436 -0.06296512 -0.04461665 -0.017335538 -0.010284455 -0.06796509
0.003292537 0.09486111 -0.019179415 -0.0111626545 -0.013575448 -0.031294208 0.069572106 0.037473403
-0.045543697 0.00918068 -0.03376572 -0.062259436 -0.0071037523 -0.02072837 0.06512703 0.043462243
0.02953853 -0.040098548 0.08139475 0.07975948 0.029191934 -0.014180193 0.06814492 -0.042107504
0.046136025 -0.064249925 -0.066478625 0.0025299124 -0.075852156 -0.017617568 0.07694832 0.003979
0.04195185 -0.0073323078 -0.031854685 0.04255146 -0.04868346 -0.0130167985 -0.0070506483 -0.07921702
0.036972336 -0.05769606 -0.041106146 0.019387813 0.03960046 -0.023468008 -0.06658458 -0.022239378
-0.0015571553 0.050496105 -0.06042068 -0.054702304 0.079330035 -0.08141307 0.059806805 0.028841978
0.08155294 0.07335678 -0.010648653 -0.028301466 0.06090007 -0.07170347 0.084827386 -0.07163458
-0.08467864 0.06675576 -0.06758931 0.049819488 0.004452408 0.029605104 0.029971963 -0.05479239
-0.04052594 -0.043768287 -0.022785349 -0.07106289 0.05645315 0.05705508 -0.028702948 -0.006411942
-0.08116112 -0.08063889 -0.080292 -0.046742015 0.07786667 -0.043963313 0.043304104 -0.026455188
-0.06196541 0.021160185 0.012221858 -0.060730185 0.0065598306 -0.09315455 -0.056252386 0.048224427
0.06251601 -0.039206345 0.045587964 0.0482696 -0.00012674928 -0.05522408 -0.009973731 -0.046697825
-0.025463672 0.009737067 -0.0140653625 -0.040722672 0.029248744 0.07853711 0.025907785 0.086649515
-0.03723902 -0.051243473 -0.022023298 -0.093130276 0.03657488 -0.040582538 0.035313733 -0.005063176
-0.01251325 0.008655164 0.029222125 -0.0104771685 0.020386811 0.05998215 0.021654166 -0.026080556
0.0089762425 0.043212384 0.03980679 -0.06679017 -0.08439039 -0.045043737 -0.07958926 0.07786257
-0.09162873 0.016180597 0.011558705 0.018625975 -0.039904162 -0.050136894 0.07348593 0.07429668
-0.054769553 0.082328945 -0.03984012 -0.009975941 -0.05463964 -0.003502281 -0.07809394 -0.050904095
0.042797588 -0.08522466 -0.013251005 0.072818205 0.003979732 -0.009887144 0.036080196 0.047657475
0.04729778 0.047891326 -0.061791893 -0.06807791 0.029347189 -0.009571784 0.0104037 -0.0726795
0.037888978 -0.08570871 0.0020561796 -0.03796336 0.06954855 0.04736852 -0.04341058 -0.047742296
-0.03916641 -0.06476942 -0.08189552 -0.08386327 -0.066353194 0.009557892 -0.07745693 -0.074070804
-0.06321637 -0.0074046333 0.034512773 0.004803424 0.044130214 -0.020976044 0.0065301103 0.011877291
0.09259126 -0.02679798 0.072168894 -0.029873502 -0.049996447 0.07719974 0.039691176 0.06707882
00000000: d7f9 23bd e197 80bc 0045 853d c077 c6bc
00000010: e4b0 1ebd e765 a9bd 5448 be3d 7956 403d
00000020: 2b9e 303d 3c45 65bd db4f 733c 30f5 163c
00000030: 572f 163c ee91 94bd d2c1 c3bc ad31 313d
00000040: 6aa7 5bbc 48ce 3abd 7f5e 893c b2af 333d
00000050: ac63 903b 1e49 4f3d d678 733d 75d5 a03c
00000060: 6859 2bbd 93c3 3bbd 12c5 b53d d056 343c
00000070: 82e9 263d 0e6e 783a aade c03d 3c8b 84bc
00000080: 845b cb3d 4cfb ae3c 8b99 2a3d d98f 843d
00000090: d15b 183d bfbc 7abc 74c9 a8bd 23e7 9e3d
000000a0: 516f 81bd 62ed b83d 1e7d aa3d c539 b43d
000000b0: c2f8 e53c 2e6b a1bd 228f dfbc d7ce 763d
000000c0: 607f 403b ee7c 3dbc 50dd d43c dbf3 80bd
000000d0: f3bf 36bd 4203 8ebc 2180 28bc 4831 8bbd
000000e0: 9bc7 573b 8b46 c23d 261e 9dbc 91e3 36bc
000000f0: 8e6b 5ebc 5b2e 00bd d27b 8e3d b67d 193d
00000100: 078c 3abd 906a 163c ec4d 0abd c003 7fbd
00000110: 98c6 e8bb 8bce a9bc 5261 853d 7705 323d
00000120: cafa f13c 603e 24bd 4ab2 a63d f058 a33d
00000130: ec23 ef3c 0a54 68bc 908f 8b3d eb78 2cbd
00000140: 21f9 3c3d 7795 83bd f225 88bd e3cc 253b
00000150: 6058 9bbd b852 90bc 1597 9d3d 4562 823b
00000160: b4d5 2b3d db43 f0bb 0f7a 02bd 714a 2e3d
00000170: 4f68 47bd 6944 55bc 2009 e7bb 883c a2bd
00000180: 4e70 173d b452 6cbd eb5e 28bd 31d3 9e3c
00000190: 1834 223d fb3f c0bc 7f5d 88bd 5b2f b6bc
000001a0: 7619 ccba 01d5 4e3d ad7b 77bd 860f 60bd
000001b0: c977 a23d e5bb a6bd fbf7 743d 0346 ec3c
000001c0: 3a05 a73d 143c 963d b077 2ebc 7ad8 e7bc
000001d0: 5a72 793d 45d9 92bd fbb9 ad3d 27b5 92bd
000001e0: ff6b adbd 3eb7 883d 446c 8abd 850f 4c3d
000001f0: 81e5 913b 6786 f23c c387 f53c fc6d 60bd
00000200: 87fe 25bd 6046 33bd 57a8 babc 6c89 91bd
00000210: 6b3b 673d 96b2 693d 7222 ebbc 451b d2bb
00000220: cd37 a6bd 0126 a5bd 2270 a4bd 8e74 3fbd
00000230: 9078 9f3d e012 34bd a55f 313d 8db8 d8bc
00000240: 71cf 7dbd 2058 ad3c 303e 483c 37c0 78bd
00000250: d9f3 d63b d0c7 bebd e768 66bd fa86 453d
00000260: 6508 803d d596 20bd 72ba 3a3d 58b6 453d
00000270: 00e8 04b9 a532 62bd dc68 23bc 3846 3fbd
00000280: 3199 d0bc 3888 1f3c 6872 66bc d1cc 26bd
00000290: 109b ef3c 10d8 a03d 903c d43c 4d75 b13d
000002a0: f187 18bd ade4 51bd 346a b4bc 16bb bebd
000002b0: 8bcf 153d e039 26bd 22a5 103d 00e9 a5bb
000002c0: 6004 4dbc 64ce 0d3c 3d63 ef3c 6ea8 2bbc
000002d0: 3e02 a73c d8af 753d 1464 b13c e4a6 d5bc
000002e0: 1711 133c 78ff 303d 720c 233d 49c9 88bd
000002f0: ded4 acbd c87f 38bd b2ff a2bd 6976 9f3d
00000300: d8a7 bbbd 2c8d 843c b960 3d3c 8095 983c
00000310: 8c72 23bd 585c 4dbd cb7f 963d dc28 983d
00000320: 0a56 60bd 149c a83d 652f 23bd 2172 23bc
00000330: d1cd 5fbd 8686 65bb b7ef 9fbd d080 50bd
00000340: 864c 2f3d 448a aebd be1a 59bc b621 953d
00000350: 6968 823b b0fd 21bc d4c8 133d 7c34 433d
00000360: 51bb 413d b229 443d 7f19 7dbd 6e6c 8bbd
00000370: 8469 f03c f9d2 1cbc 4874 2a3c fdd8 94bd
00000380: 7931 1b3d 0c88 afbd f8c0 063b 787f 1bbd
00000390: 786f 8e3d 7e05 423d 4bcf 31bd 6d8d 43bd
000003a0: f56c 20bd d4a5 84bd d7b8 a7bd 82c0 abbd
000003b0: 2fe4 87bd b498 1c3c bda1 9ebd 6fb2 97bd
000003c0: 9677 81bd 91a2 f2bb 445d 0d3d 0a66 9d3b
000003d0: e2c1 343d f4d5 abbc 89fa d53b f898 423c
000003e0: 7da0 bd3d 7087 dbbc 49cd 933d 46b9 f4bc
000003f0: 13c9 4cbd e61a 9e3d 3793 223d 9f60 893d

linear_relu_stack.4.bias f4 [10]
0.07224691 0.0519041 0.0037173396 0.030454615 0.07541828 0.02394835 0.015799576 0.034380183
-0.048726223 -0.08570786
00000000: 30f6 933d 6599 543d 9c9e 733b f57b f93c
00000010: e674 9a3d 552f c43c 1d6e 813c 3cd2 0c3d
00000020: 2695 47bd 9a87 afbd

linear_relu_stack.6.weight f4 [1, 10]
-0.20781109 0.106906936 0.17974788 0.26303247 0.08677664 0.023557208 -0.10854284 0.20029673
-0.08912445 0.12734058
00000000: 6ecc 54be 06f2 da3d d40f 383e 31ac 863e
00000010: f3b7 b13d 0cfb c03c b54b debd 961a 4d3e
00000020: e186 b6bd 9265 023e

exp_avg f4 [512, 16]
-0.002210139 -0.001767764 -0.0061357575 -0.02072521 0.07147747 -0.0024732745 -0.004635967 -0.2781127
-0.13680677 -0.15088536 -0.15268873 0.0 0.043429926 0.0133120045 -0.0041819415 0.029814448
0.013156296 0.00043764806 -0.008739946 0.92365634 0.6246645 -0.0021699732 -0.005442579 0.2821165
0.2989823 0.16289197 0.39363974 1.3180239e-05 0.22016883 0.07191575 0.003570245 0.078723975
0.010219422 -0.01735435 -0.060577326 1.3160692 0.87678736 -0.028287007 -0.040410336 -2.2334595
0.09759275 -1.4158037 0.50462496 5.577792e-06 0.5346077 0.28402695 0.027568726 0.23204966
0.0 0.0 0.0 0.0 0.0 0.0 0.0 0.0
0.0 0.0 0.0 0.0 0.0 0.0 0.0 0.0
0.00065025536 -0.0032879787 -0.012036744 0.19852048 0.023666399 -0.0049545416 -0.008399925 -0.26154497
0.16253774 -0.16604073 0.31811965 0.0 -0.049163386 0.030382697 -0.005716677 0.015189264
-0.04449647 -0.045730423 -0.1844965 2.7288444 3.8437395 -0.075794175 -0.07297757 -7.573521
-2.3626378 -4.3130674 -2.8081343 8.0298654e-05 0.96278584 0.33741143 -0.20355769 0.5901073
0.0 0.0 0.0 0.0 0.0 0.0 0.0 0.0
0.0 0.0 0.0 0.0 0.0 0.0 0.0 0.0
-0.03110413 -0.0062755574 0.020636538 -3.3813488 -2.6311235 0.0050625647 0.00990503 -2.6081226
-0.55574715 -2.055081 -0.64620084 -4.7552327e-05 -0.30546108 0.06789132 0.0024098475 -0.074531265
0.00619893 0.000104235856 -0.021402892 1.0700943 1.1032256 -0.011737444 -0.013398238 -0.84107316
-0.11759765 -0.57031435 -0.13771291 1.905378e-05 0.40075976 0.11552922 -0.031333264 0.11153841
0.01706565 0.0010291337 -0.0074477894 1.0506058 0.7604958 -0.0021012134 -0.005558573 0.83403265
0.5397273 0.6096168 0.718348 2.3434795e-05 0.070782386 -0.003254416 -0.0012877135 0.059309017
0.0020879405 0.00089767086 0.0048825815 -0.23597465 -0.06778874 -0.0034196777 -0.0015574775 -0.13604264
-0.013077493 -0.02787566 -0.012747949 -2.5063905e-13 0.1193585 0.100201756 0.07476589 0.0
-0.0011309128 -0.008628853 -0.07206322 2.2429519 2.3046627 -0.028401686 -0.03874315 -1.9633263
0.21511814 -0.9630227 0.59510577 0.0 0.49959403 0.094473146 -0.115671 0.062101904
-0.0015836464 1.9118019e-05 0.00034259493 -0.033899754 0.00025163704 -1.6180331e-05 0.0001901626 -0.024728473
-0.004237768 0.009147731 0.010787693 0.0 -0.0028603773 -0.0012968736 5.2681695e-05 0.0
1.2222842e-15 0.0 1.8169665e-16 2.2680681e-14 2.3762313e-15 0.0 0.0 3.304456e-14
9.851247e-15 2.2241505e-14 0.0 0.0 4.797386e-14 0.0 0.0 0.0
0.0 0.0 0.0 0.0 0.0 0.0 0.0 0.0
0.0 0.0 0.0 0.0 0.0 0.0 0.0 0.0
9.159063e-11 3.0600553e-11 3.2476768e-11 2.2559596e-09 1.3128506e-09 0.0 0.0 7.1431674e-09
1.7208326e-09 4.9121014e-09 0.0 0.0 0.0 0.0 0.0 0.0
00000000: fbd7 10bb 51b4 e7ba 770e c9bb eac7 a9bc
00000010: c862 923d a916 22bb 4fe9 97bb ca64 8ebe
00000020: 1317 0cbe b181 1abe 6f5a 1cbe 0000 0000
00000030: 94e3 313d 981a 5a3c ab08 89bb 6e3d f43c
00000040: 818d 573c 2174 e539 fe31 0fbc be74 6c3f
00000050: 03ea 1f3f 1c36 0ebb a957 b2bb 9371 903e
00000060: 3514 993e 27cd 263e 268b c93e b220 5d37
00000070: f073 613e 9148 933d c6fa 693b 093a a13d
00000080: 5d6f 273c b62a 8ebc ee1f 78bd f574 a83f
00000090: 2375 603f 27ba e7bc 4f85 25bd 00f1 0ec0
000000a0: b5de c73d 0e39 b5bf 1a2f 013f de28 bb36
000000b0: 0ddc 083f fb6b 913e cfd7 e13c 6d9e 6d3e
000000c0: 0000 0000 0000 0000 0000 0000 0000 0000
000000d0: 0000 0000 0000 0000 0000 0000 0000 0000
000000e0: 0000 0000 0000 0000 0000 0000 0000 0000
000000f0: 0000 0000 0000 0000 0000 0000 0000 0000
00000100: e675 2a3a 217b 57bb c335 45bc f448 4b3e
00000110: 09e0 c13c b559 a2bb d79f 09bc 39e9 85be
00000120: 4b70 263e 9506 2abe 94e0 a23e 0000 0000
00000130: 8c5f 49bd 22e5 f83c f652 bbbb 64dc 783c
00000140: ee41 36bd d34f 3bbd a7ec 3cbe 63a5 2e40
00000150: d4ff 7540 fa39 9bbd 4475 95bd 495a f2c0
00000160: 7535 17c0 a604 8ac0 79b8 33c0 0366 a838
00000170: 2279 763f 31c1 ac3e 6d71 50be 4611 173f
00000180: 0000 0000 0000 0000 0000 0000 0000 0000
00000190: 0000 0000 0000 0000 0000 0000 0000 0000
000001a0: 0000 0000 0000 0000 0000 0000 0000 0000
000001b0: 0000 0000 0000 0000 0000 0000 0000 0000
000001c0: 17ce febc 31a3 cdbb f50d a93c 0568 58c0
000001d0: 5464 28c0 dfe3 a53b b548 223c 7beb 26c0
000001e0: 7245 0ebf 7286 03c0 6b6d 25bf ec72 47b8
000001f0: 6565 9cbe 9b0a 8b3d 88ee 1d3b d9a3 98bd
00000200: 6520 cb3b 3399 da38 1e55 afbc daf8 883f
00000210: 7f36 8d3f 694e 40bc 4984 5bbc 9250 57bf
00000220: 09d7 f0bd 1f00 12bf 9d04 0dbe aed5 9f37
00000230: 6230 cd3e 959a ec3d 4f57 00bd 406e e43d
00000240: 43cd 8b3c ffe3 863a 960c f4bb 407a 863f
00000250: daaf 423f 83b4 09bb b124 b6bb 2a83 553f
00000260: 912b 0a3f d90f 1c3f a8e5 373f d795 c437
00000270: 5bf6 903d 0a48 55bb 7fc8 a8ba 03ee 723d
00000280: d4d5 083b ac51 6b3a 10fe 9f3b 57a3 71be
00000290: d3d4 8abd ac1c 60bb 4624 ccba c34e 0bbe
000002a0: fb42 56bc 7f5b e4bc c6dc 50bc e518 8daa
000002b0: 3b72 f43d 9436 cd3d dc1e 993d 0000 0000
000002c0: 233b 94ba 0860 0dbc e295 93bd 868c 0f40
000002d0: 987f 1340 a7aa e8bc 23b1 1ebd 474e fbbf
000002e0: ee47 5c3e a888 76bf da58 183f 0000 0000
000002f0: caca ff3e 237b c13d ebe4 ecbd 915e 7e3d
00000300: 5b92 cfba a25f a037 509e b339 78da 0abd
00000310: 27ee 8339 ffba 87b7 6266 4739 5e93 cabc
00000320: f9dc 8abb 5de0 153c ddbe 303c 0000 0000
00000330: 2b75 3bbb dbfb a9ba 8af6 5c38 0000 0000
00000340: 5426 b026 0000 0000 637b 5125 174a cc28
00000350: bb39 2b27 0000 0000 0000 0000 c9d1 1429
00000360: dc76 3128 6b55 c828 0000 0000 0000 0000
00000370: 180e 5829 0000 0000 0000 0000 0000 0000
00000380: 0000 0000 0000 0000 0000 0000 0000 0000
00000390: 0000 0000 0000 0000 0000 0000 0000 0000
000003a0: 0000 0000 0000 0000 0000 0000 0000 0000
000003b0: 0000 0000 0000 0000 0000 0000 0000 0000
000003c0: f168 c92e 2995 062e 97d5 0e2e 4307 1b31
000003d0: d36f b430 0000 0000 0000 0000 f76f f531
000003e0: 6a82 ec30 4dc7 a831 0000 0000 0000 0000
000003f0: 0000 0000 0000 0000 0000 0000 0000 0000

exp_avg_sq f4 [512, 16]
0.017305236 9.2467475e-05 0.0003981071 13.166134 0.84090376 0.00035894505 5.37468e-05 135.72919
10.5303135 54.567795 9.167181 0.0 3.8320127 0.09241969 0.0007066685 0.45120624
0.005596798 0.00014501592 0.00020901849 6.428645 1.4201329 0.00013475271 5.4794367e-05 36.35273
7.2546663 15.019167 10.815956 3.486011e-10 0.6812205 0.039597776 0.002359521 0.07678373
0.06978978 0.0014331227 0.0043325247 65.38226 8.913814 0.0021668547 0.00115542 433.903
57.244152 172.26225 69.1497 1.7531838e-09 15.361415 0.631965 0.00040396766 1.494877
0.0 0.0 0.0 0.0 0.0 0.0 0.0 0.0
0.0 0.0 0.0 0.0 0.0 0.0 0.0 0.0
0.05492761 0.00019450008 0.0011389479 36.213894 0.91933495 0.0013237785 0.00024904235 415.92618
41.303905 168.6052 40.11819 0.0 16.98033 0.3111598 0.0008377288 1.5701652
0.16883399 0.0063304813 0.013766488 201.35509 48.654514 0.0058407835 0.0024582057 1042.9144
112.31001 409.46002 126.25662 3.192698e-09 52.019283 2.1573763 0.10573233 5.0168247
0.0 0.0 0.0 0.0 0.0 0.0 0.0 0.0
0.0 0.0 0.0 0.0 0.0 0.0 0.0 0.0
0.027005147 0.001417394 0.0013465788 41.00366 12.0035515 0.00053574046 0.0005233209 101.276024
42.287796 39.325024 67.30765 2.0437345e-09 2.6890254 0.25732493 0.00047987452 0.23888074
0.020521816 0.00031878796 0.0007374105 18.37313 2.8541994 0.00084878295 0.00015627417 150.98312
7.5366607 60.727177 4.5937543 2.9530003e-10 8.79096 0.20658885 0.006371879 0.6347774
0.008478823 0.0001641019 0.000211448 7.755601 1.1528351 8.022262e-05 0.00018091926 30.000935
17.52229 11.371643 28.131727 2.424978e-10 0.88137966 0.038607217 0.00016411915 0.07833981
0.0003047064 1.3821148e-05 1.8985553e-05 0.39842173 0.09727515 4.770081e-05 6.4781852e-06 0.38889986
0.009805741 0.11531485 0.006357978 3.7460108e-11 0.095314234 0.036460508 0.011030698 0.0
0.048244607 0.0012802199 0.002832757 52.8806 10.694188 0.0012110205 0.0007277107 335.0416
43.734512 133.49841 55.596394 0.0 9.754266 0.43300924 0.0126349125 1.0132613
0.0005886552 2.4610738e-06 1.6456439e-05 0.3412531 0.0062709157 1.2185159e-05 3.7368163e-06 7.6228166
0.22397816 3.0584705 0.14220603 0.0 0.00996647 0.0024841428 0.00010943011 0.0
3.4611534e-07 0.0 7.6306017e-10 0.0001241463 7.05618e-07 0.0 0.0 0.00024873888
2.2106771e-05 0.0001126865 0.0 0.0 0.00052426703 0.0 0.0 0.0
0.0 0.0 0.0 0.0 0.0 0.0 0.0 0.0
0.0 0.0 0.0 0.0 0.0 0.0 0.0 0.0
2.7949602e-07 1.8667963e-08 3.2698836e-08 0.00014734568 3.851853e-05 0.0 0.0 0.0015860279
8.84922e-05 0.0007050849 0.0 0.0 0.0 0.0 0.0 0.0
00000000: b6c3 8d3c 19eb c138 08b9 d039 7ca8 5241
00000010: 7845 573f ca30 bc39 306e 6138 acba 0743
00000020: 2a7c 2841 6c45 5a42 c6ac 1241 0000 0000
00000030: b23f 7540 8946 bd3d b83f 393a 8104 e73e
00000040: 5865 b73b 6a0f 1839 f92b 5b39 76b7 cd40
00000050: eac6 b53f 684c 0d39 01d3 6538 3269 1142
00000060: 3a26 e840 824e 7041 280e 2d41 3ea5 bf2f
00000070: 7764 2e3f 4731 223d 32a2 1a3b ca40 9d3d
00000080: f2ed 8e3d 9ed7 bb3a daf7 8d3b b8c3 8242
00000090: fb9e 0e41 ca01 0e3b 7671 973a 96f3 d843
000000a0: 03fa 6442 2343 2c43 a54c 8a42 acf4 f030
000000b0: 5bc8 7541 75c8 213f 9fcb d339 2158 bf3f
000000c0: 0000 0000 0000 0000 0000 0000 0000 0000
000000d0: 0000 0000 0000 0000 0000 0000 0000 0000
000000e0: 0000 0000 0000 0000 0000 0000 0000 0000
000000f0: 0000 0000 0000 0000 0000 0000 0000 0000
00000100: c6fb 603d b8f2 4b39 c048 953a 07db 1042
00000110: 8959 6b3f a382 ad3a e691 8239 8df6 cf43
00000120: 3337 2542 ee9a 2843 0779 2042 0000 0000
00000130: b7d7 8741 5650 9f3e 079b 5b3a 2cfb c83f
00000140: d1e2 2c3e ed6f cf3b d68c 613c e75a 4943
00000150: 399e 4242 0b64 bf3b d919 213b 435d 8244
00000160: ba9e e042 e2ba cc43 6483 fc42 8a66 5b31
00000170: bf13 5042 7412 0a40 318a d83d d489 a040
00000180: 0000 0000 0000 0000 0000 0000 0000 0000
00000190: 0000 0000 0000 0000 0000 0000 0000 0000
000001a0: 0000 0000 0000 0000 0000 0000 0000 0000
000001b0: 0000 0000 0000 0000 0000 0000 0000 0000
000001c0: e639 dd3c dac7 b93a b07f b03a bf03 2442
000001d0: 8c0e 4041 ef70 0c3a 792f 093a 538d ca42
000001e0: b426 2942 d34c 1d42 849d 8642 c271 0c31
000001f0: fe18 2c40 18c0 833e ab97 fb39 279d 743e
00000200: 5e1d a83c ff22 a739 c84e 413a 2cfc 9241
00000210: 34ab 3640 dc80 5e3a 87dd 2339 aefb 1643
00000220: 532c f140 a1e8 7242 0900 9340 c957 a22f
00000230: c6a7 0c41 078c 533e 32cb d03b c680 223f
00000240: c3ea 0a3c c512 2c39 24b8 5d39 e22d f840
00000250: 1a90 933f 313d a838 25b5 3d39 ea01 f041
00000260: a62d 8c41 40f2 3541 c70d e141 8850 852f
00000270: 19a2 613f 9a22 1e3d 6617 2c39 9f70 a03d
00000280: 00c1 9f39 61e1 6737 2a43 9f37 effd cb3e
00000290: 3238 c73d 5b12 4838 305f d936 e21d c73e
000002a0: 42a8 203c 312a ec3d 9656 d03b 55c0 242e
000002b0: 1c34 c33d 9d57 153d 1aba 343c 0000 0000
000002c0: 239c 453d 0dcd a73a c7a5 393b bc85 5342
000002d0: 651b 2b41 1bbb 9e3a d7c3 3e3a 5385 a743
000002e0: 24f0 2e42 987f 0543 b562 5e42 0000 0000
000002f0: 7911 1c41 63b3 dd3e aa02 4f3c 8cb2 813f
00000300: fb4f 1a3a ed28 2536 ef0b 8a37 bab8 ae3e
00000310: 417c cd3b dc6e 4c37 04c6 7a36 1dee f340
00000320: 885a 653e fbbd 4340 759e 113e 0000 0000
00000330: 684a 233c 00cd 223b d87d e538 0000 0000
00000340: bbd1 b934 0000 0000 96bf 5130 452d 0239
00000350: b369 3d35 0000 0000 0000 0000 2b69 8239
00000360: ee71 b937 1b52 ec38 0000 0000 0000 0000
00000370: f76e 093a 0000 0000 0000 0000 0000 0000
00000380: 0000 0000 0000 0000 0000 0000 0000 0000
00000390: 0000 0000 0000 0000 0000 0000 0000 0000
000003a0: 0000 0000 0000 0000 0000 0000 0000 0000
000003b0: 0000 0000 0000 0000 0000 0000 0000 0000
000003c0: a40d 9634 495b a032 c070 0c33 ce80 1a39
000003d0: f58e 2138 0000 0000 0000 0000 44e2 cf3a
000003e0: e394 b938 72d5 383a 0000 0000 0000 0000
000003f0: 0000 0000 0000 0000 0000 0000 0000 0000

exp_avg f4 [512]
-0.0012664277 0.008928668 0.007194173 0.0 0.00037862785 -0.028724348 0.0 -0.020178866
0.0053261896 0.01157517 0.0024127238 -0.00020501915 -0.0011197788 8.862224e-16 0.0 6.5091425e-11
0.0012176973 0.0035572965 -0.0031555493 0.013544827 0.0 -0.010504092 -0.00012886085 -0.004648306
0.0 -9.832911e-06 0.0011739751 0.0031778077 -0.0023661305 0.046724476 0.0032562276 -0.0023844005
0.0032213563 0.00013906446 0.001553788 -0.0015894142 -0.0021101453 0.0 0.0025128208 -0.0065300697
0.0 -0.0019489191 -0.0060156127 0.010423319 -2.0050875e-05 0.0044459514 -0.013678266 0.0
0.017268108 0.002581101 -0.04441875 0.0 0.0074089933 0.003403068 0.00046718304 0.02549304
0.0010219807 -0.0011683011 -0.0013711274 0.0008886339 -0.010430629 0.019878963 0.00488989 0.046058472
0.02161004 -0.00149584 -0.0011805058 0.0021486373 0.001075671 0.041383315 -0.0006092306 0.022040835
0.017472569 -0.0017938833 -0.009554391 0.005452936 2.6365379e-15 -0.009460753 0.05374366 0.001375927
-0.009800649 0.004275335 -0.0025385164 -0.0020012828 -0.0013439126 -0.007928334 0.0015180702 0.0
-0.016022438 0.0024649578 0.00712783 -0.03572344 0.0 0.00326343 0.0062595387 -0.05639558
-0.0031792517 -0.008081539 -0.000639577 -0.0049920063 -0.00625906 0.021145407 0.0036157877 0.02183691
0.0015063953 -0.002875293 -0.0091637615 0.0 -0.028047062 0.0123922685 0.0 0.0044485107
-0.005132312 0.016573649 -0.004102662 0.0 -0.011965137 -0.041458312 0.021759098 0.0026789894
0.007065391 -0.010063984 0.0036453204 -0.009907863 0.0018531902 0.009603844 0.01819986 0.0025986026
-0.007096388 0.0032231815 0.0020385778 0.0012152214 0.0057380204 0.026168583 0.00392337 0.0062097255
0.0308829 0.0070476555 0.0042668344 0.002909938 -0.01594201 0.004571667 0.019917589 -0.0008324044
-0.00016284859 0.0024016695 -0.095248334 0.0034472866 0.020465754 -0.0013635029 0.0055449447 0.0071219862
0.0023829006 0.008931458 0.0014684492 -0.001175529 0.060984623 -0.033715367 0.01739341 -0.08038551
0.009000101 0.0072565796 0.0010672358 2.426652e-15 0.0020936378 0.0012961943 -0.0003334819 0.0
0.0054796007 0.0015006801 -0.00062236044 0.058668826 0.0042931573 0.009438502 0.00013197765 0.0008836905
0.0008788652 0.0021376754 -0.02135458 0.00652896 -0.004387973 0.0 0.00068620854 6.488471e-05
0.0015555194 0.010020282 0.0007834953 0.005023401 -0.05222791 0.0015536635 -0.0015671104 0.020081917
0.012140557 0.0056331255 1.2527574e-13 -0.006365618 -0.002067469 -0.0014441139 -0.0010279684 0.0061994484
0.0035041154 0.0 0.0030022673 -0.0039427443 0.008899211 -0.00031909405 0.00012686085 -0.00075573934
0.0 0.0070550763 0.0056412118 0.029406827 0.030645913 0.0 0.0 -0.091226704
0.010002997 0.015844196 0.0034281819 0.0007408252 -0.00048490785 -0.0055896225 0.005021139 0.0026406199
-3.2148826e-05 0.026616676 -0.0029702126 -0.004196571 -0.012623021 0.004342741 0.00028684663 0.0
-0.02455499 -0.0013531487 -0.00042924608 -0.00056281395 0.007305996 0.0015629885 0.0033176027 -0.0011824337
0.0013829673 0.0 -0.0015439953 -0.0028533335 0.07238663 0.0 0.032941975 0.004550745
0.0053359303 -0.0050259014 0.006331334 0.0 0.008600949 0.0022626957 0.0037389912 -0.0015577495
00000000: 43fe a5ba 8c49 123c 19bd eb3b 0000 0000
00000010: 9282 c639 534f ebbc 0000 0000 264e a5bc
00000020: 5187 ae3b c8a5 3d3c ca1e 1e3b 69fa 56b9
00000030: 8bc5 92ba ac6f 7f26 0000 0000 3723 8f2e
00000040: 249b 9f3a 8821 693b 55cd 4ebb 1feb 5d3c
00000050: 0000 0000 5b19 2cbc d21e 07b9 d150 98bb
00000060: 0000 0000 08f8 24b7 11e0 993a c442 503b
00000070: 1511 1bbb 2a62 3f3d 6f66 553b 9a43 1cbb
00000080: 641d 533b d5d1 1139 79a8 cb3a e453 d0ba
00000090: 5d4a 0abb 0000 0000 23ae 243b 32fa d5bb
000000a0: 0000 0000 e072 ffba 9e1e c5bb 92c6 2a3c
000000b0: ed32 a8b7 58af 913b ce1a 60bc 0000 0000
000000c0: d975 8d3c b027 293b 6ff0 35bd 0000 0000
000000d0: 24c7 f23b 0206 5f3b 3ff0 f439 c8d6 d03c
000000e0: fbf3 853a ae21 99ba 67b7 b3ba 36f3 683a
000000f0: 3be5 2abc 35d9 a23c 5f3b a03b cfa7 3c3d
00000100: 8a07 b13c 1010 c4ba 34bb 9aba 27d0 0c3b
00000110: 88fd 8c3a 8d81 293d c6b4 1fba fb8e b43c
00000120: a222 8f3c bc20 ebba 058a 1cbc 8bae b23b
00000130: 8afb 3d27 4601 1bbc 5022 5c3d 7358 b43a
00000140: e792 20bc 1c18 8c3b 3d5d 26bb f427 03bb
00000150: 3926 b0ba d8e5 01bc fcf9 c63a 0000 0000
00000160: 7d41 83bc 218b 213b 9290 e93b be52 12bd
00000170: 0000 0000 45df 553b d11c cd3b 0dff 66bd
00000180: fe5a 50bb 6e68 04bc 49a9 27ba fc93 a3bb
00000190: cd18 cdbb 2239 ad3c daf6 6c3b 52e3 b23c
000001a0: 3d72 c53a 696f 3cbb 9a23 16bc 0000 0000
000001b0: f4c2 e5bc f108 4b3c 0000 0000 d0c4 913b
000001c0: f42c a8bb 76c5 873c a06f 86bb 0000 0000
000001d0: 6c09 44bc 31d0 29bd 2340 b23c fc91 2f3b
000001e0: cc84 e73b 69e3 24bc 54e6 6e3b 9754 22bc
000001f0: bfe6 f23a 7159 1d3c df17 953c 514d 2a3b
00000200: d188 e8bb 033c 533b a999 053b 1048 9f3a
00000210: 0106 bc3b 7f5f d63c 9d8f 803b f47a cb3b
00000220: 23fe fc3c 05f0 e63b cdd0 8b3b a9b4 3e3b
00000230: d198 82bc eccd 953b 362a a33c b735 5aba
00000240: 56c2 2ab9 5465 1d3b 8f11 c3bd dfeb 613b
00000250: cca7 a73c 91b7 b2ba 5eb2 b53b 8d5f e93b
00000260: 702a 1c3b 4055 123c fb78 c03a 3514 9aba
00000270: 03cb 793d 2019 0abd a07c 8e3c 29a1 a4bd
00000280: 2975 133c 9ac8 ed3b 7ee2 8b3a d4db 2e27
00000290: 6a35 093b 10e5 a93a 2fd7 aeb9 0000 0000
000002a0: 398e b33b 78b2 c43a e725 23ba b94e 703d
000002b0: 9dad 8c3b f2a3 1a3c 7b63 0a39 77a7 673a
000002c0: a563 663a 3e18 0c3b cdef aebc e3f0 d53b
000002d0: fcc8 8fbb 0000 0000 ade2 333a b712 8838
000002e0: 92e2 cb3a 1c2c 243c 7b63 4d3a 589b a43b
000002f0: efec 55bd 4ca4 cb3a 8067 cdba d582 a43c
00000300: 30e9 463c 1596 b83b 460c 0d2a ad96 d0bb
00000310: 607e 07bb 6c48 bdba e5bc 86ba be24 cb3b
00000320: 4da5 653b 0000 0000 b0c1 443b 2332 81bb
00000330: ffcd 113c 144c a7b9 f305 0539 cf1c 46ba
00000340: 0000 0000 452e e73b ead9 b83b 96e6 f03c
00000350: 230d fb3c 0000 0000 0000 0000 11d5 babd
00000360: 9ce3 233c b0cb 813c 59ab 603b f033 423a
00000370: 3b3b feb9 2729 b7bb 5e88 a43b 400e 2d3b
00000380: 8ad7 06b8 370b da3c e6a7 42bb 6483 89bb
00000390: cad0 4ebc 8d4d 8e3b e763 9639 0000 0000
000003a0: 8c27 c9bc 235c b1ba 6f0c e1b9 ce89 13ba
000003b0: 2367 ef3b 31dd cc3a 236c 593b e4fb 9aba
000003c0: af44 b53a 0000 0000 e35f caba fefe 3abb
000003d0: 713f 943d 0000 0000 2aee 063d 6a1e 953b
000003e0: 07d9 ae3b 51b0 a4bb 1477 cf3b 0000 0000
000003f0: ffea 0c3c bc49 143b dd09 753b 662d ccba
