Solvation_1/Runs/Macro_TESA_Lin2/ep_10_best.pt (torch, 915476 bytes, 21 tensors)

linear_relu_stack.0.weight f4 [512, 16]
000000 b0 a2 b9 3d 62 18 ee bd ee 6b c1 3e 34 8e 31 bd
       0.09064233 -0.116257444 0.37777656 -0.043348506
000010 41 df b8 3c cd 31 08 3e 42 f4 95 3d 70 4a 1c bd
       0.022567393 0.13300247 0.07321979 -0.038156927
000020 56 ab 2d bd af b9 b7 bd a7 5f 04 3e ac ba 47 3e
       -0.042399727 -0.08970963 0.12927113 0.19504803
000030 bc 15 56 3e d4 d8 6b 3e a8 24 2b 3e c6 10 51 3d
       0.20906729 0.23031932 0.16713202 0.051041387
000040 04 a8 02 be f5 41 cd bc 81 d3 19 bd e6 a1 11 be
       -0.12759405 -0.025055865 -0.03755522 -0.14221916
000050 84 e3 39 be 80 89 29 bc 90 fd b8 be e6 a5 52 bd
       -0.18153197 -0.010347724 -0.36130953 -0.051427744
000060 9b 74 21 3d 72 90 54 3e 9a 78 2c be 70 ee d6 3d
       0.039417844 0.20758227 -0.16842881 0.10494697
000070 1c f1 09 be 2e 85 fb 3d c0 fc 22 bc 91 63 96 bc
       -0.13470882 0.122812614 -0.009947956 -0.018358024
000080 e1 1a 00 3c c5 1f f1 3d 46 d2 1a be 4a b4 1e 3e
       0.007818908 0.11773638 -0.15119275 0.15498462
000090 9e df 6d 3e 85 56 3b 3e 59 27 20 3e cd 35 3f 3d
       0.23229834 0.18294723 0.1564001 0.046682168
0000a0 1f 70 9b bd 6f 26 46 be a3 33 89 ba f4 49 9a ba
       -0.07589745 -0.19350599 -0.001046766 -0.0011771307
0000b0 fa ef 99 bd f1 52 e2 3d 69 87 07 be 1f 69 56 be
       -0.07516475 0.11050976 -0.13235249 -0.20938538
0000c0 ee 94 a7 bd ee a8 34 be 80 53 af be 67 8a e9 3d
       -0.08182703 -0.17642567 -0.34243393 0.11403351
0000d0 19 db 9e bd d4 9f 4f be bc 8a e3 3c 9e 67 74 be
       -0.07756633 -0.20275813 0.027776115 -0.23867652
0000e0 8a e5 02 be 76 71 a3 3d fc 61 1b 3e bd 67 58 3e
       -0.12782875 0.07980625 0.15174097 0.21133323
0000f0 dc 4f f4 bc a6 45 67 3e 58 23 03 3e e7 9f 14 3d
       -0.029823236 0.22585163 0.12806451 0.036285307
000100 8e 82 32 bd 27 b7 01 be 77 04 a4 3d 57 a8 10 3e
       -0.043581538 -0.12667523 0.08008664 0.14126717
000110 94 ec 43 3e f2 b7 22 3e 79 a0 de bb de 98 10 3e
       0.19133216 0.15890482 -0.006794032 0.14120814
000120 ab fe 32 be e6 40 5a be ec c3 68 3e e5 0e e0 3b
       -0.1747996 -0.2131382 0.22730988 0.006837713
000130 86 da ab bd bb bc 83 3e 64 c1 ad 3c 96 da 7b bc
       -0.083912894 0.25729927 0.02121038 -0.015371939
000140 37 a7 d2 3d 19 ab 57 3e d2 7a 63 3e 41 8e 90 bc
       0.102858 0.21061362 0.22214821 -0.017645957
000150 51 93 19 3d 25 53 1a 3e 4d 85 eb bd ee 45 7b bd
       0.037494007 0.1507078 -0.115000345 -0.061345987
000160 64 d3 5e 3e 7b 1e 54 be ea 6a b5 3d c8 d2 85 3e
       0.21760327 -0.20714752 0.08858283 0.26137376
000170 eb ec 50 3e bd 30 52 bd 67 bd 00 be e7 b9 77 3e
       0.20402877 -0.05131601 -0.12572251 0.2419201
000180 4b 16 55 3e d2 3e aa be 0d 9a d1 bd 58 2a 7b be
       0.20809285 -0.33251053 -0.10234461 -0.24527872
000190 6b f0 2f be 46 ca 97 3d 43 c6 24 bb 5c 08 da bd
       -0.17181556 0.074116275 -0.0025142587 -0.10646126
0001a0 4d 0a 29 3e 4e 26 77 3e f5 9b 86 3d 9c 3c 08 be
       0.16507836 0.24135706 0.06572715 -0.1330437
0001b0 e0 53 ff bc f4 22 01 be 6c 91 1d be 88 04 15 be
       -0.031167924 -0.1261099 -0.15387505 -0.1455251
0001c0 40 da 0e bc b0 97 72 3e a0 9e 6e 3c 66 89 5f be
       -0.008719027 0.23690677 0.014564186 -0.21829757
0001d0 78 a0 1b 3d b0 cf da 3d d2 8c 4e be 38 a1 77 be
       0.03799483 0.106841445 -0.20170906 -0.24182594
0001e0 4c b1 dc bd 80 bc 08 3e 2e 07 3f 3e 74 f0 f9 3d
       -0.10776004 0.13353157 0.18655083 0.12204066
0001f0 34 3d 5f be 88 89 9e 3d f0 cd 03 be 1a c3 0b 3e
       -0.21800691 0.07741076 -0.12871528 0.13648644
000200 6b e9 6f 3d 09 81 4c be db ac 78 3c 98 e8 59 be
       0.058572214 -0.19971098 0.015177931 -0.21280134
000210 83 49 3a be fd 35 77 3b 06 86 ce bd 7c 02 4c bc
       -0.18192105 0.0037721389 -0.10084157 -0.012451764
000220 af 90 2a be bb 37 b7 bc c8 2a 75 bd 50 2f df 3d
       -0.16656755 -0.022365442 -0.059855253 0.10897696
000230 db 7a 29 3e f1 ed 10 3e f6 72 2a be f0 29 29 3d
       0.16550772 0.14153267 -0.16645417 0.04129976
000240 96 fe 2d be c2 21 18 bd cf 83 70 3e f6 a9 ab bd
       -0.16991648 -0.03714157 0.23487781 -0.08382027
000250 58 bb d9 3d a7 8c b9 bd 8d 5e 90 bd cd 77 87 3d
       0.10631436 -0.090600304 -0.07049284 0.06614647
000260 f8 44 7e bd 12 91 d7 bd 62 17 72 3d 2a e3 78 3d
       -0.062077492 -0.10525717 0.05910433 0.060763516
000270 e7 e5 44 3d ca e0 68 3e 92 ec fd 3d d9 c2 da 3d
       0.048070814 0.22742 0.12398638 0.106816955
000280 9f e0 0a be 68 ab de bc 24 28 74 3e a7 9b 53 3e
       -0.13562249 -0.027181342 0.23843437 0.20664845
000290 2a 47 ad 3d 1f 76 d9 3d b0 fd 21 3d 15 e1 1d 3e
       0.08460839 0.10618233 0.039548576 0.15417893
0002a0 2a 64 11 be 6f 60 3b 3e 54 7a 02 3e 35 5b 9a bd
       -0.14198366 0.18298505 0.12741977 -0.075369276
0002b0 e4 4b 6d 3e 7d e6 b5 3d 51 7d 89 be d4 b7 77 3c
       0.23173481 0.08881853 -0.2685342 0.015119512
0002c0 f2 89 66 3e 90 c6 cc 3d 38 78 19 bd bc 0d 38 be
       0.2251356 0.0999881 -0.037468165 -0.17973989
0002d0 96 2d 37 be 6c df 02 be 3c 51 a4 3d 40 91 f5 3c
       -0.17888483 -0.12780541 0.08023307 0.029976487
0002e0 e0 f4 7d be 18 a0 18 bd 14 07 af bd 3a 7b 6b be
       -0.24800444 -0.037262052 -0.08546272 -0.22996226
0002f0 d4 15 a9 3d 02 30 4d be b8 58 54 bd de 05 67 3e
       0.082561165 -0.20037845 -0.05184242 0.22560832
000300 4a e4 37 be 93 54 59 3c c9 cd ed bc f9 d6 b9 3d
       -0.17958179 0.013264793 -0.02902879 0.09074206
000310 2c b5 53 3e 37 44 52 be 9d 12 d9 bd 11 ca f9 3d
       0.2067458 -0.20533834 -0.10599253 0.12196744
000320 ad fd ad 3d bb ee 09 be 43 6d 6a be 64 06 88 39
       0.084956504 -0.13469975 -0.22893243 0.00025944703
000330 b1 9e b3 bd b6 ae 8a 3b 34 86 7b be 3a d9 f1 bd
       -0.08770502 0.004232253 -0.24562913 -0.11809011
000340 54 71 35 3d 8a 1a 9f 3c 83 b4 ba bd d4 46 44 3d
       0.04429753 0.019421834 -0.09116461 0.04791911
000350 91 56 1b 3e ca d6 92 3d 4f 26 c5 3c 6f 71 cd 3d
       0.15169741 0.07169874 0.024066119 0.10031401
000360 c4 53 1e be 5b 5a 43 be f3 bf a2 bc 00 c3 5b be
       -0.15461642 -0.19077437 -0.01986692 -0.21461105
000370 61 e1 aa bd 30 34 5f be 8a 6b 4e bc 07 4d 81 3e
       -0.08343769 -0.21797252 -0.0125988815 0.2525408
000380 15 8c 31 3e 96 ff 8b be 25 41 50 3d f0 f3 6f bc
       0.17338593 -0.27343434 0.050843377 -0.014645562
000390 0f ff 7a 3d 10 b7 83 bc e4 f6 ab 3d 75 2a 7e bc
       0.0612784 -0.016078502 0.083967 -0.015513052
0003a0 ed ff 6f be 63 5f 5f 3e 81 cd 4d 3e 0d ff a3 bc
       -0.23437472 0.21813731 0.20097925 -0.020019079
0003b0 57 d1 74 3e da db 3d 3e 6f 59 8a 3e 83 92 e3 bd
       0.23907982 0.18540898 0.27021357 -0.11111929
0003c0 db 34 fd 3d 72 f1 ff 3d 5e 31 f7 3c f4 b9 a6 3d
       0.12363597 0.12497224 0.030174907 0.081409365
0003d0 12 fc 6a be 1c a3 c3 bd 7e ca 23 3e 69 5f c5 3d
       -0.2294772 -0.09552595 0.15995213 0.09637339
0003e0 88 b4 3e be 59 71 e7 3c 19 f1 ec bd 9e e1 43 be
       -0.18623555 0.02825229 -0.11569423 -0.19129035
0003f0 fa fc 33 3d 78 02 2e 3e 29 63 66 bc 34 f3 93 3d
       0.04394243 0.16993129 -0.014061728 0.07224122

linear_relu_stack.0.bias f4 [512]
000000 34 7d 23 3e 03 2e 15 3e 4e f6 8a bd ad 0c 6a 3e
       0.1596573 0.14568333 -0.0678526 0.22856398
000010 28 a4 46 be f0 7c 61 bd b9 5e 4a 3e 18 85 23 be
       -0.19398558 -0.05505079 0.19762696 -0.1596874
000020 55 a6 2f be cd 48 28 be dc 21 3e 3e ba bc 70 3e
       -0.17153294 -0.16434021 0.18567604 0.23509493
000030 67 9f cd 3d 34 b6 8e bd 4c 04 d1 3d 9a c2 e5 3d
       0.10040169 -0.06968346 0.10205898 0.11218758
000040 06 32 14 3e fc 7a c8 3c ea 77 42 3e 00 f2 76 be
       0.14472207 0.024472706 0.18991056 -0.24115753
000050 20 a1 f0 bc bf da 54 be ba 8d 58 3e 3d 8e 73 3e
       -0.029373705 -0.2078657 0.21147814 0.23784728
000060 ef eb b8 3d 6f 7c 2e 3e ac 5a 8a 3d 75 a9 5d be
       0.09029376 0.17039655 0.067555755 -0.21646674
000070 9f c8 69 3e c2 a7 33 be 51 81 20 be 92 74 ad bc
       0.22830437 -0.17544463 -0.1567433 -0.02117375
000080 f0 4b 1b 39 5d b9 35 3e 71 f4 1c 3e 35 06 69 3e
       0.00014810241 0.17746492 0.15327622 0.22756274
000090 0c a1 0f be 05 84 c1 bc 1f 00 27 3e 6d da fb 3d
       -0.14026278 -0.023622522 0.1630864 0.12297521
0000a0 24 6c fa bc b5 b1 b5 3d 08 96 65 be 4f 5f 7c 3e
       -0.030569144 0.088717856 -0.22420514 0.24645732
0000b0 53 93 54 be 09 ca fd bc 0e 46 02 3e a6 56 84 bd
       -0.20759325 -0.030980127 0.12722036 -0.064618394
0000c0 c7 13 53 bd 2f 2c 5a 3e 8c f6 5f 3d 8d c3 04 be
       -0.051532533 0.21305917 0.054678485 -0.12965222
0000d0 70 03 49 be 19 21 19 3d d1 85 09 3b 0c 69 28 be
       -0.19630218 0.03738508 0.0020984302 -0.16446322
0000e0 71 7b fa 3b 2c 54 38 be e8 21 2d 3e 2a 59 3c bd
       0.00764411 -0.18000859 0.16907465 -0.04598347
0000f0 f0 3a 1e 3e b2 7c 06 be 0f cb b5 bd a3 fd 79 be
       0.1545217 -0.13133505 -0.08876621 -0.24413161
000100 2c a6 ea bd f7 2c 1a 3e fb cb 12 be 2d ef 0f be
       -0.11457476 0.15056215 -0.14335625 -0.14056082
000110 ec 28 3b bd 04 35 dc bb 0f 9d fe bd 04 34 36 3e
       -0.045693323 -0.006720187 -0.124323 0.1779328
000120 0c 0a a6 bd da cf ab 3d 4a 86 8f 3d 8f f6 45 3e
       -0.08107385 0.08389254 0.070080355 0.19332336
000130 86 77 eb bc 1f 75 88 3d 94 fd b2 bd 71 5d 0e 3e
       -0.028743517 0.06662964 -0.087397724 0.13902833
000140 5d 75 0c 3e af 40 15 3d 90 f5 3e 3e 95 4f 2b 3e
       0.13716646 0.03643864 0.18648362 0.16729577
000150 3f 08 48 3d 71 bb e7 bd 07 d1 06 be e0 c9 7c 3c
       0.04883599 -0.113150485 -0.13165675 0.01542899
000160 a0 c6 af 3d 8f 3e f0 3d 5b b4 5b be d0 f3 70 be
       0.085828066 0.11730682 -0.21455519 -0.23530507
000170 08 53 6b 3e 48 01 b3 bd 38 1f c8 3b 83 19 64 be
       0.22980893 -0.08740479 0.006107237 -0.22275357
000180 5c 4e 4b be e7 c1 b3 3d 17 1d e8 3c f6 dd 7a be
       -0.1985411 0.08777218 0.028334184 -0.24498734
000190 be 6f 13 3e 29 76 76 be 3c b5 2a be 78 42 19 3e
       0.14398095 -0.24068512 -0.16670698 0.14966762
0001a0 53 d4 70 3d 11 0c 5e 3e 60 c3 e1 3c 76 7a 9e 3d
       0.05879624 0.2168429 0.027558982 0.07738201
0001b0 46 a1 02 3e 18 25 32 be 86 a8 ac 3c bf c0 06 3e
       0.12756833 -0.17396963 0.021076452 0.13159464
0001c0 0f 7c 1a 3d 4b fa 63 3e 04 89 ea 3d 1a 77 ea bb
       0.037715968 0.22263448 0.11451915 -0.0071553113
0001d0 2b b9 28 be 9a ff 7e be a8 fa a8 bd 2e b7 3a be
       -0.16476886 -0.24902192 -0.08250934 -0.1823394
0001e0 45 4b 03 be cd 43 42 3e fd b4 57 3e 84 8e 20 be
       -0.12821682 0.18971176 0.21065135 -0.15679365
0001f0 ea fd 60 bd 00 4c 63 ba 08 42 0f be 48 36 1a 3d
       -0.05492965 -0.00086706877 -0.13990033 0.037649423
000200 8e 38 32 3e 86 88 e7 3c 1a ca 44 be d9 0f 3d be
       0.17404386 0.028263342 -0.1921772 -0.18463077
000210 00 df ec 3b 87 e8 db 3d 63 3a 0e 3e a6 f6 1c 3e
       0.007228732 0.107377104 0.1388946 0.15328464
000220 9c 3a 51 3e 68 b7 18 be de af 6a 3e 20 db 8e bd
       0.20432514 -0.14913714 0.2291865 -0.069753885
000230 d8 c9 e6 3d 73 3a d9 3c ca 05 50 3e 20 b7 c5 bd
       0.112689674 0.026517129 0.20314708 -0.09654069
000240 00 f1 ce bb 1b 79 89 bd dd d5 9d 3d 11 1e 46 be
       -0.0063153505 -0.06712552 0.07706807 -0.19347407
000250 78 de 1d 3e a6 af 87 3e 9b 68 23 be 23 b5 ad 3d
       0.15416896 0.26501197 -0.15957873 0.08481815
000260 83 f9 ab 3d ac cb 67 3e 95 49 5f 3e 3f 32 4d 3e
       0.083972 0.22636288 0.21805413 0.20038699
000270 3d 00 0a 3e dc 36 8b bd 37 77 b2 3d da a1 4e bd
       0.13476653 -0.06797573 0.08714145 -0.050447322
000280 a2 9f 32 3e 88 4a 5f bd a8 6d 6d bd 6d b1 97 3c
       0.17443708 -0.054514438 -0.057965904 0.01851722
000290 93 69 dc 3d 57 74 35 bc 1c 25 13 be 5e 67 d8 3c
       0.10762324 -0.011075101 -0.14369625 0.026416477
0002a0 34 72 bc 3d 2e de 17 3e eb 26 69 be 99 e1 45 3c
       0.0920147 0.14830849 -0.22768752 0.012077712
0002b0 54 6f b0 bd d0 00 ad bc 22 39 7c bd 90 71 aa bd
       -0.08614984 -0.021118551 -0.061577924 -0.083224416
0002c0 43 2d 2f 3d c5 f4 32 3e 36 39 64 bd 8f cb 51 be
       0.042767774 0.17476185 -0.055718623 -0.20487808
0002d0 e8 e4 5b bd a8 3a fa 3d e6 2f b7 3c ee 75 e1 bd
       -0.0536851 0.12218219 0.022361707 -0.110088214
0002e0 f2 a5 da bd 52 38 30 3e b3 50 05 bd 03 a9 2d 3e
       -0.10676183 0.17208984 -0.032547664 0.16959004
0002f0 60 19 34 bc b8 d9 11 be c0 a6 0c bd e6 e1 f4 bd
       -0.010992378 -0.1424321 -0.034338713 -0.11957149
000300 b1 c0 e4 bd 76 20 1e 3e 97 df a3 3c 3e e1 47 3e
       -0.111695655 0.1544207 0.020004077 0.19519517
000310 5e 9f 01 bd a6 2c 3d bb d7 b1 1d 3e 35 3e 49 bd
       -0.031646125 -0.0028865724 0.15399872 -0.04913159
000320 20 75 32 3e 38 23 01 3e 12 31 aa 3c 17 09 36 be
       0.17427492 0.12611091 0.020775352 -0.17776905
000330 c3 54 c5 3d df d1 41 3e 2f b7 be 3c 5d 0a 5c 3e
       0.09635308 0.18927716 0.023280708 0.21488328
000340 43 4c 7b bc 99 b3 54 be 0c 93 5a 3e 14 26 d7 bd
       -0.015338006 -0.20771636 0.21345156 -0.1050531
000350 14 cd 3c be c8 4b 66 be 60 f1 16 3e 5e 0b 73 3e
       -0.18437606 -0.22489846 0.14740515 0.23734805
000360 2a 44 b7 bc 70 57 cc 3c eb b5 77 3e 43 0d 18 bd
       -0.02237137 0.024944037 0.2419049 -0.037122022
000370 fd 46 07 3d 77 d9 54 be be 0e 35 be 36 cf 38 be
       0.033026684 -0.20786081 -0.17681405 -0.18047795
000380 59 d4 22 3d 60 68 27 3e 56 84 08 3e 65 ca 28 be
       0.03975329 0.1634841 0.13331732 -0.16483457
000390 88 ac d0 3d 32 42 33 3e ae 3a 30 be aa 5a 72 be
       0.10189158 0.1750572 -0.17209885 -0.23667398
0003a0 73 f7 89 3d 21 fb 0d be 4b 3d 3a 3e 09 31 8a be
       0.0673665 -0.1386533 0.18187444 -0.26990536
0003b0 0e 9f 08 3e f8 13 31 3e 24 8f 11 3e 94 7b 03 3e
       0.13341925 0.17292774 0.1421476 0.1284011
0003c0 84 89 15 3e d5 19 09 3e cd 39 73 be 01 48 4f be
       0.1460324 0.1338876 -0.23752518 -0.20242311
0003d0 c0 d0 61 3d b7 ef 3e bd 4e d1 1b 3e fd 87 50 3e
       0.05513072 -0.04661533 0.15216562 0.20364375
0003e0 e8 4e 0c 3e 37 5f cd bd 17 c6 b7 bd 1a 59 ac 3d
       0.13701975 -0.100279264 -0.089733295 0.08415432
0003f0 58 bb c0 3d a0 6c 3c 3d 8a 43 67 3e e0 f6 c4 3c
       0.09410733 0.04600203 0.22584358 0.0240435

linear_relu_stack.2.weight f4 [128, 512]
000000 c3 f7 14 3c 18 59 82 3c 1c d1 be 3c 26 e7 0e bc
       0.009092274 0.015911624 0.02329307 -0.008722102
000010 89 64 16 bc 78 95 41 bd f2 a3 fa 3c c0 d5 39 ba
       -0.009179243 -0.047261685 0.030595753 -0.0007089041
000020 02 14 61 bc 73 26 ed 3c c9 03 1f bd 22 ea be 3c
       -0.01373768 0.028948998 -0.03882197 0.023305003
000030 ff a1 ea 3b 70 c8 52 3c e2 df 27 3c e5 b5 08 3d
       0.0071604247 0.012865171 0.010246249 0.033376593
000040 ce 36 8e bc 7e 01 a8 bc a1 50 0e 3d 9f 17 a6 3c
       -0.017360117 -0.020508524 0.034744862 0.020274935
000050 68 65 be bc 2e 2d 84 bc 38 60 96 bc ab 0b 60 bc
       -0.023241714 -0.016134825 -0.018356428 -0.013674657
000060 8d c2 de 3c 11 3c ea bb 06 ea 09 bd 35 67 44 bd
       0.027192378 -0.0071482738 -0.033670448 -0.04794999
000070 cf 16 73 3c 63 ab 0e 3d 09 19 82 3c ff c5 80 3c
       0.014836981 0.034831416 0.015881078 0.015719412
000080 41 a3 de ba 7e 4a 6f bb ac f1 41 3c f6 76 dc 3c
       -0.0016985909 -0.0036512907 0.011837404 0.026912194
000090 0a 5e c7 3c e6 00 8b 3c 85 c4 28 3d c1 91 14 3d
       0.024336834 0.016968202 0.04120304 0.036271814
0000a0 7f de c1 3c 6e 6f f8 3c 83 7b bf bc 0d 52 24 3d
       0.023665665 0.030326571 -0.023374325 0.040117312
0000b0 2c d2 3d 3c d2 31 17 3d 93 83 e3 3c 2b 14 38 bd
       0.011585753 0.036912747 0.0277727 -0.04494111
0000c0 bf b7 07 3d 5e 41 ca 3b 89 b9 2d 3d 14 8a af 3c
       0.03313422 0.006172343 0.04241327 0.021428145
0000d0 bc b8 1f 3c 07 f5 08 bd 94 21 2a bc 82 8a d3 3b
       0.009748634 -0.0334368 -0.010383982 0.0064557204
0000e0 d7 9d bb 3c 8c dc 23 3c df 46 91 3a ec 5d d6 3c
       0.022902412 0.010001313 0.0011083743 0.026167832
0000f0 61 60 95 bc b5 28 00 3c 88 05 06 3d d5 fe f0 3c
       -0.018234434 0.007822205 0.03272012 0.029418388
000100 00 5d 35 bc c1 e2 03 bd 29 01 27 3d 08 db 72 ba
       -0.011069536 -0.03219867 0.04077259 -0.00092642056
000110 bd b8 0b 3d a9 aa 0e 3d 74 09 aa 39 6e ac 17 3d
       0.034111727 0.034830723 0.0003243197 0.037029676
000120 29 87 1f bd da da 01 3d b1 ba 21 bc 80 11 d0 b9
       -0.03894726 0.031702854 -0.009871171 -0.0003968589
000130 f7 a2 ee 3c 60 cb c9 bc e3 ab 36 bd 18 37 45 bd
       0.029130442 -0.02463311 -0.044597518 -0.048148245
000140 d5 ae 9d bc 74 c5 8a 3c 24 1a ab 3c 1d 41 a1 bb
       -0.019248405 0.016939856 0.020886488 -0.004921092
000150 cd 3b c4 bc e4 17 1a bd ef 02 fd bc a7 9b 80 bc
       -0.023954296 -0.03762044 -0.030885188 -0.01569922
000160 08 f8 39 bd 48 97 4a bd 22 72 22 bd 78 43 24 bc
       -0.045402557 -0.04946068 -0.039659627 -0.010025851
000170 cd 6c 3a b8 be cd 30 bc f9 08 04 bd b3 b9 4d bc
       -4.4447184e-05 -0.01079124 -0.03223512 -0.012556481
000180 0e cb 50 bb f6 2f 3a bd c2 d8 2e bd 2a 6b bf 3c
       -0.0031859311 -0.045455895 -0.042687185 0.02336653
000190 89 57 d5 bc 1a f5 0f 3d ea 48 1e bd ee f9 9d 3c
       -0.026042717 0.035145856 -0.038643755 0.019284215
0001a0 7b 37 e4 3c 56 5d d9 bc 40 7f ab 3a 1c 68 04 3d
       0.027858486 -0.026533764 0.0013084188 0.03232585
0001b0 d8 9b cb 3c 86 6a a4 3b 06 ad 0d 3d 2c 48 95 bc
       0.024854586 0.0050175814 0.034588836 -0.01822289
0001c0 78 41 fe 3b 43 c2 ad bc e8 8a 49 3c 1d 71 69 bc
       0.0077592693 -0.021210795 0.012301184 -0.01424816
0001d0 97 13 14 bd a0 b7 9b bb 4b 16 4b bc d3 7c ed 3b
       -0.036151495 -0.0047521144 -0.012395452 0.007247546
0001e0 f1 b0 4c 3b eb 56 0f 3d f5 de 6f 3c d4 d6 00 bd
       0.0031233395 0.034995 0.014640559 -0.031454876
0001f0 54 ef 5b bc 85 be 87 bc 32 f8 2d 3d 39 55 05 3d
       -0.0134237595 -0.016570339 0.042473026 0.032551978
000200 18 52 15 bd d4 0f c6 bc 98 1e 3a 3c 6e 2d 25 3b
       -0.036455244 -0.02417747 0.011359833 0.002520408
000210 58 60 a4 bc 95 18 03 bc df 42 be 3b 7c 78 4e 3c
       -0.020065472 -0.008001466 0.0058063115 0.012601968
000220 16 a0 23 bc 83 52 f8 bc 8c 81 9c bc 90 62 dd 3c
       -0.009986898 -0.030312782 -0.019104742 0.027024537
000230 e1 23 2e bd a6 cb 70 bc fe 6f c9 bc 68 71 ae bb
       -0.042514686 -0.014696991 -0.024589535 -0.0053235777
000240 c7 d6 21 bd 83 76 ac bb e0 c1 73 bc fe 57 a0 3b
       -0.03951147 -0.005263151 -0.014877766 0.004893302
000250 1c e7 fb bc 44 f4 45 bb f0 f7 d9 3c 40 a2 72 bb
       -0.03074985 -0.0030205408 0.026607484 -0.0037022978
000260 36 ba 87 ba 20 14 10 bd f9 24 00 3d 1c 8f 31 bc
       -0.0010355178 -0.035175443 0.03128526 -0.010837343
000270 86 3d 14 bd cf e5 1f bd 75 21 28 bd 6b a6 d3 3b
       -0.036191486 -0.039037522 -0.041047532 0.0064590476
000280 de 0b 00 bd ca 9d d7 3c 40 d4 4b bb 77 48 27 bd
       -0.031261317 0.026320357 -0.0031101853 -0.040840592
000290 c2 f6 6e 3c 34 d1 90 bc c6 c0 e7 3c 62 70 bc 3c
       0.014585199 -0.01767788 0.028290164 0.023002807
0002a0 18 24 d2 bc bf b4 f6 bc 71 8f ce 3b 10 1a 79 3b
       -0.025651976 -0.030115483 0.0063037206 0.003800992
0002b0 40 05 bf bb e6 4b ef bc 5d 12 92 bc 5f c7 30 3d
       -0.0058294833 -0.029210996 -0.017831022 0.043158885
0002c0 db 87 27 bc 97 25 13 bd 18 e9 52 3c 88 38 44 bd
       -0.010225262 -0.03592452 0.012872957 -0.047905475
0002d0 c0 40 24 bc 09 0d 62 bb 73 60 18 bd 16 e5 9f bb
       -0.010025203 -0.0034492633 -0.037201356 -0.004879604
0002e0 74 1b 1b bc b7 b5 1b 3d 7a 67 c5 3c c3 fe 12 3d
       -0.009466995 0.038015094 0.024097193 0.03588749
0002f0 8f 23 71 bc 92 9f e1 ba ba 83 85 3c f5 f1 f3 bc
       -0.0147179505 -0.0017213693 0.016298164 -0.02977846
000300 15 a9 17 bd 0e ab 75 ba de ca c9 3c 0c 7e 15 3d
       -0.037026484 -0.00093714974 0.024632867 0.03649716
000310 44 48 b1 bc 61 6b 15 3d 4e 2a f7 3b d4 01 59 3c
       -0.021640904 0.036479358 0.007542885 0.013245065
000320 9e 09 30 bc cd 95 03 3d d2 b6 9f bc e4 d4 34 3c
       -0.01074448 0.032125283 -0.019496355 0.011037085
000330 09 58 07 3d f5 66 eb bc 08 78 8b 3c db 00 15 3d
       0.03304294 -0.028735617 0.017025009 0.03637777
000340 c1 43 5f 3c f3 a1 35 bd 73 5d 0e 3d 0e 93 b2 3c
       0.013626994 -0.0443439 0.03475709 0.021798637
000350 53 14 cb bc b0 03 29 3b f0 da d3 bc c8 ba a1 bc
       -0.024789965 0.0025789551 -0.025861233 -0.019742385
000360 8a ba 3f bd 4e 9b a8 3c 5e 52 16 bd b9 04 87 3c
       -0.046808757 0.020581868 -0.036699645 0.016481744
000370 a6 b4 ad 3c 4f 68 43 bd 91 62 89 bc c3 be a3 3b
       0.021204304 -0.0477069 -0.016770633 0.004997106
000380 7f 95 f0 3b 71 cc 8a 3c ee 8c f2 bc 59 54 57 bd
       0.00734204 0.016943188 -0.029608216 -0.052570675
000390 f1 25 da 3c 4f 6e 05 bd 00 18 81 b7 62 1c 0f bb
       0.02662942 -0.0325759 -1.5389174e-05 -0.0021836986
0003a0 73 63 94 3c 36 db af bc b6 31 01 3d 87 75 1a 3d
       0.018113827 -0.021466833 0.03154155 0.03770974
0003b0 2a 61 b9 bb 8a bd af 3c e2 cc 97 3c 01 8f 1a 3b
       -0.005657335 0.021452684 0.018530313 0.0023583772
0003c0 1d 0d d1 3c 75 c1 2a bd 51 d2 0c bb 26 35 c8 3c
       0.025518948 -0.0416884 -0.0021487663 0.024439406
0003d0 12 53 4f 3c e4 ff 94 bc 50 6f bc 3c 1c c1 eb bc
       0.012654083 -0.018188424 0.023002297 -0.028778605
0003e0 b3 87 02 bd 74 4b 58 3c f8 fb d8 3c 20 d2 9b 3c
       -0.031867694 0.013201583 0.026487336 0.019021094
0003f0 80 a0 05 3a 9b d5 b6 bc b0 32 a7 bc b0 e4 28 bc
       0.0005097464 -0.022318652 -0.020409912 -0.01030843

linear_relu_stack.2.bias f4 [128]
000000 7e 93 08 3d d6 33 de 3c 68 fd fd 3c 8c 58 ef ba
       0.033343785 0.027124327 0.031004623 -0.0018260642
000010 62 62 9f 3c 81 97 73 3c 47 9d 80 bb 39 bc 1b bd
       0.019456092 0.014867664 -0.003924999 -0.0380213
000020 c8 9e 48 bc 73 ae 22 bd dd a9 55 bb 1a 13 1c 3d
       -0.012244888 -0.03971715 -0.0032602467 0.038104154
000030 ea ed 2c bc 45 02 24 3d c9 7d af 3c b3 09 0e 3d
       -0.01055477 0.040041227 0.021422284 0.03467722
000040 20 34 bc ba 30 84 ce bc eb 8c 35 3d 50 c1 d6 bc
       -0.0014358796 -0.025209516 0.044323843 -0.026215225
000050 98 27 5b bc 67 e8 5b bb b0 5e 25 3c 09 c3 9a bc
       -0.013376139 -0.003355527 0.010093376 -0.018891828
000060 be e5 b1 3b e8 8f 17 3d 08 44 53 bc 2e e4 a9 bb
       0.0054289987 0.037002474 -0.012894638 -0.005184672
000070 f9 71 25 bd f6 bf ae 3c f8 b4 18 3d 8c a6 7a 3c
       -0.040391896 0.021331768 0.03728196 0.015298497
000080 cd ca 22 3c cc b0 23 bd 8c 4f 1a bc c7 de 2a 3d
       0.009936047 -0.03996353 -0.0094183795 0.041716363
000090 26 a1 3a 3c 58 5c 08 3c a9 c0 a5 3b 1b f9 d3 bc
       0.01139096 0.008322798 0.0050583673 -0.025875619
0000a0 df e2 24 3d 02 03 41 bc 2d 0e 0c bd 45 e4 d2 b9
       0.040255424 -0.011780502 -0.034193207 -0.00040224395
0000b0 60 7b 69 bb 90 e9 14 bd aa 62 85 b8 4d 85 30 3c
       -0.0035626516 -0.036355555 -6.360312e-05 0.010773969
0000c0 e3 10 0e 3d 12 f9 87 3c 0c 38 0c bb 5c 86 75 3d
       0.034684073 0.016598258 -0.0021395711 0.05994259
0000d0 04 9c 16 bd 0c 2b d3 3c 9d e0 c2 bc f2 36 54 3c
       -0.03676988 0.025777362 -0.023788745 0.012952553
0000e0 28 44 3f 3d 33 cd 1f 3c ae 71 49 3c 4b 91 be 3a
       0.04669586 0.009753513 0.01229517 0.001453915
0000f0 00 8a cc ba 80 fa e0 ba e2 6d b3 bc 6c 55 b7 bb
       -0.0015605092 -0.0017164499 -0.021902982 -0.0055949
000100 f2 cb 35 3d fd 91 f4 3c 70 1c 79 3c 3d e4 e8 bc
       0.04438395 0.029854769 0.015204534 -0.028429145
000110 07 d3 31 3d 55 14 46 ba ce c3 0a bd 68 52 f4 bc
       0.043414142 -0.00075561303 -0.03387814 -0.02982445
000120 d0 66 9c bb 35 45 d3 3c f9 3b 45 bc 2a c1 df 3c
       -0.0047729984 0.025789836 -0.012038224 0.027313787
000130 33 90 fc bc c7 ff 73 bd 49 f5 7d 3c 52 5b 6f bc
       -0.030830478 -0.0595701 0.015500375 -0.014609175
000140 fa e2 20 bd f0 45 77 3c cb 09 08 bd d6 66 4c 3d
       -0.03927896 0.015092358 -0.033212464 0.04990276
000150 88 14 f0 bc 7b c1 1c 3d a8 55 93 3b 9e 30 65 3d
       -0.029306665 0.038270455 0.004496295 0.055954568
000160 01 bc f8 bc fb d4 15 bd 73 7f 77 bc 7c 96 de 3c
       -0.030363085 -0.036580067 -0.01510607 0.027171366
000170 bd 13 25 bd 17 d4 56 bc 30 76 61 3d 20 4b 47 3d
       -0.040302027 -0.01311209 0.055044353 0.04865563
000180 b1 d6 df bb 5d a9 06 bd 90 ff 17 3c f8 e8 67 bc
       -0.006831013 -0.03287636 0.009277239 -0.014154665
000190 44 f6 8d bc a1 de 2b bc 9c 28 23 bc d6 86 3d bd
       -0.017329343 -0.010490091 -0.0099584125 -0.046271168
0001a0 85 35 07 3a c2 f7 d1 bc 24 ba f4 3c 22 8e 33 3b
       0.00051578163 -0.025630835 0.029873915 0.002739795
0001b0 d6 3a 4c 3b 9d 06 2f bc 04 46 1d 3d 98 bc 9c bc
       0.0031162999 -0.010682729 0.03839685 -0.019132897
0001c0 8f 7a 55 3c f0 98 a6 bc c7 8f 3f 3d b2 94 8a bb
       0.0130297085 -0.020336598 0.046767976 -0.0042291516
0001d0 fc 2c 47 3d 20 3a a2 3c 36 d3 94 bc 25 3d ca 3b
       0.048626885 0.019803107 -0.01816712 0.00617184
0001e0 4e c3 a4 3c 1d e8 49 bc 75 de ca 3c 1a 72 31 bc
       0.02011266 -0.0123234065 0.024764279 -0.010830427
0001f0 99 39 93 3b a6 af 98 bb a4 31 db bc 93 a8 03 bd
       0.00449295 -0.004659611 -0.026757069 -0.032143187

linear_relu_stack.4.weight f4 [10, 128]
000000 fe dc af 3c 6f 62 16 3c fd dc 5f 3d f8 61 85 3d
       0.021467682 0.009178742 0.05465411 0.06512827
000010 a5 f5 5f bd 3d ec 13 bd 7a f2 93 3d 5a 71 7e 3d
       -0.054677624 -0.036113966 0.07223983 0.06211982
000020 0c 15 ca bc f3 ad a6 3c 05 de 32 3d eb cd a3 3b
       -0.024668239 0.020346617 0.043668766 0.0049989126
000030 ec c1 c4 3c 3b 79 fb 3b 0d 78 ef 3b 24 b3 22 3d
       0.02401825 0.007674364 0.0073080123 0.039721623
000040 95 55 1c 3d 80 ba b0 bc 74 2a 82 3c ad 11 72 ba
       0.038167555 -0.021573305 0.015889384 -0.0009234201
000050 3c 50 6b bd 56 70 48 3d 73 fc 54 bd 4e 60 3b 3d
       -0.057449564 0.048935257 -0.051998567 0.04574614
000060 eb 54 83 bc dc 92 98 3c e7 9a 97 bd 01 c2 99 bd
       -0.016031703 0.018624716 -0.07402592 -0.075077064
000070 2a 63 52 bd 64 bf 80 3d 78 79 54 3d 98 53 be bd
       -0.0513641 0.06286505 0.051873654 -0.09293288
000080 c6 f4 04 3d 43 0b 00 3d 2b 8f 89 3d a7 c6 aa 3d
       0.032459997 0.03126074 0.0671676 0.08338671
000090 db 06 2e bd 4a 2e 60 3c 2c d6 20 bc ef 5c a1 bd
       -0.042487007 0.013682911 -0.009816688 -0.07879054
0000a0 07 d3 18 bc 18 95 be 3d 8c c6 a1 bd 83 0c 56 bd
       -0.009327657 0.09305781 -0.07899198 -0.052258026
0000b0 66 8d b0 bd 36 1e 94 bd 35 83 41 bc 52 20 c2 bc
       -0.086207196 -0.07232325 -0.011811067 -0.023697052
0000c0 eb ca 37 3d 0f 67 5f bd 38 e8 3c bc d8 82 3d 3d
       0.044871252 -0.054541644 -0.011529975 0.04626736
0000d0 ed 2f 81 3d e8 c2 8a bb cb a2 cc b9 7f 31 4f bc
       0.06307969 -0.0042346604 -0.00039031202 -0.012646078
0000e0 75 4f b5 3d f0 89 42 3d b9 34 b2 3d 34 7f 4c bc
       0.08853046 0.04749483 0.08701462 -0.012481499
0000f0 c6 b1 2f 3d ec ed 84 bd d5 54 a1 bd b8 1c 37 bc
       0.042894147 -0.064906925 -0.078775086 -0.011176281
000100 97 b5 0c 3d 06 55 9f 3b 0e 27 7a 3d 55 01 f6 3c
       0.034352865 0.0048624305 0.0610724 0.030029932
000110 8b f3 45 bd 5c c0 15 3d f3 86 4a bd 8c 61 67 bd
       -0.048327964 0.0365604 -0.049445104 -0.056489512
000120 40 91 4f bb 68 32 25 3c 18 46 87 bd 77 51 8f bd
       -0.003167227 0.010082819 -0.06605166 -0.0699796
000130 a6 23 b0 3c a7 bb e1 bc 4f f5 71 3d b9 41 3c 3d
       0.021501373 -0.0275553 0.059071835 0.045961116
000140 6f 19 a9 bd c1 95 1f bd 7d 20 9c 3d b2 ee 40 bd
       -0.08256804 -0.038961176 0.07623384 -0.047102638
000150 94 1b 88 bc 73 c2 73 3d 53 5f 92 3d 5b c8 c2 3d
       -0.016614713 0.059511613 0.07147088 0.09510871
000160 18 11 24 3c ae 9f 4e bd 64 b9 ba 3d e1 2e 5f bd
       0.010013841 -0.05044525 0.09117392 -0.054488067
000170 23 f0 bf 3c 5a 0d c2 bc 1b bf 92 3d 6c 17 50 3a
       0.023429936 -0.023688007 0.07165357 0.00079380604
000180 1a 47 02 3d 8e 19 2a bd 37 df d0 bb 48 66 b2 3d
       0.03180609 -0.041528277 -0.0063742655 0.08710915
000190 a0 c5 75 bd d9 1b 5a bd 5e 69 9a bb 05 a6 3a bd
       -0.060002923 -0.053249214 -0.004712268 -0.045568485
0001a0 81 01 74 bd 37 53 ae bd eb df 86 3d 49 63 7e 3b
       -0.059571747 -0.08511966 0.06585678 0.0038816503
0001b0 b8 3b c1 bb 94 d3 56 3a 3b c5 b9 3d 48 b8 a1 bd
       -0.0058970116 0.000819498 0.09070822 -0.07896477
0001c0 87 2f 35 bb 3c 46 b3 3d e2 ef 5a bd a0 dd 9a bd
       -0.0027646737 0.087536305 -0.053451426 -0.07561803
0001d0 58 4e c0 ba 1c f0 43 3c fd e9 69 bd 45 59 6c bd
       -0.0014671786 0.011959102 -0.057107914 -0.05770232
0001e0 c5 b1 0d 3d 59 d8 a4 bd 10 b7 22 bd 23 00 68 3b
       0.034593362 -0.080490775 -0.039725363 0.0035400472
0001f0 de 02 29 bd f1 08 75 3d a1 68 5b bd fd 8c 86 3d
       -0.0412625 0.05982298 -0.05356658 0.0656986
000200 90 87 2e 3c e0 74 55 3d c2 04 e5 3c 12 56 c1 3c
       0.010652438 0.052113414 0.02795637 0.023600612
000210 44 ae 26 3d 30 fb 32 ba b7 32 03 3b d4 c3 bf bd
       0.040693536 -0.0006827591 0.0020019242 -0.09363523
000220 4b 30 78 3d 17 8c 9b 3c a6 9b b2 bd e4 2d fe 3c
       0.06059293 0.018987698 -0.08721094 0.031027742
000230 f3 f9 6a 3c c0 3a a2 3d 7c 3c 40 3d a8 5e 16 3d
       0.014341819 0.07921362 0.046932682 0.036711365
000240 bb 22 9a bd 26 5a b3 bc 27 4c 53 3c 4e f0 57 3d
       -0.075261556 -0.021893572 0.012896574 0.052719407
000250 55 58 1b 3b 04 fc 60 3d 17 51 99 bd 7e e5 bc bc
       0.0023703773 0.05492784 -0.0748617 -0.02305865
000260 4a a2 ee 3b d0 cf a5 3d 79 28 97 bd 86 aa e9 bc
       0.00728253 0.08096278 -0.073807664 -0.028523695
000270 13 22 70 bd 20 f7 12 3d 58 de 30 3d 52 5b 17 bd
       -0.058626246 0.035880208 0.043180794 -0.036952324
000280 89 9d 94 bd d4 d2 b2 bd a7 02 a8 3b 3d cb 48 bd
       -0.0725661 -0.087316185 0.0051272693 -0.049021948
000290 de 34 b2 3c 7d af c6 bc f3 bd 6f 3c 94 a3 ba bd
       0.021753725 -0.024253601 0.01463269 -0.09113231
0002a0 ae 51 99 bd 7a e9 90 bd f3 04 74 bd 3f 11 be 3c
       -0.07486282 -0.07075782 -0.059575032 0.023201583
0002b0 88 7d ac bc 80 ff 7f bc e8 db 35 3c 4f 7e b3 3c
       -0.021055952 -0.015624881 0.011099793 0.021910815
0002c0 d0 59 01 3d 8d 8b 82 bd 78 ff 22 3d 40 5b 94 3d
       0.031579792 -0.063742734 0.039794415 0.07243967
0002d0 7b 1f ab bd f2 55 90 bd c0 9a 5e 3b 98 86 45 3c
       -0.08355614 -0.07047643 0.003396675 0.012056015
0002e0 fc 49 bb bd 5e 45 ae b9 e0 50 87 3d 20 c2 74 bd
       -0.09144971 -0.0003323955 0.066072226 -0.059755445
0002f0 66 0a 2e bd c8 a8 f8 bc d0 bd 24 3c 85 59 6b bd
       -0.042490385 -0.030353919 0.01005502 -0.05745842
000300 35 5e f3 3c 04 a2 94 3d 91 4c 73 3d 7b ee 99 3c
       0.029708007 0.072574645 0.05939919 0.018790474
000310 b1 07 20 bd 59 80 68 bd f2 13 80 3d f7 88 75 bd
       -0.039069835 -0.056763027 0.06253804 -0.059945073
000320 c3 aa 0e bd 08 bd 75 bc 6c c5 02 3d 15 4b a6 bc
       -0.03483082 -0.014998682 0.031926557 -0.020299474
000330 9c 53 d0 3c d1 9f af bc ef ac a0 bd 36 f7 62 3d
       0.025430493 -0.021438511 -0.078454845 0.05541154
000340 db 6d d4 3c f7 92 aa 3d cf 5f 04 bd e3 6a 65 bd
       0.02593129 0.083288126 -0.032317933 -0.05601014
000350 18 10 64 bd 49 9a a1 bd 6c 36 f9 3b 6d d9 e2 3c
       -0.05567941 -0.07890756 0.0076053645 0.027691567
000360 4d 1a 25 bd af 5f a7 bd 60 eb 1f 3b 9c 31 54 3d
       -0.040308286 -0.08172547 0.002440177 0.051805124
000370 4f df 4f bd bc 47 91 3d 8d ce c0 bd fe 8b 85 bd
       -0.050750073 0.0709376 -0.094143964 -0.06520842
000380 b5 64 cc bc 88 bd fd bb e3 fe 7d b9 c6 83 42 bd
       -0.024950365 -0.007743541 -0.00024222913 -0.04748895
000390 7a 5f 6f bd 80 be 6d bc 56 5b 79 3b 7d 44 67 3c
       -0.058440663 -0.014510751 0.0038048825 0.01411545
0003a0 88 86 6d bc 53 76 5c bd 16 21 29 bd 0c 5e c9 3c
       -0.014497407 -0.05382378 -0.04129132 0.024580978
0003b0 e1 8f 89 bd 32 a5 96 3d b8 12 b9 bc 8c 1e 66 3d
       -0.06716896 0.07355727 -0.022591934 0.056181476
0003c0 8a 42 65 3d 82 8d 75 3d f7 b6 9b 3c aa b7 2e 3d
       0.05597166 0.059949405 0.019008143 0.042655624
0003d0 d0 78 34 3d 34 07 24 bd 9a 37 28 3d 24 b6 99 3d
       0.04406053 -0.040045932 0.04106865 0.07505444
0003e0 79 10 c1 bb c8 29 07 3d 3a a7 99 3d 96 ef 7b 3d
       -0.0058918563 0.03299883 0.07502599 0.061507784
0003f0 1e dc 4e 3d c8 d4 47 bc 12 96 6c bd 10 d9 a1 bd
       0.05050289 -0.012196727 -0.057760306 -0.079027295

linear_relu_stack.4.bias f4 [10]
000000 57 cc 3e bd 85 66 dd bc 80 cf 8c 3d e5 4d de bb
       -0.046581592 -0.027026424 0.06875515 -0.006784188
000010 2d a2 05 3d 6a 20 88 bc b0 63 55 bd 29 aa 3e 3d
       0.032625366 -0.016617019 -0.052097023 0.046548996
000020 ac fb 31 3d 94 f3 ef bc
       0.043452904 -0.029290952

linear_relu_stack.6.weight f4 [1, 10]
000000 e2 0b 01 be ff 73 59 3e 98 d2 84 be 9c 82 91 be
       -0.12602189 0.21235655 -0.2594192 -0.2841996
000010 c0 51 66 be 06 08 9f be 8f 6f 6a 3e 14 fd 45 ba
       -0.22492123 -0.3106081 0.22894119 -0.0007552665
000020 ca 92 4e be 7e 24 31 be
       -0.20173183 -0.17299077

exp_avg f4 [512, 16]
000000 ab c9 e7 3b 37 a0 63 bb 4a 71 22 bd 49 c6 a0 3e
       0.0070736012 -0.0034732947 -0.039658822 0.3140128
000010 cc 85 99 3e 6f eb 95 bc f2 cc 0a 3c 47 9e 62 3f
       0.2998489 -0.01830074 0.008471714 0.8852276
000020 e7 ca 55 3e bf a7 7a 3f f9 7f c4 be 00 00 00 00
       0.20878182 0.9791221 -0.38378885 0.0
000030 62 7a 3a 3f fe 67 82 be 40 99 14 be 4b 9d b7 3e
       0.7284299 -0.25469965 -0.14511585 0.35862193
000040 cc eb 3c bb 2f fd 48 3a da 4a 06 3c 43 ae 7e bb
       -0.002882707 0.0007667122 0.008196557 -0.0038861192
000050 dc 24 ad 3c 72 35 a2 3b f7 f4 e5 3b f2 1f 9f be
       0.02113574 0.004950219 0.0070177275 -0.3107906
000060 38 98 64 be 68 6a b4 be 3d a3 43 bb 00 00 00 00
       -0.22323692 -0.35237432 -0.0029851936 0.0
000070 49 13 81 be 69 75 b3 3d 00 00 00 00 9d 12 df bc
       -0.25210026 0.087626286 0.0 -0.027230555
000080 c9 29 6f 3c 6f 52 bb ba 49 be 1b 3c de 5a 79 3e
       0.014597365 -0.0014291535 0.009505817 0.2435107
000090 68 83 6c bd 4b 03 c2 3a fe b1 47 b9 85 ca 0e 3e
       -0.057742506 0.0014802007 -0.00019044426 0.13944443
0000a0 c2 35 5b 3e 2b d7 b9 bd 78 4c 90 3e a4 83 98 b6
       0.21407226 -0.09074243 0.2818334 -4.545278e-06
0000b0 03 64 02 3e 4b 83 eb 3d 62 05 4a 3d 1d e0 80 b9
       0.12733464 0.114996515 0.04932154 -0.0002458104
0000c0 38 53 cd 3c 20 b0 20 3b ac dc 15 3c c4 a5 54 3f
       0.025064096 0.0024519041 0.009146851 0.8306544
0000d0 33 f8 63 3e ce a4 5c 3b a9 a6 eb ba 51 b7 14 3f
       0.22262649 0.0033667567 -0.0017978746 0.5809222
0000e0 ad 6a 25 3e f4 21 e1 3d a9 b5 5c 3e b0 d3 31 b6
       0.16153975 0.10992804 0.21553673 -2.6498274e-06
0000f0 ee 0a 05 3f c4 39 97 3e 5e 9a d0 3d 25 b9 26 3c
       0.519698 0.2953626 0.10185693 0.010175978
000100 e0 bd e9 ba 1d 04 a8 3a 8a b3 17 bd d5 80 07 3f
       -0.0017833076 0.0012818609 -0.037036456 0.5293096
000110 77 64 e0 3d e2 1f 92 bc a1 38 f2 bb 52 1f ff 3e
       0.10956662 -0.017837469 -0.0073920046 0.49828583
000120 9e 2b fd 3d 1d 16 17 3f d3 43 41 3c 1c 0a f4 36
       0.12361835 0.5901812 0.011795956 7.2729435e-06
000130 73 ee ea 3e e8 02 0c be 77 b7 82 bd b0 d7 32 3e
       0.45885047 -0.13672984 -0.063826494 0.17465091
000140 44 16 76 bc 90 d7 10 bb 30 c4 4f bd e3 b5 13 be
       -0.015019957 -0.0022101142 -0.05072421 -0.14424853
000150 9c e1 a6 3d 36 6c de bc cb b4 20 3b 30 59 4c be
       0.081485 -0.027151208 0.0024521824 -0.19955897
000160 77 3a 3a 3b c3 62 dd 3e 0e c5 92 be a9 f2 5b 37
       0.0028416195 0.43239412 -0.28665966 1.3109916e-05
000170 ac 67 e1 3e 08 77 ba be 84 83 25 be dc ca f7 3e
       0.44024408 -0.3641894 -0.1616345 0.48396957
000180 88 a9 90 3b be f1 ba 3b 66 3f 0b 3d 76 82 0c 3e
       0.004414741 0.0057050874 0.03399601 0.13721642
000190 ac 68 9b 3e f0 76 da 3c cd f5 a1 3c c6 16 ee be
       0.30353296 0.026668042 0.019770527 -0.4650175
0001a0 dc c1 2f 3e e7 6d 0b bf 3a cf 26 3f 00 00 00 00
       0.17163795 -0.5446457 0.6515995 0.0
0001b0 53 36 29 bf af cd 16 3e 00 00 00 00 15 db 9d be
       -0.6609852 0.147269 0.0 -0.3083121
0001c0 00 00 00 00 00 00 00 00 00 00 00 00 00 00 00 00
       0.0 0.0 0.0 0.0
0001d0 00 00 00 00 00 00 00 00 00 00 00 00 00 00 00 00
       0.0 0.0 0.0 0.0
0001e0 00 00 00 00 00 00 00 00 00 00 00 00 00 00 00 00
       0.0 0.0 0.0 0.0
0001f0 00 00 00 00 00 00 00 00 00 00 00 00 00 00 00 00
       0.0 0.0 0.0 0.0
000200 fa c9 33 39 1c e9 c9 38 1d c8 c3 bb 41 9c a6 bc
       0.00017146012 9.627847e-05 -0.005974783 -0.02033818
000210 dd b1 02 bd f1 72 ae 3a cb bd a8 3b 02 a7 de 3c
       -0.031907905 0.0013309402 0.005149578 0.027179245
000220 2e 4e 3e 3d 68 d4 d6 3d 00 00 00 00 00 00 00 00
       0.046461277 0.10489732 0.0 0.0
000230 2b a1 a8 3c ee 15 ba bd 00 00 00 00 00 00 00 00
       0.020584663 -0.09086214 0.0 0.0
000240 1a 76 ea 3b f4 7c cd 3b db e3 a2 bd 9a 0f 60 3f
       0.007155192 0.006270999 -0.07953616 0.87523806
000250 f0 c5 03 3f 15 a8 af bc 40 45 89 3c 07 ef 14 3e
       0.51473904 -0.021442452 0.016756654 0.14544307
000260 39 1f 38 3f 5c b7 5e 3f 99 33 8e 3e 61 79 a8 2e
       0.7192264 0.86998534 0.2777374 7.661317e-11
000270 2a 8a 8c 3f 45 cd eb be 64 45 34 be 12 1e 02 3f
       1.0979664 -0.46055046 -0.17604595 0.50827134
000280 4e e7 31 3c 3e 9e 7d bb d4 21 33 bc bf 1a c1 3d
       0.01085837 -0.0038699056 -0.010933358 0.094289295
000290 db e8 12 bd f6 10 bf bb 6a 71 f6 ba e7 a7 17 3f
       -0.0358666 -0.0058308793 -0.001880211 0.59240574
0002a0 6c 34 40 3e 9a ec c2 3e b7 e4 64 3d 94 e5 25 33
       0.18769997 0.38071138 0.055882182 3.8625856e-08
0002b0 cc e9 5e 3e e4 cd fe 3b 91 9e a4 bc 91 98 85 3d
       0.21768874 0.007776009 -0.020095142 0.0652324
0002c0 00 00 00 00 00 00 00 00 00 00 00 00 00 00 00 00
       0.0 0.0 0.0 0.0
0002d0 00 00 00 00 00 00 00 00 00 00 00 00 00 00 00 00
       0.0 0.0 0.0 0.0
0002e0 00 00 00 00 00 00 00 00 00 00 00 00 00 00 00 00
       0.0 0.0 0.0 0.0
0002f0 00 00 00 00 00 00 00 00 00 00 00 00 00 00 00 00
       0.0 0.0 0.0 0.0
000300 34 cd 6e 3b f4 40 d9 3a 52 95 9d bb c8 a0 d2 3d
       0.0036438229 0.0016575144 -0.00480906 0.10284573
000310 de 8f d0 bc 15 d1 a6 b6 0b 32 5e ba 77 ef e5 3e
       -0.025459226 -4.971526e-06 -0.0008476085 0.4490926
000320 12 2c 0e 3e c2 de c1 3e fc bd cc 3d 23 3c 85 b3
       0.13883999 0.37865263 0.09997174 -6.204234e-08
000330 44 ed 7c 3e 8c a4 24 bd 06 05 01 bb 9d 6b ce 3d
       0.24699885 -0.040195987 -0.0019686832 0.10079119
000340 29 b8 fb 3b f0 29 c2 b8 18 30 89 3b 42 0c 17 3e
       0.0076818657 -9.258452e-05 0.0041866414 0.1475077
000350 fd c7 ec 3d 83 3a a2 ba 10 5c a1 3a c3 27 91 3e
       0.11561582 -0.0012377057 0.0012310762 0.28350648
000360 1b e9 fa 3d b3 1c 21 3e 7a 5e a0 3d 11 69 1f 36
       0.122514926 0.15733604 0.0783052 2.3754003e-06
000370 c3 a3 24 bb 47 c7 55 bc 19 ed 1d 3b 20 72 9c bc
       -0.0025122024 -0.013048 0.002409762 -0.019097388
000380 40 76 e1 3b 01 c3 39 3a c0 45 80 3c 4e 70 4c bb
       0.0068805516 0.0007086248 0.01565826 -0.0031194868
000390 bb 88 63 bd fd 9b 49 3c ea 55 39 3b 2d bb 6e 3d
       -0.05555032 0.012305257 0.0028279969 0.058283973
0003a0 e1 8b a7 bc de 91 1e be 1e 31 eb 3d 58 82 83 b6
       -0.020452442 -0.15485331 0.11483978 -3.9192782e-06
0003b0 81 52 a0 bd 39 25 07 3e d2 99 98 3c 6e 64 bf bd
       -0.07828236 0.13197793 0.018628035 -0.09345327
0003c0 97 8e 41 3c 83 0b 6e 39 31 43 56 ba 69 2b cb 3e
       0.011813781 0.00022701737 -0.00081734644 0.39681557
0003d0 da 2f f2 3d 57 a7 cc ba f9 1a ac bb 7e e2 58 3f
       0.11825533 -0.0015613836 -0.005252239 0.847206
0003e0 d7 10 36 3e d0 38 f8 3e 72 de da 3d 23 74 1d 2a
       0.17779861 0.48480844 0.10686959 1.3984694e-13
0003f0 ea f6 b2 3e eb fb c5 3d fa 0f 08 3d a0 8e a8 3d
       0.34954005 0.0966719 0.03321836 0.082303286

exp_avg_sq f4 [512, 16]
000000 ba 68 05 3d 3e d3 6f 3a e2 b3 f9 3a b6 e4 06 42
       0.03257058 0.0009148604 0.0019050802 33.72335
000010 db 96 d6 40 f5 cf 4d 3a c9 cb 12 3a 99 1d a0 42
       6.705915 0.00078511174 0.00055998244 80.05781
000020 16 eb 3c 42 05 6d dc 41 f1 44 9a 42 00 00 00 00
       47.229576 27.553232 77.13465 0.0
000030 c2 9e 37 41 57 7c 70 3f f6 cc 6b 3d 0f 33 8f 3f
       11.476259 0.9393973 0.057568513 1.1187457
000040 a8 83 4c 3b b9 2d 5a 37 fe 4a a9 38 e6 56 02 40
       0.0031206403 1.3004458e-05 8.072516e-05 2.0365539
000050 71 42 6e 3d 63 fb d3 38 71 16 6c 38 2d b0 2b 42
       0.058168832 0.000101080885 5.6287685e-05 42.922047
000060 3d d3 bf 3f fe 5f 90 41 48 6a 7a 3f 00 00 00 00
       1.498634 18.046871 0.9781842 0.0
000070 8e f5 f3 3e dc db 8c 3c 00 00 00 00 e9 80 f8 3c
       0.4764828 0.01719468 0.0 0.030334907
000080 32 f8 a4 3a 2b 4a 3a 39 67 5d d7 38 eb 6b 6a 40
       0.0012586175 0.00017765972 0.000102693964 3.6628368
000090 72 7a ec 3f 20 4b 1e 38 d2 24 09 37 88 77 86 40
       1.8474867 3.77401e-05 8.174409e-06 4.202091
0000a0 11 7f 94 3f 50 9c be 3f 40 69 e1 3f a1 f9 2a 30
       1.1601278 1.4891453 1.7610245 6.2200384e-10
0000b0 5b 9a ed 3e 5b 1a 2d 3d 73 00 5f 3b 40 eb 14 3d
       0.46406826 0.042261463 0.0034027367 0.036357164
0000c0 83 f3 4f 3a 99 b5 04 37 15 96 d7 37 f2 bb 30 3f
       0.00079327094 7.910095e-06 2.5699885e-05 0.6903678
0000d0 9b 8f 9a 3d 24 33 0a 38 8c 7b f9 37 e7 50 69 3f
       0.07546922 3.2949392e-05 2.9740644e-05 0.9113907
0000e0 34 22 54 3f c3 03 a7 3e 10 f7 be 3f b7 03 f9 2e
       0.8286469 0.32620057 1.4919147 1.1323869e-10
0000f0 4c 84 62 3e 14 5d 82 3d d7 99 58 3c 93 25 0b 3a
       0.2212078 0.063654095 0.013220272 0.0005308028
000100 39 54 eb 3c 5e 40 38 3a 1e 45 ce 3a 70 b4 f1 41
       0.028726684 0.00070286344 0.0015737151 30.213104
000110 1d aa d5 40 bb aa 22 3a 1b d8 a9 39 0e 91 1a 43
       6.677016 0.00062052504 0.00032395203 154.56662
000120 ec 1c e4 41 1c e2 70 42 55 63 1a 42 03 33 8a 30
       28.514122 60.22081 38.597004 1.005532e-09
000130 32 06 cf 40 c6 29 ca 3e a4 1e 5e 3c be c0 22 3f
       6.4695063 0.39484996 0.01355711 0.6357535
000140 5b 5f 66 3d 2f 30 d2 3a 9b 25 51 3b 9e d4 72 42
       0.05624328 0.0016036088 0.0031913284 60.707634
000150 f3 5d 4e 41 db 81 a7 3a 7b 78 6f 3a ae a6 1c 43
       12.897937 0.0012779789 0.00091350795 156.6511
000160 a8 9c ab 42 79 1c 63 42 86 c2 08 43 bb b2 d8 31
       85.80597 56.777805 136.75986 6.3067467e-09
000170 29 ba 74 41 2d 21 90 3f eb 20 88 3d c4 0d dc 3f
       15.295449 1.1260124 0.066469036 1.7191701
000180 4b e0 f4 3c 1d 15 4f 39 47 34 70 3a ff 9c a2 41
       0.029892107 0.00019748924 0.00091630634 20.326658
000190 eb 39 0f 3f 7a 97 46 3a 23 53 2a 3a ca 1a 4c 43
       0.5594775 0.00075756724 0.00064973737 204.10464
0001a0 69 96 23 42 f3 94 a7 42 2e bf 65 42 00 00 00 00
       40.896885 83.79092 57.4367 0.0
0001b0 a7 bf 93 40 3f b6 23 3e 00 00 00 00 ec d5 06 3f
       4.617145 0.1598749 0.0 0.5267017
0001c0 00 00 00 00 00 00 00 00 00 00 00 00 00 00 00 00
       0.0 0.0 0.0 0.0
0001d0 00 00 00 00 00 00 00 00 00 00 00 00 00 00 00 00
       0.0 0.0 0.0 0.0
0001e0 00 00 00 00 00 00 00 00 00 00 00 00 00 00 00 00
       0.0 0.0 0.0 0.0
0001f0 00 00 00 00 00 00 00 00 00 00 00 00 00 00 00 00
       0.0 0.0 0.0 0.0
000200 8a 33 8c 3a e2 16 7c 35 29 0e 71 38 5c b9 30 3f
       0.0010696512 9.3910614e-07 5.7472065e-05 0.69032836
000210 dc 9f 0d 3c a8 a6 c2 38 55 42 d2 38 8b 97 d0 3e
       0.0086440705 9.281683e-05 0.000100259356 0.40740618
000220 45 70 69 3a 92 bd 94 3b 00 00 00 00 00 00 00 00
       0.0008904974 0.0045392 0.0 0.0
000230 e2 c1 84 3f 07 63 4c 3e 00 00 00 00 00 00 00 00
       1.0371668 0.19959651 0.0 0.0
000240 a9 8f 61 3d 64 bb 11 3b 47 73 97 3b 71 f4 90 42
       0.055068646 0.0022236938 0.0046218964 72.477425
000250 d9 ee b2 41 a5 8b 95 3a 51 36 ee 39 2d 2c 7e 43
       22.366625 0.0011409415 0.00045435366 254.17256
000260 96 73 4b 42 1e b2 be 42 0c ed 8e 42 38 c7 2e 30
       50.862877 95.347885 71.46298 6.358394e-10
000270 2b 9d a2 41 58 59 b1 3f fd a0 85 3d 7f 60 02 40
       20.326742 1.385539 0.06524847 2.0371397
000280 bd af c2 3b 17 21 93 38 29 7e 12 39 3f 49 93 40
       0.00594136 7.01567e-05 0.00013970643 4.602691
000290 ee c8 17 3f 02 b1 08 39 70 4b b3 38 27 89 29 42
       0.5929097 0.00013035911 8.5494365e-05 42.383938
0002a0 eb 8c 03 41 8b 5b 8f 41 7e 35 37 41 e3 37 ab 2f
       8.221904 17.919699 11.45056 3.114443e-10
0002b0 95 b6 39 3f 70 03 23 3d 3a d5 05 3b e5 8c af 3d
       0.72544223 0.0397982 0.0020421282 0.085717954
0002c0 00 00 00 00 00 00 00 00 00 00 00 00 00 00 00 00
       0.0 0.0 0.0 0.0
0002d0 00 00 00 00 00 00 00 00 00 00 00 00 00 00 00 00
       0.0 0.0 0.0 0.0
0002e0 00 00 00 00 00 00 00 00 00 00 00 00 00 00 00 00
       0.0 0.0 0.0 0.0
0002f0 00 00 00 00 00 00 00 00 00 00 00 00 00 00 00 00
       0.0 0.0 0.0 0.0
000300 3e 78 37 3b 98 c6 94 38 e0 7f c7 38 d6 64 3c 40
       0.0027995254 7.094181e-05 9.512878e-05 2.9436545
000310 02 57 41 3f 46 c8 97 38 08 1a 80 37 23 bd 99 41
       0.7552339 7.237545e-05 1.527091e-05 19.217352
000320 da 34 b4 3f 17 9f f2 40 06 5c a4 3f fd bb aa 2f
       1.4078629 7.58192 1.2840583 3.1056394e-10
000330 cf 6b 21 3f 96 aa c4 3c 61 91 73 3a 66 53 9f 3d
       0.6305513 0.024007123 0.00092913775 0.07779579
000340 be e8 e7 39 8e 97 d1 38 f3 09 33 38 34 b5 e6 3f
       0.0004423316 9.994126e-05 4.268619e-05 1.8024049
000350 24 2d 90 3f 2d 42 b5 36 26 25 8c 36 10 43 32 40
       1.1263776 5.401924e-06 4.17665e-06 2.7853432
000360 82 c8 a7 3e 6b 20 97 3f 85 6a d7 3e bc 19 06 30
       0.32770163 1.1806768 0.42073455 4.8785487e-10
000370 12 04 c2 3d 88 88 80 3b 4b 5b c9 37 33 6b 62 3c
       0.094734326 0.003922526 2.4003579e-05 0.013819504
000380 27 d7 9b 3c d0 6f 8d 39 5c d1 11 3a 8b 82 85 41
       0.019023491 0.00026976923 0.0005562508 16.688742
000390 fe 44 0d 40 be 31 b2 39 22 5f 5a 39 30 0e a7 42
       2.207336 0.00033987866 0.0002082554 83.52771
0003a0 7b 95 77 41 8a a3 ff 41 b9 31 9c 41 45 73 83 30
       15.473994 31.954853 19.524279 9.564266e-10
0003b0 bb cc a7 40 60 c8 5b 3e eb a0 8b 3b 60 5d db 3e
       5.2437415 0.21463156 0.0042611263 0.42844677
0003c0 75 a7 9e 3b 10 65 a1 38 ab 54 7b 39 b4 c2 8b 40
       0.00484174 7.6959026e-05 0.00023968767 4.3675175
0003d0 a7 57 29 3f fe 06 10 39 2c 6c 27 38 f5 ad fc 41
       0.6614937 0.00013735515 3.9916646e-05 31.58494
0003e0 0d af a5 3f b0 6c 45 41 82 3a 36 3f c9 d7 ca 2e
       1.2944046 12.339035 0.71183026 9.2242276e-11
0003f0 79 6b a7 3f 10 18 ab 3d 8a fe 6f 3b d1 67 a8 3d
       1.3079673 0.08354199 0.0036620223 0.082229264
