Solvation_1/Run_results/ResNet/Morgan_2_124_Class_Res1/best/best_val_model.pt (torch, 36627 bytes, 105 tensors)

first_block_conv.conv.weight f4 [2, 1, 3]
0	0x3d86ddb0	0.06585252
1	0xbeeb743b	-0.45987114
2	0x3e5114ff	0.20418166
3	0x3e37995e	0.17929599
4	0x3e5fc1bc	0.21851248
5	0xbf49227a	-0.7856823

first_block_conv.conv.bias f4 [2]
0	0x3dc38329	0.09546501
1	0x3e172f25	0.14764078

first_block_bn.weight f4 [2]
0	0x3f67e80c	0.9058845
1	0x3f0e0d91	0.5548945

first_block_bn.bias f4 [2]
0	0xbe47524f	-0.19464992
1	0x3f30e888	0.69104815

first_block_bn.running_mean f4 [2]
0	0x3dc10926	0.09425573
1	0x3e15da86	0.14634141

first_block_bn.running_var f4 [2]
0	0x3e821c3c	0.25412166
1	0x3f32c081	0.6982499

basicblock_list.0.bn1.weight f4 [2]
0	0x3f800000	1.0
1	0x3f800000	1.0

basicblock_list.0.bn1.bias f4 [2]
0	0x00000000	0.0
1	0x00000000	0.0

basicblock_list.0.bn1.running_mean f4 [2]
0	0x00000000	0.0
1	0x00000000	0.0

basicblock_list.0.bn1.running_var f4 [2]
0	0x3f800000	1.0
1	0x3f800000	1.0

basicblock_list.0.conv1.conv.weight f4 [2, 2, 3]
0	0x3c999249	0.018746512
1	0x3de31c2c	0.11089358
2	0x3e4abd3a	0.19798747
3	0x3e6af704	0.22945791
4	0xbe2a7d84	-0.16649443
5	0x3ec199c6	0.37812632
6	0xbddf9814	-0.109176785
7	0xbe021f43	-0.12707238
8	0xbe02bb45	-0.1276675
9	0x3e09a9fc	0.1344375
10	0xbdd7b82b	-0.10533174
11	0xbe3b8b8f	-0.18314956

basicblock_list.0.conv1.conv.bias f4 [2]
0	0xbdb7868a	-0.08961208
1	0x3dd95053	0.10611024

basicblock_list.0.bn2.weight f4 [2]
0	0x3f8f55c4	1.1198049
1	0x3f825903	1.0183414

basicblock_list.0.bn2.bias f4 [2]
0	0xbf463826	-0.77429426
1	0xbe84e3c7	-0.2595503

basicblock_list.0.bn2.running_mean f4 [2]
0	0x3e8435da	0.25822335
1	0xbd0cfe23	-0.03442205

basicblock_list.0.bn2.running_var f4 [2]
0	0x3c9ba2fb	0.018998614
1	0x3c6c2bc8	0.014414735

basicblock_list.0.conv2.conv.weight f4 [2, 2, 3]
0	0xbf406f66	-0.7516998
1	0x3c1c02c3	0.009522143
2	0xbf405c78	-0.75141096
3	0xbcf2b6fe	-0.029628273
4	0xbf31e26e	-0.6948613
5	0xbe811146	-0.2520849
6	0xbecf1992	-0.40449196
7	0xbf60fc76	-0.87885225
8	0x3e670476	0.22560295
9	0x3bb667c1	0.0055665676
10	0xbf15b7d0	-0.584836
11	0xbd48d9bb	-0.04903577

basicblock_list.0.conv2.conv.bias f4 [2]
0	0x3e343e9d	0.1760201
1	0x3e9cd3b1	0.30630258

basicblock_list.1.bn1.weight f4 [2]
0	0x3f935bb4	1.151236
1	0x3f3e2e92	0.7428981

basicblock_list.1.bn1.bias f4 [2]
0	0xbe4c8b9b	-0.1997513
1	0xbe4a5fca	-0.19763103

basicblock_list.1.bn1.running_mean f4 [2]
0	0xbd1385fa	-0.036016442
1	0x3f5854f4	0.8450463

basicblock_list.1.bn1.running_var f4 [2]
0	0x3fe9337d	1.8218838
1	0x3fc5c41b	1.5450472

basicblock_list.1.conv1.conv.weight f4 [2, 2, 3]
0	0xbcb0d11b	-0.021584084
1	0xbe713f28	-0.23559248
2	0xbeedeae7	-0.4646828
3	0xbeee9733	-0.4659973
4	0x3e9ca0c0	0.30591393
5	0xbea66194	-0.3249632
6	0xbe1ce683	-0.15322308
7	0x3f1766e4	0.59141374
8	0x3e52fe5a	0.2060484
9	0x3d862452	0.06549896
10	0x3e3af0b7	0.18255888
11	0x3de59ba4	0.11211327

basicblock_list.1.conv1.conv.bias f4 [2]
0	0xbdfa263f	-0.12214326
1	0xbe66a3bc	-0.22523397

basicblock_list.1.bn2.weight f4 [2]
0	0x3f55a0fa	0.83448756
1	0x3f7e5a88	0.9935689

basicblock_list.1.bn2.bias f4 [2]
0	0xbeecbadd	-0.46236315
1	0x3e01a40c	0.12660235

basicblock_list.1.bn2.running_mean f4 [2]
0	0xbe2a1299	-0.16608657
1	0xbe40042f	-0.18751596

basicblock_list.1.bn2.running_var f4 [2]
0	0x3d34cc1a	0.04413996
1	0x3d2b7f70	0.04186958

basicblock_list.1.conv2.conv.weight f4 [2, 2, 3]
0	0xbd39c746	-0.045356058
1	0x3df7e3b4	0.12103978
2	0xbcee31bd	-0.029076451
3	0x3d37dcc8	0.044888288
4	0xbdaa6fb6	-0.083220884
5	0x3de84657	0.11341541
6	0xbedc1006	-0.42980975
7	0xbe7c803c	-0.24658293
8	0xbe4db8e2	-0.20090058
9	0xbea0a43b	-0.31375298
10	0xbe9693f0	-0.29409742
11	0xbee4fcc8	-0.44724107

basicblock_list.1.conv2.conv.bias f4 [2]
0	0xbd505ffc	-0.050872788
1	0xbe810a07	-0.25202963

basicblock_list.2.bn1.weight f4 [2]
0	0x3f902570	1.1261425
1	0x3f5f8f0b	0.8732764

basicblock_list.2.bn1.bias f4 [2]
0	0x3e1a6ef9	0.15081395
1	0xbe2d7dda	-0.1694254

basicblock_list.2.bn1.running_mean f4 [2]
0	0x3e4eaee7	0.20183907
1	0x3f1b0ed4	0.605695

basicblock_list.2.bn1.running_var f4 [2]
0	0x3e8f3e0c	0.27977026
1	0x3f8f278d	1.1183945

basicblock_list.2.conv1.conv.weight f4 [2, 2, 3]
0	0xbe428341	-0.18995382
1	0x3e252935	0.16129
2	0x3e3502ee	0.17676899
3	0x3da078a1	0.07835508
4	0x3c924f2b	0.017860016
5	0x3e42b004	0.19012457
6	0x3dc83082	0.09774877
7	0x3e14e40d	0.1454012
8	0xbe172ff2	-0.14764383
9	0x3de0a52e	0.109690055
10	0xbd555e84	-0.05209209
11	0x3e2b4c5f	0.16728352

basicblock_list.2.conv1.conv.bias f4 [2]
0	0x3d3403fc	0.043949112
1	0xbe747b8c	-0.23875254

basicblock_list.2.bn2.weight f4 [2]
0	0x3f557e62	0.8339597
1	0x3f629651	0.88510615

basicblock_list.2.bn2.bias f4 [2]
0	0x3e0ec9a4	0.13944107
1	0x3dabab37	0.08382266

basicblock_list.2.bn2.running_mean f4 [2]
0	0x3dc4e53d	0.09614036
1	0xbe4e3880	-0.2013874

basicblock_list.2.bn2.running_var f4 [2]
0	0x3e038f30	0.1284759
1	0x3d928863	0.0715492

basicblock_list.2.conv2.conv.weight f4 [2, 2, 3]
0	0xbd7245a8	-0.05914846
1	0xbd2f06e8	-0.042731196
2	0x3e3d4712	0.18484142
3	0x3e0c9c3e	0.13731477
4	0xbd21e5d0	-0.039525807
5	0xbd989fd1	-0.074523576
6	0xbeaaf3ee	-0.3338923
7	0xbf162963	-0.586569
8	0xbed8a03e	-0.42309755
9	0xbf7d8f89	-0.9904714
10	0xbf6911d2	-0.91042817
11	0xbebce9a7	-0.36897013

basicblock_list.2.conv2.conv.bias f4 [2]
0	0x3e9d9614	0.30778563
1	0xbd1fbdb7	-0.038999286

final_bn.weight f4 [2]
0	0x3fbbe627	1.4679612
1	0x3f73ac84	0.9518511

final_bn.bias f4 [2]
0	0x3e7a3079	0.24432553
1	0x3e82a7f0	0.2551875

final_bn.running_mean f4 [2]
0	0x3f085653	0.5325672
1	0xbe5221f4	-0.20520765

final_bn.running_var f4 [2]
0	0x3e92586d	0.2858309
1	0x40c5a5b2	6.1764765

dense.weight f4 [1, 2]
0	0xbf2d4550	-0.6768389
1	0x3e3ea861	0.18618919

exp_avg f4 [2, 1, 3]
0	0x3f591cd8	0.8480964
1	0xbf00cc96	-0.50312173
2	0xbfb417fa	-1.4069817
3	0x3ebf1a3a	0.37324697
4	0x3e98b342	0.29824263
5	0x3e2c3438	0.16816795

exp_avg_sq f4 [2, 1, 3]
0	0x4291a851	72.82874
1	0x41006ea6	8.027014
2	0x42172a9e	37.79162
3	0x4248c5bd	50.193104
4	0x41ab7709	21.433123
5	0x3ea091e9	0.3136132

exp_avg f4 [2]
0	0xb58be9a8	-1.042431e-06
1	0xb438ccaf	-1.7210799e-07

exp_avg_sq f4 [2]
0	0x2f001716	1.1649734e-10
1	0x2ae14361	4.0014782e-13

exp_avg f4 [2]
0	0xbef4574e	-0.47722858
1	0x3eee5e06	0.4655611

exp_avg_sq f4 [2]
0	0x406a5de4	3.6619806
1	0x3fb06f99	1.3784057

exp_avg f4 [2]
0	0xbe8954d6	-0.26822537
1	0x3e968b8e	0.29403347

exp_avg_sq f4 [2]
0	0x40ff16b2	7.9715204
1	0x403c5735	2.9428227

exp_avg f4 [2, 2, 3]
0	0x3f2bd6a1	0.6712437
1	0xbe01285b	-0.1261305
2	0xbff5204c	-1.9150481
3	0x3eb02149	0.34400395
4	0x3f15e1ec	0.58547854
5	0x3f87127f	1.055252
6	0x3b8f6080	0.0043755174
7	0x3eef8238	0.46779037
8	0xbd2505b6	-0.04028865
9	0x3ede6234	0.43434298
10	0x3df87052	0.121307984
11	0xbd4b6914	-0.049660757

exp_avg_sq f4 [2, 2, 3]
0	0x4299a52f	76.822624
1	0x411fa999	9.978906
2	0x42a1b880	80.86035
3	0x4111834a	9.094553
4	0x41d7546d	26.916224
5	0x412d1d25	10.819615
6	0x3f9eccf7	1.24063
7	0x4168b6f1	14.544663
8	0x3f1f11c8	0.6213651
9	0x41552206	13.3208065
10	0x4007f9ed	2.1246293
11	0x3f417c88	0.75580645

exp_avg f4 [2]
0	0xb55f9f12	-8.330545e-07
1	0xb57a2715	-9.318913e-07

exp_avg_sq f4 [2]
0	0x2d669948	1.3108022e-11
1	0x2e528eed	4.7875415e-11

exp_avg f4 [2]
0	0x3c9f83b4	0.01947198
1	0xbcd7e6ae	-0.026355114

exp_avg_sq f4 [2]
0	0x401b4102	2.4258428
1	0x3dda49b9	0.10658593

exp_avg f4 [2]
0	0xbcc4cd20	-0.024023592
1	0xbd3e7fbb	-0.046508532

exp_avg_sq f4 [2]
0	0x3f340951	0.70326716
1	0x3f448fec	0.7678211

exp_avg f4 [2, 2, 3]
0	0xbc42eb0e	-0.011896862
1	0xbee516fb	-0.44744095
2	0xbd88c756	-0.06678645
3	0xbe0c0176	-0.13672432
4	0x3cf27e50	0.029601246
5	0xbc9e8c16	-0.019353908
6	0x3b020b81	0.0019843283
7	0x3cd433b5	0.025903562
8	0x3d2534f1	0.040333692
9	0x3a7486ac	0.0009327929
10	0x3bab2d2d	0.005223891
11	0x3ad52bc4	0.0016263654

exp_avg_sq f4 [2, 2, 3]
0	0x3f2cfa6f	0.6756963
1	0x417ae550	15.6809845
2	0x3f564e51	0.8371325
3	0x3edd20e1	0.43189147
4	0x3d353f1a	0.04424963
5	0x3d9576e6	0.07298069
6	0x3c372537	0.011178306
7	0x3bd99058	0.0066395216
8	0x3e81b555	0.25333658
9	0x39e462c4	0.00043561135
10	0x39bacc1e	0.00035628764
11	0x3b3936a4	0.0028261328

exp_avg f4 [2]
0	0x39cabe08	0.00038670027
1	0xba4492a2	-0.00074986566

exp_avg_sq f4 [2]
0	0x3a3db46c	0.0007236663
1	0x378b3088	1.659269e-05

exp_avg f4 [2]
0	0xbcc369b3	-0.023854112
1	0x3cffa17d	0.031204933

exp_avg_sq f4 [2]
0	0x3c70d96e	0.014700277
1	0x3c8ae70a	0.016955871

exp_avg f4 [2]
0	0xbd7cbe41	-0.061704878
1	0x3d27510a	0.04084877

exp_avg_sq f4 [2]
0	0x3e8bb597	0.2728698
1	0x3cc256f7	0.023723109

exp_avg f4 [2, 2, 3]
0	0x3c981e01	0.018568994
1	0xbc350b22	-0.011050018
2	0xbbe23f44	-0.0069045145
3	0xbbc88ef8	-0.006120559
4	0xbd04c9a2	-0.032418855
5	0xbba65482	-0.005075992
6	0xbbb6ff5e	-0.0055846414
7	0x3bd9f837	0.006651904
8	0xbdfbddc9	-0.122981615
9	0x3d2fa068	0.042877585
10	0x3d8f0c9c	0.06984827
11	0x3d352ea3	0.04423393

exp_avg_sq f4 [2, 2, 3]
0	0x3c40d350	0.011769131
1	0x3b06ac28	0.002054939
2	0x3b89d903	0.004206778
3	0x3a723f1f	0.0009240973
4	0x3d16c81b	0.03681193
5	0x39fb0955	0.00047881404
6	0x3c771a3b	0.015081937
7	0x3d2bb0f5	0.041916806
8	0x3e43d2a3	0.1912332
9	0x3da800a5	0.08203248
10	0x3daa71c8	0.08322483
11	0x3de84da7	0.11342936

exp_avg f4 [2]
0	0xb3017b08	-3.014705e-08
1	0xb4272e98	-1.5570038e-07

exp_avg_sq f4 [2]
0	0x2925ccd2	3.6815013e-14
1	0x2c49d98e	2.8684585e-12

exp_avg f4 [2]
0	0xbc88f77a	-0.016719569
1	0xbcffe1c8	-0.03123559

exp_avg_sq f4 [2]
0	0x3bbff407	0.0058579477
1	0x3dca5ef6	0.098813936

exp_avg f4 [2]
0	0xbc123144	-0.008922879
1	0xb923b580	-0.00015612505

exp_avg_sq f4 [2]
0	0x3ae5e731	0.0017540214
1	0x3ccf3e2d	0.025298202

exp_avg f4 [2, 2, 3]
0	0x3de326f8	0.11091417
1	0xbcba23b9	-0.022722112
2	0x3e3691e3	0.17829089
3	0xbd25c358	-0.040469497
4	0x3e487504	0.19575888
5	0xbc7cbb60	-0.015425533
6	0xb8c477e8	-9.3683426e-05
7	0xbc1c8369	-0.009552815
8	0xbb707622	-0.0036691506
9	0x3c09ed5d	0.008418408
10	0x3cbf1bf3	0.023328757
11	0x3b803624	0.003912704

exp_avg_sq f4 [2, 2, 3]
0	0x3e2deb46	0.16984281
1	0x3eaf8cef	0.3428721
2	0x3e8f6bc7	0.28011915
3	0x414753c1	12.457948
4	0x413c6e7e	11.776976
5	0x41362aa0	11.3854065
6	0x39057d33	0.00012730509
7	0x3b516bbb	0.0031955082
8	0x390f81c6	0.00013685887
9	0x3b9de47a	0.0048184963
10	0x3c208b5a	0.009798849
11	0x3bcf76ea	0.0063313143

exp_avg f4 [2]
0	0xb4c2a30c	-3.6253948e-07
1	0xb27f4f07	-1.4860922e-08

exp_avg_sq f4 [2]
0	0x2cef59fa	6.802778e-12
1	0x2862d8e1	1.2592548e-14

exp_avg f4 [2]
0	0xbc4ded43	-0.012568775
1	0x3cc341ba	0.023835052

exp_avg_sq f4 [2]
0	0x3bd6094e	0.006531871
1	0x3c9c2de3	0.01906485

exp_avg f4 [2]
0	0xbc29db80	-0.010367274
1	0x3cf70d5e	0.030157741

exp_avg_sq f4 [2]
0	0x3cf778a1	0.030208888
1	0x3d82173d	0.063520886

exp_avg f4 [2, 2, 3]
0	0xbd67f106	-0.056626342
1	0x3d6ce52e	0.05783575
2	0xbe3453d6	-0.17610106
3	0x3d754a21	0.059885148
4	0x3ce2acec	0.027670346
5	0x3cfbdff0	0.03074643
6	0xbe6112bb	-0.21979801
7	0xbc3a0dac	-0.011355799
8	0xbdfff1f9	-0.124973245
9	0xbc4ba958	-0.012430511
10	0xbd19da08	-0.037561446
11	0x3cc79d21	0.024366917

exp_avg_sq f4 [2, 2, 3]
0	0x3e56b119	0.20965995
1	0x3ecfea20	0.4060831
2	0x3e9fc0b8	0.3120172
3	0x3d9a365d	0.075299
4	0x3d789175	0.060685594
5	0x3d9e75a4	0.07737282
6	0x3ea43629	0.3207257
7	0x3ea0d4d8	0.31412387
8	0x3e2d0d8d	0.168997
9	0x3d831057	0.06399601
10	0x3ccbf838	0.024898633
11	0x3da0ece9	0.07857687

exp_avg f4 [2]
0	0x340c68e4	1.3076675e-07
1	0xb279a7e8	-1.4531885e-08

exp_avg_sq f4 [2]
0	0x2ca6813c	4.7323517e-12
1	0x2cadd35f	4.9404226e-12

exp_avg f4 [2]
0	0xbd274d23	-0.040845048
1	0xbd22784f	-0.039665516

exp_avg_sq f4 [2]
0	0x3d814aa9	0.063130684
1	0x3cd22401	0.025651934

exp_avg f4 [2]
0	0xbc15039f	-0.009095102
1	0x3d54a3d6	0.05191406

exp_avg_sq f4 [2]
0	0x3d723a40	0.059137583
1	0x3cbe34c5	0.023218522

exp_avg f4 [2, 2, 3]
0	0xbed1cc58	-0.40976214
1	0xbcfc2710	-0.030780345
2	0xbe9e8067	-0.30957338
3	0xbeb84156	-0.35987347
4	0xbdc98bcc	-0.09841117
5	0xbe1d2ccf	-0.15349124
6	0x3c1da632	0.009622144
7	0xbab35b82	-0.0013683888
8	0x3b444c6a	0.0029952773
9	0xbb2ae555	-0.0026076634
10	0xba2ca224	-0.000658544
11	0xb9bae544	-0.000356475

exp_avg_sq f4 [2, 2, 3]
0	0x40bc32f7	5.8812213
1	0x40c4a8cd	6.1456056
2	0x40abe45a	5.371625
3	0x40d9cf06	6.8065214
4	0x40d76215	6.730723
5	0x40bea841	5.958039
6	0x3a19f204	0.000587255
7	0x399ae0a1	0.0002954053
8	0x3aca2bd6	0.0015424441
9	0x391d69b9	0.00015012072
10	0x39ebb27a	0.00044955668
11	0x3a11f2e3	0.0005567504

exp_avg f4 [2]
0	0x35372552	6.822712e-07
1	0xb32b955a	-3.9949875e-08

exp_avg_sq f4 [2]
0	0x2cb918c0	5.260764e-12
1	0x28a9c94b	1.8850066e-14

exp_avg f4 [2]
0	0xbe8fcfbf	-0.28088185
1	0x3b826900	0.003979802

exp_avg_sq f4 [2]
0	0x408bb41c	4.365736
1	0x3e9bb4c0	0.3041134

exp_avg f4 [2]
0	0xbe5324fc	-0.20619577
1	0x3db604f8	0.088876665

exp_avg_sq f4 [2]
0	0x4108b562	8.544283
1	0x4044e8d5	3.076711

exp_avg f4 [1, 2]
0	0x3f2f021c	0.68362594
1	0x3e118b5c	0.14213318

exp_avg_sq f4 [1, 2]
0	0x41f12488	30.142838
1	0x41da321a	27.274464
