Solvation_1/Run_results/ResNet/JustBonds_Morgan_Res1/best/best_val_model.pt (torch, 36627 bytes, 105 tensors)

first_block_conv.conv.weight f4 [2, 1, 3]
000000 3c ff e3 be 7e dd 3b bf 0b 97 fd 3d 73 1a 1d bf
       -0.44530666 -0.73384845 0.12382325 -0.61368483
000010 e3 7e ee be 90 99 c0 3e
       -0.46581182 0.3761716

first_block_conv.conv.bias f4 [2]
000000 94 68 58 3d e2 e3 59 be
       0.05283411 -0.21278337

first_block_bn.weight f4 [2]
000000 73 d9 52 3f 53 2b 27 3f
       0.8236305 0.6530048

first_block_bn.bias f4 [2]
000000 36 a5 35 bc 39 fd c9 bd
       -0.011086753 -0.098627515

first_block_bn.running_mean f4 [2]
000000 b5 ec 99 3b b5 e1 7a be
       0.004697407 -0.24500163

first_block_bn.running_var f4 [2]
000000 6a d5 40 3f 28 e8 0e 3f
       0.75325644 0.5582299

basicblock_list.0.bn1.weight f4 [2]
000000 00 00 80 3f 00 00 80 3f
       1.0 1.0

basicblock_list.0.bn1.bias f4 [2]
000000 00 00 00 00 00 00 00 00
       0.0 0.0

basicblock_list.0.bn1.running_mean f4 [2]
000000 00 00 00 00 00 00 00 00
       0.0 0.0

basicblock_list.0.bn1.running_var f4 [2]
000000 00 00 80 3f 00 00 80 3f
       1.0 1.0

basicblock_list.0.conv1.conv.weight f4 [2, 2, 3]
000000 23 43 e8 bd 50 60 1f be 07 ca 6f 3d 85 d0 6c 3e
       -0.1134093 -0.15564084 0.058542278 0.23126419
000010 ee d0 94 3e c3 5a 02 3e 73 7a 5d be f4 51 c3 bd
       0.2906565 0.12729935 -0.21628742 -0.09537116
000020 31 81 dc 3d 4a d1 b7 3e 4e 6c 92 3e d5 27 85 3d
       0.10766829 0.35901862 0.28598255 0.06501738

basicblock_list.0.conv1.conv.bias f4 [2]
000000 da 02 f6 bd 72 75 9a 3e
       -0.12012263 0.3016773

basicblock_list.0.bn2.weight f4 [2]
000000 ed d5 62 3f c8 44 75 3f
       0.88607675 0.95808077

basicblock_list.0.bn2.bias f4 [2]
000000 e9 a1 ae be e6 19 c2 be
       -0.34107903 -0.37910384

basicblock_list.0.bn2.running_mean f4 [2]
000000 7b 1f be bd 36 a5 ac 3e
       -0.09283348 0.33719796

basicblock_list.0.bn2.running_var f4 [2]
000000 83 3f b8 3b b3 25 fc 3b
       0.0056228056 0.007694924

basicblock_list.0.conv2.conv.weight f4 [2, 2, 3]
000000 e2 d8 8f be 21 71 7d be 37 67 82 be 97 9a dc be
       -0.28095156 -0.24750187 -0.25469372 -0.43086693
000010 db 41 ba be eb 08 6d be 54 fd e0 be c3 8c c1 be
       -0.3637837 -0.23147933 -0.43943274 -0.37802705
000020 a9 b2 b6 be 53 59 ff be 47 45 b5 be a5 cf d6 be
       -0.35683182 -0.49872836 -0.35404417 -0.41955295

basicblock_list.0.conv2.conv.bias f4 [2]
000000 1e 6a a6 3e c7 9d da 3d
       0.32502836 0.10674625

basicblock_list.1.bn1.weight f4 [2]
000000 66 ce 86 3f 9f 7c 74 3f
       1.0531738 0.95502657

basicblock_list.1.bn1.bias f4 [2]
000000 f3 7b a1 bd 5d 62 2f bd
       -0.078849696 -0.042818416

basicblock_list.1.bn1.running_mean f4 [2]
000000 ef 96 3a 3e 22 db 87 be
       0.18221639 -0.26534373

basicblock_list.1.bn1.running_var f4 [2]
000000 62 3c b1 3f c9 37 18 40
       1.3846552 2.3784049

basicblock_list.1.conv1.conv.weight f4 [2, 2, 3]
000000 30 51 2f be f0 41 3e be bd 57 ea be 4f 99 b2 bd
       -0.17120814 -0.1857984 -0.45770064 -0.087206475
000010 2a 5e a9 be 53 67 c6 be 70 74 2a be 21 73 4a be
       -0.33079654 -0.38750705 -0.1664598 -0.1977048
000020 5a fc 50 be 04 d7 0d be 19 8f 73 be c5 80 3a be
       -0.20408764 -0.13851553 -0.23785056 -0.18213184

basicblock_list.1.conv1.conv.bias f4 [2]
000000 25 bc c5 3d d3 c6 06 3e
       0.09655026 0.13161783

basicblock_list.1.bn2.weight f4 [2]
000000 13 5f 55 3f ee f9 78 3f
       0.83348197 0.9725636

basicblock_list.1.bn2.bias f4 [2]
000000 20 ff fc bd 40 df 10 be
       -0.12353349 -0.14147663

basicblock_list.1.bn2.running_mean f4 [2]
000000 37 10 40 be a0 48 87 bd
       -0.18756185 -0.06605649

basicblock_list.1.bn2.running_var f4 [2]
000000 ee b8 55 3d 91 b4 bb 3c
       0.052178316 0.02291325

basicblock_list.1.conv2.conv.weight f4 [2, 2, 3]
000000 a3 6b 24 bc 43 ce 38 bd 52 2c 8e be 58 45 51 be
       -0.010035428 -0.04511858 -0.2776819 -0.20436609
000010 b3 e2 a5 bd d4 a3 6d be 3a e9 d9 be c1 29 09 be
       -0.0809988 -0.23207027 -0.4256075 -0.13394834
000020 d9 63 28 bf 9b e6 af be 99 2a 15 bc 39 c4 12 bf
       -0.65777355 -0.34355626 -0.009104394 -0.5733066

basicblock_list.1.conv2.conv.bias f4 [2]
000000 0c 31 bd be 4e ce b9 be
       -0.36951482 -0.3629021

basicblock_list.2.bn1.weight f4 [2]
000000 a6 9c 74 3f ba 19 79 3f
       0.95551527 0.9730488

basicblock_list.2.bn1.bias f4 [2]
000000 61 4d 4c be 26 b0 40 bd
       -0.19951393 -0.04704299

basicblock_list.2.bn1.running_mean f4 [2]
000000 08 0c 9c be ee 85 88 bf
       -0.3047793 -1.0665872

basicblock_list.2.bn1.running_var f4 [2]
000000 71 8e 8d 3f c7 f3 24 40
       1.1059095 2.577379

basicblock_list.2.conv1.conv.weight f4 [2, 2, 3]
000000 22 9c 05 bf cb ca 6c be b1 92 00 be e2 2a 2a bf
       -0.52191365 -0.23124234 -0.12555958 -0.66471684
000010 13 a3 90 bd d3 b0 b3 3a 5e 55 9c 3e 66 9a 19 3e
       -0.07062354 0.0013709314 0.3053388 0.15000305
000020 df 21 ee 3e 1c ca 7f 3e 82 40 d8 3d 0a 99 00 3e
       0.46510217 0.24979442 0.10559179 0.1255838

basicblock_list.2.conv1.conv.bias f4 [2]
000000 6b 36 b3 3e c3 b0 e4 3d
       0.35002455 0.11166527

basicblock_list.2.bn2.weight f4 [2]
000000 54 68 92 3f f4 e2 92 3f
       1.1438088 1.1475511

basicblock_list.2.bn2.bias f4 [2]
000000 2b 1f fd 3d 1e 76 cb 3c
       0.123594604 0.024836596

basicblock_list.2.bn2.running_mean f4 [2]
000000 4d 49 50 3d e5 6c b3 3e
       0.050851155 0.35044017

basicblock_list.2.bn2.running_var f4 [2]
000000 d6 f6 08 3e b4 48 81 3d
       0.1337541 0.06312695

basicblock_list.2.conv2.conv.weight f4 [2, 2, 3]
000000 25 dd 11 bf af 87 fe be 2b 74 30 be be 67 bb 3e
       -0.56978065 -0.49712893 -0.17231815 0.36602587
000010 ef b3 fd 3e f0 87 bb 3e af 4e 14 bf c7 7f 51 be
       0.4955134 0.3662715 -0.5793256 -0.204589
000020 61 81 1b be 34 a3 f0 3e 40 c2 d9 3e 53 6e 31 3e
       -0.15186073 0.46999514 0.42531013 0.17327242

basicblock_list.2.conv2.conv.bias f4 [2]
000000 bc e9 d9 ba e8 84 36 be
       -0.0016625444 -0.17824137

final_bn.weight f4 [2]
000000 e1 1c b8 3f 22 e0 a6 3f
       1.4383813 1.303715

final_bn.bias f4 [2]
000000 fd 4a 9c 3e b7 38 4e 3e
       0.30525962 0.20138822

final_bn.running_mean f4 [2]
000000 a2 3f d2 be aa e4 a0 bf
       -0.41064173 -1.2569783

final_bn.running_var f4 [2]
000000 cf ca 8a 40 23 9b af 40
       4.337257 5.4876876

dense.weight f4 [1, 2]
000000 79 19 f6 3e 9e 66 dc 3e
       0.4806631 0.4304704

exp_avg f4 [2, 1, 3]
000000 dd b7 37 bd 2e 11 3f bc 62 26 6c be df d8 cf bd
       -0.04485308 -0.011661811 -0.23061517 -0.10148787
000010 6d f4 03 be 18 8f a6 be
       -0.1288621 -0.32531047

exp_avg_sq f4 [2, 1, 3]
000000 fd 23 ac 3f 51 81 06 3f 7d f2 1f 41 0d b7 c2 40
       1.3448483 0.5254107 9.996701 6.084845
000010 7f 2f b8 40 b2 05 22 42
       5.755798 40.50556

exp_avg f4 [2]
000000 5c e0 ff b7 01 ae 94 b6
       -3.0502844e-05 -4.4310004e-06

exp_avg_sq f4 [2]
000000 06 1e a5 30 03 4f e8 2f
       1.2013863e-09 4.2256695e-10

exp_avg f4 [2]
000000 a3 32 87 bc f3 14 86 be
       -0.016503638 -0.26187858

exp_avg_sq f4 [2]
000000 8b c2 f0 40 96 91 36 41
       7.523748 11.410543

exp_avg f4 [2]
000000 2c a8 83 bd 62 5f 8c bf
       -0.064285606 -1.0966609

exp_avg_sq f4 [2]
000000 44 4b 4a 41 b5 00 1f 42
       12.643375 39.75069

exp_avg f4 [2, 2, 3]
000000 ef a1 e9 be 74 03 e7 bc 31 8f 80 be 20 1a 87 be
       -0.45631358 -0.028199889 -0.25109246 -0.2638712
000010 0e c4 7b 3e 48 42 d2 be c0 7e 17 bf a2 fe 19 3f
       0.24586508 -0.41066194 -0.5917778 0.60154164
000020 ad ab a4 3e 56 db 28 bf 74 27 ec 3e a0 27 39 bc
       0.32162228 -0.6595968 0.4612385 -0.011300951

exp_avg_sq f4 [2, 2, 3]
000000 b0 aa 87 41 89 2e 6c 41 46 37 79 41 f3 fa b7 40
       16.958344 14.761361 15.5759945 5.7493834
000010 20 8f 91 40 34 8c cc 40 7a 51 a0 41 85 ba 54 41
       4.5487213 6.3921146 20.039783 13.295537
000020 8d c7 57 41 82 1f ed 40 b3 44 91 40 c5 09 e9 40
       13.486218 7.410096 4.539636 7.2824426

exp_avg f4 [2]
000000 2c db fe b6 a2 4a 88 b6
       -7.595305e-06 -4.0618042e-06

exp_avg_sq f4 [2]
000000 d2 aa 09 30 4e 63 32 30
       5.008306e-10 6.4897143e-10

exp_avg f4 [2]
000000 12 a4 56 be d2 93 5e be
       -0.20961025 -0.21736076

exp_avg_sq f4 [2]
000000 4d 42 7b 3f fd 08 99 3f
       0.9814804 1.1955868

exp_avg f4 [2]
000000 ea ff a9 be ea c3 ee be
       -0.3320306 -0.46633846

exp_avg_sq f4 [2]
000000 b5 b2 d0 3f 82 43 f1 3f
       1.6304537 1.8848727

exp_avg f4 [2, 2, 3]
000000 65 de 71 3c cb b9 8e 3d 76 91 1a bd a8 78 bd bc
       0.014762496 0.06969031 -0.03773638 -0.023128822
000010 f2 ce b4 bc e6 94 bf bd 53 ea 81 3d fa 3c 72 3b
       -0.022071335 -0.09354572 0.06343522 0.0036962614
000020 9e 60 b4 3d 99 db 67 3d dd 82 ab 3d 9c e3 00 3d
       0.08807491 0.05660591 0.083745696 0.031467065

exp_avg_sq f4 [2, 2, 3]
000000 92 44 b0 3e ac c1 fc 3e a2 18 d1 3e 37 ab 90 3e
       0.34427315 0.4936651 0.40839106 0.28255627
000010 79 0a c1 3e 3a 15 f3 3e 35 30 37 3d 3d 31 90 3d
       0.37703303 0.47477132 0.04472371 0.070406415
000020 bc b5 50 3d 5a cd 3c 3d 21 f5 aa 3d f4 a9 2b 3d
       0.050954565 0.046094276 0.08347536 0.041910127

exp_avg f4 [2]
000000 2a 9c 52 36 90 04 4b 33
       3.1383338e-06 4.726877e-08

exp_avg_sq f4 [2]
000000 19 55 fa 2f 0a e4 c7 2f
       4.55352e-10 3.635992e-10

exp_avg f4 [2]
000000 da cb ec 3c 90 f9 00 bb
       0.028905798 -0.001968

exp_avg_sq f4 [2]
000000 e5 92 69 3e d2 08 6a 3e
       0.22809942 0.22854927

exp_avg f4 [2]
000000 91 45 80 3e ef 35 51 3e
       0.25053075 0.2043073

exp_avg_sq f4 [2]
000000 80 a1 ca 40 e8 42 78 40
       6.3322144 3.8790836

exp_avg f4 [2, 2, 3]
000000 45 3f ab 3e 0e 4c c5 3c 4c 47 8a bd 5a 4f a2 3c
       0.33446708 0.024084117 -0.0675188 0.019813228
000010 25 dc b9 be 1e 5a 67 3e 70 f3 08 be e0 50 cf 3b
       -0.3630077 0.2259297 -0.13374114 0.0063267797
000020 88 a8 cd bd 86 19 9c 3e 46 8b c4 be 3c 90 fe 3e
       -0.100419104 0.30488223 -0.38387507 0.49719417

exp_avg_sq f4 [2, 2, 3]
000000 a0 75 0c 3f 06 e6 fe 3e 41 f2 e4 3d 52 dc 0e 3f
       0.5486698 0.4978487 0.11179019 0.5580493
000010 7b 5d c4 3e bb dd 9a 3e 16 5a 87 3f 10 78 3e 3f
       0.3835257 0.30247292 1.0574367 0.7440195
000020 4b e9 5b 3f 94 c8 98 3f fb bc 79 3f 57 00 a7 3f
       0.8590285 1.1936212 0.97553986 1.3046979

exp_avg f4 [2]
000000 38 8c e4 b4 94 fb 10 b6
       -4.2570332e-07 -2.160411e-06

exp_avg_sq f4 [2]
000000 42 b2 9c 2d f4 3b 54 2e
       1.7814309e-11 4.825647e-11

exp_avg f4 [2]
000000 dc 8b 84 3c ac 78 22 3e
       0.016179971 0.15866345

exp_avg_sq f4 [2]
000000 0c 7f 3c 3e d7 31 4e 3e
       0.1840784 0.201362

exp_avg f4 [2]
000000 ac d9 96 3d b1 8a b2 3e
       0.07365736 0.34871438

exp_avg_sq f4 [2]
000000 46 13 1e 3f 32 78 1b 3f
       0.6174816 0.6073028

exp_avg f4 [2, 2, 3]
000000 ac cd bc 3d 70 56 13 be 12 b1 d2 bc 35 4c 93 bd
       0.09218916 -0.14388442 -0.0257192 -0.0719227
000010 d0 85 81 be 6d 81 1c be e4 86 7d 3d a9 33 04 bd
       -0.25297403 -0.15283747 0.06189622 -0.03227583
000020 11 82 aa bc ec 73 83 bd c7 0a 12 bc 6b 14 ae bc
       -0.020813974 -0.06418595 -0.008913702 -0.02124997

exp_avg_sq f4 [2, 2, 3]
000000 6e 51 e2 3e 56 62 a0 3e 17 40 4c 3e c0 af 9f 3e
       0.4420275 0.31325024 0.19946323 0.31188774
000010 d8 ab b1 3e 65 e0 75 3e 05 ff 57 3d 0d 9f 6a 3d
       0.3470142 0.24011381 0.05273344 0.05728059
000020 0e 82 12 3d 28 2a a2 3d bc cd 9b 3d b9 0f 4e 3d
       0.03576856 0.07918197 0.076076 0.050307963

exp_avg f4 [2]
000000 30 eb 93 32 ac d9 9d b4
       1.7220003e-08 -2.9401906e-07

exp_avg_sq f4 [2]
000000 31 54 42 2d 7c 89 23 2c
       1.10463175e-11 2.3240012e-12

exp_avg f4 [2]
000000 f3 1f cf bc 0b a9 24 3e
       -0.02528379 0.1608011

exp_avg_sq f4 [2]
000000 5a 22 98 3e d5 24 29 3e
       0.29713708 0.16517957

exp_avg f4 [2]
000000 9a c9 19 3f 04 ba 87 3e
       0.60073245 0.26509106

exp_avg_sq f4 [2]
000000 ee 91 0f 40 c8 de 71 3f
       2.2432818 0.9448056

exp_avg f4 [2, 2, 3]
000000 c0 78 f3 3a 5e 33 1b bd 60 dc 06 bb d9 98 86 3c
       0.0018575415 -0.037890784 -0.002057813 0.016430305
000010 34 86 25 bd d8 3f 9d 3b 9b 6a 04 be 43 8a dd bd
       -0.04041119 0.0047988705 -0.12931292 -0.10817387
000020 94 1d 54 be 76 05 b1 3e 84 97 13 3f 8e 45 1c 3d
       -0.20714408 0.3457448 0.5765307 0.03815227

exp_avg_sq f4 [2, 2, 3]
000000 16 83 21 3c 1b 33 a8 3d 68 a5 ff 3d fb a1 ac 3c
       0.0098579135 0.082128726 0.124827206 0.021073332
000010 76 14 87 3e 12 39 77 3e 44 44 a8 3e 41 f0 d1 3e
       0.26382798 0.24142864 0.32864583 0.41003612
000020 e2 a8 99 3e 57 ec 7c 3f ab 30 57 3f ad 31 3a 3f
       0.3001166 0.98798126 0.84058636 0.7273205

exp_avg f4 [2]
000000 fd c5 b9 33 b5 a0 9c 36
       8.650748e-08 4.667871e-06

exp_avg_sq f4 [2]
000000 22 df e8 2c ac 49 17 2f
       6.6186093e-12 1.3759544e-10

exp_avg f4 [2]
000000 42 06 27 bd de 9b d6 3d
       -0.040777452 0.10478948

exp_avg_sq f4 [2]
000000 de 22 68 3e a4 60 99 3e
       0.22669551 0.29956543

exp_avg f4 [2]
000000 fb 1d 3d bd 10 9d 85 3d
       -0.04617117 0.06524098

exp_avg_sq f4 [2]
000000 26 3c b0 3e c6 d0 c4 3d
       0.3442089 0.09610133

exp_avg f4 [2, 2, 3]
000000 42 5f fd 3c 9c db 4f 3c b8 49 3f 3c 2f ae 86 3d
       0.030929212 0.012686636 0.011675291 0.06576192
000010 c4 91 92 3d 88 3b 25 3d 4f ac 15 3d 46 d4 42 3c
       0.07156709 0.040339977 0.03654128 0.01189143
000020 a5 51 97 3c e5 0d 6f 3d 4c 89 41 3d 40 26 36 39
       0.018471548 0.05836286 0.047250077 0.00017371122

exp_avg_sq f4 [2, 2, 3]
000000 06 ce 0e 3e b2 cb 0f 3e 69 9f f4 3c b3 fd b5 3d
       0.13945779 0.14042547 0.029861169 0.0888628
000010 1a 4c ff 3d fb 5e bf 3d 4d 8d 90 3d cf 1a a5 3c
       0.12465687 0.09344288 0.07058201 0.020154385
000020 67 41 c0 3c e0 44 75 3d f8 02 64 3d da 32 5b 3d
       0.023468686 0.059880137 0.055666894 0.053515293

exp_avg f4 [2]
000000 d3 f3 42 33 9c e3 db 33
       4.53909e-08 1.0239384e-07

exp_avg_sq f4 [2]
000000 ab 63 c7 2a 9d 57 5e 2a
       3.541866e-13 1.9747958e-13

exp_avg f4 [2]
000000 57 52 a3 be 71 8d 89 be
       -0.31898758 -0.26865724

exp_avg_sq f4 [2]
000000 78 c5 6d 40 db 18 34 40
       3.7151775 2.814017

exp_avg f4 [2]
000000 f6 c1 c5 be a3 7b db be
       -0.38624543 -0.42867765

exp_avg_sq f4 [2]
000000 9e 2e 36 41 e2 67 20 41
       11.386381 10.025362

exp_avg f4 [1, 2]
000000 8c 95 99 bf 93 d1 81 bf
       -1.1998763 -1.0142082

exp_avg_sq f4 [1, 2]
000000 21 77 78 42 b7 ab 2b 42
       62.116337 42.91769
