Solvation_1/Run_results/ResNet/SOAP_BoB_Res1/best/best_val_model.pt (torch, 36627 bytes, 105 tensors)

first_block_conv.conv.weight f4 [2, 1, 3]
000000 d4 6b 85 3e 2d 77 09 3f 8b 87 8d 3e a8 c6 08 3f
       0.2605883 0.5369747 0.27642474 0.53428125
000010 51 14 a9 3c ba df 9e 3d
       0.02063957 0.07757516

first_block_conv.conv.bias f4 [2]
000000 94 38 a1 3e de 3b 05 3f
       0.31488478 0.52044475

first_block_bn.weight f4 [2]
000000 4d ce 60 3f b9 fb 49 3f
       0.8781479 0.78899723

first_block_bn.bias f4 [2]
000000 fa 10 2a 3e 74 b9 a3 3d
       0.16608039 0.07994357

first_block_bn.running_mean f4 [2]
000000 69 ee bd 3e 34 b0 0d 3f
       0.37095955 0.5534699

first_block_bn.running_var f4 [2]
000000 56 f7 c3 3f 2a 53 16 3f
       1.5309856 0.5872065

basicblock_list.0.bn1.weight f4 [2]
000000 00 00 80 3f 00 00 80 3f
       1.0 1.0

basicblock_list.0.bn1.bias f4 [2]
000000 00 00 00 00 00 00 00 00
       0.0 0.0

basicblock_list.0.bn1.running_mean f4 [2]
000000 00 00 00 00 00 00 00 00
       0.0 0.0

basicblock_list.0.bn1.running_var f4 [2]
000000 00 00 80 3f 00 00 80 3f
       1.0 1.0

basicblock_list.0.conv1.conv.weight f4 [2, 2, 3]
000000 6e 9b cb be 87 c0 5f 3e f5 e0 1f be c7 26 b3 3c
       -0.3976702 0.21850787 -0.15613158 0.021869076
000010 42 bf 99 3e 91 a2 52 3d f7 af b5 3e 5b 99 e4 bd
       0.3002873 0.051424567 0.35485813 -0.11162063
000020 1c 13 5e be cf ec 4b 3e f2 54 2a bd b0 3d 61 be
       -0.21686977 0.19914554 -0.041584916 -0.21996188

basicblock_list.0.conv1.conv.bias f4 [2]
000000 85 e5 81 be 6d c2 7c be
       -0.25370422 -0.24683543

basicblock_list.0.bn2.weight f4 [2]
000000 8e b7 69 3f 70 9a 95 3f
       0.9129571 1.1687756

basicblock_list.0.bn2.bias f4 [2]
000000 ef 47 26 3e 88 db 46 bc
       0.16238378 -0.012137301

basicblock_list.0.bn2.running_mean f4 [2]
000000 90 23 8c be 94 9c 7f be
       -0.27370882 -0.24962074

basicblock_list.0.bn2.running_var f4 [2]
000000 96 e3 ea 3b 08 d2 de 3c
       0.0071682436 0.02719976

basicblock_list.0.conv2.conv.weight f4 [2, 2, 3]
000000 af 3f cb be ff c4 5c be 77 3e 23 bd 57 30 69 3e
       -0.39697024 -0.21559523 -0.039854493 0.22772346
000010 0b 5c d3 3e 24 51 4a 3e 90 df ca 3c cb e9 0b 3e
       0.4128116 0.19757515 0.024764806 0.13663404
000020 8a 01 b7 3d ec 14 aa 3b 43 b9 59 be fd 8c c9 be
       0.089358404 0.0051904824 -0.21262078 -0.39365378

basicblock_list.0.conv2.conv.bias f4 [2]
000000 93 95 b5 be 6d 92 27 3b
       -0.3546568 0.0025569454

basicblock_list.1.bn1.weight f4 [2]
000000 3d 47 5f 3f e5 a7 84 3f
       0.87218076 1.0363737

basicblock_list.1.bn1.bias f4 [2]
000000 d0 b7 80 be e7 56 cb 3d
       -0.25140238 0.09928685

basicblock_list.1.bn1.running_mean f4 [2]
000000 f7 f8 5c be 62 fb 0c 3e
       -0.21579348 0.1376777

basicblock_list.1.bn1.running_var f4 [2]
000000 ea 85 af 3f ea c4 21 3f
       1.3712742 0.6319109

basicblock_list.1.conv1.conv.weight f4 [2, 2, 3]
000000 48 47 12 be 64 39 31 be 68 57 3f be 74 92 ed 3c
       -0.14285004 -0.17307049 -0.18685687 0.029000498
000010 99 eb bb bc 2b 67 d5 be f1 1a 20 bd 76 99 22 bc
       -0.02293949 -0.41680273 -0.039088193 -0.009924283
000020 24 fc 4a 3e b5 d0 a0 3e f1 ad cd 3e 67 94 9d 3d
       0.19822747 0.3140923 0.4017177 0.07694321

basicblock_list.1.conv1.conv.bias f4 [2]
000000 cb 58 b3 3d 14 ad 8d be
       0.0875717 -0.2767111

basicblock_list.1.bn2.weight f4 [2]
000000 d0 47 6c 3f f1 48 99 3f
       0.9229708 1.1975385

basicblock_list.1.bn2.bias f4 [2]
000000 70 a5 80 3d 52 cb ba 3c
       0.06281555 0.022802029

basicblock_list.1.bn2.running_mean f4 [2]
000000 e9 2d 4a bc 1d be 18 be
       -0.012340047 -0.14916272

basicblock_list.1.bn2.running_var f4 [2]
000000 41 1c 24 3f 98 d5 52 3f
       0.6410561 0.8235717

basicblock_list.1.conv2.conv.weight f4 [2, 2, 3]
000000 62 cf bd bd b9 0d b0 be d4 87 2d be 1f 99 af bd
       -0.09268071 -0.3438547 -0.16946346 -0.085741274
000010 e5 82 0d bd 47 ab 28 be cc 7d 36 3e 90 2a a0 be
       -0.03454866 -0.16471587 0.17821425 -0.31282473
000020 53 d5 29 3e dc ba 8d be 03 b8 0f bf f0 a3 e3 be
       0.16585283 -0.27681625 -0.56140155 -0.44461012

basicblock_list.1.conv2.conv.bias f4 [2]
000000 85 84 ab 3e 83 bd 2b 3e
       0.33499542 0.16771512

basicblock_list.2.bn1.weight f4 [2]
000000 ec f3 68 3f cb ce 8b 3f
       0.90997195 1.0922483

basicblock_list.2.bn1.bias f4 [2]
000000 fe 8c 32 3d 0e 39 aa 3c
       0.043591492 0.020779159

basicblock_list.2.bn1.running_mean f4 [2]
000000 af d3 69 3d 81 fe 42 3e
       0.057086643 0.19042398

basicblock_list.2.bn1.running_var f4 [2]
000000 76 ee a3 3f 1f e6 c3 3f
       1.2807148 1.5304602

basicblock_list.2.conv1.conv.weight f4 [2, 2, 3]
000000 a0 6f b7 be f8 0f 05 be e6 a3 e0 bd 0e 2e 41 3d
       -0.3582735 -0.12994373 -0.10968761 0.04716306
000010 1b 0c bb be 0a ef 2d be c5 6d 87 bd b8 46 1a bf
       -0.36532673 -0.16985717 -0.06612734 -0.6026416
000020 d8 dd 4e be d5 e7 73 3e 4a fc f2 bd 05 47 c2 3e
       -0.20201814 0.23818906 -0.118645266 0.3794481

basicblock_list.2.conv1.conv.bias f4 [2]
000000 0c 62 37 3d d7 bc 68 3e
       0.04477124 0.22728287

basicblock_list.2.bn2.weight f4 [2]
000000 d4 6d 87 3f 2f 58 69 3f
       1.0580392 0.9115018

basicblock_list.2.bn2.bias f4 [2]
000000 89 38 52 3e e9 f9 16 3e
       0.20529379 0.1474377

basicblock_list.2.bn2.running_mean f4 [2]
000000 7e 73 ab bd 62 b9 34 3e
       -0.08371638 0.17648843

basicblock_list.2.bn2.running_var f4 [2]
000000 9d aa e4 3e 9d 8a 44 3f
       0.44661418 0.7677401

basicblock_list.2.conv2.conv.weight f4 [2, 2, 3]
000000 c7 51 df be 9d 8b 61 be 0f 40 a6 bd 6e 36 16 be
       -0.4361708 -0.22025914 -0.08117687 -0.14669201
000010 3f 9d ad be 84 f7 0b be 34 07 87 3e d8 b3 81 3e
       -0.33909032 -0.13668638 0.26372683 0.25332522
000020 2c 59 7d 3e 6b b7 f1 3d 4b 41 84 be 1b 6b ae 3e
       0.24741048 0.11802562 -0.25831065 0.3406609

basicblock_list.2.conv2.conv.bias f4 [2]
000000 d4 33 a3 3e 1a 40 a9 be
       0.3187548 -0.33056718

final_bn.weight f4 [2]
000000 80 02 cf 3f 4d 4e 53 3f
       1.6172638 0.8254135

final_bn.bias f4 [2]
000000 16 82 99 3e e2 ef 43 be
       0.2998206 -0.19134477

final_bn.running_mean f4 [2]
000000 af 50 8c 3c 83 fb 09 3e
       0.017128317 0.1347485

final_bn.running_var f4 [2]
000000 65 a6 b0 3f b2 3f ce 3f
       1.380078 1.6113188

dense.weight f4 [1, 2]
000000 1b 3d 4f bf 92 2e 04 3e
       -0.80952615 0.1290839

exp_avg f4 [2, 1, 3]
000000 b9 4c 2f be 7c 25 df 3c 97 4b de 3d 48 d3 cc 3c
       -0.17119111 0.027239554 0.10854261 0.02500309
000010 8e 07 bd bd 44 81 17 be
       -0.092299566 -0.14795405

exp_avg_sq f4 [2, 1, 3]
000000 ad e1 45 3f 96 df 0e 3f f1 31 6c 3f 40 67 09 3c
       0.7729748 0.55809915 0.92263705 0.008386433
000010 7a 62 94 3e 60 5e d0 3e
       0.28981382 0.40697002

exp_avg f4 [2]
000000 fb 70 70 b9 8e 92 db b7
       -0.00022930272 -2.617508e-05

exp_avg_sq f4 [2]
000000 64 0a 0b 35 7f 47 b9 33
       5.1796655e-07 8.627739e-08

exp_avg f4 [2]
000000 5c 0b 6a 3e e9 93 76 be
       0.22855896 -0.24079861

exp_avg_sq f4 [2]
000000 4b 4d ca 3f 63 a8 8f 3e
       1.5804838 0.28058156

exp_avg f4 [2]
000000 9e 1e f8 3d 78 4d ec bb
       0.12115215 -0.0072113834

exp_avg_sq f4 [2]
000000 9e c2 1f 40 36 1c 63 3e
       2.4962535 0.2217873

exp_avg f4 [2, 2, 3]
000000 de 6c e0 be c1 b9 0e bf 58 e3 d2 be 03 9f ae be
       -0.4383306 -0.5575219 -0.41189075 -0.3410569
000010 c7 c7 95 be 00 f4 d6 be 18 ec a4 3c a6 6a fc bd
       -0.2925398 -0.41983032 0.02013211 -0.12325029
000020 32 0a 7b bd 05 37 35 3e c4 58 a0 3e 04 55 83 3e
       -0.06128902 0.1769677 0.31317723 0.256508

exp_avg_sq f4 [2, 2, 3]
000000 8b fe 96 3f 63 ed e8 3f 5a 5e df 3f f8 24 99 3f
       1.179643 1.8197445 1.7450669 1.1964407
000010 5c f6 39 3f 9d b0 ac 3f cf bc 8a 40 6b 99 81 40
       0.7264154 1.3491398 4.335548 4.049978
000020 86 b0 44 40 44 ee 55 40 9a 45 5b 40 94 72 69 40
       3.0732741 3.3426676 3.4261231 3.6476183

exp_avg f4 [2]
000000 80 8a bd 39 98 bf 2e b9
       0.0003615208 -0.00016665307

exp_avg_sq f4 [2]
000000 4a a8 19 36 c6 a1 b7 36
       2.2896734e-06 5.472658e-06

exp_avg f4 [2]
000000 18 c0 51 bd 6a 1f 3b bd
       -0.051208586 -0.045684256

exp_avg_sq f4 [2]
000000 e0 1b b3 3d 73 99 34 3f
       0.08745551 0.70546645

exp_avg f4 [2]
000000 80 09 f4 39 18 e1 2a bd
       0.00046546385 -0.041718572

exp_avg_sq f4 [2]
000000 6e ee 5a 3e c0 01 18 3e
       0.21380016 0.14844418

exp_avg f4 [2, 2, 3]
000000 23 34 2d 3d d8 95 9d 3d 6f 3e b8 3d 02 da 0c 3d
       0.04228605 0.07694596 0.08996283 0.034387596
000010 b0 9c 03 be aa 2d f0 bd 52 86 e1 bb 08 9c 43 bd
       -0.1285274 -0.1172746 -0.0068824673 -0.047756225
000020 ab 35 0a bd 98 d6 05 bd ae a6 57 bc ee ec 05 bd
       -0.033742588 -0.032675356 -0.013162298 -0.032696657

exp_avg_sq f4 [2, 2, 3]
000000 ab 1b 45 3e 5f 60 03 3f e0 e8 f4 3e cb 10 5b 3f
       0.19248836 0.51318926 0.4783392 0.855725
000010 99 a4 19 40 a8 91 32 3f 85 8b 2a 3d 3b 09 06 3e
       2.4006712 0.69753504 0.041636962 0.13089459
000020 5a b1 44 3d 4b e7 15 3d 9a cc ba 3b 71 0f 9d 3b
       0.048020698 0.03659753 0.00570066 0.0047931005

exp_avg f4 [2]
000000 1c b7 19 b9 f3 eb ca 37
       -0.0001465943 2.4190149e-05

exp_avg_sq f4 [2]
000000 ef 59 b3 35 71 e9 37 32
       1.3362713e-06 1.070508e-08

exp_avg f4 [2]
000000 db 0f a3 3c 94 cd 8f bc
       0.019905021 -0.017554082

exp_avg_sq f4 [2]
000000 55 e4 2e 3b fd fd 01 3b
       0.002668639 0.0019835227

exp_avg f4 [2]
000000 fc 42 c0 3b 65 2f be 3c
       0.00586736 0.023215959

exp_avg_sq f4 [2]
000000 5e fc 65 3b 76 c2 0d 3d
       0.003509305 0.03460928

exp_avg f4 [2, 2, 3]
000000 c3 73 92 39 ab 0d 36 3b 15 b5 90 3b a0 e8 4a bb
       0.0002793354 0.0027779143 0.004416118 -0.003096141
000010 2e 3d 7d 3b 4c 9f 6f bb 88 22 a9 bb d0 38 bc 3b
       0.0038641202 -0.0036563454 -0.005161587 0.0057440773
000020 e6 80 b0 3d c5 8b 8a bc a6 77 d6 bc d1 9a 95 bc
       0.086183354 -0.01691235 -0.0261801 -0.018262299

exp_avg_sq f4 [2, 2, 3]
000000 15 0f 84 39 18 81 6b 39 5c f7 33 39 08 a0 99 3c
       0.0002518824 0.00022459438 0.00017162919 0.018753067
000010 a8 29 8b 3b 33 1b 4e 39 b8 21 39 3d 1c 1d 40 3d
       0.004246909 0.00019655823 0.045198172 0.04690276
000020 fc c4 2b 3d 32 56 dd 3b 36 0c cf 3b 69 d7 e4 3c
       0.041935906 0.00675466 0.0063185943 0.027934747

exp_avg f4 [2]
000000 18 38 ec b5 bd 37 21 36
       -1.7599696e-06 2.4023313e-06

exp_avg_sq f4 [2]
000000 b8 c7 67 33 58 73 e6 30
       5.3965522e-08 1.6767485e-09

exp_avg f4 [2]
000000 ea d7 e2 3b 70 00 f4 3b
       0.0069227116 0.007446341

exp_avg_sq f4 [2]
000000 4d 0b 54 3c a3 2f af 3d
       0.012942147 0.08554008

exp_avg f4 [2]
000000 a8 53 55 3c c9 b1 7e 3c
       0.0130204335 0.015545317

exp_avg_sq f4 [2]
000000 12 d5 29 3f 89 ab a8 3b
       0.66340744 0.0051474017

exp_avg f4 [2, 2, 3]
000000 a0 eb a3 3a 9c 4c a3 bc 8b 09 11 3c d5 48 0c 3e
       0.0012506135 -0.019933991 0.008852373 0.13699658
000010 de 63 27 3e b4 ec 72 3d 00 47 27 37 1f c5 ed bb
       0.1634669 0.05930777 9.970507e-06 -0.0072561647
000020 5e ef ee ba 93 d0 ba bc f8 b2 f5 bc d6 9c f4 bc
       -0.0018229296 -0.022804534 -0.029992566 -0.029859941

exp_avg_sq f4 [2, 2, 3]
000000 f2 c5 94 3c cb 21 c4 3d 94 8f ea 3c d2 9a c4 3f
       0.018160794 0.09576758 0.028632917 1.5359747
000010 69 28 b6 3f 23 dd a1 3f 27 a0 08 3a b8 80 8e 3b
       1.4231082 1.264561 0.0005211853 0.0043488406
000020 05 3b 32 3b dc 2f 1d 3c 88 eb 2c 3c c3 12 2b 3c
       0.0027195823 0.00959393 0.010554202 0.010441485

exp_avg f4 [2]
000000 9a a9 a4 b7 66 b5 cf b3
       -1.96293e-05 -9.672185e-08

exp_avg_sq f4 [2]
000000 db 3a 30 31 55 f8 8b 2d
       2.5644826e-09 1.5912752e-11

exp_avg f4 [2]
000000 ca 7c a1 3b 1e 47 20 bc
       0.004928206 -0.009782581

exp_avg_sq f4 [2]
000000 3f 70 77 3c 88 2c 18 3b
       0.015102445 0.0023219902

exp_avg f4 [2]
000000 94 9d fa 3d e3 ce 29 3d
       0.12237087 0.04145707

exp_avg_sq f4 [2]
000000 18 5f 25 40 47 ed ae 3d
       2.583929 0.08541351

exp_avg f4 [2, 2, 3]
000000 1c 29 b3 3b be b2 d9 3b d3 49 42 bc c0 af a9 ba
       0.005467547 0.006643622 -0.011858421 -0.0012946054
000010 96 9b 25 bb 59 0b 7e bb 5c a8 ba bc 2c 8c 51 bc
       -0.0025269738 -0.0038764088 -0.022785358 -0.012789767
000020 94 9d 2c bc 2c 81 ad bc 0d 25 18 bc 13 c8 9f bc
       -0.010535616 -0.021179758 -0.009286177 -0.019504583

exp_avg_sq f4 [2, 2, 3]
000000 24 c2 a8 3c c2 5c 8a 3b dc 6e 9b 3c d3 6c d6 3b
       0.020600386 0.0042224834 0.01897376 0.0065437346
000010 59 71 55 3b da 3c d2 3b 72 3a fa 3b c8 2b 47 3b
       0.0032568781 0.0064159455 0.0076363618 0.0030391086
000020 24 c4 83 3b 11 ed c6 3b 9f 85 64 3b 85 96 f4 3b
       0.0040211845 0.006070741 0.0034869683 0.0074642324

exp_avg f4 [2]
000000 60 39 70 37 8b c4 5e 37
       1.4318473e-05 1.3277992e-05

exp_avg_sq f4 [2]
000000 9c ee 53 32 29 c6 db 31
       1.233607e-08 6.396267e-09

exp_avg f4 [2]
000000 2d 49 a0 3c a3 24 b9 3b
       0.019566143 0.0056501194

exp_avg_sq f4 [2]
000000 e5 fb a7 3d c9 de 79 3c
       0.08202342 0.01525087

exp_avg f4 [2]
000000 4c 78 c6 3d 4a cc 42 3d
       0.096909136 0.047558106

exp_avg_sq f4 [2]
000000 74 af c3 3f 73 00 8d 3e
       1.5287919 0.27539405

exp_avg f4 [2, 2, 3]
000000 46 8c a9 bd 47 3d 05 bd 34 11 33 bb 40 ad 43 ba
       -0.08278708 -0.03252914 -0.0027323486 -0.0007464476
000010 ec 30 46 bd 85 b3 9a 3c c2 c3 8b bb 88 47 6b bb
       -0.0483865 0.01888443 -0.0042652795 -0.003590079
000020 fe 6e 65 bb 0d bc 31 bb 40 1a 5a 38 cc 99 8a bb
       -0.0035008783 -0.0027120144 5.1999697e-05 -0.00422976

exp_avg_sq f4 [2, 2, 3]
000000 c1 64 83 3f 02 88 95 3e cc aa 7b 3d e1 c6 49 3d
       1.0265123 0.29205328 0.06144218 0.04926193
000010 35 f9 35 3e 25 d5 2a 3d 5c 04 92 3a 99 1b 48 3a
       0.17770846 0.041707177 0.0011140215 0.0007633507
000020 00 54 ad 3a 82 10 96 39 23 94 5a 39 99 35 84 3a
       0.0013223886 0.0002862253 0.00020845285 0.0010086774

exp_avg f4 [2]
000000 ab 1c 54 b6 08 7e fe b1
       -3.1607149e-06 -7.406701e-09

exp_avg_sq f4 [2]
000000 c3 fb 09 31 d7 b4 b8 2a
       2.0079234e-09 3.281045e-13

exp_avg f4 [2]
000000 44 c5 ac be d9 bd 92 bc
       -0.33744252 -0.017912792

exp_avg_sq f4 [2]
000000 7b 22 36 40 af 19 6b 3c
       2.8458545 0.014349385

exp_avg f4 [2]
000000 b0 fe 02 3e 76 d2 a8 bc
       0.12792468 -0.020608168

exp_avg_sq f4 [2]
000000 6b 84 21 42 b4 62 91 3d
       40.379314 0.07098904

exp_avg f4 [1, 2]
000000 ec 72 20 3f f1 07 ac bd
       0.62675357 -0.08399952

exp_avg_sq f4 [1, 2]
000000 99 d3 f6 41 b4 1b 24 3e
       30.85332 0.16026193
