Solvation_1/Run_results/ResNet/JustBonds_TESA_Res1/best/best_val_model.pt (torch, 36627 bytes, 105 tensors)

first_block_conv.conv.weight f4 [2, 1, 3]
0.34290203 0.21802731 0.26487496 -0.39105755 0.4493345 -0.1496862
00000000: db90 af3e 8d42 5f3e b19d 873e b238 c8be
00000010: 2c0f e63e 5747 19be

first_block_conv.conv.bias f4 [2]
-0.13002588 -0.20093638
00000000: 8125 05be 44c2 4dbe

first_block_bn.weight f4 [2]
0.8488448 0.6168517
00000000: e54d 593f fee9 1d3f

first_block_bn.bias f4 [2]
0.31085923 0.2597154
00000000: f128 9f3e 6bf9 843e

first_block_bn.running_mean f4 [2]
-0.092721015 -0.20480165
00000000: 84e4 bdbd 86b7 51be

first_block_bn.running_var f4 [2]
0.3148374 0.05863346
00000000: 5e32 a13e a429 703d

basicblock_list.0.bn1.weight f4 [2]
1.0 1.0
00000000: 0000 803f 0000 803f

basicblock_list.0.bn1.bias f4 [2]
0.0 0.0
00000000: 0000 0000 0000 0000

basicblock_list.0.bn1.running_mean f4 [2]
0.0 0.0
00000000: 0000 0000 0000 0000

basicblock_list.0.bn1.running_var f4 [2]
1.0 1.0
00000000: 0000 803f 0000 803f

basicblock_list.0.conv1.conv.weight f4 [2, 2, 3]
-0.45473564 -0.09589716 -0.41170484 -0.11213734 -0.013321135 -0.14469494 -0.33746612 -0.056832347
-0.37873748 -0.08110764 0.00095571764 -0.111509725
00000000: 1cd3 e8be bb65 c4bd faca d2be 43a8 e5bd
00000010: e440 5abc e92a 14be 5cc8 acbe 09c9 68bd
00000020: e1e9 c1be c31b a6bd 2089 7a3a 365f e4bd

basicblock_list.0.conv1.conv.bias f4 [2]
-0.19068404 0.29448652
00000000: ad42 43be f0c6 963e

basicblock_list.0.bn2.weight f4 [2]
1.4221115 1.3576684
00000000: c007 b63f 14c8 ad3f

basicblock_list.0.bn2.bias f4 [2]
-0.011504014 -0.07529156
00000000: 557b 3cbc 7632 9abd

basicblock_list.0.bn2.running_mean f4 [2]
-0.6937539 -0.101222366
00000000: db99 31bf ac4d cfbd

basicblock_list.0.bn2.running_var f4 [2]
0.4157972 0.26734474
00000000: 5fe3 d43e 69e1 883e

basicblock_list.0.conv2.conv.weight f4 [2, 2, 3]
0.79945797 0.14472595 0.09108713 0.65460306 0.39428982 0.39210683 -0.2161824 -0.2297087
-0.23505026 -0.25623003 -0.27837837 -0.26942596
00000000: 47a9 4c3f 0a33 143e e48b ba3d 1194 273f
00000010: 5be0 c93e 3ac2 c83e eb5e 5dbe c238 6bbe
00000020: 04b1 70be 9530 83be 9c87 8ebe 33f2 89be

basicblock_list.0.conv2.conv.bias f4 [2]
-0.041392885 -0.01863993
00000000: 968b 29bd c4b2 98bc

basicblock_list.1.bn1.weight f4 [2]
1.1817579 0.7455142
00000000: d843 973f 05da 3e3f

basicblock_list.1.bn1.bias f4 [2]
-0.23374563 -0.31780136
00000000: 045b 6fbe dcb6 a2be

basicblock_list.1.bn1.running_mean f4 [2]
1.3518732 -0.26817638
00000000: 2e0a ad3f 6a4e 89be

basicblock_list.1.bn1.running_var f4 [2]
0.92252254 0.4546824
00000000: 702a 6c3f 22cc e83e

basicblock_list.1.conv1.conv.weight f4 [2, 2, 3]
-0.29757234 -0.29305777 -0.12342518 0.11897303 -0.32281175 0.11582753 -0.30401298 0.35381493
0.23906818 0.37981707 0.033611134 -0.31526294
00000000: 675b 98be ab0b 96be 57c6 fcbd 22a8 f33d
00000010: 9547 a5be fc36 ed3d 97a7 9bbe 3b27 b53e
00000020: 4ace 743e 6277 c23e d4ab 093d 256a a1be

basicblock_list.1.conv1.conv.bias f4 [2]
0.29834208 -0.07608477
00000000: 4bc0 983e 55d2 9bbd

basicblock_list.1.bn2.weight f4 [2]
1.0614158 0.77946645
00000000: 79dc 873f 1d8b 473f

basicblock_list.1.bn2.bias f4 [2]
-0.35312805 -0.30547673
00000000: 33cd b4be 7267 9cbe

basicblock_list.1.bn2.running_mean f4 [2]
0.028503552 0.0378838
00000000: 4880 e93c 0b2c 1b3d

basicblock_list.1.bn2.running_var f4 [2]
0.4553595 0.3841539
00000000: e124 e93e d2af c43e

basicblock_list.1.conv2.conv.weight f4 [2, 2, 3]
-0.08136573 0.04730558 0.14641725 -0.36801952 -0.015413126 0.0064485613 0.6741578 0.19874829
0.3798858 -0.008100564 -0.03201709 -0.050362337
00000000: 13a3 a6bd 7fc3 413d 67ee 153e 0e6d bcbe
00000010: 5687 7cbc 744e d33b 9b95 2c3f ac84 4b3e
00000020: 6480 c23e 3ab8 04bc 5a24 03bd bd48 4ebd

basicblock_list.1.conv2.conv.bias f4 [2]
-0.39140016 -0.2287872
00000000: 9a65 c8be 3147 6abe

basicblock_list.2.bn1.weight f4 [2]
1.024184 0.888897
00000000: 7618 833f c18e 633f

basicblock_list.2.bn1.bias f4 [2]
-0.4102374 -0.08862439
00000000: a30a d2be b480 b5bd

basicblock_list.2.bn1.running_mean f4 [2]
1.182285 -0.25652164
00000000: 1d55 973f ce56 83be

basicblock_list.2.bn1.running_var f4 [2]
0.9975094 0.61303014
00000000: c75c 7f3f 8bef 1c3f

basicblock_list.2.conv1.conv.weight f4 [2, 2, 3]
-0.60369366 -0.53461254 -0.28318205 0.028721845 0.08369562 0.081406705 -0.5323155 -0.1124048
-0.030646943 -0.12222288 0.030085625 0.3931854
00000000: ab8b 1abf 5edc 08bf 3dfd 90be 134a eb3c
00000010: 9c68 ab3d 8fb8 a63d d445 08bf 7d34 e6bd
00000020: 4c0f fbbc fd4f fabd 2176 f63c 994f c93e

basicblock_list.2.conv1.conv.bias f4 [2]
0.38329998 0.123108156
00000000: e53f c43e 2120 fc3d

basicblock_list.2.bn2.weight f4 [2]
0.99045205 0.9155163
00000000: 448e 7d3f 475f 6a3f

basicblock_list.2.bn2.bias f4 [2]
-0.3413985 -0.11914379
00000000: c9cb aebe a901 f4bd

basicblock_list.2.bn2.running_mean f4 [2]
0.08539677 0.027808528
00000000: 80e4 ae3d b6ce e33c

basicblock_list.2.bn2.running_var f4 [2]
0.68441564 0.39099064
00000000: dd35 2f3f ed2f c83e

basicblock_list.2.conv2.conv.weight f4 [2, 2, 3]
-0.098149985 0.045787137 -9.624801e-05 -0.3190926 0.06929768 0.08242636 0.44958258 0.4233455
0.40092656 -0.28598183 0.10426505 0.22205353
00000000: dc02 c9bd 4b8b 3b3d c2d8 c9b8 1b60 a3be
00000010: f1eb 8d3d 27cf a83d b02f e63e bec0 d83e
00000020: 3f46 cd3e 366c 92be ea88 d53d 0062 633e

basicblock_list.2.conv2.conv.bias f4 [2]
-0.3690771 -0.39239755
00000000: acf7 bcbe 55e8 c8be

final_bn.weight f4 [2]
1.3165041 1.9998568
00000000: 3583 a83f 4ffb ff3f

final_bn.bias f4 [2]
0.2957924 0.014916735
00000000: 1a72 973e 5265 743c

final_bn.running_mean f4 [2]
0.78799736 -0.56223905
00000000: 32ba 493f e6ee 0fbf

final_bn.running_var f4 [2]
1.0579251 0.72204953
00000000: 176a 873f 3dd8 383f

dense.weight f4 [1, 2]
0.6944599 -1.2006747
00000000: 20c8 313f b5af 99bf

exp_avg f4 [2, 1, 3]
-0.28475535 -0.018064765 0.3832663 2.1122117 2.9924412 3.466196
00000000: 74cb 91be 8ffc 93bc 7b3b c43e 7a2e 0740
00000010: 2884 3f40 28d6 5d40

exp_avg_sq f4 [2, 1, 3]
2.0424986 2.5997343 3.8479776 177.12659 294.00897 296.52716
00000000: 4cb8 0240 0c62 2640 4445 7640 6820 3143
00000010: 2601 9343 7a43 9443

exp_avg f4 [2]
-3.242602e-06 1.848007e-06
00000000: 7a9b 59b6 0909 f835

exp_avg_sq f4 [2]
3.2245218e-10 7.530594e-10
00000000: 1c45 b12f d8ff 4e30

exp_avg f4 [2]
-0.45046064 -0.473822
00000000: c7a2 e6be cc98 f2be

exp_avg_sq f4 [2]
12.58471 25.442762
00000000: f95a 4941 c78a cb41

exp_avg f4 [2]
1.0984119 0.13574703
00000000: c398 8c3f 4501 0b3e

exp_avg_sq f4 [2]
29.876625 0.25021103
00000000: 5403 ef41 a91b 803e

exp_avg f4 [2, 2, 3]
0.120861426 -0.05307664 -0.18341593 -0.1565273 1.1337017 0.19451582 -0.05695429 -0.052076902
-0.083515674 0.10454756 0.098980516 0.4076087
00000000: 3286 f73d e466 59bd 63d1 3bbe b148 20be
00000010: 231d 913f 282f 473e e748 69bd 974e 55bd
00000020: 440a abbd 081d d63d 4cb6 ca3d 16b2 d03e

exp_avg_sq f4 [2, 2, 3]
0.21637258 0.23234068 0.45091617 2.9327211 5.3869243 3.4185658 0.35369986 0.3345176
0.67719996 5.0710654 8.334559 6.8750787
00000000: c690 5d3e b7ea 6d3e 7cde e63e b4b1 3b40
00000010: af61 ac40 c8c9 5a40 2618 b53e e445 ab3e
00000020: fa5c 2d3f 2b46 a240 5b5a 0541 a500 dc40

exp_avg f4 [2]
-2.5722522e-06 4.868294e-06
00000000: f59e 2cb6 545a a336

exp_avg_sq f4 [2]
5.875208e-10 1.1191927e-09
00000000: 1a7f 2130 18d2 9930

exp_avg f4 [2]
0.1516179 0.19791782
00000000: b941 1b3e f8aa 4a3e

exp_avg_sq f4 [2]
1.8912266 2.6551428
00000000: b713 f23f dced 2940

exp_avg f4 [2]
0.30993018 0.44596922
00000000: 2baf 9e3e 1456 e43e

exp_avg_sq f4 [2]
13.7178135 18.25911
00000000: 2a7c 5b41 a812 9241

exp_avg f4 [2, 2, 3]
-0.0113399215 0.06023272 0.3137841 0.24527363 -0.06559987 -0.057896264 -0.43779123 -0.48489943
0.09454695 -0.16766563 0.031469487 -0.3300749
00000000: 14cb 39bc 96b6 763d 4fa8 a03e 0329 7b3e
00000010: 3a59 86bd a224 6dbd 2c26 e0be bd44 f8be
00000020: d5a1 c13d 8ab0 2bbe 26e6 003d 94ff a8be

exp_avg_sq f4 [2, 2, 3]
1.8119584 0.5229615 0.6866275 0.84082884 0.54234415 0.7347013 5.221093 7.1899533
4.9845495 3.5487552 4.8340364 3.4242585
00000000: 41ee e73f cee0 053f d2c6 2f3f 8f40 573f
00000010: 11d7 0a3f 6215 3c3f 3213 a740 1914 e640
00000020: 6e81 9f40 ce1e 6340 6db0 9a40 0d27 5b40

exp_avg f4 [2]
4.2997868e-07 0.028852737
00000000: d2d7 e634 935c ec3c

exp_avg_sq f4 [2]
4.389254e-12 0.014910049
00000000: e36e 9a2c 4749 743c

exp_avg f4 [2]
0.08539361 -0.0054027364
00000000: d8e2 ae3d 7009 b1bb

exp_avg_sq f4 [2]
0.59208953 1.6142516
00000000: 2e93 173f cc9f ce3f

exp_avg f4 [2]
0.2342159 0.13261396
00000000: 4bd6 6f3e f4cb 073e

exp_avg_sq f4 [2]
0.46591565 1.0372111
00000000: 7f8c ee3e 55c3 843f

exp_avg f4 [2, 2, 3]
0.109163016 -0.14431934 -0.39701325 1.603362 -0.013374375 -2.1930952 -0.1591707 -0.10115552
-0.1056724 0.036274694 -0.013552239 0.0021233233
00000000: dc90 df3d 73c8 13be 5245 cbbe f73a cd3f
00000010: 3220 5bbc ac5b 0cc0 a5fd 22be a02a cfbd
00000020: c56a d8bd c694 143d 360a 5ebc 7427 0b3b

exp_avg_sq f4 [2, 2, 3]
1.477299 2.0995245 1.987405 22.203007 0.19212578 25.244238 0.16684236 0.18897606
0.24939623 0.17672366 0.30550012 0.032029655
00000000: 2218 bd3f 9c5e 0640 4963 fe3f c29f b141
00000010: 9fbc 443e 33f4 c941 b9d8 2a3e f182 413e
00000020: ba61 7f3e 0cf7 343e 836a 9c3e 8731 033d

exp_avg f4 [2]
1.2686787e-06 -2.6772844e-07
00000000: 7847 aa35 51bc 8fb4

exp_avg_sq f4 [2]
2.4722785e-10 2.9094945e-13
00000000: 3aea 872f 3cca a32a

exp_avg f4 [2]
0.20956717 -0.009376252
00000000: c798 563e da9e 19bc

exp_avg_sq f4 [2]
1.7450165 0.22922912
00000000: b35c df3f 0abb 6a3e

exp_avg f4 [2]
0.70531046 0.032140087
00000000: 3a8f 343f 53a5 033d

exp_avg_sq f4 [2]
7.8660455 0.0409698
00000000: a5b6 fb40 f3cf 273d

exp_avg f4 [2, 2, 3]
0.015236323 -0.051041365 -0.019558145 0.10441084 -0.15129268 0.036774855 0.003039576 0.021798994
-0.069728345 -0.013794281 -0.13267909 -0.28435585
00000000: c5a1 793c c010 51bd 6738 a0bc 5ad5 d53d
00000010: 78ec 1abe 3ba1 163d a033 473b ce93 b23c
00000020: bccd 8ebd 6801 62bc 07dd 07be 1797 91be

exp_avg_sq f4 [2, 2, 3]
0.121192664 0.29947957 0.36712933 0.5884473 1.1953672 1.685104 0.4762479 0.49983838
0.51444083 5.186624 5.328999 5.903514
00000000: dc33 f83d 6355 993e 60f8 bb3e 7ba4 163f
00000010: cb01 993f 7db1 d73f c4d6 f33e d1ea ff3e
00000020: 65b2 033f d3f8 a540 2987 aa40 96e9 bc40

exp_avg f4 [2]
-2.6709529e-08 8.209947e-07
00000000: e06e e5b2 5462 5c35

exp_avg_sq f4 [2]
2.2219967e-12 2.0084713e-11
00000000: ef5b 1c2c c1aa b02d

exp_avg f4 [2]
0.13166815 -0.09963407
00000000: 04d4 063e f30c ccbd

exp_avg_sq f4 [2]
0.8020129 0.7123534
00000000: b850 4d3f cb5c 363f

exp_avg f4 [2]
0.13856195 -0.11889921
00000000: 2fe3 0d3e 6e81 f3bd

exp_avg_sq f4 [2]
0.6058446 0.3003867
00000000: a218 1b3f 49cc 993e

exp_avg f4 [2, 2, 3]
-0.07057881 -0.092886396 0.09579463 -0.3428262 -1.5651394 0.9291718 -0.021558456 -0.0021674489
-0.037659343 -0.07941988 -0.07225643 -0.0519148
00000000: a08b 90bd 393b bebd fa2f c43d ea86 afbe
00000010: 7d56 c8bf 34de 6d3f 5c9b b0bc c20b 0ebb
00000020: af40 1abd e4a6 a2bd 2efb 93bd 9da4 54bd

exp_avg_sq f4 [2, 2, 3]
0.29733673 0.30298308 0.3486313 16.762531 19.187763 22.414164 0.13673267 0.062539816
0.077913605 0.04893722 0.75627416 0.35240114
00000000: 853c 983e 9920 9b3e cd7f b23e aa19 8641
00000010: 8a80 9941 3550 b341 a603 0c3e e014 803d
00000020: 2b91 9f3d 6572 483d 2f9b 413f ec6d b43e

exp_avg f4 [2]
-4.689024e-07 -2.9628396e-07
00000000: 75bd fbb4 f510 9fb4

exp_avg_sq f4 [2]
9.390508e-11 4.2506588e-13
00000000: dc7f ce2e 734a ef2a

exp_avg f4 [2]
-0.16186869 -0.0036099833
00000000: e8c0 25be 7895 6cbb

exp_avg_sq f4 [2]
1.745573 0.2055976
00000000: f06e df3f 2d88 523e

exp_avg f4 [2]
-0.18549034 0.03970293
00000000: 2ef1 3dbe 8a9f 223d

exp_avg_sq f4 [2]
8.420694 0.37286246
00000000: 2abb 0641 d4e7 be3e

exp_avg f4 [2, 2, 3]
-0.012683527 -0.029307716 0.0007844772 -0.0532939 0.0834444 -0.0028133132 0.006746754 -0.08754158
-0.15681346 -0.30651477 -0.28465626 -0.3989652
00000000: 91ce 4fbc bc16 f0bc 60a5 4d3a b44a 5abd
00000010: e6e4 aa3d 905f 38bb e013 dd3b 0049 b3bd
00000020: b593 20be 81ef 9cbe 77be 91be 2b45 ccbe

exp_avg_sq f4 [2, 2, 3]
0.009341583 0.014227747 0.018631756 0.13884202 0.44361478 0.52113116 0.23879172 0.2641234
0.26212826 6.039546 4.744332 4.7482624
00000000: 700d 193c 7f1b 693c a0a1 983c 9a2c 0e3e
00000010: 7a21 e33e da68 053f d185 743e 2f3b 873e
00000020: ad35 863e f643 c140 91d1 9740 c4f1 9740

exp_avg f4 [2]
3.5671022e-07 7.726335e-07
00000000: e181 bf34 f866 4f35

exp_avg_sq f4 [2]
2.0919243e-12 1.7411204e-11
00000000: c234 132c 8c26 992d

exp_avg f4 [2]
-0.29492253 -0.10960321
00000000: 1600 97be a677 e0bd

exp_avg_sq f4 [2]
7.2669597 17.348997
00000000: ef8a e840 bfca 8a41

exp_avg f4 [2]
-0.21401833 0.6851121
00000000: 9f27 5bbe 8263 2f3f

exp_avg_sq f4 [2]
16.670176 48.1402
00000000: 855c 8541 918f 4042

exp_avg f4 [1, 2]
-0.65025055 0.174041
00000000: d276 26bf ce37 323e

exp_avg_sq f4 [1, 2]
46.214996 49.302063
00000000: 28dc 3842 5035 4542
