Solvation_1/Run_results/ResNet/BoB_Morgan_2_124_Res2/best/best_val_model.pt (torch, 36627 bytes, 105 tensors)

first_block_conv.conv.weight f4 [2, 1, 3]
00000000: 18f1 853e 292a 363e a550 dc3e 84bb 75bd
00000010: a0e4 83be 6fe6 a53e
0.26160502 0.1778952 0.43030277 -0.059993282 -0.25760365 0.3240237

first_block_conv.conv.bias f4 [2]
00000000: b75a f0bd 0124 bfbe
-0.117360525 -0.37332156

first_block_bn.weight f4 [2]
00000000: b9fa 563e 6e40 0d3f
0.2099408 0.55176437

first_block_bn.bias f4 [2]
00000000: 91a7 29bf 27ec 0abf
-0.6627131 -0.5426659

first_block_bn.running_mean f4 [2]
00000000: 70ca 0dbd 56d5 bebe
-0.034616888 -0.37272137

first_block_bn.running_var f4 [2]
00000000: 11eb 043f deed 613c
0.5192118 0.013789622

basicblock_list.0.bn1.weight f4 [2]
00000000: 0000 803f 0000 803f
1.0 1.0

basicblock_list.0.bn1.bias f4 [2]
00000000: 0000 0000 0000 0000
0.0 0.0

basicblock_list.0.bn1.running_mean f4 [2]
00000000: 0000 0000 0000 0000
0.0 0.0

basicblock_list.0.bn1.running_var f4 [2]
00000000: 0000 803f 0000 803f
1.0 1.0

basicblock_list.0.conv1.conv.weight f4 [2, 2, 3]
00000000: a260 d6bd d1a9 dabe e62e 1abf 27e5 123e
00000010: ed29 75be 07f2 3b3d e79f b0bd 44a5 a0be
00000020: ce27 ebbe c3f0 b23d e07d 0bbe 4980 763d
-0.1046765 -0.42707685 -0.6022781 0.14345227 -0.23941775 0.045885112 -0.08624249 -0.31376088
-0.45928806 0.08737328 -0.13622236 0.060180936

basicblock_list.0.conv1.conv.bias f4 [2]
00000000: e743 873e e07d dd3d
0.26418993 0.108150244

basicblock_list.0.bn2.weight f4 [2]
00000000: 3f4a c03f f2b4 ac3f
1.5022658 1.349272

basicblock_list.0.bn2.bias f4 [2]
00000000: 9bf6 d0bc 922f 793a
-0.025508216 0.0009505685

basicblock_list.0.bn2.running_mean f4 [2]
00000000: 7f13 843e 6ecd d53d
0.25796124 0.10439573

basicblock_list.0.bn2.running_var f4 [2]
00000000: 9866 933c 9a4b 013c
0.017993256 0.00789156

basicblock_list.0.conv2.conv.weight f4 [2, 2, 3]
00000000: 01ed 883f 4226 593f 6f12 473f 1ccc 8a3f
00000010: e051 8f3f e37b 303f 836e 123f 4969 91be
00000020: 65b2 133e 8f98 c0bd 8275 cf3e e4a5 033f
1.0697328 0.84824 0.777625 1.0843539 1.1196861 0.68939036 0.5719988 -0.2840064
0.14423521 -0.09404098 0.4051934 0.51425004

basicblock_list.0.conv2.conv.bias f4 [2]
00000000: 83e3 9dbe de1a bf3e
-0.3083764 0.37325186

basicblock_list.1.bn1.weight f4 [2]
00000000: 3628 6b3f 4b4f 733f
0.9185823 0.95042866

basicblock_list.1.bn1.bias f4 [2]
00000000: 0c69 16bf ab43 a6be
-0.5875404 -0.32473502

basicblock_list.1.bn1.running_mean f4 [2]
00000000: 666e 213e ca76 ff3e
0.1576477 0.49895316

basicblock_list.1.bn1.running_var f4 [2]
00000000: 32b1 a240 bb05 4e3f
5.0841303 0.80477494

basicblock_list.1.conv1.conv.weight f4 [2, 2, 3]
00000000: 2a50 883e c834 243e 4507 d73e 02b6 e03e
00000010: 691a 78bc 2e22 a23e 57db 74bc 95af 743c
00000020: b806 5e3e edb9 223e 9773 2a3d 8793 b43e
0.2662366 0.1603576 0.41997734 0.4388886 -0.015143015 0.31666702 -0.014944873 0.01493444
0.2168225 0.15891238 0.04161414 0.35268804

basicblock_list.1.conv1.conv.bias f4 [2]
00000000: 38be 4fbd b32f 983e
-0.050718516 0.29723892

basicblock_list.1.bn2.weight f4 [2]
00000000: 9991 7e3f c2d3 763f
0.99440914 0.96416867

basicblock_list.1.bn2.bias f4 [2]
00000000: 519e 7fbe 843d 65be
-0.24962737 -0.22386748

basicblock_list.1.bn2.running_mean f4 [2]
00000000: edce 733d 418f b33e
0.05952351 0.35070232

basicblock_list.1.bn2.running_var f4 [2]
00000000: 3632 e43f 9719 013f
1.7827823 0.5042967

basicblock_list.1.conv2.conv.weight f4 [2, 2, 3]
00000000: 26eb 903e 00f4 283e 79b7 813e d894 ef3d
00000010: af6a 9c3e aaa5 333f 1512 383e cda5 5cbd
00000020: 3222 7e3e 883e 29bd 52bd 55bd f860 983e
0.28304404 0.16499329 0.2533529 0.116983116 0.30550143 0.7017466 0.17975648 -0.053869057
0.24817732 -0.0413194 -0.052182503 0.2976148

basicblock_list.1.conv2.conv.bias f4 [2]
00000000: c793 103d 1db8 743e
0.03529718 0.23898359

basicblock_list.2.bn1.weight f4 [2]
00000000: 29e3 733f 65be 703f
0.95268494 0.9404052

basicblock_list.2.bn1.bias f4 [2]
00000000: fdba b7be ecaf d8be
-0.35884848 -0.42321718

basicblock_list.2.bn1.running_mean f4 [2]
00000000: 368c d93e f375 5c3f
0.42489785 0.86117476

basicblock_list.2.bn1.running_var f4 [2]
00000000: 2a70 5b41 e867 1040
13.714884 2.256342

basicblock_list.2.conv1.conv.weight f4 [2, 2, 3]
00000000: bc06 953e 05a5 8bbd b44b 7d3c 1369 7a3e
00000010: 1ef3 bf3c 8792 f83d ad79 123e 0b75 24be
00000020: 2644 413c 4799 43be 94d4 e0be 0bfc 66be
0.291067 -0.06818584 0.015459944 0.24454145 0.023431357 0.12137323 0.14304228 -0.16060273
0.011796033 -0.1910144 -0.43912184 -0.22557084

basicblock_list.2.conv1.conv.bias f4 [2]
00000000: 266d cebe 1208 bf3e
-0.4031765 0.37310845

basicblock_list.2.bn2.weight f4 [2]
00000000: e195 773f 7eb9 523f
0.9671307 0.8231429

basicblock_list.2.bn2.bias f4 [2]
00000000: 8465 ee3b d21e 29be
0.007275285 -0.16515663

basicblock_list.2.bn2.running_mean f4 [2]
00000000: 91e2 b1be 14c7 973e
-0.3474317 0.29644072

basicblock_list.2.bn2.running_var f4 [2]
00000000: 54fe c93e 9922 443f
0.3945185 0.7661529

basicblock_list.2.conv2.conv.weight f4 [2, 2, 3]
00000000: b10c 303f f139 643e 89c2 393e a96d 8c3d
00000010: b0f2 bb3c ecdd c8bd 18d4 5b3e 953c 1f3e
00000020: 7c41 2bbd d9e1 603e 1966 c03e 013c 1e3e
0.68769366 0.22287728 0.18140616 0.068568535 0.02294287 -0.09807953 0.21467626 0.15550454
-0.041810498 0.21961154 0.37577894 0.15452577

basicblock_list.2.conv2.conv.bias f4 [2]
00000000: 8735 183e 6171 983e
0.14864169 0.29774

final_bn.weight f4 [2]
00000000: 5b1f f83f 00b9 0a40
1.9384569 2.1675415

final_bn.bias f4 [2]
00000000: ab4d bfbd eea5 c93b
-0.09340986 0.0061538136

final_bn.running_mean f4 [2]
00000000: f6a9 2a3f b52b 983f
0.6666559 1.1888338

final_bn.running_var f4 [2]
00000000: c1c6 9941 d442 3740
19.222048 2.8634539

dense.weight f4 [1, 2]
00000000: 0ca5 85bf 571b cdbf
-1.0440993 -1.6023968

exp_avg f4 [2, 1, 3]
00000000: f19d f33e 1f86 edbd 7d21 77be 94d8 5a3f
00000010: 5eae 6e3f 1ea4 663f
0.47581437 -0.11597847 -0.24133869 0.8548672 0.93234813 0.9009417

exp_avg_sq f4 [2, 1, 3]
00000000: 1347 853f 0f26 883f f921 3b3f 9ed2 8741
00000010: bc51 a641 da63 8341
1.0412315 1.0636615 0.73098713 16.97784 20.78991 16.423756

exp_avg f4 [2]
00000000: 1f61 0035 5177 0338
4.7825046e-07 3.1343956e-05

exp_avg_sq f4 [2]
00000000: ea86 c22e aa04 8232
8.846064e-11 1.5136113e-08

exp_avg f4 [2]
00000000: 8056 67bd cf0c 6d3f
-0.056478977 0.9259767

exp_avg_sq f4 [2]
00000000: de95 4242 345d 8f40
48.646355 4.4801273

exp_avg f4 [2]
00000000: d287 163e e22f d43e
0.14700249 0.41442782

exp_avg_sq f4 [2]
00000000: 5b01 e63f ec59 c03f
1.7969164 1.5027442

exp_avg f4 [2, 2, 3]
00000000: 89d8 56bd 09da 2a3d 32f3 143e a214 d53e
00000010: 143a 5d3c 9efb 713f 5816 d33b 94c4 cdbb
00000020: c0bb 843e 5987 f23e ae63 b4bd cb46 883f
-0.052452598 0.04171184 0.14545897 0.41617304 0.013502616 0.9452456 0.0064418726 -0.0062795375
0.25924492 0.47368887 -0.08808075 1.0646604

exp_avg_sq f4 [2, 2, 3]
00000000: df55 b83e a3b6 443e 691f bc3e 45b3 0442
00000010: c66e f43f d6d1 7242 1de4 313f 3241 ee3e
00000020: dcc1 4d3f de6a 8d42 c05f 5d40 3258 e442
0.36003014 0.19210295 0.36742714 33.175068 1.9096305 60.704918 0.694887 0.46534115
0.8037393 70.708725 3.458969 114.17226

exp_avg f4 [2]
00000000: 8873 da37 790d dfb7
2.6041424e-05 -2.6589945e-05

exp_avg_sq f4 [2]
00000000: 352b 0433 8b86 b033
3.077294e-08 8.220112e-08

exp_avg f4 [2]
00000000: 4ecd 88bd 72ea a2bd
-0.06679784 -0.07954873

exp_avg_sq f4 [2]
00000000: 1e83 a53e 77f9 c63e
0.32326597 0.38862202

exp_avg f4 [2]
00000000: ae0b 8a3d 3807 193d
0.06740509 0.0373604

exp_avg_sq f4 [2]
00000000: 0c33 023e 7aff 5a3e
0.12714785 0.21386519

exp_avg f4 [2, 2, 3]
00000000: 3b52 bcbd 08bb c5bc 314f 5c3d a80e 8fbd
00000010: 20a0 37bc 59cf e03c 15ff f7bc 0777 8fbd
00000020: bf41 44be acd9 02be c865 15bc cb31 b8bd
-0.09195372 -0.024137035 0.05378646 -0.06985217 -0.01120761 0.027442621 -0.030273 -0.070051245
-0.19165705 -0.12778348 -0.009118505 -0.08993872

exp_avg_sq f4 [2, 2, 3]
00000000: d9ff 383d 816f de3c e85f 303d d365 243d
00000010: 0830 1b3d f684 1e3d 0972 233f f3df 273e
00000020: e717 2e3f cf4f d43e 1ac6 073f a29a 163f
0.04516587 0.027152779 0.043060213 0.04013617 0.037887603 0.03870102 0.6384588 0.16394024
0.6800522 0.4146714 0.53036654 0.588297

exp_avg f4 [2]
00000000: 77ec 9833 3dd4 d8b5
7.121064e-08 -1.6155024e-06

exp_avg_sq f4 [2]
00000000: c58b 592a 2121 212d
1.9321964e-13 9.1591465e-12

exp_avg f4 [2]
00000000: 0fca 2c3e 46ba 2bbe
0.16873954 -0.16770276

exp_avg_sq f4 [2]
00000000: f819 283e 3858 123e
0.16416156 0.14291465

exp_avg f4 [2]
00000000: ac5a ee3b daf1 d9bc
0.0072739925 -0.026604582

exp_avg_sq f4 [2]
00000000: c0d4 123c 6679 633c
0.008961856 0.013883924

exp_avg f4 [2, 2, 3]
00000000: c6f2 573c d70c 093e a1d6 da3d 2c6f 24be
00000010: fe67 6a3e d434 523c 2fc3 e03d ea89 91bd
00000020: d849 c53e 839f b1be 81f7 603e f0c9 cabd
0.01318044 0.13383804 0.106854685 -0.16058034 0.22891232 0.012829978 0.10974728 -0.07106383
0.385329 -0.3469201 0.21969415 -0.09901798

exp_avg_sq f4 [2, 2, 3]
00000000: b667 343e cd6e 8b3e 9405 253e 53c1 263e
00000010: 78b2 9a3e 7b52 413e e106 0b3f eaf0 3e3f
00000020: 1045 0b3f aa45 103f c3cb 733f ed52 563e
0.17617688 0.27232972 0.16115409 0.16284685 0.30214286 0.1887912 0.5430737 0.74586356
0.54402256 0.563563 0.9523279 0.20930071

exp_avg f4 [2]
00000000: 0ffb b8b4 8cca 4135
-3.445534e-07 7.219285e-07

exp_avg_sq f4 [2]
00000000: 8d13 b52b 261a 512c
1.286625e-12 2.9715202e-12

exp_avg f4 [2]
00000000: 2ffb 9b3d c6ae babd
0.07616269 -0.09115367

exp_avg_sq f4 [2]
00000000: 3ef9 793e 403e 693e
0.24411485 0.22777653

exp_avg f4 [2]
00000000: 6605 3cbc 3c3d 2dbc
-0.011475896 -0.010573681

exp_avg_sq f4 [2]
00000000: 2423 7d3c d090 223c
0.015450273 0.009922221

exp_avg f4 [2, 2, 3]
00000000: 526b e83b 683a ca3d d691 b73d 1f0d 97bd
00000010: cf8c 9fbc a03e f9bc e1b3 5a3d 0098 f53d
00000020: ccfe 0d3e 6ea6 b1be 9263 82be ccdd 84be
0.0070928717 0.09874421 0.08963363 -0.073755495 -0.019476322 -0.03042537 0.053394202 0.11991882
0.13866729 -0.34697288 -0.2546659 -0.25950468

exp_avg_sq f4 [2, 2, 3]
00000000: ec40 713d 6ada 8a3d 6aa5 763d 6998 613d
00000010: 7999 703d 54f0 673d 994a 5e3f a268 613f
00000020: 4b59 5e3f 4d89 683f d7fe 693f 78d4 803f
0.058899805 0.067799404 0.060216345 0.05507699 0.058740113 0.05662568 0.86832577 0.8805028
0.86855 0.90834504 0.9140448 1.006484

exp_avg f4 [2]
00000000: 2901 a8b3 fdab 68b5
-7.823321e-08 -8.667701e-07

exp_avg_sq f4 [2]
00000000: 048f 8029 134c 602c
5.709151e-14 3.1874544e-12

exp_avg f4 [2]
00000000: b044 9dbd 7c1e 993d
-0.07679117 0.074765176

exp_avg_sq f4 [2]
00000000: 555d 5b3d 9b1e 5e3d
0.053555805 0.054228406

exp_avg f4 [2]
00000000: 8ed9 8cbb 0f29 4abb
-0.0042983955 -0.0030847227

exp_avg_sq f4 [2]
00000000: 1005 913b de3f c53b
0.0044256523 0.0060195765

exp_avg f4 [2, 2, 3]
00000000: 0d83 45be 3158 533e 0538 193e 7332 933d
00000010: c70e 953e 3e73 b73e da5d 49bc 4a01 763b
00000020: 2ee4 ecbd ca56 a83b b23a bebb 8474 1cbc
-0.19288273 0.20639111 0.14962776 0.07187357 0.29112837 0.3583011 -0.012290442 0.003753739
-0.11566959 0.005137299 -0.005805337 -0.009549264

exp_avg_sq f4 [2, 2, 3]
00000000: 502d e43e b4e9 423f 21e0 4b3f 1932 ad3e
00000010: 3cbb 3e3f 78ee 333f 3cc7 913e b798 993c
00000020: e4c1 bc3d b35e 983c 28da d73b eb6c c03b
0.4456582 0.7613785 0.7963887 0.33827284 0.74504447 0.7028575 0.28472316 0.018749578
0.09216669 0.018599844 0.0065872855 0.005872359

exp_avg f4 [2]
00000000: 944a 0d32 3c34 4232
8.224237e-09 1.1304163e-08

exp_avg_sq f4 [2]
00000000: b121 162d e285 722a
8.533994e-12 2.1540368e-13

exp_avg f4 [2]
00000000: cfb6 113d 32a3 d23b
0.03557473 0.006428146

exp_avg_sq f4 [2]
00000000: 2ae8 443e 8337 9e3b
0.19229189 0.004828395

exp_avg f4 [2]
00000000: 40a6 a1b9 42d9 253b
-0.0003083218 0.0025306498

exp_avg_sq f4 [2]
00000000: 3851 ec3c d76c f53a
0.028847322 0.0018724453

exp_avg f4 [2, 2, 3]
00000000: eaa4 fd3c 9186 b33c 5e70 243d 4b7c c8ba
00000010: e92d 7a3a cc90 883b b8fa e63b 4808 033c
00000020: b46c 323d 90ef ca39 b436 053c c5d2 6b3c
0.030962426 0.021914752 0.040146224 -0.0015295831 0.00095435843 0.0041676518 0.007048931 0.00799758
0.0435607 0.0003870693 0.008130718 0.014393513

exp_avg_sq f4 [2, 2, 3]
00000000: 5cd5 cc3c 3694 df3c 710e ba3c e3cb 8b39
00000010: be52 8439 5c38 7f39 a76a 1d3f 4f62 143f
00000020: df9f 023f fa07 c73b 1d4e a33b c075 903b
0.025004081 0.027292352 0.022711964 0.00026664053 0.0002523865 0.0002433969 0.61490864 0.57962507
0.51025194 0.006073949 0.004983677 0.004408568

exp_avg f4 [2]
00000000: a485 13b3 6828 04b5
-3.434765e-08 -4.923263e-07

exp_avg_sq f4 [2]
00000000: 09c9 4629 5b3f 4b2c
4.4139202e-14 2.8883204e-12

exp_avg f4 [2]
00000000: 1d57 01bf 4b02 37bf
-0.5052355 -0.71487874

exp_avg_sq f4 [2]
00000000: b516 5c40 ad32 0541
3.438886 8.324872

exp_avg f4 [2]
00000000: 0987 803c f029 a53d
0.01568939 0.080646396

exp_avg_sq f4 [2]
00000000: 358e 4b3e e73a 203f
0.19878466 0.6258988

exp_avg f4 [1, 2]
00000000: 877e 703f d679 773f
0.93943065 0.9667028

exp_avg_sq f4 [1, 2]
00000000: 2227 3a41 a548 7441
11.634554 15.2677355
