Solvation_1/Run_results/ResNet/BoB_Blank_Res1/best/best_val_model.pt (torch, 36627 bytes, 105 tensors)

first_block_conv.conv.weight f4 [2, 1, 3]
0	0x3ebd7f19	0.3701103
1	0x3e84064d	0.25786057
2	0xbf0bc397	-0.5459532
3	0x3edead43	0.43491563
4	0xbee263c1	-0.4421673
5	0xbe434500	-0.1906929

first_block_conv.conv.bias f4 [2]
0	0xbed7bd98	-0.42136836
1	0xbef59c62	-0.47970873

first_block_bn.weight f4 [2]
0	0x3f108328	0.5645013
1	0x3f53a0ac	0.8266704

first_block_bn.bias f4 [2]
0	0xbee889e3	-0.454177
1	0x3e098b1d	0.13431974

first_block_bn.running_mean f4 [2]
0	0xbed41df6	-0.41429108
1	0xbefe5432	-0.4967361

first_block_bn.running_var f4 [2]
0	0x3cd28129	0.025696354
1	0x3d24f7a5	0.040275235

basicblock_list.0.bn1.weight f4 [2]
0	0x3f800000	1.0
1	0x3f800000	1.0

basicblock_list.0.bn1.bias f4 [2]
0	0x00000000	0.0
1	0x00000000	0.0

basicblock_list.0.bn1.running_mean f4 [2]
0	0x00000000	0.0
1	0x00000000	0.0

basicblock_list.0.bn1.running_var f4 [2]
0	0x3f800000	1.0
1	0x3f800000	1.0

basicblock_list.0.conv1.conv.weight f4 [2, 2, 3]
0	0x3e02ccc2	0.12773421
1	0xbe85c98c	-0.2613033
2	0x3dc062f2	0.09393872
3	0xbece8544	-0.4033605
4	0x3e972381	0.29519275
5	0xbe3e3903	-0.18576436
6	0x3db8b5c9	0.09019048
7	0xbd169df2	-0.036771722
8	0xbf0d804a	-0.5527388
9	0xbd3abc4a	-0.045589723
10	0x3ec4ece2	0.38461977
11	0x3eb7e31a	0.35915452

basicblock_list.0.conv1.conv.bias f4 [2]
0	0xbec269f8	-0.37971473
1	0x3d93e720	0.07221818

basicblock_list.0.bn2.weight f4 [2]
0	0x3fba8541	1.4571916
1	0x3f8ae115	1.084994

basicblock_list.0.bn2.bias f4 [2]
0	0x3e7e2bff	0.2482147
1	0xbe491bbf	-0.1963949

basicblock_list.0.bn2.running_mean f4 [2]
0	0xbef02575	-0.46903577
1	0x3e84fe86	0.25975436

basicblock_list.0.bn2.running_var f4 [2]
0	0x3d5e714b	0.054307263
1	0x3e0157ac	0.126311

basicblock_list.0.conv2.conv.weight f4 [2, 2, 3]
0	0x3e8df1eb	0.2772363
1	0xbe9dac90	-0.30795717
2	0x3deedc69	0.11663134
3	0x3e9f276d	0.31084767
4	0x3da8b765	0.08238105
5	0x3e5506fb	0.20803444
6	0xbf1fe5bb	-0.62459916
7	0xbee0b5d7	-0.43888733
8	0xbf01231a	-0.50444186
9	0xbe8d75c5	-0.27628914
10	0xbddb09fd	-0.106952645
11	0xbe44981f	-0.19198655

basicblock_list.0.conv2.conv.bias f4 [2]
0	0xbec2c11d	-0.3803796
1	0xbe83621e	-0.25660795

basicblock_list.1.bn1.weight f4 [2]
0	0x3f8afc2f	1.085821
1	0x3f4e7885	0.8065265

basicblock_list.1.bn1.bias f4 [2]
0	0xbe56cd57	-0.20976768
1	0xbe35953d	-0.17732711

basicblock_list.1.bn1.running_mean f4 [2]
0	0xbe33efd4	-0.17571956
1	0xbf45751b	-0.77131814

basicblock_list.1.bn1.running_var f4 [2]
0	0x3f423d15	0.75874454
1	0x3fdee5c1	1.7413865

basicblock_list.1.conv1.conv.weight f4 [2, 2, 3]
0	0x3ecd076c	0.40044725
1	0x3b2e539c	0.0026600128
2	0x3ec7ae0c	0.38999975
3	0x3e18586b	0.14877479
4	0x3dc56e76	0.096402094
5	0xbc9d6c05	-0.019216547
6	0xbd015612	-0.031576224
7	0x3dd885ec	0.105724186
8	0xbcfb68b3	-0.030689573
9	0x3ecceb28	0.4002316
10	0x3d0a3e6f	0.033750948
11	0xbd15986b	-0.03652231

basicblock_list.1.conv1.conv.bias f4 [2]
0	0x3e170e90	0.14751649
1	0xbca3221c	-0.019913726

basicblock_list.1.bn2.weight f4 [2]
0	0x3f7c1552	0.9847003
1	0x3fafd0b6	1.3735569

basicblock_list.1.bn2.bias f4 [2]
0	0x3c57c480	0.013169408
1	0x3c412aee	0.01179002

basicblock_list.1.bn2.running_mean f4 [2]
0	0x3e98238f	0.2971463
1	0x3d285c4d	0.04110365

basicblock_list.1.bn2.running_var f4 [2]
0	0x3f859ee0	1.043911
1	0x3d28d09c	0.04121457

basicblock_list.1.conv2.conv.weight f4 [2, 2, 3]
0	0xbea10f56	-0.31457013
1	0xbefb01d4	-0.49024832
2	0xbeb65565	-0.35612026
3	0x3f306455	0.68903095
4	0xbd4b8645	-0.049688596
5	0x3f098378	0.5371623
6	0xbe373fca	-0.17895427
7	0xbe7007d7	-0.2344049
8	0xbe29dfc8	-0.16589272
9	0x3e3b11f8	0.18268573
10	0xbd60837a	-0.054812886
11	0x3d65df1f	0.056120988

basicblock_list.1.conv2.conv.bias f4 [2]
0	0x3ec1b34c	0.37832105
1	0x3ebffced	0.37497655

basicblock_list.2.bn1.weight f4 [2]
0	0x3f4e9255	0.80692035
1	0x3f97e1ab	1.1865743

basicblock_list.2.bn1.bias f4 [2]
0	0xbe1211a8	-0.14264548
1	0x3e1b1302	0.1514397

basicblock_list.2.bn1.running_mean f4 [2]
0	0x3f340d3e	0.70332706
1	0xbe3335df	-0.17501019

basicblock_list.2.bn1.running_var f4 [2]
0	0x40684f1c	3.6298285
1	0x3fb2303f	1.3920974

basicblock_list.2.conv1.conv.weight f4 [2, 2, 3]
0	0xbcbdfd14	-0.023191966
1	0xbe4f3a51	-0.2023709
2	0xbcc399c9	-0.023877041
3	0xbe91cf91	-0.28478673
4	0xbe905dfe	-0.2819671
5	0xbe8b1010	-0.27160692
6	0x3e2c7534	0.16841584
7	0xbe3af413	-0.1825717
8	0x3e1dab16	0.15397295
9	0x3ed0295c	0.40656555
10	0x3f0c9e30	0.54928875
11	0xbdf23bea	-0.11827834

basicblock_list.2.conv1.conv.bias f4 [2]
0	0x3df7d541	0.12101222
1	0x3ba67b20	0.0050805956

basicblock_list.2.bn2.weight f4 [2]
0	0x3f966879	1.1750633
1	0x3f9a577e	1.205795

basicblock_list.2.bn2.bias f4 [2]
0	0x3e4b2840	0.19839573
1	0x3ecfb8a2	0.4057055

basicblock_list.2.bn2.running_mean f4 [2]
0	0xbe94ded6	-0.2907626
1	0x3ecdc864	0.40191948

basicblock_list.2.bn2.running_var f4 [2]
0	0x3ecb7cb0	0.39743567
1	0x3f13f22e	0.5779141

basicblock_list.2.conv2.conv.weight f4 [2, 2, 3]
0	0xbe046005	-0.12927254
1	0xbe56b6e3	-0.20968203
2	0xbe49a1c4	-0.19690615
3	0x3e76a7c0	0.24087429
4	0x3ebb2e05	0.36558548
5	0x3f2dd125	0.67897254
6	0xbf05d70e	-0.5228127
7	0xbe2bb290	-0.16767335
8	0xbe3cc680	-0.18435097
9	0xbd1b3d36	-0.037900172
10	0xbd366342	-0.044528253
11	0x3e14d84d	0.14535637

basicblock_list.2.conv2.conv.bias f4 [2]
0	0x3eae731d	0.340722
1	0xbc02a714	-0.007974405

final_bn.weight f4 [2]
0	0x3f880ed5	1.0629526
1	0x3f980db7	1.1879185

final_bn.bias f4 [2]
0	0x3de4bc48	0.11168724
1	0x3e32f636	0.17476735

final_bn.running_mean f4 [2]
0	0x3fbedea6	1.4911697
1	0xbf1a2f2a	-0.60228217

final_bn.running_var f4 [2]
0	0x410382a6	8.219397
1	0x400fe230	2.2481804

dense.weight f4 [1, 2]
0	0xbee98c99	-0.4561508
1	0xbf18258e	-0.59432304

exp_avg f4 [2, 1, 3]
0	0x3e8d25a8	0.27567792
1	0x3e35452b	0.17702167
2	0x3e8a8767	0.2705643
3	0xbf015452	-0.5051929
4	0xbeabc008	-0.33544946
5	0xbebf859b	-0.3740662

exp_avg_sq f4 [2, 1, 3]
0	0x3f855067	1.0415162
1	0x3f2f779e	0.68541896
2	0x3f38886b	0.7208316
3	0x41f3dbbd	30.482294
4	0x415668f7	13.400626
5	0x418759c8	16.918839

exp_avg f4 [2]
0	0xb46cf1f0	-2.2067229e-07
1	0xb9c508aa	-0.00037581223

exp_avg_sq f4 [2]
0	0x2ee73da5	1.0515614e-10
1	0x33a5f9f5	7.728878e-08

exp_avg f4 [2]
0	0xbd7b168b	-0.061300796
1	0xbd85c5fe	-0.06531905

exp_avg_sq f4 [2]
0	0x3de9fe1b	0.1142542
1	0x3e0dedef	0.13860296

exp_avg f4 [2]
0	0x3c8e64ec	0.017382108
1	0x3e020fa7	0.12701283

exp_avg_sq f4 [2]
0	0x3bfd650e	0.007732994
1	0x3e30a639	0.17250909

exp_avg f4 [2, 2, 3]
0	0x3cf60380	0.030030966
1	0x3d978839	0.07399029
2	0xbc5bb3a0	-0.013409525
3	0xbd995e0c	-0.07488641
4	0xbdc9b6c0	-0.0984931
5	0xbdabb918	-0.08384913
6	0xbdd0ca4f	-0.10194837
7	0xbd1c20ee	-0.03811734
8	0x3d4f96d6	0.050680958
9	0xbb8139dc	-0.003943665
10	0x3c91e768	0.017810538
11	0x3da3eed5	0.08004538

exp_avg_sq f4 [2, 2, 3]
0	0x40bdf1cd	5.9357667
1	0x4019175f	2.3920515
2	0x401f6bbf	2.4909513
3	0x40959d68	4.6754646
4	0x4185faa9	16.747393
5	0x4091b4a3	4.5533004
6	0x3daf7b14	0.08568397
7	0x3d494624	0.049139157
8	0x3d8a4278	0.06750959
9	0x3e5139d1	0.20432211
10	0x3d2f4ed0	0.04279977
11	0x3dcc1f8b	0.09966954

exp_avg f4 [2]
0	0xb805afa3	-3.1873245e-05
1	0x3896aea1	7.1850845e-05

exp_avg_sq f4 [2]
0	0x3489a248	2.5636314e-07
1	0x34966c83	2.801863e-07

exp_avg f4 [2]
0	0x3d2adfd6	0.041717373
1	0x3d22d1aa	0.039750732

exp_avg_sq f4 [2]
0	0x3ca039dd	0.019558841
1	0x3dd6eaf3	0.10494032

exp_avg f4 [2]
0	0xbcc2ec3e	-0.02379429
1	0x3dab4049	0.08361871

exp_avg_sq f4 [2]
0	0x4033c5de	2.8089519
1	0x3e3cc8e2	0.18436006

exp_avg f4 [2, 2, 3]
0	0xbd0dc576	-0.03461214
1	0xbcaa2c4c	-0.020773076
2	0xbb2a4460	-0.0025980696
3	0xbdad1921	-0.084520586
4	0x3dbe7021	0.09298731
5	0x3de37a08	0.1110726
6	0xbd03180c	-0.032005355
7	0xbd2aa784	-0.04166366
8	0xbd2352db	-0.03987394
9	0x3cdc299e	0.026875313
10	0xbe7bf753	-0.24606065
11	0xbc8d4e68	-0.017249301

exp_avg_sq f4 [2, 2, 3]
0	0x3e5ea387	0.21742068
1	0x3ce9d971	0.028546067
2	0x3e90d2fc	0.28285968
3	0x3d98bdf6	0.07458107
4	0x3dd4d1b8	0.10391563
5	0x3d695f7d	0.05697583
6	0x3db771ec	0.08957276
7	0x3d6fb711	0.058524195
8	0x3e7d285e	0.2472243
9	0x3e5cebc7	0.21574317
10	0x3f4adceb	0.79243344
11	0x3ec90e09	0.3926852

exp_avg f4 [2]
0	0xb7b4b62f	-2.1542508e-05
1	0xb91d2426	-0.00014986153

exp_avg_sq f4 [2]
0	0x34ae1265	3.242341e-07
1	0x38034c53	3.1303916e-05

exp_avg f4 [2]
0	0x3c88c390	0.016694814
1	0xbca14e03	-0.01969052

exp_avg_sq f4 [2]
0	0x3d6e084c	0.05811338
1	0x3eaee921	0.34162238

exp_avg f4 [2]
0	0x3d039890	0.032127917
1	0xbcce6fc2	-0.025199775

exp_avg_sq f4 [2]
0	0x3c54585d	0.012960521
1	0x3fb82bc4	1.4388356

exp_avg f4 [2, 2, 3]
0	0xbc4bc41a	-0.012436891
1	0x3d34b570	0.044118345
2	0xbba00dbb	-0.0048844493
3	0x3cee01d8	0.029053614
4	0x3cf066ed	0.029345954
5	0x3ca4b100	0.020103931
6	0x3dd12483	0.10212042
7	0x3e1a7188	0.15082371
8	0xbe343b9c	-0.17600864
9	0xbd6e9f08	-0.058257133
10	0x3d2ec74a	0.042670526
11	0xbdcf7c25	-0.101311006

exp_avg_sq f4 [2, 2, 3]
0	0x3c391ead	0.011298818
1	0x3e8fa13e	0.28052706
2	0x3c3d879e	0.011567978
3	0x3c28e9ed	0.0103096785
4	0x3c0984ec	0.008393507
5	0x3b8f5a97	0.004374813
6	0x3fb88bdb	1.441768
7	0x411e2205	9.883306
8	0x3f92ea9e	1.147785
9	0x3efa0139	0.48829058
10	0x3e08dc98	0.133654
11	0x3de9e98d	0.114214994

exp_avg f4 [2]
0	0x36ec6da4	7.046112e-06
1	0x36c71c02	5.9339227e-06

exp_avg_sq f4 [2]
0	0x3081ff9d	9.458635e-10
1	0x32fb51ef	2.9257505e-08

exp_avg f4 [2]
0	0x3cd9e37e	0.026597735
1	0xbca005f8	-0.019534096

exp_avg_sq f4 [2]
0	0x3e979bee	0.29611152
1	0x3dcfa9d6	0.101398155

exp_avg f4 [2]
0	0x3d4fa736	0.050696574
1	0xbbc12315	-0.0058940747

exp_avg_sq f4 [2]
0	0x3d341105	0.043961544
1	0x3d36c6a8	0.044623047

exp_avg f4 [2, 2, 3]
0	0x3b9d2d85	0.004796686
1	0x3bd917c1	0.006625146
2	0x3c385a7e	0.011252044
3	0x3b7451aa	0.003728012
4	0xbc8a2276	-0.016862135
5	0xbc41a18c	-0.011818301
6	0xbd85e112	-0.065370694
7	0xbd5c1f38	-0.05374071
8	0xbd8baf70	-0.068205714
9	0xbdd4984c	-0.10380611
10	0xbe12dfb2	-0.14343145
11	0xbe6ac7bb	-0.22927754

exp_avg_sq f4 [2, 2, 3]
0	0x3bf055c1	0.0073344414
1	0x3c06c2e6	0.008225178
2	0x3bbb6805	0.005719187
3	0x3ccbe474	0.024889208
4	0x3c236d5b	0.009974803
5	0x3bf11720	0.007357493
6	0x3ed614e3	0.4181281
7	0x3f709c9a	0.93988955
8	0x3f053da7	0.520472
9	0x402821ab	2.627055
10	0x3e91e740	0.28496742
11	0x3eb323c9	0.3498824

exp_avg f4 [2]
0	0x34f749d4	4.6061052e-07
1	0xb6b18f3d	-5.291686e-06

exp_avg_sq f4 [2]
0	0x2c430ac5	2.7717145e-12
1	0x2efacd13	1.1405112e-10

exp_avg f4 [2]
0	0x3c6365d4	0.013879258
1	0xbc864169	-0.016388612

exp_avg_sq f4 [2]
0	0x3cdbcdfa	0.026831616
1	0x3b8f8746	0.0043801395

exp_avg f4 [2]
0	0x3bccb846	0.006247553
1	0x3d770c4d	0.060314465

exp_avg_sq f4 [2]
0	0x3b1cd3e3	0.0023930005
1	0x3e5ea209	0.21741499

exp_avg f4 [2, 2, 3]
0	0x3c90c617	0.017672582
1	0xbc912744	-0.017718919
2	0x3c08d83e	0.008352337
3	0x3c53fb0e	0.012938274
4	0x3af06b94	0.0018342608
5	0xbb93529c	-0.004495932
6	0x3c120884	0.008913163
7	0xbc903836	-0.017604928
8	0x3c8aef4f	0.016959814
9	0xbd0a281b	-0.033729654
10	0x3c19317c	0.009350177
11	0xbc2c8878	-0.010530584

exp_avg_sq f4 [2, 2, 3]
0	0x3c84d375	0.016214112
1	0x3d44e42e	0.04806917
2	0x3c4a178a	0.012334714
3	0x3bb16f3b	0.005414871
4	0x3bf577c4	0.007491084
5	0x3c987014	0.01860813
6	0x3e496d0a	0.19670501
7	0x3cb12411	0.021623643
8	0x3d9898e8	0.074510396
9	0x3c26707a	0.010158652
10	0x3d0b8398	0.034061044
11	0x3c9937ec	0.018703423

exp_avg f4 [2]
0	0x3691bbb5	4.3431887e-06
1	0x369499f4	4.428666e-06

exp_avg_sq f4 [2]
0	0x2fc08bc0	3.5023895e-10
1	0x30613030	8.1923e-10

exp_avg f4 [2]
0	0x3ba1eec0	0.0049417913
1	0xbbd1c40f	-0.006401546

exp_avg_sq f4 [2]
0	0x3df66f36	0.120329306
1	0x3bbe4c7f	0.005807459

exp_avg f4 [2]
0	0xbce2e9d6	-0.027699392
1	0x3c5359b0	0.012899801

exp_avg_sq f4 [2]
0	0x3e747fe2	0.23876908
1	0x3dc2e36d	0.09516034

exp_avg f4 [2, 2, 3]
0	0x3b8d387e	0.004309713
1	0x3a41ef50	0.0007398026
2	0x3ae123e8	0.0017176839
3	0xbc38057f	-0.011231779
4	0xbb61de64	-0.003446483
5	0x3c08ea24	0.008356605
6	0xbc49ae1e	-0.012309579
7	0x3cb80be0	0.0224666
8	0x3be950c0	0.007120222
9	0xbbbd6c76	-0.005780752
10	0xbc6766c2	-0.01412362
11	0xbd0e3d2f	-0.034726318

exp_avg_sq f4 [2, 2, 3]
0	0x3cd831c4	0.026390918
1	0x3d0d06e6	0.034430407
2	0x3ce7ca54	0.02829472
3	0x3d649874	0.055809453
4	0x3d3c6662	0.045996077
5	0x3c92c608	0.017916694
6	0x3e908653	0.2822748
7	0x3e20f123	0.15716986
8	0x3e0ecf06	0.1394616
9	0x3e855997	0.26044914
10	0x3e5d1d71	0.21593262
11	0x3e117b8a	0.14207283

exp_avg f4 [2]
0	0xb3c0569e	-8.956452e-08
1	0xb4756f96	-2.2857998e-07

exp_avg_sq f4 [2]
0	0x2c2f7a4d	2.4936886e-12
1	0x2e265557	3.7819827e-11

exp_avg f4 [2]
0	0x3ba6cf92	0.0050906623
1	0x3ccaff26	0.024779867

exp_avg_sq f4 [2]
0	0x3ffa704c	1.956552
1	0x40bfa2a3	5.988603

exp_avg f4 [2]
0	0x3d78f742	0.06078268
1	0x3e0511d8	0.12995088

exp_avg_sq f4 [2]
0	0x408acd18	4.337536
1	0x4189478a	17.159931

exp_avg f4 [1, 2]
0	0xbcdb17d2	-0.026744757
1	0xbdb3b4f2	-0.08774747

exp_avg_sq f4 [1, 2]
0	0x41622f8a	14.136606
1	0x421522d8	37.284027
