Solvation_1/Run_results/ResNet/Class_BoB_Res1/best/best_val_model.pt (torch, 36627 bytes, 105 tensors)

first_block_conv.conv.weight f4 [2, 1, 3]
0	0xbea27d2d	-0.31736127
1	0x3d80b37f	0.06284236
2	0x3e43b3df	0.19111584
3	0xbed38ea8	-0.41319776
4	0x3dbc5a3b	0.091968976
5	0xbf352e85	-0.7077411

first_block_conv.conv.bias f4 [2]
0	0x3ec3900a	0.3819583
1	0x3f0652ac	0.524699

first_block_bn.weight f4 [2]
0	0x3f2c2066	0.67236936
1	0x3fac88fe	1.3479307

first_block_bn.bias f4 [2]
0	0xbe1616a2	-0.14657071
1	0x3cbcc970	0.023045272

first_block_bn.running_mean f4 [2]
0	0x3ebf7c38	0.3739946
1	0x3eca98dd	0.3956975

first_block_bn.running_var f4 [2]
0	0x3d0d35a5	0.034474988
1	0x4055b61e	3.3392406

basicblock_list.0.bn1.weight f4 [2]
0	0x3f800000	1.0
1	0x3f800000	1.0

basicblock_list.0.bn1.bias f4 [2]
0	0x00000000	0.0
1	0x00000000	0.0

basicblock_list.0.bn1.running_mean f4 [2]
0	0x00000000	0.0
1	0x00000000	0.0

basicblock_list.0.bn1.running_var f4 [2]
0	0x3f800000	1.0
1	0x3f800000	1.0

basicblock_list.0.conv1.conv.weight f4 [2, 2, 3]
0	0xbedce76f	-0.4314532
1	0xbd0fcef2	-0.035109468
2	0x3dd61f0b	0.1045514
3	0xbddd8aa4	-0.10817459
4	0x3ba312a4	0.0049765874
5	0x3a6f9574	0.0009139397
6	0x3e819bc2	0.25314146
7	0x3e8ee6ae	0.2791037
8	0x3e361571	0.17781617
9	0x3ee7ff50	0.45311975
10	0x3ee696af	0.45036837
11	0x3f1c9e8f	0.6117944

basicblock_list.0.conv1.conv.bias f4 [2]
0	0x3e8f4de3	0.2798911
1	0xbe2c80ed	-0.16846056

basicblock_list.0.bn2.weight f4 [2]
0	0x3f9a150a	1.2037671
1	0x3f2e4cd9	0.6808601

basicblock_list.0.bn2.bias f4 [2]
0	0xbe6fc07f	-0.23413275
1	0xbf3dab10	-0.74089146

basicblock_list.0.bn2.running_mean f4 [2]
0	0x3e7de36f	0.2479379
1	0x3e42b8e0	0.19015837

basicblock_list.0.bn2.running_var f4 [2]
0	0x3c99ef19	0.018790768
1	0x3ed831e1	0.42225555

basicblock_list.0.conv2.conv.weight f4 [2, 2, 3]
0	0x3e0fc5fa	0.14040366
1	0x3e8b6612	0.2722631
2	0x3ed06eae	0.40709442
3	0xbe5db8c2	-0.21652511
4	0xbe2d7faa	-0.16943231
5	0xbe289a50	-0.16465116
6	0x3d81b55b	0.06333419
7	0xbe91f0c7	-0.2850401
8	0xbef17d25	-0.4716579
9	0x3e0b0c1e	0.13578841
10	0x3e0b0c4c	0.1357891
11	0x3e0982f1	0.13428856

basicblock_list.0.conv2.conv.bias f4 [2]
0	0xbd8de687	-0.06928735
1	0x3ec430c2	0.3831845

basicblock_list.1.bn1.weight f4 [2]
0	0x3f653d95	0.8954709
1	0x3f8b6a03	1.0891727

basicblock_list.1.bn1.bias f4 [2]
0	0xbdd5a319	-0.10431499
1	0xbceeca23	-0.02914912

basicblock_list.1.bn1.running_mean f4 [2]
0	0xbd912ddf	-0.07088827
1	0x3f2047e8	0.6260972

basicblock_list.1.bn1.running_var f4 [2]
0	0x3e1028dd	0.14078088
1	0x3eb1fa84	0.3476144

basicblock_list.1.conv1.conv.weight f4 [2, 2, 3]
0	0xbe7638cf	-0.24045108
1	0xbe3affbb	-0.18261616
2	0x3e3b385f	0.18283223
3	0xbe21a7ef	-0.15786718
4	0xbe5f91ff	-0.21833037
5	0xbe97e8b6	-0.29669732
6	0x3de65766	0.11247139
7	0x3e94ea6c	0.290851
8	0x3d8a4d32	0.06753005
9	0xbe910c66	-0.28329772
10	0xbeca8436	-0.39553994
11	0xbe51ae0b	-0.20476548

basicblock_list.1.conv1.conv.bias f4 [2]
0	0x3e61acb0	0.22038531
1	0x3dc18582	0.09449293

basicblock_list.1.bn2.weight f4 [2]
0	0x3f77e5fa	0.9683529
1	0x3f5b8a5b	0.8575799

basicblock_list.1.bn2.bias f4 [2]
0	0xbe5c8477	-0.21534906
1	0xbe1e6805	-0.15469368

basicblock_list.1.bn2.running_mean f4 [2]
0	0x3d93f13b	0.072237454
1	0xbd675d1f	-0.05648529

basicblock_list.1.bn2.running_var f4 [2]
0	0x3f251d12	0.6449748
1	0x3f7d7644	0.99008584

basicblock_list.1.conv2.conv.weight f4 [2, 2, 3]
0	0x3ceec836	0.029148202
1	0xbcb9beb3	-0.02267394
2	0x3ee77674	0.4520756
3	0x3e8a67ca	0.2703231
4	0xbe11a9a4	-0.14224869
5	0x3dd2b6e1	0.10288788
6	0x3bad8464	0.005295323
7	0x3d6509da	0.0559176
8	0x3d85fd04	0.065423995
9	0x3cf8bdd2	0.03036395
10	0x3cb45767	0.022014333
11	0x3cde5b68	0.027143195

basicblock_list.1.conv2.conv.bias f4 [2]
0	0xbeaf0578	-0.3418386
1	0xbecb078f	-0.39654204

basicblock_list.2.bn1.weight f4 [2]
0	0x3f4e78ef	0.8065328
1	0x3f94fe57	1.1640118

basicblock_list.2.bn1.bias f4 [2]
0	0x3c5f3f73	0.013625967
1	0xbe615dd8	-0.22008455

basicblock_list.2.bn1.running_mean f4 [2]
0	0xbec43a98	-0.38325953
1	0x3e830656	0.2559077

basicblock_list.2.bn1.running_var f4 [2]
0	0x3e51b2a5	0.20478304
1	0x3ec59ac4	0.3859464

basicblock_list.2.conv1.conv.weight f4 [2, 2, 3]
0	0xbccf2ef4	-0.025290944
1	0x3e76ce58	0.24102151
2	0xbd88a28c	-0.06671628
3	0xbed944dd	-0.4243535
4	0xbeb56449	-0.35428074
5	0xbed70a7d	-0.4200019
6	0xbefa1be4	-0.48849404
7	0xbe10587c	-0.14096254
8	0x3e98cfe9	0.29846123
9	0xbca31b6f	-0.019910542
10	0xbeb635f5	-0.3558804
11	0xbea60c6b	-0.3243135

basicblock_list.2.conv1.conv.bias f4 [2]
0	0x3c88ca10	0.016697913
1	0xbe1a7570	-0.15083861

basicblock_list.2.bn2.weight f4 [2]
0	0x3f6b6b3d	0.9196051
1	0x3f87ce87	1.0609902

basicblock_list.2.bn2.bias f4 [2]
0	0xbe36569c	-0.17806476
1	0xbe345ca8	-0.1761347

basicblock_list.2.bn2.running_mean f4 [2]
0	0xbe53c73b	-0.20681469
1	0xbea0e227	-0.3142254

basicblock_list.2.bn2.running_var f4 [2]
0	0x3ff60c6b	1.922254
1	0x3f927ca5	1.1444288

basicblock_list.2.conv2.conv.weight f4 [2, 2, 3]
0	0x3f0ac563	0.5420744
1	0x3d0a7f82	0.033813007
2	0x3eab61f1	0.3347316
3	0xbdf41fbb	-0.119201146
4	0x3e31f2cb	0.17377774
5	0x3ef3bf3b	0.47606835
6	0xbde0dc4e	-0.1097952
7	0xbe121b55	-0.14268239
8	0xbdcae198	-0.0990631
9	0xbd802c29	-0.06258423
10	0xbd3b83fd	-0.04578017
11	0xbe16aae1	-0.14713623

basicblock_list.2.conv2.conv.bias f4 [2]
0	0x3eb8db44	0.36104786
1	0x3e4a1e54	0.19738132

final_bn.weight f4 [2]
0	0x402fbc6c	2.7458754
1	0x40045cff	2.068176

final_bn.bias f4 [2]
0	0x3c91b263	0.017785257
1	0x3ee5a512	0.448525

final_bn.running_mean f4 [2]
0	0xbbe2145c	-0.0068993997
1	0x3ee4a8aa	0.4465993

final_bn.running_var f4 [2]
0	0x3e8c6d40	0.274271
1	0x3ec811b9	0.3907602

dense.weight f4 [1, 2]
0	0xc00a610c	-2.1621733
1	0x3f79c316	0.975633

exp_avg f4 [2, 1, 3]
0	0xbe2bcc36	-0.16777119
1	0x3fc906f2	1.5705245
2	0xbf4d9228	-0.8030114
3	0xbcfc15f7	-0.030772192
4	0x3e23ef13	0.16009168
5	0x3d1e9d58	0.038724273

exp_avg_sq f4 [2, 1, 3]
0	0x4329d3ce	169.82736
1	0x43487836	200.46957
2	0x439698dc	301.1942
3	0x3e1011c4	0.14069277
4	0x4094e4ce	4.6529303
5	0x3d53d0af	0.051712688

exp_avg f4 [2]
0	0xb9cc13ce	-0.00038924668
1	0x3778c366	1.4827447e-05

exp_avg_sq f4 [2]
0	0x35ad6a32	1.2920411e-06
1	0x347e3652	2.3675355e-07

exp_avg f4 [2]
0	0xbf896ac4	-1.0735707
1	0x3ee481ef	0.4463038

exp_avg_sq f4 [2]
0	0x41a7489f	20.91046
1	0x3f89bf18	1.0761442

exp_avg f4 [2]
0	0xbfe3ff7c	-1.7812343
1	0x3f7608ca	0.9610716

exp_avg_sq f4 [2]
0	0x426e369c	59.55333
1	0x41d78aa2	26.942692

exp_avg f4 [2, 2, 3]
0	0x3e8773e8	0.26455617
1	0xbe2053f2	-0.15657023
2	0xbf04e56a	-0.5191256
3	0xbfd1a370	-1.6378002
4	0xc0220e19	-2.5321105
5	0xbfec6acc	-1.8470092
6	0xbe4620a7	-0.19348393
7	0xbe98c216	-0.29835576
8	0xbf442550	-0.76619434
9	0x3e1e97d8	0.15487611
10	0x3e63a479	0.2223071
11	0x3e2443c9	0.16041483

exp_avg_sq f4 [2, 2, 3]
0	0x40831bf8	4.097164
1	0x41d9aaab	27.208334
2	0x42865e2d	67.18394
3	0x421cd30a	39.206093
4	0x42ba5ff4	93.18741
5	0x42e538ad	114.610695
6	0x3f21b23d	0.63162595
7	0x3f64d304	0.89384484
8	0x3f749bfe	0.95550525
9	0x3e1b3f55	0.15160878
10	0x3e05fe81	0.13085367
11	0x3e0309ff	0.12796782

exp_avg f4 [2]
0	0x38ac3b29	8.2126186e-05
1	0x3713439c	8.777624e-06

exp_avg_sq f4 [2]
0	0x35170213	5.62549e-07
1	0x30b0e5e3	1.2871023e-09

exp_avg f4 [2]
0	0x3e380fcc	0.17974776
1	0xbd83ab74	-0.064291865

exp_avg_sq f4 [2]
0	0x400c9639	2.1966689
1	0x40fc169c	7.87776

exp_avg f4 [2]
0	0x3f8f4eb4	1.1195893
1	0x3e504254	0.20337802

exp_avg_sq f4 [2]
0	0x420655b8	33.58371
1	0x3f5b1d23	0.85591334

exp_avg f4 [2, 2, 3]
0	0xbe82c726	-0.25542563
1	0xbac873f0	-0.0015293341
2	0x3d7e4f5c	0.0620874
3	0x3e1f0386	0.15528688
4	0xbd40d148	-0.047074586
5	0x3c0679e8	0.008207776
6	0xbecbfad6	-0.3983981
7	0x3cc3da78	0.023907885
8	0x3bbba7a8	0.0057267733
9	0xbefb0341	-0.4902592
10	0xbef05b9b	-0.4694489
11	0xbe8db537	-0.27677318

exp_avg_sq f4 [2, 2, 3]
0	0x4056a1b2	3.353619
1	0x3fd29699	1.6452209
2	0x40034eeb	2.0516918
3	0x40bae863	5.8408675
4	0x4148cb96	12.549704
5	0x412435ac	10.2631035
6	0x3fece369	1.85069
7	0x3cc11fe4	0.023574777
8	0x3b806eb6	0.003919448
9	0x40467f18	3.1015072
10	0x4023f3cb	2.561755
11	0x404cb8cc	3.198779

exp_avg f4 [2]
0	0x3c4a54e8	0.012349345
1	0x37803ce1	1.5287138e-05

exp_avg_sq f4 [2]
0	0x3bd9a5fd	0.006642102
1	0x320c1983	8.154873e-09

exp_avg f4 [2]
0	0xbe0e80bb	-0.13916294
1	0x3dd5f534	0.104471594

exp_avg_sq f4 [2]
0	0x3ec241df	0.3794088
1	0x3e81730f	0.25283095

exp_avg f4 [2]
0	0xbde7a8ed	-0.11311517
1	0x3d0a3c4e	0.033748917

exp_avg_sq f4 [2]
0	0x3dc2662f	0.09492146
1	0x3c9a62ee	0.018846001

exp_avg f4 [2, 2, 3]
0	0x3d545b12	0.051844664
1	0xbe0faa32	-0.14029768
2	0x3d8a394e	0.06749211
3	0x3d2c930a	0.042132415
4	0x3ca408b1	0.020023676
5	0x3d4810e1	0.048844222
6	0x3dad06d4	0.08448568
7	0xbf1849d8	-0.59487677
8	0x3ebeb289	0.37245587
9	0xbe26cdfe	-0.16289517
10	0xbe22f7c8	-0.15914834
11	0xbe11fcc2	-0.14256576

exp_avg_sq f4 [2, 2, 3]
0	0x3ec180f6	0.37793702
1	0x3f5c0510	0.85945225
2	0x40f3f5ae	7.62374
3	0x3e590cac	0.2119624
4	0x3e7f73d7	0.24946533
5	0x3ea4ec89	0.32211712
6	0x3fe44983	1.7834934
7	0x3f9d18a8	1.227315
8	0x3fa5473e	1.2912366
9	0x3e3adee3	0.18249087
10	0x3e716acb	0.23575895
11	0x3e34596d	0.17612238

exp_avg f4 [2]
0	0x369fd587	4.763427e-06
1	0x364b1536	3.0261704e-06

exp_avg_sq f4 [2]
0	0x2fb2bae5	3.2510808e-10
1	0x2fb2a539	3.249541e-10

exp_avg f4 [2]
0	0xbd02857b	-0.03186558
1	0xbe446920	-0.19180727

exp_avg_sq f4 [2]
0	0x3e4e362a	0.2013785
1	0x3e85a352	0.26101166

exp_avg f4 [2]
0	0xbe071dbc	-0.13194937
1	0x3a612840	0.00085890666

exp_avg_sq f4 [2]
0	0x3e55a84a	0.20864978
1	0x3e9742e4	0.2954322

exp_avg f4 [2, 2, 3]
0	0xbce8b82e	-0.028408136
1	0x3d1d2d0b	0.038373034
2	0xbb293d90	-0.0025824048
3	0xbf7637a3	-0.96178645
4	0xbf78bbfa	-0.9716183
5	0xbf13e506	-0.5777134
6	0xbd97b330	-0.07407224
7	0x3e0844ba	0.13307467
8	0xbdcfa45e	-0.101387724
9	0xbdbac9d9	-0.09120531
10	0x3ee440d8	0.44580722
11	0x3eb05dfb	0.344467

exp_avg_sq f4 [2, 2, 3]
0	0x3f25b84a	0.6473433
1	0x3f67c9bd	0.90542203
2	0x3f77587f	0.9661941
3	0x40517a65	3.2730954
4	0x40458a48	3.086565
5	0x40452647	3.0804613
6	0x3ecb7feb	0.3974603
7	0x3f02a28b	0.5102927
8	0x3f1e6f32	0.6188842
9	0x3ff3a529	1.9034778
10	0x402db3f5	2.7141087
11	0x3fc094bd	1.5045391

exp_avg f4 [2]
0	0xb804c2be	-3.165262e-05
1	0xb6a3bafb	-4.879546e-06

exp_avg_sq f4 [2]
0	0x32878979	1.5778584e-08
1	0x308bb55e	1.0165129e-09

exp_avg f4 [2]
0	0x3eabdc4e	0.33566517
1	0xbe6a8846	-0.22903547

exp_avg_sq f4 [2]
0	0x3f4a1e2e	0.789523
1	0x3edb23ec	0.42800844

exp_avg f4 [2]
0	0xbcdb18dc	-0.026745252
1	0x3c8c5eec	0.017135106

exp_avg_sq f4 [2]
0	0x3f225262	0.63406956
1	0x3da7691d	0.08174346

exp_avg f4 [2, 2, 3]
0	0x3ec1c9eb	0.37849364
1	0x3f664346	0.899464
2	0x3f0bc83f	0.54602426
3	0x3df22889	0.11824138
4	0x3e55ee09	0.20891584
5	0x3de36bee	0.1110457
6	0x3dd056a7	0.101727776
7	0x3e8a553a	0.27018148
8	0x3f20aabb	0.62760514
9	0xbbe6c674	-0.0070427004
10	0x3e06c3a0	0.13160563
11	0x3e26e3d3	0.16297846

exp_avg_sq f4 [2, 2, 3]
0	0x401f10f5	2.48541
1	0x40d4b116	6.646617
2	0x40336134	2.8028078
3	0x3e4a320b	0.19745652
4	0x3e89c729	0.2690976
5	0x3e77cfc9	0.24200357
6	0x3e28a2fb	0.16468422
7	0x3f83f909	1.0310374
8	0x408d8f43	4.423738
9	0x3eb0c758	0.34527087
10	0x3ea03a79	0.3129461
11	0x3ebf5499	0.3736923

exp_avg f4 [2]
0	0xb6a4168c	-4.8902057e-06
1	0xb6bcce6c	-5.6268673e-06

exp_avg_sq f4 [2]
0	0x30b6bb02	1.3295394e-09
1	0x3103b3bb	1.9165174e-09

exp_avg f4 [2]
0	0x3d31d2d6	0.04341396
1	0x3e227fd8	0.15869081

exp_avg_sq f4 [2]
0	0x3edfc5cd	0.43705598
1	0x3eb9cf7b	0.36291108

exp_avg f4 [2]
0	0xbece7167	-0.40320894
1	0x3e4bcc39	0.19902124

exp_avg_sq f4 [2]
0	0x402dbeac	2.7147627
1	0x40b243a1	5.5707555

exp_avg f4 [2, 2, 3]
0	0x3de104e2	0.109872594
1	0x3e19e29a	0.15027848
2	0x3e153cef	0.14574026
3	0x3e6c1474	0.23054677
4	0x3e7ac7ae	0.24490234
5	0x3e84d33c	0.2594241
6	0x3c60b764	0.013715599
7	0xbabc3de0	-0.0014361702
8	0x3b82f36a	0.0039963024
9	0x3ce1391b	0.02749305
10	0xbbd4a22a	-0.006489058
11	0x3cd6073d	0.026126498

exp_avg_sq f4 [2, 2, 3]
0	0x3e8b4ac5	0.27205482
1	0x3e81ab59	0.2532604
2	0x3e87d68f	0.26530883
3	0x3f69f693	0.9139187
4	0x3f77e203	0.9682924
5	0x3f61e59e	0.88240993
6	0x3c4002bf	0.011719405
7	0x3c42201b	0.011848475
8	0x3bfb2de7	0.007665384
9	0x3d22952b	0.03969304
10	0x3cb2174a	0.02173962
11	0x3c255e34	0.010093261

exp_avg f4 [2]
0	0xb7d79e8a	-2.5703823e-05
1	0xb53de178	-7.0736087e-07

exp_avg_sq f4 [2]
0	0x324cbad7	1.1916845e-08
1	0x307c8b2c	9.187484e-10

exp_avg f4 [2]
0	0xbfb32981	-1.3997041
1	0x3f0241de	0.50881755

exp_avg_sq f4 [2]
0	0x41a2ac96	20.33427
1	0x414a17d8	12.630821

exp_avg f4 [2]
0	0xbf0d0550	-0.5508623
1	0x3f643c7f	0.8915481

exp_avg_sq f4 [2]
0	0x41055395	8.332906
1	0x41b781df	22.938414

exp_avg f4 [1, 2]
0	0x3fe41be2	1.7821009
1	0x3fbe8636	1.4884708

exp_avg_sq f4 [1, 2]
0	0x420429dd	33.040882
1	0x42b9e4d9	92.94697
