Solvation_1/Run_results/ResNet/JustBonds_BoB_Res1/best/best_val_model.pt (torch, 36627 bytes, 105 tensors)

first_block_conv.conv.weight f4 [2, 1, 3]
0	0xbe27662b	-0.16347568
1	0xbf1ccbc5	-0.6124843
2	0xbf141b35	-0.57854015
3	0x3ea6e87d	0.3259925
4	0x3d8ae5f9	0.06782145
5	0xbde890bc	-0.11355731

first_block_conv.conv.bias f4 [2]
0	0x3ee53917	0.4477012
1	0x3e9fe5e5	0.31230083

first_block_bn.weight f4 [2]
0	0x3f81797e	1.0115201
1	0x3e8e47b9	0.27789095

first_block_bn.bias f4 [2]
0	0x3d5c0667	0.053717043
1	0x3c906cb6	0.017629962

first_block_bn.running_mean f4 [2]
0	0x3e9032c5	0.28163734
1	0x3eb17eb3	0.34666976

first_block_bn.running_var f4 [2]
0	0x40b10547	5.531894
1	0x3e8082bd	0.25099745

basicblock_list.0.bn1.weight f4 [2]
0	0x3f800000	1.0
1	0x3f800000	1.0

basicblock_list.0.bn1.bias f4 [2]
0	0x00000000	0.0
1	0x00000000	0.0

basicblock_list.0.bn1.running_mean f4 [2]
0	0x00000000	0.0
1	0x00000000	0.0

basicblock_list.0.bn1.running_var f4 [2]
0	0x3f800000	1.0
1	0x3f800000	1.0

basicblock_list.0.conv1.conv.weight f4 [2, 2, 3]
0	0xbd1f769c	-0.038931474
1	0x3da0bb91	0.078482755
2	0xbd23eff6	-0.040023766
3	0xbe28e68e	-0.164942
4	0xbd685faf	-0.056731876
5	0x3e1ad644	0.15120798
6	0xbeee234c	-0.46511304
7	0x3dc62360	0.09674716
8	0x3e53771c	0.20650905
9	0xbe7f1870	-0.24911666
10	0xbe4ce0e6	-0.20007667
11	0xbb957458	-0.0045609884

basicblock_list.0.conv1.conv.bias f4 [2]
0	0x3e8f2454	0.27957404
1	0xbe83bed4	-0.25731528

basicblock_list.0.bn2.weight f4 [2]
0	0x3fdf0b7d	1.7425381
1	0x3f8649b2	1.049124

basicblock_list.0.bn2.bias f4 [2]
0	0xbdf83123	-0.12118747
1	0xbd54f558	-0.05199179

basicblock_list.0.bn2.running_mean f4 [2]
0	0x3e8d5bcc	0.27609098
1	0xbe9fd842	-0.3121968

basicblock_list.0.bn2.running_var f4 [2]
0	0x3a91a133	0.0011110663
1	0x3c81298d	0.015766883

basicblock_list.0.conv2.conv.weight f4 [2, 2, 3]
0	0xbdc46140	-0.095888615
1	0x39fa205e	0.0004770783
2	0xbc41aedc	-0.011821475
3	0x3e561e46	0.20909986
4	0xbd224e22	-0.039625295
5	0x3ef2b26c	0.4740175
6	0x3f4d512b	0.8020198
7	0x3f803203	1.0015262
8	0x3f49ee0f	0.78878874
9	0xbc969e90	-0.018386155
10	0xbcb8a8cc	-0.022541426
11	0xbce0a33e	-0.02742159

basicblock_list.0.conv2.conv.bias f4 [2]
0	0xbe2a3388	-0.1662122
1	0xbec70f41	-0.38878825

basicblock_list.1.bn1.weight f4 [2]
0	0x3f39a1b1	0.72512347
1	0x3fa32695	1.2746149

basicblock_list.1.bn1.bias f4 [2]
0	0xbd39c6a1	-0.045355443
1	0xbc185e10	-0.00929977

basicblock_list.1.bn1.running_mean f4 [2]
0	0x3e09eadf	0.13468502
1	0xbe07f7c6	-0.13278112

basicblock_list.1.bn1.running_var f4 [2]
0	0x3e03ce94	0.12871772
1	0x40172798	2.3617916

basicblock_list.1.conv1.conv.weight f4 [2, 2, 3]
0	0xbef663ae	-0.48122925
1	0x3e1d13be	0.15339562
2	0xbe8b4585	-0.27201477
3	0xbec16e17	-0.37779304
4	0xbe327e7d	-0.17431064
5	0xbed9c06b	-0.42529616
6	0xbdcd0213	-0.10010161
7	0x3b382197	0.0028096193
8	0xbe1d8279	-0.15381803
9	0xbe6b3d1d	-0.22972532
10	0xbe81864d	-0.25297776
11	0xbe1684ca	-0.14699093

basicblock_list.1.conv1.conv.bias f4 [2]
0	0x3e29aef6	0.16570649
1	0x3e732fdc	0.23748726

basicblock_list.1.bn2.weight f4 [2]
0	0x3f4d3d18	0.80171347
1	0x3f85999e	1.0437505

basicblock_list.1.bn2.bias f4 [2]
0	0x3d0761ef	0.03305238
1	0x3cedcdd8	0.029028818

basicblock_list.1.bn2.running_mean f4 [2]
0	0xbd712028	-0.058868557
1	0x3dee16b5	0.11625425

basicblock_list.1.bn2.running_var f4 [2]
0	0x3fede327	1.8584946
1	0x3f3ba0de	0.7329234

basicblock_list.1.conv2.conv.weight f4 [2, 2, 3]
0	0x3e4f5aca	0.20249477
1	0x3e8d254d	0.2756752
2	0x3e957416	0.2919013
3	0x3eb4a2ad	0.35280362
4	0xbe0a4a73	-0.13504963
5	0x3e7eafa7	0.24871694
6	0x3df7feab	0.12109121
7	0x3da4018c	0.080081075
8	0x3e1ebed7	0.15502487
9	0x3e92e147	0.28687498
10	0x3e776168	0.24158251
11	0x3ea5f10b	0.32410464

basicblock_list.1.conv2.conv.bias f4 [2]
0	0x3df1e85c	0.11811897
1	0xbecabc91	-0.3959699

basicblock_list.2.bn1.weight f4 [2]
0	0x3f3571e9	0.7087694
1	0x3fa7da45	1.3113486

basicblock_list.2.bn1.bias f4 [2]
0	0xbe1e4eaf	-0.15459703
1	0x3d8f16f8	0.06986803

basicblock_list.2.bn1.running_mean f4 [2]
0	0x3ef3987e	0.4757728
1	0xbe9dfb57	-0.3085582

basicblock_list.2.bn1.running_var f4 [2]
0	0x3e1cab20	0.15299654
1	0x405342ba	3.3009477

basicblock_list.2.conv1.conv.weight f4 [2, 2, 3]
0	0xba0fb91d	-0.0005482601
1	0xbaae7610	-0.0013310332
2	0x3a436470	0.0007453626
3	0x3ea4c2b0	0.32179785
4	0xbddcbc58	-0.10778111
5	0xbe97f0e1	-0.29675964
6	0xbe067d08	-0.13133633
7	0xbe9207ae	-0.28521484
8	0xbd8a0ea5	-0.067410745
9	0xbe9db205	-0.3079988
10	0xbed42d7b	-0.4144095
11	0xbe8e019c	-0.27735603

basicblock_list.2.conv1.conv.bias f4 [2]
0	0x3ea4c55f	0.32181832
1	0xbea74ad6	-0.32674283

basicblock_list.2.bn2.weight f4 [2]
0	0x3f99dc98	1.2020445
1	0x3f7e1058	0.9924369

basicblock_list.2.bn2.bias f4 [2]
0	0xbdaa6028	-0.083191216
1	0xbcc7ff66	-0.024413776

basicblock_list.2.bn2.running_mean f4 [2]
0	0x3e9e9e8c	0.30980337
1	0xbf0abbb7	-0.5419268

basicblock_list.2.bn2.running_var f4 [2]
0	0x3f285953	0.657613
1	0x3fe9e8df	1.8274192

basicblock_list.2.conv2.conv.weight f4 [2, 2, 3]
0	0xbce8b4df	-0.028406559
1	0xba84957f	-0.0010115354
2	0x3a88229a	0.0010386289
3	0x3e73baad	0.2380168
4	0xbe868645	-0.26274315
5	0x3eae85c9	0.34086445
6	0x3f53fc9b	0.8280732
7	0x3e903700	0.28166962
8	0x3d90063f	0.07032441
9	0x3e94b99e	0.29047865
10	0x3ea7b35c	0.32754028
11	0x3ebbf560	0.36710644

basicblock_list.2.conv2.conv.bias f4 [2]
0	0xbe35e79c	-0.17764133
1	0xbe0d76b9	-0.1381482

final_bn.weight f4 [2]
0	0x3fcea406	1.6143806
1	0x3ff30543	1.8985981

final_bn.bias f4 [2]
0	0x3e8b0175	0.2714955
1	0x3d3e2119	0.046418283

final_bn.running_mean f4 [2]
0	0x3ea69c82	0.3254128
1	0xbe99b312	-0.30019432

final_bn.running_var f4 [2]
0	0x3e1e9691	0.15487124
1	0x409aa335	4.8324227

dense.weight f4 [1, 2]
0	0x3f38670e	0.7203225
1	0xbf9fdde4	-1.2489591

exp_avg f4 [2, 1, 3]
0	0x3dfdd738	0.12394565
1	0xbc0f1c3c	-0.008734759
2	0xbcd3380d	-0.025783563
3	0x3f00f716	0.50377023
4	0xbee43b50	-0.44576502
5	0x3f970efc	1.1801448

exp_avg_sq f4 [2, 1, 3]
0	0x3f23c38e	0.6397027
1	0x3dcc1e49	0.09966714
2	0x3dbf99c1	0.09355498
3	0x3fa523c8	1.2901545
4	0x413db79a	11.857325
5	0x418027fa	16.01952

exp_avg f4 [2]
0	0xb80d9100	-3.375206e-05
1	0xb752baa8	-1.2560435e-05

exp_avg_sq f4 [2]
0	0x321ce33c	9.132062e-09
1	0x33643170	5.313035e-08

exp_avg f4 [2]
0	0x3e23bca1	0.15989925
1	0xbe4cb32a	-0.1999022

exp_avg_sq f4 [2]
0	0x3ee2b5f6	0.4427945
1	0x40b99d82	5.800477

exp_avg f4 [2]
0	0xbe1075f1	-0.14107491
1	0x3fdbf5c0	1.7184372

exp_avg_sq f4 [2]
0	0x3f7c60d5	0.98585254
1	0x425673aa	53.612953

exp_avg f4 [2, 2, 3]
0	0x411f655f	9.962249
1	0x4113cf65	9.238133
2	0x4103924a	8.223215
3	0xbfc8576d	-1.565168
4	0xbf81b3f6	-1.0133045
5	0xc0095910	-2.146061
6	0x3e9ae98d	0.3025631
7	0x3f32c370	0.69829464
8	0x3f800bce	1.0003603
9	0x3e8617ce	0.26190037
10	0x3eab4f2d	0.33458844
11	0x3e882fd6	0.26598996

exp_avg_sq f4 [2, 2, 3]
0	0x443e45ee	761.09265
1	0x443effa4	763.9944
2	0x443b8543	750.0822
3	0x419cce1a	19.600636
4	0x422dce79	43.451633
5	0x423b02f3	46.75288
6	0x407a0bd9	3.9069731
7	0x414eba1d	12.920438
8	0x41cc16e4	25.511177
9	0x3f6e0fce	0.92992866
10	0x3fd740a5	1.6816603
11	0x3f655665	0.8958495

exp_avg f4 [2]
0	0xba947cb8	-0.0011328673
1	0xb8edbb6f	-0.00011335953

exp_avg_sq f4 [2]
0	0x3859bc7e	5.191238e-05
1	0x3505249f	4.959965e-07

exp_avg f4 [2]
0	0xbc95d3bb	-0.018289438
1	0x3d992ad6	0.074788734

exp_avg_sq f4 [2]
0	0x3dcd64f4	0.10029021
1	0x3e4a0ed8	0.19732225

exp_avg f4 [2]
0	0x3f22c039	0.6357456
1	0xbe09ce04	-0.13457495

exp_avg_sq f4 [2]
0	0x4077fecb	3.8749263
1	0x3fc07a3c	1.5037303

exp_avg f4 [2, 2, 3]
0	0xbc0995dc	-0.008397546
1	0x3d7b4c11	0.06135184
2	0x3d1d7e55	0.038450558
3	0x3e1cc770	0.15310454
4	0x3c22f866	0.009946918
5	0x3de1bf89	0.110228606
6	0xbe40767a	-0.18795195
7	0xbd922e76	-0.07137768
8	0x3e129c98	0.14317548
9	0xbd2330ff	-0.03984165
10	0xbd083f45	-0.033263464
11	0xbb7a0b9a	-0.0038153888

exp_avg_sq f4 [2, 2, 3]
0	0x3c87bb09	0.016568677
1	0x3e24d7f3	0.16098003
2	0x3ccf91f9	0.02533816
3	0x3f9af137	1.2104863
4	0x3d2ff1f9	0.042955372
5	0x3ec12e4d	0.37730637
6	0x3e1ebd40	0.1550188
7	0x3e2b9788	0.16757023
8	0x3e17b3ab	0.14814632
9	0x3c976554	0.018480934
10	0x3ce7ca43	0.028294688
11	0x3c8244ff	0.01590204

exp_avg f4 [2]
0	0xb7050118	-7.927672e-06
1	0x3727a070	9.99133e-06

exp_avg_sq f4 [2]
0	0x3286e505	1.57038e-08
1	0x314e7efb	3.0049125e-09

exp_avg f4 [2]
0	0xbc0b8b4c	-0.008517098
1	0x3b996947	0.0046817395

exp_avg_sq f4 [2]
0	0x3b9a221c	0.004703773
1	0x3ac4ec85	0.0015024102

exp_avg f4 [2]
0	0x3c5475d2	0.012967544
1	0xbdaeef8c	-0.08541784

exp_avg_sq f4 [2]
0	0x3d57072d	0.052497078
1	0x3e88baa1	0.26704887

exp_avg f4 [2, 2, 3]
0	0x3bc28a13	0.00593687
1	0x3d0de316	0.034640394
2	0x3d0bf368	0.034167677
3	0xbbce16af	-0.006289325
4	0xbc0ef3fb	-0.008725162
5	0xbbe24d8e	-0.006906218
6	0x3bd60ddb	0.0065324134
7	0x3d9118eb	0.07084831
8	0xbb5fd5de	-0.0034154574
9	0x3be10868	0.006867457
10	0xbc8ce01f	-0.017196713
11	0x3c9e99db	0.019360473

exp_avg_sq f4 [2, 2, 3]
0	0x3bc3141c	0.005953325
1	0x3e37bbf5	0.17942794
2	0x3c06eae1	0.00823471
3	0x3a8643ca	0.0010243591
4	0x3abc41cc	0.0014362871
5	0x3a99b25f	0.0011726132
6	0x3cf7ce7e	0.03024983
7	0x3e7349e5	0.23758657
8	0x3cdc27ed	0.026874507
9	0x3b9fe835	0.004879976
10	0x3c3a8ade	0.011385648
11	0x3a5759ab	0.00082149607

exp_avg f4 [2]
0	0x376eab87	1.4225842e-05
1	0xb6dc0ede	-6.5582417e-06

exp_avg_sq f4 [2]
0	0x318ca5e2	4.093395e-09
1	0x31b76112	5.3370366e-09

exp_avg f4 [2]
0	0xbd41a85d	-0.047279704
1	0xbc98ba93	-0.018643653

exp_avg_sq f4 [2]
0	0x3cd6fe5e	0.026244339
1	0x3d007c6d	0.03136866

exp_avg f4 [2]
0	0xbe9261ef	-0.28590342
1	0xbe01ce68	-0.12676394

exp_avg_sq f4 [2]
0	0x40072afb	2.1119983
1	0x4002e8b4	2.045453

exp_avg f4 [2, 2, 3]
0	0xbd3e0286	-0.046389125
1	0xbd7af703	-0.061270725
2	0xbd9a25ae	-0.07526718
3	0xbd2402f2	-0.04004187
4	0x3c7c64c8	0.0154048875
5	0xbcfdadb7	-0.030966623
6	0x3be0b3b6	0.0068573607
7	0xbba0fe12	-0.0049131
8	0x3b4403e5	0.0029909548
9	0x3b7ac13c	0.003826215
10	0xbc0050b3	-0.00783174
11	0x3b9e3a96	0.0048287613

exp_avg_sq f4 [2, 2, 3]
0	0x3ce0a2a4	0.027421303
1	0x3d4e70f2	0.05040068
2	0x3da68139	0.08130116
3	0x3e2452e5	0.16047247
4	0x3ccc0306	0.024903785
5	0x3dcc319e	0.09970401
6	0x3ae97d1f	0.0017813778
7	0x3b3a35b6	0.0028413362
8	0x3b1ebcd5	0.002422144
9	0x3ad25c31	0.0016049204
10	0x3b008286	0.0019609048
11	0x3b4de3d5	0.0031416316

exp_avg f4 [2]
0	0xb5bc49cf	-1.4028573e-06
1	0x350cf9a8	5.251736e-07

exp_avg_sq f4 [2]
0	0x2f8ac17e	2.5239538e-10
1	0x2d569892	1.2198369e-11

exp_avg f4 [2]
0	0xbbf7327c	-0.00754386
1	0x3ba680a9	0.0050812555

exp_avg_sq f4 [2]
0	0x3b7b8501	0.0038378837
1	0x3acc84b7	0.0015603517

exp_avg f4 [2]
0	0xba58e3cf	-0.0008273692
1	0xbca96b38	-0.020681009

exp_avg_sq f4 [2]
0	0x3a7e70a4	0.0009706116
1	0x3d1be02b	0.03805558

exp_avg f4 [2, 2, 3]
0	0x3ca66cd4	0.020315565
1	0xbd00f00e	-0.031478934
2	0x3cb49224	0.022042342
3	0xbc21ee05	-0.009883408
4	0xbcd63099	-0.02614622
5	0xba89bf41	-0.0010509269
6	0x3c3cc090	0.01152052
7	0x3c312216	0.010811349
8	0x3c233f7c	0.009963866
9	0xbb13fe32	-0.0022581932
10	0xbc3bb7ac	-0.011457365
11	0x3a2653b0	0.0006344868

exp_avg_sq f4 [2, 2, 3]
0	0x3d9eaa00	0.07747269
1	0x3dc0c3dc	0.09412357
2	0x3daa31ad	0.08310256
3	0x3ef724b3	0.48270187
4	0x3f1f9771	0.62340456
5	0x3e9db857	0.30804703
6	0x3bcd68d0	0.006268598
7	0x3bf25870	0.0073957965
8	0x3be28d49	0.006913815
9	0x39e8750b	0.00044337692
10	0x3bb3735f	0.0054764
11	0x398f9b35	0.00027390724

exp_avg f4 [2]
0	0xb72d35f8	-1.0324169e-05
1	0xb699e34e	-4.586217e-06

exp_avg_sq f4 [2]
0	0x2fba7a2a	3.3920006e-10
1	0x30362118	6.6258243e-10

exp_avg f4 [2]
0	0x3b7b3fdd	0.0038337626
1	0xbd20ec3d	-0.039287794

exp_avg_sq f4 [2]
0	0x3d91c7e8	0.07118207
1	0x3d2e9b79	0.04262874

exp_avg f4 [2]
0	0x3da19ead	0.07891593
1	0xbe70bac4	-0.23508745

exp_avg_sq f4 [2]
0	0x3dca82ab	0.09888204
1	0x3fec0c46	1.8441246

exp_avg f4 [2, 2, 3]
0	0xbc73cb24	-0.0148799755
1	0x3db11bbb	0.08647867
2	0x3cc32690	0.023822099
3	0xbd382dce	-0.044965558
4	0xbb93db72	-0.004512244
5	0xbd357b6f	-0.04430717
6	0x3c0e9cca	0.008704374
7	0xbd4565aa	-0.048192658
8	0x3d6b7ff1	0.05749506
9	0xbc310e60	-0.01080665
10	0xbc182419	-0.00928595
11	0xbbdab574	-0.006674463

exp_avg_sq f4 [2, 2, 3]
0	0x3d8b3930	0.06798017
1	0x3db53f15	0.088499226
2	0x3dc105a7	0.09424906
3	0x3cbf22f1	0.023332091
4	0x3c89499f	0.016758738
5	0x3d5536db	0.052054267
6	0x3da0aae8	0.07845098
7	0x3dba0e5a	0.090847686
8	0x3db005fe	0.08594893
9	0x3ae2d444	0.0017305692
10	0x3af86802	0.0018951895
11	0x3a77c803	0.00094521063

exp_avg f4 [2]
0	0xb5fb98d4	-1.8745436e-06
1	0x3509578d	5.116388e-07

exp_avg_sq f4 [2]
0	0x2f856ca8	2.4269764e-10
1	0x2d228712	9.2386255e-12

exp_avg f4 [2]
0	0xbf45cc1b	-0.77264565
1	0xbf19493e	-0.59877384

exp_avg_sq f4 [2]
0	0x40ba0993	5.8136687
1	0x40c35d16	6.105113

exp_avg f4 [2]
0	0xbf8ccc8f	-1.0999926
1	0x3f1f7c63	0.62299174

exp_avg_sq f4 [2]
0	0x41c34472	24.40842
1	0x4106fd1f	8.436797

exp_avg f4 [1, 2]
0	0xc0095c27	-2.1462495
1	0x3f6317e0	0.88708305

exp_avg_sq f4 [1, 2]
0	0x424f0394	51.753494
1	0x416c225e	14.75839
