Solvation_1/Run_results/ResNet/JustBonds_Blank_Res1/best/best_val_model.pt (torch, 36627 bytes, 105 tensors)

first_block_conv.conv.weight f4 [2, 1, 3]
00000000: d6d3 2c3e b093 d73e 8bcc 503e b637 043f
00000010: 9486 213c cd43 11be
0.16877684 0.42104864 0.20390527 0.5164751 0.009858746 -0.1418602

first_block_conv.conv.bias f4 [2]
00000000: 4f31 c8be 5b8d 0f3f
-0.3910012 0.56075066

first_block_bn.weight f4 [2]
00000000: a585 ed3e 9203 f73e
0.46391025 0.4824491

first_block_bn.bias f4 [2]
00000000: 8693 d5be 732f 99be
-0.41714114 -0.29919013

first_block_bn.running_mean f4 [2]
00000000: 652c b6be 2af5 133f
-0.35580745 0.57795966

first_block_bn.running_var f4 [2]
00000000: 72c5 9c3e 224f f23d
0.3061939 0.118315

basicblock_list.0.bn1.weight f4 [2]
00000000: 0000 803f 0000 803f
1.0 1.0

basicblock_list.0.bn1.bias f4 [2]
00000000: 0000 0000 0000 0000
0.0 0.0

basicblock_list.0.bn1.running_mean f4 [2]
00000000: 0000 0000 0000 0000
0.0 0.0

basicblock_list.0.bn1.running_var f4 [2]
00000000: 0000 803f 0000 803f
1.0 1.0

basicblock_list.0.conv1.conv.weight f4 [2, 2, 3]
00000000: dd1f fbbe a660 dfbe 2ec2 e23d 3b44 833d
00000010: c712 733e be89 7b3e 7819 a1be 35e4 dfbe
00000020: 0b22 483e 7f20 d93c d136 1c3e 91f5 673e
-0.49047747 -0.43628424 0.11072193 0.06409498 0.23737632 0.24564263 -0.31464744 -0.43728796
0.19544236 0.026504753 0.15255286 0.2265227

basicblock_list.0.conv1.conv.bias f4 [2]
00000000: 1b44 b5be d64d 52bd
-0.35403523 -0.05134376

basicblock_list.0.bn2.weight f4 [2]
00000000: 7e01 0840 10b1 dc3f
2.125091 1.7241535

basicblock_list.0.bn2.bias f4 [2]
00000000: 92f9 e53d 3182 173e
0.112292424 0.14795758

basicblock_list.0.bn2.running_mean f4 [2]
00000000: 84ba b9be fbbe 61bd
-0.36275113 -0.055113774

basicblock_list.0.bn2.running_var f4 [2]
00000000: f581 e83b f58f 463b
0.00709557 0.0030298207

basicblock_list.0.conv2.conv.weight f4 [2, 2, 3]
00000000: 2f5b a53f d0fb 903e 43ac 8d3f 88f6 963e
00000010: b4e6 583f 729b 8ebc bbd4 11be 0a1f 1abe
00000020: 076e 573f a23c ab3f 098c 3c3e 8d1c 173f
1.2918452 0.28317118 1.1068195 0.29484963 0.84727025 -0.017408106 -0.14241306 -0.15050903
0.84152263 1.3377879 0.18412794 0.5902794

basicblock_list.0.conv2.conv.bias f4 [2]
00000000: b6d8 f93d 803b 10bf
0.121995375 -0.5634079

basicblock_list.1.bn1.weight f4 [2]
00000000: c1d9 613f 89db 903f
0.8822289 1.1316997

basicblock_list.1.bn1.bias f4 [2]
00000000: e698 8bbc fb0f 3dbd
-0.017040681 -0.04615782

basicblock_list.1.bn1.running_mean f4 [2]
00000000: 0272 0340 d672 373f
2.0538335 0.716596

basicblock_list.1.bn1.running_var f4 [2]
00000000: 8d1c 6c41 2c1e f740
14.75697 7.722433

basicblock_list.1.conv1.conv.weight f4 [2, 2, 3]
00000000: 2562 893e 1b3e b5be 27b1 59bd 2f3a 1e3e
00000010: a9a5 b23d 3131 c5be 3927 8bbe 04eb 853e
00000020: 76ee 8fbe 5833 94be bb06 443e 2d20 5e3c
0.2683269 -0.35398945 -0.05314746 0.15451883 0.087230034 -0.38514093 -0.27178362 0.26155865
-0.2811162 -0.28945422 0.19143192 0.013557476

basicblock_list.1.conv1.conv.bias f4 [2]
00000000: daea 73be 729c 81bd
-0.23820058 -0.06328668

basicblock_list.1.bn2.weight f4 [2]
00000000: 4917 8b3f c140 7d3f
1.0866481 0.9892693

basicblock_list.1.bn2.bias f4 [2]
00000000: b0e0 52bc d2f2 3bbe
-0.0128709525 -0.18354347

basicblock_list.1.bn2.running_mean f4 [2]
00000000: f902 9cbe 9295 17be
-0.30471018 -0.1480315

basicblock_list.1.bn2.running_var f4 [2]
00000000: 0f5b 163f d21e f03e
0.58732694 0.46898514

basicblock_list.1.conv2.conv.weight f4 [2, 2, 3]
00000000: dfbe c63e f372 423e 8007 32bc b153 ebbd
00000010: d90a b93e d28d 0b3e 9474 b4be 9fbc 73be
00000020: d41f e33c 2836 c23e cbf3 34be 2966 1dbd
0.38817498 0.18989162 -0.010866046 -0.11490572 0.3614109 0.13628319 -0.35245192 -0.23802422
0.027725138 0.37931943 -0.17671125 -0.038427506

basicblock_list.1.conv2.conv.bias f4 [2]
00000000: 5d9d 353d 87b1 fb3c
0.044339526 0.0307243

basicblock_list.2.bn1.weight f4 [2]
00000000: d352 753f 90ba 723f
0.95829505 0.9481592

basicblock_list.2.bn1.bias f4 [2]
00000000: 7993 4f3e 113b 45bc
0.202711 -0.012038008

basicblock_list.2.bn1.running_mean f4 [2]
00000000: fc13 3740 51ab 9e3f
2.8605947 1.2396032

basicblock_list.2.bn1.running_var f4 [2]
00000000: 5fb5 b641 a0ea 3c41
22.83856 11.8072815

basicblock_list.2.conv1.conv.weight f4 [2, 2, 3]
00000000: d0ae b93d 3140 11be 90aa 8a3d d1b3 883e
00000010: 4e6c 89bd 2858 a3bd a4cd 7bbe 8133 a83e
00000020: f8ef 993e 6172 82be e79d 993e a97c ebbd
0.09066546 -0.14184643 0.067708135 0.2669969 -0.067101106 -0.07975799 -0.24590164 0.32851794
0.30065894 -0.2547789 0.30003282 -0.114983864

basicblock_list.2.conv1.conv.bias f4 [2]
00000000: c7d7 6ebe 7a85 a83e
-0.233245 0.32914335

basicblock_list.2.bn2.weight f4 [2]
00000000: 844b 5a3f c42d 923f
0.8527148 1.1420217

basicblock_list.2.bn2.bias f4 [2]
00000000: ee58 a73e 96ec d43d
0.32685035 0.10396688

basicblock_list.2.bn2.running_mean f4 [2]
00000000: e3d0 4bbe 00af dc3e
-0.19903903 0.43102264

basicblock_list.2.bn2.running_var f4 [2]
00000000: 1acd 203e 7378 393f
0.1570324 0.72449416

basicblock_list.2.conv2.conv.weight f4 [2, 2, 3]
00000000: c1f5 1cbe cec3 363e 7f59 803d 23e6 f7bd
00000010: b2dc ab3c 8614 c33e 8e33 10bd 1e2a a6bc
00000020: 6b0d 9fbd f321 413e 9cd4 6dbe 1275 05be
-0.15328123 0.17848131 0.0626707 -0.12104442 0.02097926 0.38101596 -0.035205416 -0.020283755
-0.07766231 0.18860607 -0.23225635 -0.1303294

basicblock_list.2.conv2.conv.bias f4 [2]
00000000: 400e b0be a1b8 da3d
-0.34385872 0.106797464

final_bn.weight f4 [2]
00000000: d1e5 bb3f b4a4 913f
1.4679509 1.1378388

final_bn.bias f4 [2]
00000000: 78c7 483e 17a4 9ebd
0.19607341 -0.077461414

final_bn.running_mean f4 [2]
00000000: 99a3 2740 783a a03f
2.6193602 1.2517843

final_bn.running_var f4 [2]
00000000: a52f bd41 7605 3441
23.648264 11.251333

dense.weight f4 [1, 2]
00000000: fd00 01bf cd07 cebe
-0.50392133 -0.40240327

exp_avg f4 [2, 1, 3]
00000000: 5054 fe3e b6d1 7a3d 2caa 09bf 1fb9 6dbe
00000010: 128b 5a3d a646 57bf
0.496737 0.061235152 -0.53775287 -0.2321515 0.053355284 -0.84092176

exp_avg_sq f4 [2, 1, 3]
00000000: ec69 9e41 423a 0141 2b14 d141 47f3 c340
00000010: 0564 f041 c3e9 ad42
19.80172 8.076723 26.134848 6.123447 30.048838 86.956566

exp_avg f4 [2]
00000000: ad9e 88b7 c35f f7b6
-1.6286353e-05 -7.3723218e-06

exp_avg_sq f4 [2]
00000000: d209 8430 391c 6131
9.607055e-10 3.2757852e-09

exp_avg f4 [2]
00000000: 8089 d1be ccb8 003f
-0.40925217 0.5028198

exp_avg_sq f4 [2]
00000000: c25f fc42 8754 3f42
126.18703 47.832546

exp_avg f4 [2]
00000000: 5c6d 123d 1e11 80be
0.035748824 -0.2501306

exp_avg_sq f4 [2]
00000000: b61c 3c42 ff46 3941
47.028038 11.579833

exp_avg f4 [2, 2, 3]
00000000: 008c b23e d8da 4bbe cca7 81be 5ee2 5f40
00000010: 9311 933e b6f7 3bbf 69c8 773e 74b2 023e
00000020: 6aa1 d43c a581 883f 726e 02be 2006 053f
0.34872437 -0.19907701 -0.2532333 3.4981914 0.28724346 -0.7342485 0.24197544 0.12763387
0.025955874 1.0664564 -0.12737444 0.5196247

exp_avg_sq f4 [2, 2, 3]
00000000: d761 d140 7390 5940 0299 ef40 2d90 3142
00000010: 31b7 9e41 6f3d 2a41 3445 e740 cced 2441
00000020: fb0b 1642 21ed c141 a95a 8341 fdd7 7f41
6.5431933 3.3994415 7.4874277 44.390797 19.839449 10.639998 7.2271976 10.308056
37.5117 24.240786 16.419268 15.9902315

exp_avg f4 [2]
00000000: b0b0 fcb8 a405 0838
-0.00012049207 3.243018e-05

exp_avg_sq f4 [2]
00000000: d130 fa33 6734 a433
1.1650412e-07 7.646377e-08

exp_avg f4 [2]
00000000: 8802 23bd 3109 72bd
-0.039797336 -0.059090797

exp_avg_sq f4 [2]
00000000: 46b3 2a3d 381d 853d
0.041674875 0.06499714

exp_avg f4 [2]
00000000: d199 b93e 6475 e73d
0.36250165 0.11301687

exp_avg_sq f4 [2]
00000000: 282d c83f 901a bf3e
1.563878 0.37324953

exp_avg f4 [2, 2, 3]
00000000: 8014 a5b9 5c1f ec3b 491c c3bc 611e a2bc
00000010: d4b9 29bc c56b 8ebc fc4d 823c 70ef 213d
00000020: 7b9a 54bc 5444 52bd 9a9f 883d 7cb7 c8bc
-0.00031486526 0.0072058868 -0.023817198 -0.019789876 -0.010359246 -0.017385373 0.015906326 0.039534986
-0.012976284 -0.051334694 0.066710666 -0.024501555

exp_avg_sq f4 [2, 2, 3]
00000000: 939b ab3c 5457 403d 8367 093d f8dd 6b3d
00000010: d648 873d b2cc f83c 14a1 db3c 4851 023d
00000020: 58a7 5b3d 6437 943c f1ec c83c 79fe d33c
0.020948207 0.046958283 0.033545982 0.057584733 0.06605689 0.030371044 0.026810206 0.031815797
0.05362639 0.018092819 0.024527045 0.025878178

exp_avg f4 [2]
00000000: 32b7 7133 343f d237
5.62788e-08 2.5063382e-05

exp_avg_sq f4 [2]
00000000: 8b4b ea2a 0df2 9035
4.1619169e-13 1.0799282e-06

exp_avg f4 [2]
00000000: f409 2d3d c565 05bd
0.04224582 -0.032567758

exp_avg_sq f4 [2]
00000000: ce1a 8d3b 33a7 2c3b
0.004306174 0.0026344776

exp_avg f4 [2]
00000000: 2e54 e93c cb5a c4ba
0.028482523 -0.0014980672

exp_avg_sq f4 [2]
00000000: 0cdb 4d3b 07e4 b63a
0.003141108 0.0013953455

exp_avg f4 [2, 2, 3]
00000000: 86a9 c63d 154f b93b 6c43 043d 3251 fcbc
00000010: b1f3 babc 4292 253d 3b89 9fbc 3af9 7c3c
00000020: 58d5 95bc c3b9 cdbc 74a0 e4bd 0c5e e5bc
0.09700303 0.0056551793 0.03229086 -0.030800436 -0.02282128 0.040422685 -0.019474616 0.01544028
-0.018290207 -0.025112992 -0.111634165 -0.027998947

exp_avg_sq f4 [2, 2, 3]
00000000: 9b5b 273d 2395 023c a89e 4b3c 3791 653d
00000010: 8421 ce3c 84aa 6c3c fd1e 8f3c 8ba1 7c3d
00000020: 2edc 773c 2b36 ea3c a0df cf3d 7062 903d
0.040858846 0.007970127 0.012427963 0.05604669 0.025162466 0.014444951 0.017470831 0.061677497
0.0151281785 0.028590282 0.10150075 0.070500255

exp_avg f4 [2]
00000000: d813 b933 66c1 5632
8.6183434e-08 1.2500413e-08

exp_avg_sq f4 [2]
00000000: bb9d 092a 0766 e029
1.2222768e-13 9.965297e-14

exp_avg f4 [2]
00000000: cdc3 c53c 1717 9dbc
0.024141217 -0.01917605

exp_avg_sq f4 [2]
00000000: 343b aa3b d5ba 153c
0.005195046 0.0091387825

exp_avg f4 [2]
00000000: d617 f03b c435 4c3a
0.00732706 0.0007789994

exp_avg_sq f4 [2]
00000000: 768b 993b 4c7f 8e3b
0.0046858145 0.004348671

exp_avg f4 [2, 2, 3]
00000000: 249b 1f3d 9a23 4c3c 0216 1b3d d2b1 a7bc
00000010: a260 2abd 1ab4 0dbd 30b6 ebba d44b 07bd
00000020: bf52 a43c 3f0e 8dbc 1b9e c1bc e66c 87bc
0.038966313 0.01245966 0.037862785 -0.020470534 -0.041596062 -0.034595586 -0.0017983373 -0.0330313
0.020058988 -0.017218707 -0.02363496 -0.016531419

exp_avg_sq f4 [2, 2, 3]
00000000: 58cb 143d 4771 f13c 19b3 053d 7a78 8c3c
00000010: e9b3 ec3c b357 ca3c 42b1 a83b 92c5 883c
00000020: eaf0 b73c 3143 933c bcf4 923c 108e 573c
0.036326736 0.02947296 0.032641504 0.017147291 0.028894382 0.024700021 0.005148084 0.016695771
0.022453744 0.017976375 0.017938964 0.013156429

exp_avg f4 [2]
00000000: 1de0 5fb3 ff4f 97b2
-5.2125063e-08 -1.7615092e-08

exp_avg_sq f4 [2]
00000000: 00b4 9929 8f9d 7828
6.82579e-14 1.3800931e-14

exp_avg f4 [2]
00000000: a319 7f3b 2a12 e7bb
0.0038925193 -0.007051726

exp_avg_sq f4 [2]
00000000: 2830 ae3a 0390 b43a
0.0013289498 0.0013775829

exp_avg f4 [2]
00000000: c05c 6c3c ea06 28bb
0.01442641 -0.0025638887

exp_avg_sq f4 [2]
00000000: b209 b33a fd52 263a
0.0013659506 0.00063447637

exp_avg f4 [2, 2, 3]
00000000: 56bf 7abc d84f 883a 38d9 7fba 68e2 9a3a
00000010: 90e9 4bbc ff55 b8bb 71eb 22bc d08e 4fbc
00000020: 56d5 073d 9968 a2bb 3977 28bd 57fb c8bc
-0.015304407 0.0010399772 -0.0009759846 0.0011816742 -0.012445822 -0.005625486 -0.009943829 -0.0126683265
0.033162437 -0.0049563167 -0.041129325 -0.02453391

exp_avg_sq f4 [2, 2, 3]
00000000: 8d3b 0b3c 61d6 8f3b 3812 873b 191f 573b
00000010: 8edd 863b 447f 0d3b 7f4f 6f3b 76c3 003c
00000020: aca6 963c 32be 3b3b 20cd 113c 6810 733c
0.008498085 0.0043895696 0.004122045 0.0032824932 0.004115767 0.0021590749 0.003651589 0.0078591015
0.018390022 0.00286473 0.008899003 0.0148354545

exp_avg f4 [2]
00000000: 654c c631 d1c4 8db3
5.7712435e-09 -6.601625e-08

exp_avg_sq f4 [2]
00000000: 8a30 0228 9680 e528
7.226975e-15 2.5479873e-14

exp_avg f4 [2]
00000000: c6b8 bdbb ec80 3d3c
-0.005789849 0.011566382

exp_avg_sq f4 [2]
00000000: 8894 be3a e73d 903b
0.0014540115 0.0044019106

exp_avg f4 [2]
00000000: 04d7 8dbb 3abc a63c
-0.0043286104 0.020353425

exp_avg_sq f4 [2]
00000000: 135c 913a d3a9 f23a
0.0011090062 0.0018513746

exp_avg f4 [2, 2, 3]
00000000: 107f de3c cad4 89bc 341e 0bbc 70ff 99bb
00000010: 7895 d23c 58ad f93c ba3c 84bc 4d94 a0bb
00000020: 456c 0bbc f869 683d 8c7b c23c 76c6 a23c
0.027160197 -0.016825099 -0.008491088 -0.00469964 0.025706038 0.030478165 -0.016142238 -0.0049004913
-0.0085097 0.056741685 0.023740552 0.019870024

exp_avg_sq f4 [2, 2, 3]
00000000: 30f3 ec3c b5d2 683d 8616 783d 77cc a93d
00000010: 7d8d b23d 89cc d03d 1d41 5f3c ecdd 053d
00000020: 37ec 2b3d 6c82 9f3d b1ef 9e3d 038e 273d
0.028924555 0.05684157 0.060568355 0.08290952 0.08718393 0.10195262 0.013626364 0.032682344
0.04197332 0.07788548 0.07760561 0.040906917

exp_avg f4 [2]
00000000: a407 b431 4a67 e1b2
5.239558e-09 -2.6240418e-08

exp_avg_sq f4 [2]
00000000: 91b6 9029 993d 6e28
6.426555e-14 1.3225011e-14

exp_avg f4 [2]
00000000: 1f11 ac3d 4737 cc3d
0.08401703 0.09971481

exp_avg_sq f4 [2]
00000000: c266 2240 d0a3 ba3f
2.5375218 1.4581242

exp_avg f4 [2]
00000000: 49e6 e63e 7c5b f13d
0.4509757 0.117850274

exp_avg_sq f4 [2]
00000000: 0b27 9340 9267 573f
4.598516 0.8414241

exp_avg f4 [1, 2]
00000000: ed26 d7be aebe 84be
-0.42021886 -0.25926727

exp_avg_sq f4 [1, 2]
00000000: 4700 eb41 1386 2941
29.375135 10.595233
