Solvation_1/Run_results/ResNet/Macro_Class_Res1/best/best_val_model.pt (torch, 36627 bytes, 105 tensors)

first_block_conv.conv.weight f4 [2, 1, 3]
00000000: 0080 923e 0d5e b43e ef09 203e a594 ea3d
00000010: 6964 86be a1c9 e5be
0.2861328 0.35228005 0.1562879 0.11454133 -0.26248482 -0.44880393

first_block_conv.conv.bias f4 [2]
00000000: 487e 5dbe 6f52 2a3e
-0.21630204 0.16633008

first_block_bn.weight f4 [2]
00000000: 6a8b 123f b67e 2e3f
0.5724398 0.68162096

first_block_bn.bias f4 [2]
00000000: 1724 4bbe c922 173e
-0.19837986 0.14759363

first_block_bn.running_mean f4 [2]
00000000: c2d0 48be d0de 193e
-0.19610885 0.15026402

first_block_bn.running_var f4 [2]
00000000: 00ac ba3e e008 c83e
0.3645935 0.3906927

basicblock_list.0.bn1.weight f4 [2]
00000000: 0000 803f 0000 803f
1.0 1.0

basicblock_list.0.bn1.bias f4 [2]
00000000: 0000 0000 0000 0000
0.0 0.0

basicblock_list.0.bn1.running_mean f4 [2]
00000000: 0000 0000 0000 0000
0.0 0.0

basicblock_list.0.bn1.running_var f4 [2]
00000000: 0000 803f 0000 803f
1.0 1.0

basicblock_list.0.conv1.conv.weight f4 [2, 2, 3]
00000000: f57b e6be 39a9 433e 0a25 973e 5128 c23e
00000010: 328f 80be 5d29 353d 675a dcbd 030f 273d
00000020: cfc9 6b3d 7042 a03e 0eb1 a13e 4d16 583e
-0.45016447 0.19107522 0.29520446 0.37921384 -0.2510925 0.0442289 -0.107594304 0.0407858
0.057565507 0.31300688 0.31580395 0.21102257

basicblock_list.0.conv1.conv.bias f4 [2]
00000000: 6483 2ebe 87c5 043d
-0.17042309 0.03241494

basicblock_list.0.bn2.weight f4 [2]
00000000: 1a14 893f 6507 d53f
1.070926 1.6642882

basicblock_list.0.bn2.bias f4 [2]
00000000: 49c3 2bbe 67b8 32bd
-0.16773714 -0.04363289

basicblock_list.0.bn2.running_mean f4 [2]
00000000: 0147 fdbd a6e7 7a3e
-0.123670585 0.2450243

basicblock_list.0.bn2.running_var f4 [2]
00000000: 31e3 6e3d 7aff 0d3c
0.058322135 0.008666867

basicblock_list.0.conv2.conv.weight f4 [2, 2, 3]
00000000: c37e c0bb 73ce 73bc 267b 84be 5318 79bd
00000010: d607 6c3f 92c1 04be eb57 0fbf a94c 453d
00000020: 03c4 d9be d8b1 87be 37a0 3bbf 99ee 2cbf
-0.005874486 -0.014880764 -0.25875205 -0.060814213 0.92199457 -0.12964466 -0.5599353 0.048168812
-0.42532358 -0.26502872 -0.73291343 -0.6755157

basicblock_list.0.conv2.conv.bias f4 [2]
00000000: 4e75 303c 36ac 523e
0.010770155 0.20573506

basicblock_list.1.bn1.weight f4 [2]
00000000: f9b9 713f f228 873f
0.94424397 1.055937

basicblock_list.1.bn1.bias f4 [2]
00000000: fded 87bd 5741 a53c
-0.066371895 0.020172758

basicblock_list.1.bn1.running_mean f4 [2]
00000000: 3250 ed3e 2b28 0ebf
0.46350247 -0.5553004

basicblock_list.1.bn1.running_var f4 [2]
00000000: 55d7 3e40 dd63 bd40
2.9818928 5.9184403

basicblock_list.1.conv1.conv.weight f4 [2, 2, 3]
00000000: 951a 4c3e 2d39 ac3e 8d4e 00be 2278 ba3b
00000010: 19d3 6ebe 0a66 593e 32d1 97bc e9eb a0be
00000020: a1bf 083d ff2e 58bd 8003 d7be 428e c1be
0.19932015 0.33637372 -0.12529965 0.0056905905 -0.23322715 0.21230331 -0.01853237 -0.31429985
0.033385877 -0.052779194 -0.41994858 -0.37803847

basicblock_list.1.conv1.conv.bias f4 [2]
00000000: 1834 873d 71a6 c03e
0.06601733 0.37626985

basicblock_list.1.bn2.weight f4 [2]
00000000: 421f 713f 172f 8d3f
0.9418832 1.1029996

basicblock_list.1.bn2.bias f4 [2]
00000000: 07f6 6ebe 0140 13bd
-0.2333604 -0.03594971

basicblock_list.1.bn2.running_mean f4 [2]
00000000: 22cc 1c3e f0ab 293d
0.15312245 0.041423738

basicblock_list.1.bn2.running_var f4 [2]
00000000: a0c7 893e 2ed1 393e
0.26910114 0.18146202

basicblock_list.1.conv2.conv.weight f4 [2, 2, 3]
00000000: 7056 003e d063 56be e352 873c 19ff 813e
00000010: bfbe ebbe 1eab ffbc 160e d7be bd08 a6bd
00000020: e5f1 64be 20bd 32bd c0c8 4e3e 1e83 f7be
0.12532973 -0.20936513 0.016519016 0.25389937 -0.46043965 -0.031209525 -0.42002934 -0.081071354
-0.223579 -0.043637395 0.20193768 -0.48342222

basicblock_list.1.conv2.conv.bias f4 [2]
00000000: c04c 803d cf91 a1be
0.06264639 -0.31556556

basicblock_list.2.bn1.weight f4 [2]
00000000: 4b5c 643f 8491 8d3f
0.8920333 1.1060033

basicblock_list.2.bn1.bias f4 [2]
00000000: 44a0 1d3d 885d f73d
0.03848292 0.120783865

basicblock_list.2.bn1.running_mean f4 [2]
00000000: c386 593f f00b 40bf
0.84971255 -0.75018215

basicblock_list.2.bn1.running_var f4 [2]
00000000: e77f 9340 9123 8e40
4.609363 4.4418416

basicblock_list.2.conv1.conv.weight f4 [2, 2, 3]
00000000: 3610 293e aaf8 5cbd 3bc4 a4be a26c d0be
00000010: d59b 6fbe cd05 cd3e 3309 02bf 2486 833e
00000020: 2b1b 9dbe e4df 85bd b0dd d3be 13d9 163e
0.1651009 -0.053948082 -0.32180962 -0.4070788 -0.23399289 0.40043488 -0.50795287 0.2568828
-0.3068479 -0.065368444 -0.41380072 0.14731245

basicblock_list.2.conv1.conv.bias f4 [2]
00000000: d077 54bd beab c7be
-0.051872075 -0.38998216

basicblock_list.2.bn2.weight f4 [2]
00000000: 52dc 9b3f 6588 4f3f
1.2176611 0.81067497

basicblock_list.2.bn2.bias f4 [2]
00000000: 7ea0 263e e6fc 09be
0.1627216 -0.1347538

basicblock_list.2.bn2.running_mean f4 [2]
00000000: 8d9a 49be af71 2bbf
-0.19687863 -0.6697034

basicblock_list.2.bn2.running_var f4 [2]
00000000: 4ee4 993e 4815 143f
0.30056995 0.5784497

basicblock_list.2.conv2.conv.weight f4 [2, 2, 3]
00000000: 6e24 193e 8664 a5be 3974 033f 8281 96bd
00000010: 43dd a2be 0393 45be 6567 b6be 3f5b 5dbe
00000020: 63ec d73e ab67 5cbe 8cc7 50be bf28 b63d
0.14955303 -0.32303256 0.51349217 -0.073489204 -0.31809434 -0.19294362 -0.3562576 -0.21616839
0.42172536 -0.21523921 -0.20388621 0.088944905

basicblock_list.2.conv2.conv.bias f4 [2]
00000000: 6e4c 3b3e b6a4 303d
0.18290874 0.04312583

final_bn.weight f4 [2]
00000000: 403f 883f 3c71 9e3f
1.0644302 1.2378306

final_bn.bias f4 [2]
00000000: d980 2b3e b035 893e
0.1674837 0.26798773

final_bn.running_mean f4 [2]
00000000: 32fe 8d3f 4a9f 55bf
1.1093199 -0.8344618

final_bn.running_var f4 [2]
00000000: a4ec af40 4cfe 8a40
5.497637 4.343542

dense.weight f4 [1, 2]
00000000: 3a92 3b3e 6ce9 473f
0.183175 0.7809055

exp_avg f4 [2, 1, 3]
00000000: a0b2 ca3d 3cf6 9abd f03b 2fbc bf1e 04bf
00000010: 9d40 2cbe df57 08bd
0.09897351 -0.07566497 -0.010695443 -0.51609415 -0.16821523 -0.033286925

exp_avg_sq f4 [2, 1, 3]
00000000: 4b71 9e3f 71f0 153f 34f7 e23f 2c23 a441
00000010: 481f 423f cea5 333f
1.2378324 0.5857001 1.773169 20.517174 0.7582898 0.7017487

exp_avg f4 [2]
00000000: c6f6 c1b3 e8c4 d334
-9.032151e-08 3.944508e-07

exp_avg_sq f4 [2]
00000000: 33e9 0a29 b3e2 242d
3.0844424e-14 9.372658e-12

exp_avg f4 [2]
00000000: 2a0c 193e 0700 ffbc
0.14946046 -0.031127943

exp_avg_sq f4 [2]
00000000: d492 163f e575 8c3e
0.5881779 0.27433696

exp_avg f4 [2]
00000000: d7be 12bd 10b5 c7bb
-0.03582653 -0.0060945824

exp_avg_sq f4 [2]
00000000: 572f 873d 6e52 8b3f
0.06600826 1.088453

exp_avg f4 [2, 2, 3]
00000000: fbbd a7bd 3420 e4bd 0c5d a0bd 3f4d fc3c
00000010: 4d32 4d3b 58c0 9cbd 7bc6 0ebf 4c20 973e
00000020: 0c3d 0d3e ac92 1fbe 98c7 ac3b f809 20be
-0.08190533 -0.11138955 -0.07830247 0.030798553 0.00313105 -0.07653874 -0.5577161 0.29516828
0.13792819 -0.15583295 0.005272817 -0.15628803

exp_avg_sq f4 [2, 2, 3]
00000000: ebf3 ae3e 286a 163f 664b 533e d431 8b3d
00000010: 9c9f f53c 40fe 953d 6bd5 5f41 4cd7 5541
00000020: 93e5 8641 9244 c73f 4190 ae3f a19b 9f3f
0.3417047 0.5875573 0.20634231 0.06796613 0.029983334 0.07323885 13.989604 13.365063
16.862097 1.5567801 1.3637773 1.2469369

exp_avg f4 [2]
00000000: c48a 33b3 2d40 0bb5
-4.1802892e-08 -5.1874923e-07

exp_avg_sq f4 [2]
00000000: c9d4 c32a 6448 412e
3.4786608e-13 4.3947415e-11

exp_avg f4 [2]
00000000: 21ad fabc 91b4 38bd
-0.030600132 -0.045094077

exp_avg_sq f4 [2]
00000000: d9bf 313c bd27 3c3d
0.010848963 0.045936335

exp_avg f4 [2]
00000000: 4eeb 72bd 9c8b b23d
-0.059306435 0.087180346

exp_avg_sq f4 [2]
00000000: 8c1d 0e3d e690 843e
0.034696147 0.258918

exp_avg f4 [2, 2, 3]
00000000: ca48 62bd bce2 9a3d f11e 883c e22e 9bbc
00000010: 0657 82bd 38f2 e63c 8adf 073d 1613 3d3e
00000020: ec12 9b3c 4f22 d0bd d45c 0f3d 84e1 e53c
-0.0552452 0.075627774 0.016616317 -0.018943254 -0.06364255 0.02819167 0.033172168 0.18464312
0.018929921 -0.10162794 0.035000637 0.028061636

exp_avg_sq f4 [2, 2, 3]
00000000: 72ee 803d aa17 643d 110a 533c 404e 923d
00000010: b13b 213d 82dd aa3d 7129 523c d913 903e
00000020: fdd5 923c ab62 8e3e 0b60 883d 932d 543d
0.0629548 0.05568663 0.012880818 0.07143831 0.039363567 0.083430305 0.012827263 0.28140143
0.017924303 0.27809653 0.06658944 0.051801275

exp_avg f4 [2]
00000000: 8841 6fb3 40b4 81b3
-5.5706124e-08 -6.039818e-08

exp_avg_sq f4 [2]
00000000: ea87 a529 6616 902b
7.351049e-14 1.0238032e-12

exp_avg f4 [2]
00000000: 1eab 42bc 2827 203c
-0.011881618 0.009774961

exp_avg_sq f4 [2]
00000000: 1f40 423c a81f 083c
0.011856108 0.008308329

exp_avg f4 [2]
00000000: f640 3ebc b64a c93b
-0.011612168 0.0061429394

exp_avg_sq f4 [2]
00000000: 2258 813c 17bd 983d
0.015789095 0.07457941

exp_avg f4 [2, 2, 3]
00000000: 2900 903d c4c0 62bd 909b 42ba 305a c23a
00000010: 5a6c 063c de87 f73c d480 61bc 9bd0 d53c
00000020: 8cd8 753d 0c83 e7bc f499 4cbc 98cf 0a3b
0.070312805 -0.055359617 -0.00074236933 0.0014827903 0.008204544 0.030216154 -0.013763625 0.026100447
0.06002097 -0.02826073 -0.012487877 0.0021180864

exp_avg_sq f4 [2, 2, 3]
00000000: bba8 3b3e 0898 9b3d 9652 313d e9e1 253c
00000010: fdff cf3b 5389 a63c d1a8 253f 4a79 c33d
00000020: 7283 203f 640f 6f3d cf38 9b3c 4b89 d83c
0.18326084 0.07597357 0.04329165 0.010124662 0.006347655 0.020329153 0.6471072 0.095446184
0.6270057 0.058364287 0.018947987 0.026432654

exp_avg f4 [2]
00000000: 3ca2 bfb0 97ce aeb3
-1.3943189e-09 -8.140085e-08

exp_avg_sq f4 [2]
00000000: d88f 4a28 26f6 8829
1.1244444e-14 6.082313e-14

exp_avg f4 [2]
00000000: 1f99 6cbb 7262 4f3c
-0.003610201 0.012657749

exp_avg_sq f4 [2]
00000000: 1ff0 b43c 91f7 d93c
0.022087155 0.026607307

exp_avg f4 [2]
00000000: 9adc 923b e05e f63c
0.004481864 0.030074537

exp_avg_sq f4 [2]
00000000: 0216 ba3c cdb9 553d
0.022715572 0.052179147

exp_avg f4 [2, 2, 3]
00000000: 333d a13c a735 903c ba54 e33b cef2 9e3c
00000010: 830d acbc 704c e43b 8820 9f3c 50ac 6e3b
00000020: 742d bbbc b421 e2bc a0b0 f23c f947 933c
0.019682502 0.017603708 0.0069375904 0.019402888 -0.021002537 0.00696712 0.019424692 0.0036418624
-0.022848822 -0.027603962 0.029625237 0.017978655

exp_avg_sq f4 [2, 2, 3]
00000000: d23e fc3c 9f19 033d caad b03c 29af 183c
00000010: 5ef4 9c3b f50d 9b3b 394e 023d 3cb8 583d
00000020: 5c1b a83d b678 353e 434d 4b3e 2613 3b3e
0.030791674 0.032006856 0.021567244 0.009319105 0.004789873 0.0047318884 0.03181288 0.052910075
0.082083434 0.17721829 0.19853692 0.18269023

exp_avg f4 [2]
00000000: f00b 42b2 46c2 89b2
-1.12950005e-08 -1.6037244e-08

exp_avg_sq f4 [2]
00000000: 6e96 ce27 1d79 d22a
5.733958e-15 3.7387533e-13

exp_avg f4 [2]
00000000: 820c c6bc 926a 963c
-0.024175886 0.018361364

exp_avg_sq f4 [2]
00000000: 16b6 0c3c 6d53 763b
0.008588335 0.0037586347

exp_avg f4 [2]
00000000: 6aa7 a13c 9cc2 863b
0.01973315 0.0041125547

exp_avg_sq f4 [2]
00000000: ef6e 153c 55eb 263d
0.009120687 0.040751774

exp_avg f4 [2, 2, 3]
00000000: 96e1 03be 588a 9f3d 7096 f2bb a0e7 d2b9
00000010: 3651 083c bb4a 7e3d 285f 523c eb6d 6c3c
00000020: 02d1 87bc 3c80 3d3d fe6d 453c c67c 1f3d
-0.12879023 0.07790059 -0.0074031875 -0.00040226895 0.008320143 0.062082987 0.01284007 0.014430503
-0.016579155 0.046264872 0.01205015 0.038937353

exp_avg_sq f4 [2, 2, 3]
00000000: e21a b13e 6d07 303e 84e6 4b3d 37c8 a13c
00000010: 739f 193d a476 4e3d 8c63 d13b 83df 3f3d
00000020: b26b 823b 2301 be3c 7b23 ed3b 5756 d43c
0.34590822 0.17190333 0.049780384 0.01974879 0.03750558 0.050406113 0.0063900407 0.046844017
0.0039801234 0.023193901 0.0072368956 0.025920076

exp_avg f4 [2]
00000000: cf89 20b2 4e31 8fb0
-9.34456e-09 -1.0418633e-09

exp_avg_sq f4 [2]
00000000: 04db 2628 04cf cf28
9.2623425e-15 2.3071395e-14

exp_avg f4 [2]
00000000: f878 2b3c 252b acbb
0.010465853 -0.0052541667

exp_avg_sq f4 [2]
00000000: 651b c93c 372a 583c
0.024549196 0.013193659

exp_avg f4 [2]
00000000: 6511 7c3d fc2b f9bc
0.061540026 -0.030416481

exp_avg_sq f4 [2]
00000000: 77fc eb3c ff46 3d3d
0.028806908 0.046210285

exp_avg f4 [2, 2, 3]
00000000: ae53 9bbc 2ba7 37bc c804 6d3d 00da 623a
00000010: 95e3 b8bb 393d 47bb 1260 1e3e 4d85 553d
00000020: 2e54 0e3e 2c71 0b3c b85b 3abb 0e20 62bc
-0.0189608 -0.01120929 0.057865888 0.00086537004 -0.0056423643 -0.0030401482 0.15466335 0.05212908
0.138993 0.008510869 -0.0028436016 -0.013801588

exp_avg_sq f4 [2, 2, 3]
00000000: c7e2 483c 31b2 083c 1608 973c e50b 013b
00000010: 885a 723b 1410 063b 273a 973e f433 973e
00000020: 43b7 bc3e b860 3a3d 00a4 e63c 900b 823d
0.012261099 0.008343265 0.018436473 0.0019690928 0.003698023 0.002045636 0.29536554 0.29531825
0.36858568 0.045502394 0.028154373 0.063498616

exp_avg f4 [2]
00000000: facc 3f32 b907 3eb4
1.11642695e-08 -1.7697938e-07

exp_avg_sq f4 [2]
00000000: 7d19 d427 f114 dc2a
5.8869455e-15 3.9094381e-13

exp_avg f4 [2]
00000000: facc febd 3bac 8fbd
-0.1244144 -0.07015272

exp_avg_sq f4 [2]
00000000: 83d4 163f 1749 ae40
0.5891802 5.446422

exp_avg f4 [2]
00000000: 40f2 b7ba 8758 29be
-0.0014033988 -0.16537677

exp_avg_sq f4 [2]
00000000: 6179 1e3f 9618 3f42
0.6190396 47.77401

exp_avg f4 [1, 2]
00000000: de6b 39bf 12fa 2bbe
-0.7243022 -0.16794613

exp_avg_sq f4 [1, 2]
00000000: 69d2 d341 89ff 1242
26.47774 36.749546
