Solvation_1/Run_results/ResNet/BoB_SOAP_Res1/best/best_val_model.pt (torch, 36627 bytes, 105 tensors)

first_block_conv.conv.weight f4 [2, 1, 3]
0	0xbe0e2799	-0.13882293
1	0x3eff342d	0.49844494
2	0x3f1d8039	0.6152378
3	0x3ed84e0e	0.4224705
4	0xbd957f6a	-0.07299693
5	0xbe96baa3	-0.29439268

first_block_conv.conv.bias f4 [2]
0	0x3d5480bb	0.05188058
1	0xbec27198	-0.3797729

first_block_bn.weight f4 [2]
0	0x3f4c3201	0.797638
1	0x3f435791	0.7630549

first_block_bn.bias f4 [2]
0	0x3ea5a294	0.323506
1	0xbf056df7	-0.5212092

first_block_bn.running_mean f4 [2]
0	0x3db2578a	0.08708103
1	0xbec16cec	-0.37778413

first_block_bn.running_var f4 [2]
0	0x3f049ceb	0.5180194
1	0x3e270436	0.163102

basicblock_list.0.bn1.weight f4 [2]
0	0x3f800000	1.0
1	0x3f800000	1.0

basicblock_list.0.bn1.bias f4 [2]
0	0x00000000	0.0
1	0x00000000	0.0

basicblock_list.0.bn1.running_mean f4 [2]
0	0x00000000	0.0
1	0x00000000	0.0

basicblock_list.0.bn1.running_var f4 [2]
0	0x3f800000	1.0
1	0x3f800000	1.0

basicblock_list.0.conv1.conv.weight f4 [2, 2, 3]
0	0xbe4aa055	-0.19787724
1	0xbd13affe	-0.03605651
2	0x3e84ff2f	0.2597594
3	0x3e4d004f	0.20019649
4	0x3e15f053	0.14642458
5	0x3da66c31	0.081261046
6	0x3e07fed9	0.1328081
7	0x3d47d931	0.048791114
8	0xbdb14559	-0.08655805
9	0xbe9c3fe8	-0.30517507
10	0xbe881106	-0.26575488
11	0xbe5bca72	-0.21463946

basicblock_list.0.conv1.conv.bias f4 [2]
0	0x3e96399e	0.29340833
1	0x3e07748f	0.13228057

basicblock_list.0.bn2.weight f4 [2]
0	0x3f97df54	1.1865029
1	0x3f8c8a88	1.0979776

basicblock_list.0.bn2.bias f4 [2]
0	0xbf22855e	-0.6348475
1	0x3e7b2b48	0.24528229

basicblock_list.0.bn2.running_mean f4 [2]
0	0x3ea20527	0.31644556
1	0x3e11534f	0.14191936

basicblock_list.0.bn2.running_var f4 [2]
0	0x3d169f4a	0.036773004
1	0x3d8214ad	0.063516

basicblock_list.0.conv2.conv.weight f4 [2, 2, 3]
0	0xbf077a7f	-0.5292129
1	0xbe6817a9	-0.22665276
2	0xbddf21f0	-0.10895145
3	0x3e39ce05	0.18144996
4	0x3f088ef6	0.5334314
5	0x3dcabf18	0.098997295
6	0x3ec41363	0.3829604
7	0x3ea89b57	0.32931015
8	0xbc5baca9	-0.013407865
9	0x3d4522af	0.04812878
10	0x3bca86f6	0.0061806394
11	0xbd81b9a8	-0.06334239

basicblock_list.0.conv2.conv.bias f4 [2]
0	0xbdd00fe5	-0.10159282
1	0x3d497847	0.04918697

basicblock_list.1.bn1.weight f4 [2]
0	0x3f256607	0.64608806
1	0x3f8d160c	1.1022353

basicblock_list.1.bn1.bias f4 [2]
0	0x3e0a22a1	0.13489772
1	0xbed6287d	-0.41827765

basicblock_list.1.bn1.running_mean f4 [2]
0	0x3eec13ba	0.461088
1	0x3e0b7bb4	0.13621408

basicblock_list.1.bn1.running_var f4 [2]
0	0x3fa597d2	1.2936957
1	0x3fa3446e	1.2755258

basicblock_list.1.conv1.conv.weight f4 [2, 2, 3]
0	0xbf03e63d	-0.5152319
1	0xbedb5f36	-0.42846078
2	0xbdd86fe5	-0.10568217
3	0x3d13f4bd	0.036122072
4	0x3e0941dc	0.1340403
5	0xbe31f671	-0.17379166
6	0xbd8c86c1	-0.0686164
7	0x3e0600c0	0.13086224
8	0x3d8e8eda	0.069608405
9	0x3e9c1278	0.3048284
10	0x3e9ca41c	0.30593956
11	0x3ea27fc8	0.31738114

basicblock_list.1.conv1.conv.bias f4 [2]
0	0xbe998e73	-0.29991493
1	0x3e2212ac	0.15827435

basicblock_list.1.bn2.weight f4 [2]
0	0x3fa6c1c7	1.3027886
1	0x3f7ffecc	0.99998164

basicblock_list.1.bn2.bias f4 [2]
0	0x3ea6ca07	0.3257601
1	0xbedca7e6	-0.43096846

basicblock_list.1.bn2.running_mean f4 [2]
0	0xbefd6582	-0.49491507
1	0x3e80533f	0.25063512

basicblock_list.1.bn2.running_var f4 [2]
0	0x3e935fa1	0.28783897
1	0x3f89774d	1.0739533

basicblock_list.1.conv2.conv.weight f4 [2, 2, 3]
0	0x3d7e9784	0.062156215
1	0xbec1ecb8	-0.37875915
2	0xbed5c4c7	-0.41751692
3	0xbea1fd51	-0.31638578
4	0xbe557ae9	-0.20847668
5	0xbebd5bd3	-0.3698412
6	0x3e47249e	0.19447562
7	0xbce53c71	-0.027982922
8	0x3de92b31	0.11385191
9	0x3e5244d6	0.20534071
10	0x3cc4c06f	0.02401754
11	0x3e8d703f	0.276247

basicblock_list.1.conv2.conv.bias f4 [2]
0	0x3e4c95b3	0.1997898
1	0x3ec1c007	0.37841818

basicblock_list.2.bn1.weight f4 [2]
0	0x3f6556e9	0.8958574
1	0x3f6d6591	0.92733103

basicblock_list.2.bn1.bias f4 [2]
0	0x3e8a455b	0.2700604
1	0x3e5bc4dc	0.21461815

basicblock_list.2.bn1.running_mean f4 [2]
0	0x3eb14549	0.34623173
1	0x3f3c9f54	0.73680615

basicblock_list.2.bn1.running_var f4 [2]
0	0x404cae59	3.1981413
1	0x404fa511	3.2444499

basicblock_list.2.conv1.conv.weight f4 [2, 2, 3]
0	0xbe29700a	-0.16546646
1	0xbec78c3d	-0.3897418
2	0xbf07d4ba	-0.5305897
3	0x3e06b53b	0.13155071
4	0x3eb0324c	0.34413373
5	0xbe0f247f	-0.13978766
6	0x3e8c8e06	0.27452105
7	0xbd972e72	-0.073819056
8	0x3e9d37fe	0.3070678
9	0xbdbb9336	-0.09158938
10	0x3d469774	0.04848428
11	0xbe9da0c0	-0.30786705

basicblock_list.2.conv1.conv.bias f4 [2]
0	0xbe9f6a54	-0.3113581
1	0x3df1f289	0.11813838

basicblock_list.2.bn2.weight f4 [2]
0	0x3f943c7d	1.158096
1	0x3f4f03b1	0.8086501

basicblock_list.2.bn2.bias f4 [2]
0	0x3e3992fc	0.18122476
1	0x3e71b3d5	0.23603757

basicblock_list.2.bn2.running_mean f4 [2]
0	0xbf1d0881	-0.613411
1	0x3e5f1613	0.21785764

basicblock_list.2.bn2.running_var f4 [2]
0	0x3f08ad30	0.53389263
1	0x3e8d5e6b	0.27611098

basicblock_list.2.conv2.conv.weight f4 [2, 2, 3]
0	0xbee029a1	-0.4378176
1	0x3d501f44	0.050811067
2	0xbed58736	-0.4170472
3	0x3e4e1e96	0.20128855
4	0x3e837ca6	0.25681037
5	0x3e184b4b	0.14872472
6	0x3e2492ed	0.16071673
7	0xbd63ee71	-0.055647317
8	0x3d861f96	0.06548993
9	0x3cae0f6f	0.021247594
10	0xbbc23d6d	-0.0059277327
11	0x3cffc348	0.031221047

basicblock_list.2.conv2.conv.bias f4 [2]
0	0xbdc2e778	-0.095168054
1	0x3eaf8b90	0.34286165

final_bn.weight f4 [2]
0	0x3fa91692	1.3210013
1	0x3fbf697f	1.495407

final_bn.bias f4 [2]
0	0x3ea8d669	0.32976082
1	0xbe50b44e	-0.20381281

final_bn.running_mean f4 [2]
0	0x3ddd477d	0.10804651
1	0x3f94d412	1.1627219

final_bn.running_var f4 [2]
0	0x40ab36d4	5.350443
1	0x4062ef1a	3.5458436

dense.weight f4 [1, 2]
0	0x3f20cb2d	0.6281002
1	0xbf6267df	-0.88439745

exp_avg f4 [2, 1, 3]
0	0x3d8f2066	0.069886014
1	0xbe537440	-0.20649815
2	0x3e3b6d66	0.18303451
3	0x400f0940	2.2349396
4	0x40456ba0	3.084694
5	0x401c531e	2.442573

exp_avg_sq f4 [2, 1, 3]
0	0x3e078790	0.13235307
1	0x3e2a8c1f	0.16655014
2	0x3de2d442	0.11075641
3	0x4347dd9d	199.86568
4	0x438850bd	272.63077
5	0x43839ac8	263.20923

exp_avg f4 [2]
0	0xb4c16eec	-3.6029758e-07
1	0x38d36991	0.00010080927

exp_avg_sq f4 [2]
0	0x31a3f568	4.771824e-09
1	0x348b5d3b	2.5958602e-07

exp_avg f4 [2]
0	0xbe1b4bfb	-0.15165703
1	0x3e0e4bf7	0.13896166

exp_avg_sq f4 [2]
0	0x3f93bc56	1.154185
1	0x3f723f01	0.94627386

exp_avg f4 [2]
0	0x3dcbfabb	0.099599324
1	0x3e555e06	0.20836648

exp_avg_sq f4 [2]
0	0x3e9d42a3	0.30714902
1	0x3fa12401	1.2589113

exp_avg f4 [2, 2, 3]
0	0x3f8f13c8	1.1177912
1	0x3f4b4d3a	0.79414713
2	0x3f7478b5	0.95496684
3	0xbe9c2ef5	-0.30504575
4	0x3efcfd63	0.4941207
5	0xbdf21d32	-0.11821975
6	0xbea0ceb1	-0.31407693
7	0xbe9299af	-0.28632876
8	0xbea424c2	-0.32059294
9	0xbd29a905	-0.041420955
10	0xbd25ad3f	-0.040448423
11	0xbcace662	-0.021105949

exp_avg_sq f4 [2, 2, 3]
0	0x42bb625d	93.692116
1	0x42afabb6	87.83537
2	0x42a92a90	84.58313
3	0x3f19f162	0.60133946
4	0x3f0a4750	0.54015064
5	0x3f744f4f	0.95433515
6	0x40f01fd3	7.503885
7	0x40f326af	7.598472
8	0x40f43857	7.6318774
9	0x3e0d7868	0.13815463
10	0x3dc73386	0.09726624
11	0x3db5bc72	0.08873834

exp_avg f4 [2]
0	0xb8bb5fac	-8.934675e-05
1	0xb945b8ea	-0.0001885627

exp_avg_sq f4 [2]
0	0x33914231	6.764129e-08
1	0x363760b5	2.7325416e-06

exp_avg f4 [2]
0	0x3cc211bc	0.023690097
1	0xbc64fc81	-0.013976217

exp_avg_sq f4 [2]
0	0x3e43c151	0.19116713
1	0x3cfd1864	0.03089542

exp_avg f4 [2]
0	0x3cdf7c60	0.027280986
1	0x3daa756b	0.08323177

exp_avg_sq f4 [2]
0	0x3da514c6	0.08060603
1	0x3e0fda6f	0.1404817

exp_avg f4 [2, 2, 3]
0	0x3c8b8d70	0.017035216
1	0x3d02ad21	0.03190339
2	0x3c4b9dce	0.01242776
3	0xbccad2da	-0.024758745
4	0x3c8d912f	0.017281143
5	0xba67d702	-0.00088439893
6	0xbd1dc42e	-0.03851717
7	0x3e001c4d	0.12510796
8	0xbe129fe1	-0.14318801
9	0x3caa6795	0.020801345
10	0x3c1f1d9a	0.009711647
11	0x3c245837	0.010030798

exp_avg_sq f4 [2, 2, 3]
0	0x3d98cb39	0.07460637
1	0x3eb7b8d5	0.35883203
2	0x3e7f34d6	0.24922499
3	0x3d10e6bd	0.0353763
4	0x3db5eb74	0.088828
5	0x3cc66bd7	0.024221344
6	0x3da2b516	0.07944696
7	0x3e2c6a5b	0.16837446
8	0x3dbab3b6	0.091163084
9	0x3e123955	0.14279683
10	0x3ddea0a5	0.10870484
11	0x3d52aa6e	0.051432066

exp_avg f4 [2]
0	0x3848e5b9	4.789766e-05
1	0xb7644e81	-1.3608137e-05

exp_avg_sq f4 [2]
0	0x3309e7c8	3.2108602e-08
1	0x31b73769	5.3323004e-09

exp_avg f4 [2]
0	0x3c76464e	0.01503141
1	0xbcba5882	-0.022747282

exp_avg_sq f4 [2]
0	0x3c00e2bb	0.007866557
1	0x3c6fe600	0.014642239

exp_avg f4 [2]
0	0x3de4e51b	0.11176511
1	0xba2f4d80	-0.00066872686

exp_avg_sq f4 [2]
0	0x3ebaf5f8	0.36515784
1	0x3b77aa7b	0.0037790823

exp_avg f4 [2, 2, 3]
0	0xbc865dfe	-0.01640224
1	0xbcb0b59e	-0.021570977
2	0xbc27ddfc	-0.010245796
3	0xbbf38708	-0.0074318685
4	0xbe0ba5ed	-0.13637514
5	0x3ab14704	0.0013525193
6	0xbc2f5a42	-0.0107026715
7	0x3cd6dc36	0.026228052
8	0x3cd92855	0.02650849
9	0xbc5fbf8b	-0.013656507
10	0xbd4af079	-0.04954574
11	0x3d2bb43a	0.041919924

exp_avg_sq f4 [2, 2, 3]
0	0x3c6cfb54	0.014464218
1	0x3c878b5b	0.016545942
2	0x3cb32982	0.021870378
3	0x3f304a7f	0.6886367
4	0x3f7579b3	0.95888823
5	0x3d7c6836	0.06162282
6	0x3d5b671a	0.053565122
7	0x3e6b06fc	0.22951883
8	0x3e0d3a0f	0.13791679
9	0x3c91b2aa	0.017785389
10	0x3d0f053d	0.034917105
11	0x3c947362	0.018121425

exp_avg f4 [2]
0	0x35eb3468	1.7524117e-06
1	0x3479704e	2.3230788e-07

exp_avg_sq f4 [2]
0	0x313eda74	2.7772815e-09
1	0x2ceb2e45	6.6842387e-12

exp_avg f4 [2]
0	0x3ca101e5	0.019654224
1	0xbc43d19c	-0.01195183

exp_avg_sq f4 [2]
0	0x3c987b10	0.018613368
1	0x3e5df4da	0.21675435

exp_avg f4 [2]
0	0x3d830b01	0.06398583
1	0x3bce7907	0.0063010487

exp_avg_sq f4 [2]
0	0x3e0aefa0	0.13567972
1	0x3c828a8d	0.015935207

exp_avg f4 [2, 2, 3]
0	0xbbbdd026	-0.0057926355
1	0xbda57b6e	-0.08080183
2	0xbd6239da	-0.055230953
3	0x3ce6e67a	0.028186072
4	0x3d0b719a	0.034043886
5	0x3cedc2be	0.029023524
6	0xbca2a075	-0.019851902
7	0xbc7f7a55	-0.015593131
8	0xbcf73e3f	-0.030181048
9	0x3d129b11	0.035792414
10	0x3cd37863	0.02581424
11	0x3c7388a2	0.014864119

exp_avg_sq f4 [2, 2, 3]
0	0x3cb7de14	0.022444762
1	0x3e3bb00e	0.18328878
2	0x3e05ca11	0.13065363
3	0x3e83466e	0.2563967
4	0x3e960e91	0.29307988
5	0x3e764fde	0.24053904
6	0x3cde1786	0.027110826
7	0x3ca5792b	0.020199379
8	0x3cd81cca	0.026380915
9	0x3da51a02	0.08061601
10	0x3d7d7c2f	0.06188601
11	0x3d8a6e58	0.06759328

exp_avg f4 [2]
0	0xb67bcda8	-3.7521622e-06
1	0x34d76eb1	4.012741e-07

exp_avg_sq f4 [2]
0	0x2ee3fffc	1.0368237e-10
1	0x2c39e58d	2.6417508e-12

exp_avg f4 [2]
0	0xbc4c40b0	-0.012466595
1	0xbc7afa0f	-0.015318408

exp_avg_sq f4 [2]
0	0x3d348274	0.044069722
1	0x3d8ec0f2	0.06970395

exp_avg f4 [2]
0	0x3db6b323	0.08920886
1	0x3bc33cea	0.0059581893

exp_avg_sq f4 [2]
0	0x3e3aac67	0.18229829
1	0x3afe87b4	0.0019419105

exp_avg f4 [2, 2, 3]
0	0xbd109b46	-0.03530433
1	0xbc88c60b	-0.016695997
2	0xbca63a2b	-0.020291409
3	0xbd4e87c2	-0.050422437
4	0xbd419c9e	-0.047268502
5	0x3acfe6a8	0.0015861588
6	0xbc93ab57	-0.018026037
7	0xbc75db91	-0.015005962
8	0xbca971e6	-0.020684194
9	0xbc9d7a01	-0.019223215
10	0x3ba046b6	0.004891242
11	0xbcd9fce1	-0.02660984

exp_avg_sq f4 [2, 2, 3]
0	0x3d2090f4	0.039200738
1	0x3cffa878	0.031208262
2	0x3d18c7ae	0.037299804
3	0x3e58582b	0.21127383
4	0x3e8b6631	0.27226403
5	0x3da06a66	0.07832794
6	0x3ce490b7	0.027901037
7	0x3cc7b1a9	0.024376707
8	0x3cc6eaf5	0.024281958
9	0x3cc4da88	0.024029985
10	0x3d0ac160	0.033875823
11	0x3d7a5669	0.061117563

exp_avg f4 [2]
0	0xb61ebb8f	-2.3653008e-06
1	0x359a5e52	1.1501345e-06

exp_avg_sq f4 [2]
0	0x2e90c42b	6.583208e-11
1	0x2ed7b24c	9.80874e-11

exp_avg f4 [2]
0	0x3d03c97b	0.03217457
1	0xbc4f37a5	-0.012647544

exp_avg_sq f4 [2]
0	0x3cc4996a	0.023998935
1	0x3ca75379	0.020425545

exp_avg f4 [2]
0	0x3da1f9db	0.07908984
1	0x3c1f6c04	0.009730343

exp_avg_sq f4 [2]
0	0x3dd5ab4a	0.104330614
1	0x3c0a6385	0.008446579

exp_avg f4 [2, 2, 3]
0	0xbd9460ba	-0.07245012
1	0xbd4ef9a1	-0.050531033
2	0xbd70320c	-0.05864148
3	0xbc541f25	-0.012946879
4	0xbc6b99dd	-0.014379946
5	0xbc46364b	-0.012097905
6	0xbc1ca466	-0.00956068
7	0x3cf17efa	0.029479492
8	0x3c90ecde	0.017691072
9	0x3a091ed4	0.0005230729
10	0x3c570140	0.013122857
11	0x3bf33280	0.0074217916

exp_avg_sq f4 [2, 2, 3]
0	0x3db8a9d1	0.09016765
1	0x3ce1989f	0.027538596
2	0x3d87cff3	0.0663146
3	0x3d38e36b	0.045138758
4	0x3d3cac67	0.046062853
5	0x3d41529b	0.04719792
6	0x3db06631	0.086132415
7	0x3d285062	0.041092284
8	0x3d41aec5	0.047285814
9	0x3df4c3e3	0.11951425
10	0x3d9c0278	0.076176584
11	0x3e0a264b	0.1349117

exp_avg f4 [2]
0	0xb4a13ad9	-3.0031404e-07
1	0x34a52bfd	3.076565e-07

exp_avg_sq f4 [2]
0	0x2f04af5a	1.2067627e-10
1	0x2baed48d	1.2422438e-12

exp_avg f4 [2]
0	0x3e3edf23	0.18639807
1	0xbf43edac	-0.76534534

exp_avg_sq f4 [2]
0	0x400066f9	2.006285
1	0x41170e31	9.440965

exp_avg f4 [2]
0	0x3f9464d4	1.159327
1	0xbe17f83e	-0.1484079

exp_avg_sq f4 [2]
0	0x4206716c	33.610764
1	0x3f35decb	0.7104308

exp_avg f4 [1, 2]
0	0x3f8016ee	1.0006998
1	0x3fa144dd	1.259914

exp_avg_sq f4 [1, 2]
0	0x4207eb29	33.97965
1	0x41cb26d8	25.393967
