Solvation_1/Run_results/LinNet/Blank_TESA_Lin1/best/best_val_model.pt (torch, 878612 bytes, 21 tensors)

linear_relu_stack.0.weight f4 [512, 10]
0	0x3cd4f070	0.025993556
1	0x3e716ceb	0.23576705
2	0xbd80ef49	-0.0629564
3	0x3d969088	0.07351786
4	0xbe9a3be8	-0.3012383
5	0xbe83284b	-0.2561668
6	0xbe5d2aa5	-0.21598299
7	0xbc9b820a	-0.018982906
8	0x3e464446	0.19361982
9	0x3daa568a	0.08317287
10	0xbdbd982e	-0.092575416
11	0xbd844524	-0.064585
12	0x3ddddf57	0.10833614
13	0x3e02367d	0.12716098
14	0x3e96dc74	0.29465067
15	0x3db6a33a	0.08917852
16	0x3e6e657c	0.232809
17	0x3e7bde9b	0.24596636
18	0xbde742b7	-0.11292022
19	0xbe202585	-0.15639313
20	0xbe09eb16	-0.13468584
21	0x3e8f5ce3	0.28000554
22	0xbd869503	-0.065713905
23	0xbe545ca0	-0.20738459
24	0xbe3e8a6b	-0.1860749
25	0x3e19b750	0.15011334
26	0xbc946fa1	-0.018119635
27	0x3e838621	0.2568827
28	0x3d847031	0.06466711
29	0xbe915f05	-0.28392807
30	0xbe1b3b49	-0.15159334
31	0xbea1eb13	-0.3162466
32	0xbe3bbff1	-0.18334939
33	0xbe343981	-0.17600061
34	0x3e252179	0.1612605
35	0xbd8145ff	-0.06312179
36	0x3e1b435e	0.15162417
37	0x3d9135db	0.0709035
38	0x3e819a9b	0.25313267
39	0xbe9550c2	-0.29163176
40	0xbe8985cf	-0.268599
41	0xbe9bdad9	-0.30440405
42	0x3e0bdb58	0.13657892
43	0x3dc5c5a2	0.09656836
44	0xbb6080e3	-0.003425651
45	0x3e416fad	0.18890257
46	0x3e625d48	0.22105896
47	0xbdd4ec56	-0.1039664
48	0x3db5cd91	0.08877099
49	0x3df30db5	0.11867849
50	0xbe786275	-0.24256308
51	0x3ddb5ca1	0.10711027
52	0x3c82f671	0.015986653
53	0x3db765e3	0.0895498
54	0x3dc0ce56	0.094143555
55	0x3df84270	0.12122047
56	0xbe5a76e2	-0.21334413
57	0xbe5c300c	-0.21502703
58	0x3e17ac58	0.14811838
59	0xbea681fe	-0.3252105
60	0xbe21565c	-0.157556
61	0xbdafd9a2	-0.08586432
62	0x3e0a76ec	0.13521928
63	0x3e4c9caf	0.19981645
64	0x3e12510e	0.14288732
65	0xbe52bc0b	-0.20579545
66	0x3e95f275	0.29286543
67	0xbdd5eb57	-0.10445278
68	0x3e48f326	0.19624004
69	0x3e06ccb3	0.13164024
70	0xbea1d89a	-0.31610566
71	0xbe4913bd	-0.19636436
72	0x3ea1cd35	0.31601873
73	0x3e6949af	0.22782014
74	0x3ba95533	0.0051676272
75	0x3e3d856d	0.18507929
76	0x3e1abfdc	0.15112251
77	0xbdaa963d	-0.08329437
78	0x3dfb3927	0.1226676
79	0x3cd05525	0.025431225
80	0xbd188b90	-0.037242472
81	0x3e4ab885	0.19796951
82	0xbe146ff3	-0.1449583
83	0xbdeb6d63	-0.11495473
84	0x3e0c656d	0.13710566
85	0xbeafa5ae	-0.3430609
86	0x3de28d38	0.110620916
87	0x3dc7725c	0.09738609
88	0x3d7bda0b	0.06148724
89	0xbe12d71d	-0.14339872
90	0x3d9210b4	0.07132092
91	0x3db08b70	0.086203456
92	0xbb4b9e11	-0.0031069557
93	0xbe292e08	-0.16521466
94	0x3e9d1e93	0.3068739
95	0xbe8629b1	-0.26203683
96	0xbe6f8a82	-0.2339268
97	0xbdb36108	-0.087587416
98	0xbe84109b	-0.2579392
99	0xbe455cbb	-0.19273655
100	0xbea11875	-0.31463972
101	0xbdff0331	-0.124517806
102	0x3d6de49e	0.058079354
103	0x3cf80d6f	0.030279843
104	0xbd78a2b9	-0.06070206
105	0x3cd8463e	0.026400682
106	0x3d8a7470	0.0676049
107	0xbdc6d8af	-0.09709298
108	0x3d5bc08b	0.05365042
109	0x3de09f27	0.10967856
110	0x3d4da548	0.050206453
111	0xbdeefa55	-0.11668841
112	0x3d8c9d50	0.068659425
113	0xbe3e66a6	-0.18593845
114	0xbd98e251	-0.074650414
115	0x3e3b1b85	0.18272217
116	0xbe87bd4c	-0.2651161
117	0x3d424abc	0.047434554
118	0xbdab46fc	-0.083631486
119	0xbe88f077	-0.2674596
120	0x3df05990	0.11735833
121	0x3e1e980d	0.1548769
122	0xbe11046f	-0.14161848
123	0x3e2499e8	0.16074336
124	0xbe4b2510	-0.19838357
125	0x3ddb8ada	0.10719843
126	0x3e701b17	0.23447834
127	0xbdffe878	-0.12495512
128	0x3e8fa35a	0.28054315
129	0x3e7cd668	0.24691164
130	0x3e2dd52e	0.16975853
131	0x3dc06e0c	0.0939599
132	0xbe08a89c	-0.1334557
133	0xbe9a5871	-0.301456
134	0x3ea16344	0.31521046
135	0x3e88dd15	0.26731172
136	0xbe9706a3	-0.2949725
137	0xbe92816b	-0.28614363
138	0x3d223f9a	0.039611436
139	0x3e29cb03	0.16581349
140	0x3e43f7fa	0.19137564
141	0x3e504d0d	0.20341893
142	0x3d9334e2	0.07187821
143	0xbeb9a78c	-0.3626064
144	0x3e080154	0.13281757
145	0x3ce6cf5a	0.028175045
146	0x3e981e65	0.2971069
147	0xbd4f95c8	-0.050679952
148	0xbe24378b	-0.16036813
149	0x3e808708	0.2510302
150	0xbe836242	-0.25660902
151	0xbe26e1fd	-0.16297145
152	0xbe0c84c5	-0.13722523
153	0x3e8fd985	0.28095642
154	0x3e83b076	0.25720567
155	0xbe16b191	-0.14716174
156	0x3e4bd3dc	0.19905037
157	0xbda99d58	-0.08281964
158	0x3dbd09fc	0.0923042
159	0x3e583f50	0.21117902
160	0xbe99c35d	-0.30031863
161	0xbd479280	-0.048723698
162	0xbe39d48c	-0.18147486
163	0x3e0d7bc7	0.13816749
164	0xbe00ed9b	-0.1259064
165	0x3da11dd6	0.07867019
166	0xbe55fd3b	-0.20897381
167	0xbe373ab7	-0.17893492
168	0xbde8f176	-0.1137418
169	0xbe11e3ff	-0.1424713
170	0x3e001bc6	0.12510595
171	0xbda1d92f	-0.079027526
172	0xbe29ff08	-0.16601193
173	0x3e114b1d	0.1418881
174	0x3e87fb21	0.26558784
175	0xbe28a6b8	-0.16469848
176	0xbb9c0c96	-0.0047622425
177	0xbe79236d	-0.2432992
178	0xbd8722b0	-0.06598413
179	0x3df06b54	0.11739221
180	0xbe89d10b	-0.269173
181	0xbe7432f5	-0.23847564
182	0xbd247ca4	-0.04015793
183	0xbd06d96f	-0.032922205
184	0x3d90aa9f	0.070637934
185	0xbe53c764	-0.2068153
186	0xbe96ffcc	-0.29492033
187	0xbe8634b1	-0.26212075
188	0x3e81a53d	0.2532138
189	0xbdd110a3	-0.10208251
190	0x3de2f190	0.11081231
191	0xbdf5e45f	-0.12006449
192	0xbdf038df	-0.11729597
193	0xbe8e4f49	-0.27794865
194	0x3cdd9332	0.027047727
195	0x3c854fd7	0.016273422
196	0x3e9e38d4	0.3090273
197	0x3e1505b6	0.1455296
198	0x3e8f267f	0.27959058
199	0xbb865548	-0.004099522
200	0xbe8ed062	-0.27893358
201	0x3e7606e3	0.24026065
202	0xbea15e9f	-0.31517503
203	0x3d0a4267	0.033754732
204	0x3d839f1e	0.064268336
205	0x3e3d9587	0.18514071
206	0xbe82e5eb	-0.25566038
207	0x3dadb4af	0.08481728
208	0x3e1eeea0	0.15520716
209	0x3e7a2062	0.24426416
210	0xbe14e3f1	-0.14540078
211	0xbe1dadc0	-0.15398312
212	0x3d42f0b0	0.04759282
213	0x3e62a487	0.22133075
214	0x3c8df768	0.017329887
215	0xbe1d7310	-0.15375924
216	0x3e536d85	0.20647247
217	0xbdcae90a	-0.0990773
218	0x3c99afed	0.018760646
219	0xbe3d1cd9	-0.18468036
220	0x3e9ab05f	0.30212685
221	0x3e5c8b78	0.21537578
222	0xbd504fed	-0.050857473
223	0x3cc214ed	0.023691619
224	0xbe479aba	-0.19492617
225	0xbe7a2127	-0.24426709
226	0x3df7f8c9	0.12107999
227	0xbe81408e	-0.25244564
228	0xbe308351	-0.17237593
229	0x3de4837d	0.11157892
230	0x3e813b3f	0.25240514
231	0x3e8d2c88	0.27573037
232	0x3d9c082e	0.07618748
233	0x3ddf0798	0.1089012
234	0xbeb82902	-0.35968786
235	0xbe31d87b	-0.17367737
236	0x3e877226	0.26454276
237	0xbd5519d6	-0.052026592
238	0x3d266ef8	0.04063317
239	0x3e800f87	0.25011846
240	0x3e70d566	0.23518905
241	0x3e8b7663	0.2723876
242	0xbe7911ba	-0.24323168
243	0xbebdc8af	-0.37067172
244	0x3d159d3b	0.0365269
245	0xbd82750e	-0.06369983
246	0xbe421699	-0.18953933
247	0x3d388ea4	0.045057908
248	0x3d54de71	0.05196995
249	0x3e81f4cc	0.25382078
250	0xbe35a745	-0.1773959
251	0x3e454bca	0.19267192
252	0xbdb9f2d6	-0.090795204
253	0xbdc08959	-0.09401197
254	0x3e549105	0.20758446
255	0xbba3434f	-0.004982389

linear_relu_stack.0.bias f4 [512]
0	0x3e4c1542	0.19929984
1	0x3cbd977b	0.02314352
2	0x3d33335f	0.043750163
3	0xbc8ae102	-0.016952995
4	0x3e3a7434	0.1820839
5	0xbc1a2f07	-0.009410626
6	0xbe427cea	-0.18992963
7	0x3e642e6f	0.22283338
8	0x3ddca535	0.10773698
9	0xbe72a095	-0.2369407
10	0xbe199e9d	-0.15001912
11	0xbe254d79	-0.16142835
12	0x3d3294ce	0.043598942
13	0x3e8bd4c4	0.27310765
14	0x3e94f926	0.29096335
15	0xbe1defa6	-0.1542345
16	0x3bbfe5b6	0.005856241
17	0xbceb9dae	-0.028761711
18	0xbe35a641	-0.17739202
19	0x3e21f34b	0.15815465
20	0xbe313961	-0.17307045
21	0xbe882cfb	-0.26596817
22	0x3ea81230	0.32826376
23	0xbe0eeaf5	-0.13956816
24	0xbe7101e0	-0.23535872
25	0x3bdb475b	0.006691856
26	0x3dd822e3	0.10553529
27	0xbdf7d00e	-0.1210023
28	0xbe63daa5	-0.22251375
29	0x3e530780	0.2060833
30	0x3e664600	0.2248764
31	0xbdec00c9	-0.11523587
32	0xbe4990c6	-0.19684133
33	0x3de9c1a4	0.11413887
34	0x3e375e5d	0.1790709
35	0xbc5b419b	-0.013382341
36	0xbea2e4bb	-0.31815132
37	0xbe906f18	-0.28209758
38	0xbe77ccb3	-0.2419918
39	0xbe67ea75	-0.22648032
40	0x3d91b1df	0.07114004
41	0x3db408f0	0.08790767
42	0xbde4f1fd	-0.11178968
43	0xbe591049	-0.21197619
44	0xbe31dd63	-0.17369609
45	0xbe89cd1c	-0.269143
46	0x3e8e02cc	0.2773651
47	0xbe201f6b	-0.15636985
48	0x3d202a93	0.039103102
49	0xbeac8e0a	-0.33702117
50	0x3a94a9f6	0.0011342156
51	0x3e0e1a89	0.1387731
52	0xbe4e592a	-0.20151201
53	0xbe7fb5e9	-0.24971737
54	0x3dc71358	0.097204864
55	0x3e8506e0	0.25981808
56	0xbe1a640f	-0.15077232
57	0xbe1ee892	-0.15518406
58	0x3e87332f	0.26406237
59	0xbd5454dd	-0.051838744
60	0xbdb9fd04	-0.09081462
61	0x3e11b6c3	0.14229874
62	0xbe851d33	-0.2599884
63	0xbdb525b7	-0.08845084
64	0xbe77f699	-0.24215163
65	0xbd41d97c	-0.04732655
66	0xbe97da9c	-0.29658973
67	0xbe0d158c	-0.1377775
68	0x3d81fd93	0.063471936
69	0xbd8ee666	-0.06977539
70	0xbe47ccbf	-0.19511698
71	0xbd9272ca	-0.071508005
72	0xbe8f7403	-0.28018197
73	0xbe1b6dc7	-0.15178595
74	0xbd3ab376	-0.045581304
75	0x3e85df7c	0.26147068
76	0xbe6dcc32	-0.23222426
77	0x3ce0af0d	0.02742722
78	0x3df56aeb	0.119832836
79	0x3e1d41ea	0.15357175
80	0x3d3d54c0	0.046223402
81	0xbe10a277	-0.14124475
82	0xbc107ea1	-0.008819253
83	0x3c1dacc6	0.009623712
84	0xbe7403e5	-0.2382961
85	0xbe9251f0	-0.28578138
86	0xbe685309	-0.22687925
87	0xbdca28de	-0.09871076
88	0xbe9e0fa7	-0.30871317
89	0x3e35681c	0.17715496
90	0xbe4218b6	-0.18954739
91	0xbdf43b2d	-0.119253494
92	0x3d5874a4	0.052845612
93	0x3e291c6e	0.16514751
94	0x3e054480	0.13014412
95	0x3dfb77c6	0.12278704
96	0x3e3f08a6	0.18655643
97	0xbc66d370	-0.014088497
98	0xbe3166da	-0.17324391
99	0xbd8a1f21	-0.067442186
100	0x3d40c8f9	0.047066662
101	0x3d3dd258	0.046343178
102	0x3e644984	0.22293669
103	0x3dfb08ea	0.122575596
104	0x3e814b0a	0.25252563
105	0xbe2b464c	-0.16726035
106	0x3d33e39f	0.04391825
107	0xbe8fddb5	-0.28098837
108	0x3ddd5282	0.10806753
109	0x3d6e8e60	0.058241248
110	0x3e47ed64	0.19524151
111	0xbd9df47e	-0.07712649
112	0x3ca1facd	0.019772911
113	0xbdbdd84f	-0.09269773
114	0xbc29725c	-0.010342207
115	0x3e597bef	0.21238683
116	0x3e97541a	0.29556352
117	0xbe85e883	-0.26153955
118	0xbe617e6c	-0.22020882
119	0x3b08e153	0.0020886257
120	0x3e3c9208	0.18415082
121	0x3da74d8a	0.08169086
122	0x3e8c3f20	0.2739191
123	0x3caf7cee	0.021421876
124	0x3e7711a3	0.24127822
125	0xbe38b67a	-0.1803836
126	0x3e32d2f0	0.17463279
127	0x3e6dcc0a	0.23222366
128	0xbead3b6a	-0.33834392
129	0x3dadc004	0.0848389
130	0xbd89ef14	-0.06735054
131	0x3e902541	0.28153422
132	0xbde40dc2	-0.111354366
133	0xbe86becf	-0.2631745
134	0xbe915af2	-0.28389698
135	0x3e7e92b6	0.24860653
136	0x3dbe630c	0.092962354
137	0xbe219472	-0.15779284
138	0x3da84e4a	0.082180575
139	0x3e19de99	0.1502632
140	0x3e348a93	0.17630987
141	0x3e8f7c0f	0.28024337
142	0x3e739c62	0.23790124
143	0xbe74fcd9	-0.23924579
144	0xbe00950f	-0.12556861
145	0xbe9832e9	-0.2972634
146	0x3e7aa9fa	0.24478903
147	0xbe201548	-0.15633118
148	0xbe6379f8	-0.22214496
149	0x3e3252be	0.17414376
150	0x3e7a7797	0.24459682
151	0xbe847d10	-0.25876665
152	0x3e38b813	0.18038969
153	0xbdd160ab	-0.10223516
154	0xbe921e1a	-0.2853859
155	0x3e063b6e	0.13108608
156	0xbe8af2fd	-0.2713851
157	0x3e39a4d4	0.18129283
158	0x3dd19dcc	0.102351755
159	0x3e9aa20f	0.30201766
160	0x3e13911d	0.14410825
161	0xbd3148dc	-0.043282375
162	0x3ea16abe	0.3152675
163	0xbd063699	-0.032766912
164	0x3e992a0f	0.299149
165	0xbe245820	-0.16049242
166	0xbb90d2f4	-0.004419679
167	0xbe03aa94	-0.12858039
168	0x3df6fc4d	0.12059841
169	0x3d0ae0a2	0.033905633
170	0xbdbd9f02	-0.09258844
171	0x3d8c12d3	0.06839528
172	0xb9b2b83a	-0.00034088065
173	0xbd2c25a4	-0.042028084
174	0x3de2f3db	0.11081668
175	0xbe946735	-0.2898499
176	0xbe85ec0e	-0.26156658
177	0x3c644c02	0.013934137
178	0xbe809f47	-0.2512152
179	0x3dd5a2c8	0.10431439
180	0xbe5c6dc5	-0.21526249
181	0xbe6765c8	-0.2259742
182	0x3c75a7ca	0.014993617
183	0x3ddc7bc3	0.10765793
184	0x3d440f59	0.0478662
185	0x3e64490b	0.22293489
186	0xbc0216ad	-0.007939977
187	0x3e1543d9	0.14576663
188	0x3d8b452a	0.068003014
189	0x3df892f0	0.12137401
190	0x3d74be12	0.059751578
191	0x3e9b55c3	0.30338868
192	0x3e51b96a	0.20480886
193	0x3ea2b4d8	0.31778598
194	0xbd53d2d1	-0.051714722
195	0x3da60b2f	0.08107602
196	0xbd91f66f	-0.071270816
197	0xbeac40b6	-0.3364312
198	0x3dafef4a	0.08590563
199	0xbb4461b6	-0.0029965467
200	0x3e33869a	0.17531815
201	0x3d2a6385	0.041598815
202	0xba955ead	-0.0011396013
203	0x3c17666a	0.009240726
204	0xbd41540a	-0.047199287
205	0x3ce29dcc	0.027663134
206	0xbe0f39a8	-0.13986838
207	0xbdf65f2b	-0.120298706
208	0x3c01c5f8	0.007920735
209	0x3dcb811e	0.099367365
210	0xbdff132d	-0.12454829
211	0xbe4700c2	-0.19433883
212	0xbe5d1470	-0.21589828
213	0xbddd493e	-0.108049855
214	0x3c9cfe7d	0.019164318
215	0xbe8eb76c	-0.27874315
216	0xbe9651b8	-0.2935922
217	0xbe6054ed	-0.21907397
218	0xbdd654b7	-0.10465377
219	0xbd572479	-0.052525017
220	0xbd8f8c5a	-0.07009192
221	0xbdb43271	-0.087986834
222	0xbdc523ed	-0.09625993
223	0xbdb5fd87	-0.08886247
224	0xbe759ef5	-0.23986419
225	0x3d8fa61b	0.07014104
226	0xbceb03fe	-0.028688427
227	0xbd99ac67	-0.07503586
228	0x3dd2c4d1	0.10291446
229	0x3e238703	0.15969472
230	0xbe07f203	-0.13275914
231	0x3e4ff878	0.20309627
232	0xbdd9b481	-0.106301315
233	0x3c743a1c	0.0149064325
234	0x3e8d46f4	0.27593195
235	0x3e0e926c	0.13923043
236	0xbcd4ed34	-0.025992014
237	0xbe0dfbe8	-0.13865626
238	0x3e72fe7b	0.23729889
239	0x3e358de7	0.17729913
240	0xbd2cf42c	-0.042225048
241	0x3d79e2c9	0.061007295
242	0xbe8ff378	-0.2811544
243	0xbd2a8ee6	-0.041640185
244	0xbd8ecd86	-0.06972794
245	0x3ea3acc8	0.3196776
246	0xbd388e1b	-0.045057397
247	0xbe6e4eff	-0.23272322
248	0x3e041798	0.12899625
249	0xbd8af9f3	-0.06785955
250	0xbe72c3be	-0.23707482
251	0xbd0db57f	-0.034596916
252	0xbdb0ceb9	-0.08633179
253	0xbe67c9af	-0.2263553
254	0x3e5a3fa1	0.21313335
255	0xbe5e0a7e	-0.2168369

linear_relu_stack.2.weight f4 [128, 512]
0	0x3c2a2838	0.010385565
1	0x3d363c60	0.04449117
2	0x3cd09f3d	0.025466556
3	0xbd8834a8	-0.066506684
4	0xbcc24839	-0.02371608
5	0x3b500763	0.0031742684
6	0x3d1066eb	0.0352544
7	0xbd02211a	-0.03176985
8	0x3b019293	0.0019771203
9	0xbd56da0c	-0.05245404
10	0x3d8a7862	0.067612424
11	0xbe3193d1	-0.17341544
12	0x3cf03769	0.029323297
13	0x3d4e7e1a	0.05041323
14	0xbb95dda7	-0.004573542
15	0xbba19d3c	-0.004932074
16	0xbd1c9f81	-0.038238052
17	0xbb99aac7	-0.0046895477
18	0xb82e4d7d	-4.1557e-05
19	0xbd127d7c	-0.035764202
20	0x3cf89062	0.030342285
21	0xbd11d426	-0.03560271
22	0x3c6d16ee	0.014470799
23	0xbd542690	-0.05179459
24	0xbcc26809	-0.023731248
25	0x3d8654ff	0.065591805
26	0xbc8160e8	-0.015793279
27	0x3d4fd70c	0.050742194
28	0xbcfce271	-0.030869694
29	0x3c865e01	0.016402246
30	0x3d2de8c5	0.042458314
31	0x3c802da1	0.015646758
32	0x3cf35914	0.029705562
33	0xbaf5c5af	-0.0018750931
34	0x3d0ddff3	0.034637403
35	0x3c89c541	0.01681769
36	0xbd018ad2	-0.03162653
37	0x3c73cf9d	0.014881042
38	0xbd1420cd	-0.036164094
39	0x3d3efc76	0.046627484
40	0x3cffd4e2	0.03122944
41	0xbd03e858	-0.032204002
42	0xbd83ac39	-0.06429333
43	0xbaefeb33	-0.0018304348
44	0x3d13978b	0.036033195
45	0xbe8c536b	-0.27407393
46	0x3ca9357e	0.02065539
47	0x3c9fe03e	0.019516107
48	0x3cbbe4bd	0.02293622
49	0xbc0360b9	-0.008018666
50	0xbd25e28f	-0.040499266
51	0x3d335abe	0.04378771
52	0x3c5c6187	0.013450987
53	0xbe824958	-0.25446582
54	0xbdea8c06	-0.114524886
55	0x3d43ceb6	0.047804557
56	0x397c334b	0.00024051701
57	0xbc1f1feb	-0.0097122
58	0x3caf9e53	0.0214378
59	0x3a4e69f6	0.0007874066
60	0x3c5abd2b	0.013350765
61	0xbd03385b	-0.032036167
62	0xbd010ea0	-0.031508088
63	0xbd424aeb	-0.04743473
64	0x3d403ab0	0.04693097
65	0xbc8530c6	-0.016258609
66	0x3ca682d3	0.020326054
67	0xbd8874d9	-0.06662912
68	0xbd34d4db	-0.044148307
69	0x3d0a22c8	0.033724576
70	0x3c236dca	0.009974906
71	0xbcfdce67	-0.03098221
72	0x3d27cc41	0.040966276
73	0x3d1ea90d	0.03873544
74	0xbc2c9c99	-0.010535383
75	0xbc8b3bcf	-0.016996292
76	0xbdaad128	-0.08340675
77	0xbd10a6e2	-0.0353154
78	0x3d13e4f8	0.036107033
79	0xbd7feaeb	-0.062479895
80	0x3d1b4c0f	0.037914332
81	0xbcc3f8ec	-0.023922406
82	0xbcef7e3f	-0.029235004
83	0xbd3b5d4f	-0.045743283
84	0xbce218e6	-0.027599763
85	0x3c9430da	0.0180897
86	0xbcc8cf5a	-0.024512935
87	0x3d473d23	0.04864229
88	0xbc473a21	-0.012159855
89	0xbcd38957	-0.025822325
90	0xbd8da822	-0.069168344
91	0x3c8080a0	0.015686333
92	0xbce8d4ec	-0.028421842
93	0xbcfd3db8	-0.030913219
94	0xbc83c42f	-0.016084759
95	0x3c438966	0.011934614
96	0xbbe05b3b	-0.006846813
97	0xba2776a1	-0.00063882215
98	0xbcf07c52	-0.029356156
99	0x3b79e40c	0.0038130311
100	0x3cb4b2af	0.02205786
101	0x3cab2dee	0.020895924
102	0x3cbd0774	0.023074843
103	0x3c3a7392	0.011380093
104	0xbbebd6fd	-0.0071972595
105	0x3ceac4a9	0.028658228
106	0x3d3e9aca	0.046534337
107	0xbce03c0b	-0.02737238
108	0x3bfa0b45	0.007630738
109	0x3ce9972e	0.02851447
110	0xbce33121	-0.027733387
111	0xbc83957f	-0.016062496
112	0xbe2729a1	-0.16324474
113	0xbd2c2cb4	-0.04203482
114	0x3c8411c0	0.016121745
115	0xbc3fe5a7	-0.011712468
116	0xbc968c62	-0.018377487
117	0xbc3af26e	-0.011410339
118	0x3da2a090	0.07940781
119	0x3bc706be	0.006073802
120	0x3cf726ba	0.030169833
121	0xbcd4577f	-0.025920628
122	0xbca52802	-0.020160679
123	0x3d3bcd1e	0.045849912
124	0x3cff9ce8	0.031202748
125	0x3d6ff605	0.058584232
126	0xbce51752	-0.027965222
127	0xbd1ca42e	-0.03824251
128	0xbd1afcef	-0.037838873
129	0xbab6baa7	-0.0013941125
130	0x3c634f5c	0.013873901
131	0xbc272b7d	-0.0102032395
132	0xbb0f9ec0	-0.002191469
133	0xbd382757	-0.044959392
134	0x3ca17ed0	0.01971379
135	0xbd574123	-0.052552354
136	0x3d34aa4e	0.044107728
137	0xbccc0f9e	-0.02490979
138	0x3c3b14af	0.011418506
139	0xbd0dee4e	-0.034651093
140	0x3d151fc6	0.036407255
141	0x3d41b575	0.04729219
142	0xbd45d1bd	-0.048295725
143	0x3d531767	0.05153599
144	0xbc54abb4	-0.01298039
145	0xbb0314fb	-0.002000152
146	0xbb55757b	-0.0032571245
147	0xbd9ffadd	-0.0781152
148	0x3d6fae38	0.058515757
149	0x3d32f812	0.04369361
150	0xbbce6f80	-0.006299913
151	0x3cced370	0.025247306
152	0xbc99efc0	-0.01879108
153	0x3cebf110	0.028801471
154	0xbc9e9183	-0.019356495
155	0x3c4e0fe3	0.01257703
156	0x3c052140	0.008125603
157	0x3d31c1ae	0.043397598
158	0xbcda3437	-0.026636226
159	0xbd12a5b1	-0.035802547
160	0xbca7bdd0	-0.020476252
161	0xbb1a2d41	-0.0023525509
162	0xbc6ee803	-0.014581683
163	0xbc4b5147	-0.012409515
164	0x3cf35204	0.029702194
165	0x3cc1dd11	0.023664983
166	0x3d39e7d9	0.045387123
167	0xbcaa0475	-0.020754078
168	0x3c861425	0.016367028
169	0x3b72f014	0.0037069367
170	0x3ce409af	0.027836649
171	0x3e072cc9	0.13200678
172	0xbca29fc7	-0.019851578
173	0xbdab74f9	-0.0837192
174	0xbcdee8b1	-0.027210565
175	0x3b16589b	0.0022940997
176	0x3b6f314c	0.003649789
177	0xbc21f5e5	-0.009885286
178	0x3cca5367	0.024697972
179	0x3bd6454c	0.0065390225
180	0xbe01db20	-0.12681246
181	0xbd2adc78	-0.04171416
182	0xbb09a401	-0.0021002295
183	0x3d5a30e0	0.053269267
184	0xbd3f9754	-0.046775177
185	0xbc21dcd5	-0.009879311
186	0x3d0efd0a	0.034909286
187	0x3b104311	0.002201263
188	0xbd1a6d2a	-0.037701763
189	0xbcb08bc6	-0.021551024
190	0xbd569646	-0.052389406
191	0xbb333819	-0.002734667
192	0xbcbfdbaf	-0.023420183
193	0x3caaecbd	0.020864839
194	0x3ca6d019	0.0203629
195	0x3d3e3431	0.046436492
196	0x3cb94db8	0.022620067
197	0x3cb9d051	0.02268234
198	0xbdc1bb5c	-0.09459564
199	0x3c029111	0.007969157
200	0xbc803901	-0.015652182
201	0x3cb5aa94	0.022176065
202	0x3cebcd3a	0.028784383
203	0xbc6a830f	-0.014313473
204	0xbcd760a4	-0.026291199
205	0x3ce8b7de	0.028407987
206	0xbd6527c7	-0.055946138
207	0x3c6b2c03	0.014353755
208	0x3bfbefe5	0.0076885098
209	0xbcb7c21e	-0.02243143
210	0x3c9fa089	0.019485729
211	0x3c8a9ce6	0.016920518
212	0xbc94dd09	-0.018171804
213	0xbd521318	-0.05128774
214	0x3d89e934	0.06733933
215	0xbd16b494	-0.036793306
216	0xbcf43c7a	-0.029813994
217	0xbda1c134	-0.07898179
218	0xbc69794f	-0.014250114
219	0xbd875ab9	-0.06609101
220	0xbd2d7de1	-0.042356376
221	0x3d4853c0	0.048907995
222	0x3c6f0101	0.014587642
223	0x3c68ba38	0.014204554
224	0x3c24dd29	0.010062494
225	0x3d80d674	0.06290904
226	0x3d52ccf4	0.05146499
227	0x3cc05b11	0.023480924
228	0xbd22f86b	-0.03978769
229	0xbba1d891	-0.004939147
230	0x3b6822b8	0.0035421085
231	0xbd2f6463	-0.042820346
232	0xbc44741d	-0.011990574
233	0x3d2770b1	0.040878955
234	0x3d393249	0.04521397
235	0x3d9e82df	0.077398054
236	0x3ce4be4e	0.027922776
237	0x3b6381ee	0.0034714895
238	0xbc01bd9a	-0.00791874
239	0x3aa05b00	0.0012234151
240	0xbcff277a	-0.031146754
241	0x3c43e8d7	0.011957369
242	0x3b0f9688	0.0021909792
243	0x3cc0102b	0.02344521
244	0xbd05955a	-0.032613136
245	0x3cf03b7c	0.02932524
246	0x3d2b859e	0.041875474
247	0xbda96de3	-0.08272912
248	0xbb66fab7	-0.0035244653
249	0x3aadab6d	0.0013249941
250	0xbb86dc44	-0.004115613
251	0xbc6245d1	-0.013810591
252	0x3d8c09ce	0.068378076
253	0xbbb55269	-0.0055335057
254	0x3d0b8515	0.034062464
255	0xbd0cede2	-0.03440655

linear_relu_stack.2.bias f4 [128]
0	0x3d53783a	0.05162833
1	0xbd0df1e5	-0.034654517
2	0xbcc22a54	-0.023701824
3	0x3cddf00b	0.027092
4	0xbc93d92f	-0.018047897
5	0x3c09ef27	0.008418835
6	0xbc22314b	-0.009899448
7	0x3d1383cf	0.036014374
8	0xbcb6379f	-0.02224332
9	0x3ce540de	0.027985033
10	0xbbe52886	-0.006993356
11	0xbc5a9c89	-0.013342985
12	0xbb471711	-0.003037874
13	0x3d3f465b	0.046697956
14	0xbc9b2c97	-0.01894216
15	0x3d3356bd	0.043783892
16	0xbcfbd2df	-0.0307402
17	0xbc3bf968	-0.011473037
18	0x3d116dc6	0.03550508
19	0x3c2e795d	0.010649052
20	0x3c9ab10b	0.018883249
21	0x3c8da2aa	0.017289478
22	0x3d19306d	0.037399698
23	0xbce26360	-0.027635276
24	0x3d07d40e	0.033161215
25	0x3c485ae7	0.012228704
26	0x3d39f6ac	0.04540126
27	0x3beec0ee	0.0072861826
28	0x3d03fa44	0.032221094
29	0xbc254984	-0.010088328
30	0xbcc3db3f	-0.023908256
31	0x3d4429c3	0.04789139
32	0xbd1a0a1d	-0.0376073
33	0x3c733e58	0.014846407
34	0x3c4f3656	0.012647232
35	0x3d922cc7	0.07137447
36	0x3c926ff6	0.017875653
37	0x3c88c10c	0.016693614
38	0x3d1c24ba	0.038120963
39	0xbd133f1d	-0.03594886
40	0xbd109268	-0.035295874
41	0x3b2a66f6	0.002600131
42	0x3d196415	0.03744896
43	0x3c416982	0.01180494
44	0x3d248810	0.04016882
45	0x3c965b39	0.018354045
46	0xbd1ad2c4	-0.037798658
47	0x3ca1df00	0.019759655
48	0xbcd2d4da	-0.025736261
49	0xbc6bcaa5	-0.014391576
50	0x3cda423b	0.02664291
51	0x3c2e253f	0.010628997
52	0x3d06363b	0.032766562
53	0x3d226916	0.039651
54	0xbd28bec8	-0.04119757
55	0x3d0de2fb	0.034640294
56	0x3be029b9	0.006840911
57	0xbcd8cc58	-0.026464626
58	0x3c3a1a75	0.011358847
59	0xbc498bb1	-0.012301371
60	0xbbfff7ac	-0.007811507
61	0x3cb0fd6b	0.021605214
62	0xbc90a66c	-0.017657481
63	0x3cb3ccb1	0.02194819
64	0xbc200342	-0.009766402
65	0xbc7eedb9	-0.015559607
66	0xbcdb3646	-0.026759278
67	0xbbce4390	-0.006294675
68	0xbc1379ba	-0.00900119
69	0x3c8f5320	0.017495692
70	0x3ccc75fd	0.024958605
71	0xbb55abb3	-0.0032603561
72	0xbd46f7e3	-0.048576247
73	0xbd1616f1	-0.036642972
74	0x3ba61063	0.0050678714
75	0xbcde1e0a	-0.027113933
76	0xbd09fa82	-0.03368617
77	0xbd2a3702	-0.041556366
78	0xbd07c429	-0.033146057
79	0xbd11d047	-0.03559902
80	0xbd22955b	-0.039693218
81	0x3d17329d	0.036913503
82	0x3caa1e56	0.020766418
83	0x3c3bc3ca	0.011460254
84	0xbd07e59b	-0.033177953
85	0xbd134690	-0.035955966
86	0xbc9e44a5	-0.019319842
87	0xbd03a3b0	-0.032138526
88	0xbd1e230b	-0.03860764
89	0x3c0849b4	0.008318353
90	0xbc92b7e9	-0.01790996
91	0x3aebb538	0.0017983085
92	0xbc2fa4b7	-0.010720423
93	0x3c7ca881	0.015421034
94	0xbc7d8b5c	-0.01547512
95	0xbb381a6f	-0.0028091928
96	0x3c83503b	0.016029468
97	0x3cef7962	0.029232685
98	0x3c225b3e	0.009909449
99	0xbbb4f253	-0.0055220514
100	0xbcda9be1	-0.026685657
101	0x3d284625	0.04108252
102	0x3d2c1ec5	0.04202153
103	0x3c7b0ce0	0.015322894
104	0x3ceb5ef4	0.0287318
105	0x3c2883ee	0.010285361
106	0x3d2e08f7	0.04248902
107	0xbbb0b68a	-0.005392854
108	0x3ce8284d	0.02833953
109	0x3c9c6b00	0.01909399
110	0x3d0355ce	0.03206425
111	0x3d4560b8	0.04818794
112	0x3b0922f6	0.002092538
113	0x3cc72f9d	0.024314696
114	0x3d2023ce	0.039096646
115	0x3d0d79bd	0.034539927
116	0x3c3393be	0.010960517
117	0x3c1bd8b7	0.009512118
118	0x3d63ceef	0.05561727
119	0x3d2be8f6	0.041970216
120	0x3d40934b	0.04701547
121	0x3c98699d	0.018605048
122	0x3d65ff58	0.056151718
123	0x3c83f3fc	0.016107552
124	0xbccf1932	-0.025280569
125	0xbc3dd2bf	-0.01158589
126	0x3ce7968c	0.028270029
127	0xbc1718aa	-0.009222189

linear_relu_stack.4.weight f4 [10, 128]
0	0x3d53403a	0.051574923
1	0xbc6626a8	-0.014047302
2	0x3d73ceee	0.059523515
3	0x3c974f34	0.018470384
4	0x3da7b15b	0.08188125
5	0xbd3e7df3	-0.046506833
6	0x3d3c35ea	0.045949854
7	0x3d756ec6	0.059920095
8	0x3d46c966	0.048531912
9	0xbc4b4630	-0.012406871
10	0xbd9c7421	-0.07639337
11	0xbd989cee	-0.07451807
12	0xbd3f320d	-0.04667859
13	0xbd33182c	-0.043724224
14	0xbd233786	-0.039847873
15	0x3d87090b	0.06593522
16	0xbc02d728	-0.007985868
17	0xbb993ff0	-0.0046768114
18	0xbbfdb1a0	-0.007742122
19	0x3d0f0cda	0.034924366
20	0x3d262fde	0.040572993
21	0xbdb44ddf	-0.08803915
22	0xbc60aab0	-0.01371257
23	0x3d24591a	0.040124036
24	0x3d0da19c	0.03457795
25	0xbd5c76ca	-0.053824224
26	0x3d18e3ee	0.037326746
27	0x3c929738	0.017894372
28	0xbd69124f	-0.056902226
29	0xbda184bb	-0.078866445
30	0x3d5a0636	0.05322858
31	0xbc7705d8	-0.015077077
32	0xbd41ea63	-0.04734267
33	0x3d76914e	0.060197167
34	0x3d454b0a	0.048167266
35	0x3d67be66	0.056578062
36	0x3cce8dac	0.025214039
37	0xbda471fa	-0.08029552
38	0xbd94a9b0	-0.07258928
39	0xbd998229	-0.07495529
40	0x3d8cc883	0.06874182
41	0xbdb02a0e	-0.08601771
42	0x3c711340	0.014714062
43	0xbb8e5e40	-0.0043447316
44	0xbcd8bea6	-0.026458096
45	0x3c5cb3b0	0.013470575
46	0xbda1825c	-0.07886192
47	0x3d85c8e7	0.0653246
48	0xbd95de64	-0.07317808
49	0xbcf76778	-0.030200705
50	0xbc633438	-0.01386743
51	0x3d825759	0.063643165
52	0x3c4f9b08	0.01267124
53	0x3b8fec50	0.0043921843
54	0xbd182152	-0.03714115
55	0xbd4539d8	-0.048150867
56	0x3d8c4ef1	0.068509944
57	0x3c09a778	0.008401744
58	0xbcf6adda	-0.030112196
59	0xbd87c4f3	-0.06629362
60	0xbd7f9406	-0.062397026
61	0xbc041e80	-0.008063912
62	0x3cf5e21c	0.030015044
63	0x3d5c6542	0.053807504
64	0xbd94b5e5	-0.07261256
65	0xbc02b348	-0.007977314
66	0xbd507ee8	-0.050902277
67	0xbd2059f2	-0.03914828
68	0x3dabf8ed	0.08397088
69	0x3d66444a	0.05621747
70	0xbd153487	-0.036427047
71	0x3d45ef82	0.048324116
72	0x3db2a951	0.08723701
73	0xbc98ce64	-0.018653102
74	0xba9ea000	-0.0012102127
75	0xbd2335d0	-0.03984624
76	0xbbb1e110	-0.005428441
77	0xbd9fef7e	-0.078093514
78	0x3d103d48	0.035214692
79	0xbd0a4b80	-0.03376341
80	0x3d7156a2	0.05892051
81	0x3db46f85	0.08810333
82	0x3d8742a1	0.06604505
83	0xba94f700	-0.0011365116
84	0x3d56cef2	0.052443452
85	0xbc984a28	-0.018590048
86	0xbd8bc4b9	-0.06824631
87	0x3d96b59f	0.0735886
88	0x3ccd0c44	0.025030263
89	0xbc32dd60	-0.010917038
90	0xbda251b6	-0.079257414
91	0x3cbf1788	0.02332665
92	0xbd4ae4e2	-0.049534686
93	0xbd414f55	-0.047194798
94	0xbd57daf8	-0.05269906
95	0xbd1b808e	-0.037964396
96	0xbd2243e7	-0.039615538
97	0xbc05e8f0	-0.008173212
98	0xbd99a32b	-0.07501825
99	0x3bd08dc0	0.006364554
100	0x3c5b21a8	0.0133747235
101	0x3cceb5d0	0.02523318
102	0xbd14bdb3	-0.036313724
103	0xbd74d759	-0.059775684
104	0x3d9d37eb	0.07676681
105	0xbdadd00c	-0.084869474
106	0x3d81863d	0.06324432
107	0xbc4337f8	-0.011915199
108	0x3b830e00	0.0039994717
109	0x3c741c60	0.014899343
110	0x3c6d06a8	0.014466919
111	0xbc624bc0	-0.0138120055
112	0x3abdfa00	0.0014494061
113	0xbc1928b8	-0.009348087
114	0xbd6d62b0	-0.057955444
115	0x3d5c4f0e	0.05378633
116	0x3c7925e8	0.015206791
117	0x3d8c383b	0.068466626
118	0xbdadc282	-0.08484365
119	0x3c123be0	0.008925408
120	0x3d3ae22a	0.045625843
121	0xbc9c1368	-0.019052222
122	0x3d948bb9	0.072532125
123	0x3c1cc7f8	0.009569161
124	0xbda2a0c6	-0.07940821
125	0xbd6fb021	-0.05851758
126	0xbb3babe0	-0.002863638
127	0xbd8dc3b7	-0.06922095
128	0x3d3f368a	0.046682872
129	0xbd7db950	-0.061944306
130	0xbacaee7d	-0.0015482452
131	0x3d9055d2	0.07047619
132	0xbdf783e4	-0.12085703
133	0x3d8986cb	0.06715163
134	0x3d8ec0d8	0.06970376
135	0x3d9874c0	0.07444143
136	0x3dc09585	0.094035186
137	0x3dd4361a	0.103618816
138	0xbdacfea6	-0.08447008
139	0x3ddf03bc	0.10889384
140	0x3d557d9c	0.052121744
141	0x3dadc414	0.084846646
142	0x3e1fd7ac	0.15609616
143	0xbde86197	-0.11346739
144	0x3deef451	0.116676934
145	0xbddcb69f	-0.1077702
146	0xbdf924cc	-0.121652216
147	0xbe49500e	-0.19659445
148	0xbe52b562	-0.20577005
149	0x3d3edf1f	0.046599504
150	0x3db5be67	0.08874207
151	0xbd3e1ea1	-0.04641593
152	0xbd4f19d2	-0.050561734
153	0xbc8971d7	-0.016777916
154	0xbdce9801	-0.10087586
155	0x3e2b8670	0.16750503
156	0xbcbb5f66	-0.022872638
157	0x3d198fd6	0.03749069
158	0x3ca1ce6f	0.019751756
159	0xbd4834af	-0.048878368
160	0xbdd46fc6	-0.103728816
161	0x3d5534f1	0.052052442
162	0xbd3b58fa	-0.04573915
163	0x3d9606ab	0.073254906
164	0x3e233129	0.15936722
165	0x3d002f6c	0.031295225
166	0xbd910c05	-0.07082371
167	0x3c84ec82	0.016226057
168	0xbe877f1e	-0.2646417
169	0xbbcf6868	-0.006329585
170	0xbd33b1a0	-0.04387057
171	0x3d8daf93	0.06918254
172	0x3bd797ed	0.0065793903
173	0x3dbb13db	0.091346465
174	0x3ddcbd8f	0.10778343
175	0xbd76826e	-0.06018298
176	0xbca6a63a	-0.020342935
177	0xbdbfca15	-0.09364716
178	0xbe0b2504	-0.13588339
179	0xbd8a1f9b	-0.067443095
180	0x3d843144	0.06454709
181	0xbeac69bb	-0.33674416
182	0xbc65a6b4	-0.014016796
183	0xbe049ae1	-0.12949707
184	0x3d793e63	0.060850512
185	0x3c831a28	0.016003683
186	0xbd870577	-0.06592839
187	0x3d595bc1	0.05306602
188	0x3dd587fe	0.10426329
189	0x3e29c77f	0.16580008
190	0xbcf5061b	-0.029910138
191	0x3ded728c	0.11594114
192	0xbde0f3fc	-0.10984036
193	0x3e60f247	0.21967421
194	0xbdce1c38	-0.10063976
195	0xbd8daab0	-0.06917322
196	0xbc32dd70	-0.010917053
197	0xbce4085f	-0.027836023
198	0x3d85cad0	0.06532824
199	0x3d90578d	0.07047949
200	0xbbab7545	-0.0052324855
201	0xbd74fcb1	-0.059811298
202	0xbe1102dc	-0.14161247
203	0x3d3a2cdf	0.04545295
204	0x3d8d4c1d	0.06899283
205	0xbd88fd5e	-0.06688951
206	0xbdd659b0	-0.10466325
207	0xbddb9a55	-0.10722796
208	0x3d8fa745	0.07014326
209	0xbdc4b344	-0.09604505
210	0xbdd8d54a	-0.10587557
211	0xbda051af	-0.0782808
212	0x3d1c703e	0.03819298
213	0xbe1fd012	-0.15606716
214	0xbc036808	-0.008020408
215	0x3db007ec	0.08595261
216	0x3d96db46	0.07366042
217	0xbe87c293	-0.26515636
218	0x3d911fe6	0.07086162
219	0xbdac3803	-0.08409121
220	0x3d865e19	0.065609165
221	0x3ca12cd0	0.019674689
222	0xbc714813	-0.0147266565
223	0xbd70a19b	-0.05874787
224	0x3c5df485	0.0135470675
225	0xbdebecdb	-0.11519786
226	0x3d6ac457	0.05731615
227	0x3e00dca1	0.12584163
228	0x3dafb0fa	0.085786775
229	0x3e784d41	0.2424822
230	0xbc9ca2cd	-0.019120598
231	0x3ceeb573	0.029139256
232	0xba36c3b3	-0.00069719105
233	0xbe29bf7f	-0.16576956
234	0xbaad30c0	-0.0013213381
235	0xbd34ed0d	-0.04417138
236	0x3d4f5af5	0.050623853
237	0x3cf44873	0.029819703
238	0x3d823e23	0.06359508
239	0xbdd2922c	-0.10281786
240	0x3ce4a372	0.027909968
241	0xbc668708	-0.01407028
242	0x3ddf8858	0.109146774
243	0x3d24ad7b	0.040204506
244	0x3ce82342	0.028337125
245	0xbca7c257	-0.02047841
246	0x3d16708c	0.036728427
247	0x3da6eb7e	0.08150385
248	0x3d0d9840	0.034569025
249	0x3e60aad4	0.21940166
250	0x3dc82083	0.09771826
251	0x3dbad010	0.09121716
252	0x3bec03ed	0.0072026164
253	0x3e25df4e	0.16198465
254	0x3db27bfc	0.087150544
255	0x3d23ce38	0.039991587

linear_relu_stack.4.bias f4 [10]
0	0xbca02e68	-0.019553378
1	0xbd051100	-0.032486916
2	0x3d8e2d3f	0.06942224
3	0xbd6c2cd5	-0.057659943
4	0x3d843078	0.06454557
5	0x3db29d7f	0.08721446
6	0x3be0e9d4	0.006863812
7	0xbd3d373d	-0.046195257
8	0xbd7fb36f	-0.06242698
9	0x3db1fb17	0.0869047

linear_relu_stack.6.weight f4 [1, 10]
0	0x3e73d6e6	0.23812446
1	0x3eba8bef	0.36434886
2	0xbeda0ac9	-0.42586353
3	0x3db1fbc9	0.08690602
4	0x3eb4745a	0.3524502
5	0xbec7e62b	-0.39042792
6	0x3ed3f7b8	0.41399932
7	0x3ea9a882	0.33136374
8	0x3edefc60	0.43551922
9	0xbe417542	-0.18892387

exp_avg f4 [512, 10]
0	0x00000000	0.0
1	0xbdb8840e	-0.090095624
2	0xbd9d4520	-0.076792
3	0xbdc3a0c9	-0.09552152
4	0xbd85dfc4	-0.065368205
5	0xbbea4563	-0.007149385
6	0xbd05085f	-0.032478686
7	0xbd0a2b9a	-0.033732988
8	0xbd5d4d6e	-0.05402892
9	0xbc847971	-0.016171189
10	0x00000000	0.0
11	0x3c04f7f2	0.008115755
12	0xbc1dff85	-0.00964344
13	0x3c337325	0.010952746
14	0xbc6bca6c	-0.014391523
15	0x39b424b9	0.00034359636
16	0x3bee3719	0.0072697517
17	0x3c0745c0	0.008256376
18	0x39758665	0.00023415087
19	0x3bb8ab98	0.00563569
20	0x00000000	0.0
21	0xbe0396af	-0.1285045
22	0xbe11092a	-0.14163652
23	0xbe180091	-0.14843966
24	0xbdf43133	-0.119234465
25	0xbc407ffc	-0.011749264
26	0xbd2134bb	-0.03935693
27	0xbcdb7c0c	-0.026792549
28	0x3ccae81a	0.024768878
29	0xbcfc5bc4	-0.030805476
30	0x00000000	0.0
31	0xbbe76322	-0.007061378
32	0xbd788a94	-0.060679033
33	0xbb91a835	-0.0044451007
34	0xbd8ff077	-0.07028287
35	0x3999b09a	0.00029314012
36	0x3b4ec2c7	0.0031549202
37	0xbb8f8e86	-0.004381004
38	0x3cad830b	0.02118065
39	0x3c672150	0.014107063
40	0x00000000	0.0
41	0xbe4c604c	-0.1995861
42	0xbe5926fc	-0.21206278
43	0xbe60789d	-0.2192101
44	0xbe3c8747	-0.18410979
45	0xbc13a712	-0.009012001
46	0xbc308f9b	-0.010776426
47	0xbd73bd60	-0.059506774
48	0x3d89c4f1	0.06727017
49	0xbd30af28	-0.043135792
50	0x00000000	0.0
51	0x3c50b606	0.01273871
52	0xbd2bc27b	-0.041933518
53	0x3c2b2dba	0.010447914
54	0xbd28204e	-0.041046433
55	0x3b4134c4	0.0029480914
56	0x3cc84f1b	0.024451783
57	0x3cf3f9dd	0.02978223
58	0x3d9d0416	0.07666795
59	0x3bb0b99b	0.0053932196
60	0x00000000	0.0
61	0x3c84b164	0.016197868
62	0xbd7ec9b1	-0.062204067
63	0x3c6e68a9	0.01455132
64	0xbd9ae088	-0.07562357
65	0x3b9650ac	0.0045872536
66	0x39ca1c68	0.00038549607
67	0xbbbdeefd	-0.005796312
68	0xbdc0850b	-0.09400376
69	0x3c4c6007	0.012474067
70	0x00000000	0.0
71	0x3de085b9	0.109630056
72	0x3d85d06a	0.065338925
73	0x3dbc3e04	0.09191516
74	0x3de5ffc8	0.11230427
75	0x3cc8b536	0.02450047
76	0x3e99a0e7	0.3000557
77	0x3e1488d6	0.14505324
78	0x3eca5b98	0.39523005
79	0x3d813f9c	0.06310961
80	0x00000000	0.0
81	0xbd578116	-0.05261334
82	0xbd443841	-0.04790521
83	0xbd694c29	-0.056957398
84	0xbd308060	-0.043091178
85	0xbc241539	-0.0100148255
86	0xbd12f6ca	-0.035879888
87	0xbc9e4b3d	-0.019322986
88	0xbd224149	-0.039613042
89	0xbcc1249e	-0.02357703
90	0x00000000	0.0
91	0xbbee565e	-0.0072734794
92	0xbc91bb15	-0.017789403
93	0xbc307ce0	-0.01077196
94	0xbc947d21	-0.018126072
95	0x39c23d9c	0.00037048466
96	0xbb751d3f	-0.0037401465
97	0x3adbf3cc	0.0016781031
98	0x39845e99	0.00025247483
99	0xbaf84f7d	-0.0018944588
100	0x00000000	0.0
101	0xbd4da88a	-0.05020956
102	0xbcf693cb	-0.03009977
103	0xbd21de17	-0.039518442
104	0xbd190d24	-0.037366048
105	0xbb0dc7c2	-0.0021633958
106	0x3c804142	0.015656117
107	0xbcecf455	-0.0289251
108	0x3c8ee62a	0.017443735
109	0xbc904c6c	-0.017614566
110	0x00000000	0.0
111	0xbe7aefa1	-0.24505474
112	0xbeb8cdd6	-0.3609454
113	0xbe8b352e	-0.2718901
114	0xbeaa5f5e	-0.33275884
115	0xbc36465f	-0.011125176
116	0xbd948c90	-0.07253373
117	0xbd8a0556	-0.06739299
118	0xbc261ff0	-0.01013945
119	0xbd332a95	-0.04374178
120	0x00000000	0.0
121	0xbd51e7b0	-0.051246345
122	0xbd350034	-0.044189647
123	0xbd83c9ab	-0.064349495
124	0xbcaa9028	-0.020820692
125	0xba555871	-0.0008138484
126	0x3d0e2315	0.034701426
127	0x3c881bef	0.016614882
128	0x3d608ffb	0.05482481
129	0x3c18c154	0.009323437
130	0x00000000	0.0
131	0x3cf581f3	0.029969191
132	0x3d04a0e7	0.03238001
133	0x3d0bb672	0.03410954
134	0x3c896645	0.016772399
135	0x3a3cfbec	0.000720917
136	0x3c19c947	0.009386367
137	0x3bf2925a	0.0074027004
138	0x3a640fe6	0.0008699879
139	0x3bda5b9f	0.006663754
140	0x00000000	0.0
141	0x3cf4f71c	0.029902987
142	0x3d6a3a7e	0.05718469
143	0x3d023674	0.03179021
144	0x3d5d197a	0.053979374
145	0x3b9da3a3	0.004810767
146	0x3d0d822d	0.034547973
147	0x3c089b85	0.00833786
148	0x3b685075	0.0035448347
149	0x3ccc29d6	0.024922293
150	0x00000000	0.0
151	0x3b9f4529	0.0048605395
152	0x3e1b6bf6	0.15177903
153	0x3c5b6d4e	0.0133927595
154	0x3e30207a	0.17199889
155	0xbc20f10a	-0.009823093
156	0x3d7f4e32	0.062330432
157	0x3bf459be	0.007456987
158	0x3e06d666	0.13167724
159	0xbccb6fd4	-0.024833597
160	0x00000000	0.0
161	0x3bb864db	0.0056272573
162	0x3ca44713	0.020053422
163	0x3c1f2b49	0.00971491
164	0x3c9fe466	0.019518089
165	0x3aaeaca6	0.00133266
166	0x3bf66b4d	0.0075201155
167	0x3bed1bae	0.0072359657
168	0x3a8eb1b9	0.0010886706
169	0x3ba13a87	0.004920307
170	0x00000000	0.0
171	0x3cf4eb9e	0.029897507
172	0xbd0a0169	-0.03369275
173	0x3d3bef66	0.045882605
174	0xbd750f8e	-0.059829287
175	0x3b8730bb	0.004125682
176	0x3dafb24d	0.0857893
177	0x3c87f292	0.016595159
178	0x3b23a111	0.002496783
179	0x3d311af1	0.043238584
180	0x00000000	0.0
181	0x3dbea3a2	0.09308554
182	0x3db9acee	0.09066187
183	0x3de5e9be	0.112262234
184	0x3d8c47aa	0.06849606
185	0x3bded71e	0.0068005463
186	0x3d0291f9	0.03187749
187	0x3cb2aca7	0.021810843
188	0xbc71481d	-0.014726666
189	0x3cbc1f7a	0.022964228
190	0x00000000	0.0
191	0x3d9d4fe0	0.076812506
192	0x3e03a6c5	0.12856586
193	0x3db482af	0.088139884
194	0x3df7b662	0.12095334
195	0x3bcb9b5e	0.0062135896
196	0x3d5490fb	0.051896077
197	0x3d1cb38b	0.038257163
198	0x3c4ca3c1	0.012490214
199	0x3ce3141a	0.027719546
200	0x00000000	0.0
201	0x3cc69c52	0.024244461
202	0x3c991316	0.018685859
203	0x3cf91bcc	0.030408762
204	0x3b90cdc3	0.00441906
205	0xba00f7ee	-0.0004919757
206	0xbca02c04	-0.019552238
207	0xbce56e0d	-0.028006578
208	0xbdbed18f	-0.09317314
209	0x3c64d322	0.013966354
210	0x00000000	0.0
211	0x3cd95d60	0.026533782
212	0xbcedb3dd	-0.02901643
213	0x3c89bfd2	0.0168151
214	0xbc772a58	-0.015085779
215	0x3b959a46	0.00456551
216	0xbe25d711	-0.16195323
217	0x3ca967b9	0.020679342
218	0x3b4be64f	0.0031112616
219	0xbd8833e5	-0.06650523
220	0x00000000	0.0
221	0xbbc1fbad	-0.0059198947
222	0x3c0a18fb	0.008428807
223	0xbbac6bdc	-0.0052618813
224	0x3b84256f	0.0040327827
225	0xba971572	-0.0011526777
226	0xbc084790	-0.008317843
227	0x3ca11c13	0.019666707
228	0x39196a8b	0.00014630907
229	0xb92c3893	-0.00016424274
230	0x00000000	0.0
231	0xbc5083ad	-0.012726706
232	0xbc5ddb9a	-0.013541127
233	0xbc882df7	-0.01662348
234	0xbb2d52f7	-0.0026447156
235	0x39ab9db0	0.00032733148
236	0x3cd27f1f	0.025695382
237	0x3cdca046	0.026931893
238	0x3d8545be	0.06507443
239	0xbb67218c	-0.0035267798
240	0x00000000	0.0
241	0x3f112d1e	0.5670947
242	0x3f1eb351	0.61992365
243	0x3f1d3ad9	0.6141792
244	0x3f0b4849	0.54407173
245	0x3d551104	0.05201818
246	0x3e96181d	0.29315272
247	0x3e8eb248	0.27870393
248	0xbdf39082	-0.11892797
249	0x3e4bad21	0.19890262
250	0x00000000	0.0
251	0xbd7b7c18	-0.061397642
252	0xbd737390	-0.05943638
253	0xbdac1669	-0.08402712
254	0xbdc563d4	-0.09638181
255	0xbcecdda6	-0.028914284

exp_avg_sq f4 [512, 10]
0	0x00000000	0.0
1	0x3eb8adbe	0.36070055
2	0x3dd0d258	0.1019637
3	0x3ecc48e2	0.39899355
4	0x3d79047f	0.060795303
5	0x3a889c6c	0.0010422594
6	0x3d6b1463	0.05739249
7	0x3dc761d0	0.09735453
8	0x3e4a6129	0.19763626
9	0x3c4d5023	0.012531313
10	0x00000000	0.0
11	0x3c4a94c6	0.012364572
12	0x3ca20d47	0.019781722
13	0x3c46f94c	0.012144398
14	0x3cea0bf3	0.028570151
15	0x38f690ff	0.00011757202
16	0x3c16c292	0.009201663
17	0x3c72d205	0.01482058
18	0x38650317	5.4600732e-05
19	0x3b24330b	0.0025054838
20	0x00000000	0.0
21	0x3f74bffd	0.9560545
22	0x3e3d6b7e	0.18498036
23	0x3f86c6a7	1.0529374
24	0x3dcb78d3	0.09935155
25	0x3afcd31d	0.0019288991
26	0x3d9e5dac	0.0773271
27	0x3dc64c4f	0.096825235
28	0x3da209fa	0.07912059
29	0x3cdb5c09	0.026777284
30	0x00000000	0.0
31	0x3d2ad6c4	0.041708723
32	0x3e0c767b	0.13717072
33	0x3d3645aa	0.04450003
34	0x3e3f2a5c	0.18668503
35	0x3a7e4af9	0.0009700503
36	0x3d44dc5c	0.048061714
37	0x3db0f29c	0.08640024
38	0x3d0c320a	0.03422741
39	0x3c843b79	0.01614164
40	0x00000000	0.0
41	0x3ec9abd4	0.39388907
42	0x3f3ff3ce	0.7498139
43	0x3ecd52ef	0.40102336
44	0x3f6116e6	0.87925565
45	0x3b99e141	0.004696042
46	0x3e9b3b98	0.30318904
47	0x3ec1c0d0	0.37842417
48	0x3ee7e873	0.45294532
49	0x3dcbd598	0.09952849
50	0x00000000	0.0
51	0x3e0fa924	0.14029366
52	0x3e7a8f00	0.24468613
53	0x3e0ab4ab	0.13545482
54	0x3ea8e64e	0.3298821
55	0x3ade4881	0.0016958864
56	0x3d8ef751	0.069807656
57	0x3d9bf11d	0.07614348
58	0x3ee60eb1	0.44933084
59	0x3cae8ec0	0.021308303
60	0x00000000	0.0
61	0x3bb0bd5e	0.005393668
62	0x3da3cfa5	0.079985894
63	0x3c3f7ad8	0.011687003
64	0x3db9a036	0.09063761
65	0x3993da64	0.0002820074
66	0x3d3ce4e0	0.04611671
67	0x3da8224e	0.08209668
68	0x3f3d7d0a	0.7401892
69	0x3b9f85f6	0.0048682643
70	0x00000000	0.0
71	0x40990cf7	4.7828326
72	0x3fd24f0c	1.6430373
73	0x409b8d2f	4.8609843
74	0x400e889a	2.2270875
75	0x3cb5cd32	0.022192571
76	0x3fe1a761	1.7629205
77	0x3febe09f	1.8427924
78	0x41371608	11.442879
79	0x3f088cbb	0.5333974
80	0x00000000	0.0
81	0x3f7628e4	0.96156144
82	0x3e06a210	0.1314776
83	0x3f813581	1.0094453
84	0x3ddf0d9c	0.10891268
85	0x3b460e49	0.0030220917
86	0x3dda18aa	0.106492355
87	0x3dc6f5d9	0.097148605
88	0x3dc3175e	0.09525941
89	0x3d1f5b4c	0.038905427
90	0x00000000	0.0
91	0x3c4a01b2	0.012329506
92	0x3d3a31f8	0.04545781
93	0x3c2a3061	0.010387511
94	0x3d748ef5	0.059706647
95	0x3935eb56	0.00017349175
96	0x3b9c5583	0.004770936
97	0x3b69447a	0.0035593794
98	0x38a8f7b2	8.057001e-05
99	0x3afab48b	0.0019127292
100	0x00000000	0.0
101	0x3da9c3a5	0.08289269
102	0x3cf18318	0.029481456
103	0x3d87ce77	0.06631177
104	0x3ce5c3a7	0.028047396
105	0x3921be71	0.00015425101
106	0x3c9a9deb	0.01887413
107	0x3ccc4ade	0.024938043
108	0x3cf2472a	0.02957495
109	0x3d1b49c0	0.03791213
110	0x00000000	0.0
111	0x3ecfa810	0.4055791
112	0x3f0aca19	0.54214627
113	0x3ed8734f	0.42275473
114	0x3f09f82b	0.538943
115	0x3b6aebc3	0.0035846091
116	0x3de2c29b	0.11072274
117	0x3d9d6590	0.07685387
118	0x3ae4055c	0.0017396617
119	0x3d40a1ad	0.047029186
120	0x00000000	0.0
121	0x3e9ef3a4	0.31045258
122	0x3d687908	0.05675605
123	0x3ea2669c	0.3171891
124	0x3d442c64	0.047893897
125	0x3a984c66	0.0011619448
126	0x3d9be154	0.07611337
127	0x3df2e9ca	0.11860998
128	0x3e750c6f	0.23930524
129	0x3ca8fb4a	0.020627636
130	0x00000000	0.0
131	0x3dfd0137	0.12353747
132	0x3db26a13	0.08711638
133	0x3e004847	0.12527572
134	0x3dc889b2	0.09791888
135	0x3a6a3b7e	0.00089352566
136	0x3ce1f866	0.027584266
137	0x3c96c5b4	0.01840482
138	0x39da7e3e	0.00041674258
139	0x3c3bd388	0.011464007
140	0x00000000	0.0
141	0x3d0eca1d	0.03486072
142	0x3dfe4e5f	0.12417292
143	0x3d35cd92	0.0443855
144	0x3e0c28f0	0.13687491
145	0x3a3b77fb	0.00071513624
146	0x3d5a549c	0.053303346
147	0x3db4d1ca	0.088290766
148	0x39af739c	0.00033464737
149	0x3c4e2ef9	0.012584441
150	0x00000000	0.0
151	0x3eb9ba6a	0.36275035
152	0x3f82903a	1.0200264
153	0x3ecfbec2	0.40575224
154	0x3f9cc908	1.224885
155	0x3b3fff67	0.0029296519
156	0x3e92ae19	0.2864845
157	0x3ec32b90	0.38119173
158	0x3fbf349f	1.4937934
159	0x3da1ca25	0.07899884
160	0x00000000	0.0
161	0x3c2dd782	0.010610463
162	0x3c10e435	0.008843471
163	0x3c2f707c	0.010707971
164	0x3bf7c12e	0.0075608706
165	0x38c7ce76	9.527516e-05
166	0x3b400508	0.0029299874
167	0x3b036957	0.00200518
168	0x383e6062	4.5389294e-05
169	0x3aa3f0bd	0.0012507659
170	0x00000000	0.0
171	0x3e58203c	0.21106046
172	0x3ed1c112	0.40967613
173	0x3e4d3e8b	0.2004339
174	0x3f15c085	0.58496886
175	0x3b240d51	0.0025032351
176	0x3e10c913	0.14139204
177	0x3d524430	0.05133456
178	0x3a984e82	0.0011620077
179	0x3d49a0f3	0.04922576
180	0x00000000	0.0
181	0x3d2df219	0.04246721
182	0x3dd93aba	0.10606904
183	0x3d6eb5ea	0.058278956
184	0x3ddd5f1e	0.10809158
185	0x39cbe92c	0.00038892904
186	0x3c4c5a9d	0.012472776
187	0x3c29cbac	0.010363501
188	0x3cecac6b	0.028890809
189	0x3b9b937b	0.0047478057
190	0x00000000	0.0
191	0x3d6682f3	0.056277227
192	0x3d8d85bb	0.06910273
193	0x3d81f48b	0.06345471
194	0x3d933423	0.07187679
195	0x39f14b6b	0.00046023293
196	0x3cc3c2a7	0.023896528
197	0x3c9837ca	0.01858129
198	0x3ba9745f	0.005171343
199	0x3c1324a7	0.008980907
200	0x00000000	0.0
201	0x3d5292af	0.05140942
202	0x3c9e7ed1	0.01934758
203	0x3d87f646	0.0663877
204	0x3c6bba6c	0.014387708
205	0x3993d4c5	0.0002819655
206	0x3d7a03c6	0.061038755
207	0x3e2c006d	0.16797037
208	0x3f2d1d69	0.67623
209	0x3d1f103a	0.038833834
210	0x00000000	0.0
211	0x3cbb6080	0.022873163
212	0x3da33065	0.07968215
213	0x3c6b025d	0.014343825
214	0x3d7d5206	0.0618458
215	0x39de49d7	0.00042398155
216	0x3f148e17	0.5802931
217	0x3c0e83e9	0.008698442
218	0x394e7664	0.00019689795
219	0x3e06e534	0.13173372
220	0x00000000	0.0
221	0x3f01a9bf	0.50649637
222	0x3de94dd1	0.113917954
223	0x3f054756	0.52061975
224	0x3df61d63	0.12017324
225	0x3ad7bafc	0.0016458924
226	0x3d6872f9	0.05675027
227	0x3d1c87c2	0.038215406
228	0x3a4a0629	0.00077066064
229	0x3cc450b9	0.023964273
230	0x00000000	0.0
231	0x3d9e4260	0.07727504
232	0x3c97dd6a	0.018538196
233	0x3db892bd	0.09012363
234	0x3c7eec35	0.015559246
235	0x39b85e4d	0.00035165474
236	0x3d5b4686	0.053534053
237	0x3e0546d6	0.13015303
238	0x3ea7e695	0.32793108
239	0x3c8f3583	0.017481571
240	0x00000000	0.0
241	0x3feacfa8	1.8344622
242	0x401274cf	2.2883794
243	0x400a058c	2.1565886
244	0x3fda8d54	1.707438
245	0x3c75e71b	0.015008713
246	0x3f1e2928	0.6178155
247	0x3f580984	0.8438952
248	0x3ff3b483	1.9039463
249	0x3e66e443	0.22548012
250	0x00000000	0.0
251	0x40e6383a	7.1943636
252	0x40153ff3	2.3320282
253	0x40e5f2fe	7.185912
254	0x4045a851	3.0883982
255	0x3d01788d	0.031609107
