Solvation_1/Run_results/ResNet/SOAP_JB_Res1/best/best_val_model.pt (torch, 36627 bytes, 105 tensors)

first_block_conv.conv.weight f4 [2, 1, 3]
000000 5e 53 85 3d 2c d4 ce 3d ff b5 44 3d 7b 72 02 3f
       0.06510042 0.10099062 0.048025128 0.50955933
000010 c0 a8 16 be 81 62 09 3e
       -0.1471281 0.13416483

first_block_conv.conv.bias f4 [2]
000000 d9 64 59 3e df 42 ea bd
       0.21229877 -0.11438536

first_block_bn.weight f4 [2]
000000 88 c8 3e 3f ef 3b 2d 3f
       0.74524736 0.67669576

first_block_bn.bias f4 [2]
000000 6f 06 eb ba ef 2d 87 be
       -0.0017930995 -0.26402232

first_block_bn.running_mean f4 [2]
000000 eb 90 5a 3e 6a d1 e4 bd
       0.21344344 -0.11172755

first_block_bn.running_var f4 [2]
000000 b8 c7 da 3b b4 32 32 3e
       0.0066766404 0.17402154

basicblock_list.0.bn1.weight f4 [2]
000000 00 00 80 3f 00 00 80 3f
       1.0 1.0

basicblock_list.0.bn1.bias f4 [2]
000000 00 00 00 00 00 00 00 00
       0.0 0.0

basicblock_list.0.bn1.running_mean f4 [2]
000000 00 00 00 00 00 00 00 00
       0.0 0.0

basicblock_list.0.bn1.running_var f4 [2]
000000 00 00 80 3f 00 00 80 3f
       1.0 1.0

basicblock_list.0.conv1.conv.weight f4 [2, 2, 3]
000000 c1 61 75 3d 36 56 3d 3e af 68 a8 3d df 6c ab be
       0.05990768 0.18489918 0.08223092 -0.334815
000010 55 f5 45 be 31 2b 57 be 2e 17 74 3e 2d 19 b7 bd
       -0.19331868 -0.2101257 0.23836967 -0.08940349
000020 70 10 85 3e 65 0b ea be 33 68 ab be 8e b3 76 bd
       0.25989103 -0.45711818 -0.33477935 -0.06022983

basicblock_list.0.conv1.conv.bias f4 [2]
000000 71 3a 5a bd e9 d9 74 be
       -0.05327839 -0.23911251

basicblock_list.0.bn2.weight f4 [2]
000000 30 1d c7 3f 3c 2b b8 3f
       1.5555782 1.4388194

basicblock_list.0.bn2.bias f4 [2]
000000 19 b0 6e bc a2 28 9b bd
       -0.014568352 -0.075761095

basicblock_list.0.bn2.running_mean f4 [2]
000000 69 ac 90 bd 1b bf 83 be
       -0.07064135 -0.2573174

basicblock_list.0.bn2.running_var f4 [2]
000000 8a a6 1b 3d f6 c9 48 3d
       0.03800062 0.04902073

basicblock_list.0.conv2.conv.weight f4 [2, 2, 3]
000000 12 77 44 3f 89 1b 0f be 26 45 a0 bc 52 a0 38 3f
       0.76744187 -0.13975348 -0.019564223 0.7211963
000010 a6 b2 2f 3f 9a 9d 22 be e5 0d 00 3f 09 b6 11 3f
       0.6863197 -0.15880433 0.500212 0.5691839
000020 01 8d 3f 3f b6 c7 98 3e 7e 04 62 3f 93 22 21 3e
       0.7482453 0.29839867 0.88288105 0.15735845

basicblock_list.0.conv2.conv.bias f4 [2]
000000 29 fc b1 3e 43 fa 5a be
       0.34762695 -0.2138453

basicblock_list.1.bn1.weight f4 [2]
000000 6c 01 59 3f 3b a9 8a 3f
       0.84767795 1.0832895

basicblock_list.1.bn1.bias f4 [2]
000000 0f 1a 1d bf 84 c7 bb be
       -0.6136789 -0.36675656

basicblock_list.1.bn1.running_mean f4 [2]
000000 6d 6f 1d 3f bc f3 78 3e
       0.6149815 0.24311727

basicblock_list.1.bn1.running_var f4 [2]
000000 c4 8d fd 3f f8 8f 11 40
       1.9808888 2.2744122

basicblock_list.1.conv1.conv.weight f4 [2, 2, 3]
000000 06 dd 66 3d e3 e6 0c be a9 7f f3 3d 63 1d 2a bd
       0.056363128 -0.13759951 0.118895836 -0.04153193
000010 0c d3 d9 3e b8 7e 43 be fb 31 91 be ff 07 45 be
       0.42543828 -0.19091308 -0.28358445 -0.19241332
000020 49 b9 53 3d bb 87 cd 3d 2a 99 30 37 3a b0 7d 3e
       0.051690374 0.10035654 1.0526079e-05 0.24774256

basicblock_list.1.conv1.conv.bias f4 [2]
000000 71 9a 43 be c5 1c 30 bd
       -0.19101883 -0.042996187

basicblock_list.1.bn2.weight f4 [2]
000000 00 b5 80 3f 75 e4 85 3f
       1.0055237 1.0460345

basicblock_list.1.bn2.bias f4 [2]
000000 19 19 13 bf c3 7e 71 3c
       -0.5746017 0.014739695

basicblock_list.1.bn2.running_mean f4 [2]
000000 f2 d7 2f be 02 c6 0e bd
       -0.1717222 -0.034856804

basicblock_list.1.bn2.running_var f4 [2]
000000 af e8 af 3e 5f 69 6a 3e
       0.3435721 0.22891758

basicblock_list.1.conv2.conv.weight f4 [2, 2, 3]
000000 34 8c 57 bb 80 da 4d 3d cb 3b 0c bf 57 5c 9f 3c
       -0.0032889964 0.050257206 -0.54778737 0.01945321
000010 11 f8 ac bd 16 06 de 3e bf e7 51 bd 10 31 75 be
       -0.084457524 0.43364018 -0.0512464 -0.23944497
000020 9b b9 97 be f2 99 c8 bd e5 db 4d 3e 2e 58 3f 3d
       -0.29633793 -0.09794988 0.20103414 0.046714954

basicblock_list.1.conv2.conv.bias f4 [2]
000000 74 8c 2b bd 4f bb 3a 3d
       -0.041881993 0.045588788

basicblock_list.2.bn1.weight f4 [2]
000000 29 15 8a 3f a6 25 65 3f
       1.0787708 0.8951057

basicblock_list.2.bn1.bias f4 [2]
000000 7c 88 9e 3d d3 8a 88 be
       0.07740876 -0.26668414

basicblock_list.2.bn1.running_mean f4 [2]
000000 48 a4 2f 3f d8 20 c6 3e
       0.6861005 0.38696933

basicblock_list.2.bn1.running_var f4 [2]
000000 43 5b 57 40 52 5a 2a 40
       3.3649452 2.6617627

basicblock_list.2.conv1.conv.weight f4 [2, 2, 3]
000000 f6 46 ea bd b7 df 86 3e c5 74 56 be ef 62 ba 3e
       -0.11439316 0.26342556 -0.20942982 0.36403605
000010 29 8f 76 3e 03 a8 56 3e 42 f7 d2 3e 8b 75 15 be
       0.24078049 0.20962529 0.41204268 -0.1459562
000020 bb b2 04 3f 1d 5b 50 be 03 e5 81 be 37 39 45 be
       0.5183522 -0.20347257 -0.25370035 -0.19260107

basicblock_list.2.conv1.conv.bias f4 [2]
000000 ff b0 95 be b0 ec 2b bd
       -0.292366 -0.04197377

basicblock_list.2.bn2.weight f4 [2]
000000 e8 f1 79 3f 5a 7b 9e 3f
       0.97634745 1.2381394

basicblock_list.2.bn2.bias f4 [2]
000000 b7 1d c1 3d 34 c3 7b 3b
       0.09429496 0.003841591

basicblock_list.2.bn2.running_mean f4 [2]
000000 99 b2 73 be 5d 16 07 3c
       -0.23798598 0.008245078

basicblock_list.2.bn2.running_var f4 [2]
000000 4e db 33 3f f0 ac 45 3f
       0.7025651 0.77217007

basicblock_list.2.conv2.conv.weight f4 [2, 2, 3]
000000 7d 0e 8b 3e 7f fe 77 bc 4e 90 14 be 44 b9 08 be
       0.2715949 -0.01513636 -0.14508173 -0.13351923
000010 4f 0f a5 3d 6a f7 74 3e f4 5d 9d 3e 5a 2c 69 bd
       0.080595605 0.23922506 0.30735743 -0.056927063
000020 b1 e7 ab bb 4f ad 24 bd 62 a7 dc 3e e6 f0 f6 3e
       -0.0052461256 -0.040204342 0.43096453 0.48230666

basicblock_list.2.conv2.conv.bias f4 [2]
000000 5d f8 4d be 29 26 13 3e
       -0.20114274 0.14370026

final_bn.weight f4 [2]
000000 f1 d0 ac 3f 51 cd a3 3f
       1.3501264 1.2797033

final_bn.bias f4 [2]
000000 ab 88 78 3d 0f 9b 70 3d
       0.06067721 0.058741625

final_bn.running_mean f4 [2]
000000 0e ec 03 3f 3e 88 24 3f
       0.51532066 0.6427039

final_bn.running_var f4 [2]
000000 e9 41 81 40 b6 7a ae 40
       4.0392957 5.4524794

dense.weight f4 [1, 2]
000000 8c 90 a8 be 85 17 14 bf
       -0.3292278 -0.5784839

exp_avg f4 [2, 1, 3]
000000 7f 86 1a bf 3e e1 73 3f 96 ac 97 bf 04 00 35 3b
       -0.60361475 0.9526557 -1.1849544 0.0027618418
000010 4f 67 dd bc 88 34 24 bd
       -0.0270268 -0.04008916

exp_avg_sq f4 [2, 1, 3]
000000 c4 2c bb 40 da 09 9b 40 6a d6 27 41 77 0e a9 3d
       5.8492146 4.8449526 10.489847 0.08254712
000010 aa f1 02 40 21 50 57 3f
       2.046 0.8410664

exp_avg f4 [2]
000000 66 a2 b3 b9 8e 3d 3c 38
       -0.00034262537 4.488002e-05

exp_avg_sq f4 [2]
000000 1a 19 9e 36 69 39 94 33
       4.711689e-06 6.90223e-08

exp_avg f4 [2]
000000 1c 95 ba 3c 57 5b 85 3e
       0.022776179 0.2604625

exp_avg_sq f4 [2]
000000 f8 ff a0 3e be 33 4b 3f
       0.3144529 0.7937583

exp_avg f4 [2]
000000 d8 c6 df 3c e1 15 39 3e
       0.027316496 0.18074752

exp_avg_sq f4 [2]
000000 66 d4 1a 3f a7 1f 93 3e
       0.60480344 0.28735086

exp_avg f4 [2, 2, 3]
000000 58 d8 4a be 15 bb 70 be 4f 43 b0 be ef 51 03 be
       -0.19809091 -0.23508866 -0.34426352 -0.12824224
000010 37 a1 28 bd e8 76 1f be ab 45 a9 3d d7 2a 56 bc
       -0.04116937 -0.15572703 0.08265241 -0.013071737
000020 11 2d 98 3c c9 4c a7 3b b7 ad ad 3d bb 0f aa bd
       0.018576177 0.005105589 0.08480399 -0.083037816

exp_avg_sq f4 [2, 2, 3]
000000 fa 58 31 3f 3b 34 2a 3f e5 f4 3c 3f 9e 9e 21 3e
       0.6927639 0.6648595 0.7381118 0.15783164
000010 95 0c b3 3d f7 50 81 3e 3a cf 30 3f 7b c0 5f 3f
       0.08742634 0.25257084 0.690662 0.87403077
000020 10 da 98 3f f7 16 8d 3e 81 50 1f 3e 49 de 97 3e
       1.1941547 0.27556583 0.15558054 0.29661778

exp_avg f4 [2]
000000 cb d5 0b b9 24 d6 a7 38
       -0.00013335717 8.003067e-05

exp_avg_sq f4 [2]
000000 5f 25 4a 35 d0 b5 ea 35
       7.5305246e-07 1.7487273e-06

exp_avg f4 [2]
000000 50 53 8e bd 08 2d 66 bd
       -0.06949484 -0.05619529

exp_avg_sq f4 [2]
000000 ea 99 55 3c 18 77 c1 3c
       0.013037184 0.023616359

exp_avg f4 [2]
000000 b4 df 04 3d 04 f1 e7 bc
       0.032439902 -0.028313167

exp_avg_sq f4 [2]
000000 d5 2d 29 3d fa 29 4d 3f
       0.041303474 0.80142176

exp_avg f4 [2, 2, 3]
000000 be 9c 7b bd 81 38 36 3b 7a 73 bc bc ae ea 0e bd
       -0.061428778 0.0027804675 -0.023004282 -0.034891777
000010 08 43 33 bd e6 0b 82 bb c9 37 78 bc b8 d5 e0 bc
       -0.043765098 -0.0039687036 -0.015150019 -0.027445659
000020 5d a3 51 bd d5 95 3c bd a4 0e 0b bc f4 8d 97 bc
       -0.051181186 -0.04604133 -0.008487377 -0.018500306

exp_avg_sq f4 [2, 2, 3]
000000 c2 02 46 3c 82 42 c9 3b 50 0a e6 3b c4 1a 25 3c
       0.012085618 0.0061419616 0.0070202723 0.010077182
000010 5e f5 40 3c b2 d0 b5 3b ea 1e a4 3b b4 bd d5 3b
       0.01177725 0.00554856 0.005008568 0.0065228585
000020 16 d7 ef 3b 9d 02 05 3c a2 8c 22 3c 2f 3e b8 3b
       0.0073193414 0.008118299 0.009921225 0.0056226472

exp_avg f4 [2]
000000 ee 40 99 36 da 89 07 b7
       4.567314e-06 -8.078723e-06

exp_avg_sq f4 [2]
000000 e5 d1 c2 30 b9 f2 2b 30
       1.4175013e-09 6.255437e-10

exp_avg f4 [2]
000000 05 6b c7 bc f5 35 ad 3c
       -0.024343023 0.021143893

exp_avg_sq f4 [2]
000000 23 f8 61 3b ec dd 02 3b
       0.0034480176 0.0019968702

exp_avg f4 [2]
000000 d7 6e ca 3a 62 0d 6c 3b
       0.001544441 0.003601872

exp_avg_sq f4 [2]
000000 17 9e 33 38 a0 a2 c1 39
       4.282416e-05 0.00036932994

exp_avg f4 [2, 2, 3]
000000 2c 14 cd ba 42 f2 57 3d 6b 45 03 bd 01 de 8a bd
       -0.001564627 0.05272127 -0.032048624 -0.06780625
000010 d0 2c 29 3b a3 32 1b bd 2d a0 ba 3c 51 c2 0e 3d
       0.0025814064 -0.037890088 0.022781456 0.034853283
000020 e4 80 58 3d 6b df 05 3d f1 ce 4f 3d a9 64 ec 3c
       0.052857295 0.03268377 0.050734464 0.028856592

exp_avg_sq f4 [2, 2, 3]
000000 1b 72 17 3d 40 7a 8a 3c b2 59 88 3c 9c ba 18 3d
       0.036974054 0.016903996 0.016644333 0.03728734
000010 9b 60 39 3c 26 ff 0d 3d 3f e2 2e 3c 7d 1c 3d 3c
       0.011314536 0.034667157 0.010674058 0.011542437
000020 c2 a4 90 3c 78 f0 03 3d 5e 19 dc 3c ce a1 95 3c
       0.017656688 0.03221175 0.026867565 0.018265631

exp_avg f4 [2]
000000 87 d2 d8 b5 54 41 bc b6
       -1.6154526e-06 -5.610442e-06

exp_avg_sq f4 [2]
000000 f7 76 54 2d 4e e7 10 30
       1.207722e-11 5.27156e-10

exp_avg f4 [2]
000000 78 9a 14 3d 0f fa c3 3c
       0.036280125 0.023922948

exp_avg_sq f4 [2]
000000 10 0a 05 3c 85 c0 64 3b
       0.008120075 0.003490479

exp_avg f4 [2]
000000 1e 98 62 3c 6a 64 c7 bb
       0.013830213 -0.0060849683

exp_avg_sq f4 [2]
000000 26 2a ec 39 d6 02 36 3a
       0.0004504483 0.00069431716

exp_avg f4 [2, 2, 3]
000000 18 e3 5a bd a4 ea 85 bd c6 41 82 bc ec f2 10 3d
       -0.05343923 -0.06538895 -0.015900504 0.03538792
000010 89 00 d5 3b 53 a9 50 3d a3 34 f2 bc 78 80 09 bd
       0.006500308 0.05094273 -0.029566115 -0.033569783
000020 86 c4 38 bd aa 24 28 3c 24 88 97 3c 90 b2 8d b9
       -0.045109294 0.010262648 0.018497534 -0.00027026655

exp_avg_sq f4 [2, 2, 3]
000000 59 2c c4 3c 13 e2 c3 3c a1 c5 0a 3c 17 ac 94 3c
       0.023946928 0.023911512 0.00846997 0.018148465
000010 65 89 33 3c 4f 55 84 3c cf c5 33 3c 19 e2 36 3c
       0.01095805 0.01615396 0.010972454 0.011162304
000020 6e 21 12 3c 6f aa f2 3b b2 70 26 3c a9 2e e8 3b
       0.008919103 0.007405571 0.010158705 0.0070856404

exp_avg f4 [2]
000000 cc 0e 0d b6 7c b5 d3 b4
       -2.101925e-06 -3.943386e-07

exp_avg_sq f4 [2]
000000 93 8b f3 2e 50 60 37 2e
       1.1075154e-10 4.1694925e-11

exp_avg f4 [2]
000000 b3 c7 c9 3c fc 20 e8 bc
       0.024631357 -0.02833604

exp_avg_sq f4 [2]
000000 a6 f2 b2 3b 9d 1b b0 3b
       0.005461055 0.0053743855

exp_avg f4 [2]
000000 26 64 1a bc b9 36 ec 3a
       -0.009423291 0.001802168

exp_avg_sq f4 [2]
000000 b6 9d 97 3d 45 77 46 39
       0.07403128 0.00018927183

exp_avg f4 [2, 2, 3]
000000 c7 42 8f bb cf b6 4e bc 2a c0 c6 3b 1c eb 28 bc
       -0.004371974 -0.012616827 0.006065388 -0.010309961
000010 8c ea 2c 3c 69 46 cf 3c ee 9d 38 3d 00 06 2f 39
       0.010553967 0.025302129 0.04507249 0.00016691536
000020 13 f7 b3 3c 0c 34 12 3d db 7d 2e 3d 68 6d 7c 3d
       0.0219684 0.035694167 0.042600494 0.061627775

exp_avg_sq f4 [2, 2, 3]
000000 83 b0 67 3b f1 74 27 3b 70 f4 44 3b e3 95 0d 3b
       0.0035353012 0.002555188 0.0030052923 0.0021604232
000010 8d 3f bb 3a d0 6a 8d 3b 7d f6 f8 3c 77 37 f1 3c
       0.0014285907 0.0043157116 0.030390972 0.029445393
000020 40 b9 7a 3c 41 1c ab 3c 7b cc 8a 3c 43 ca 59 3c
       0.015302956 0.020887496 0.016943207 0.013292852

exp_avg f4 [2]
000000 ec 69 20 36 3a 3b 17 b7
       2.3903513e-06 -9.014091e-06

exp_avg_sq f4 [2]
000000 51 37 2a 2e c4 88 bd 30
       3.8702656e-11 1.3790431e-09

exp_avg f4 [2]
000000 81 f8 09 3c 25 97 84 bc
       0.008421064 -0.016185353

exp_avg_sq f4 [2]
000000 8d 4c b2 3a 69 9e b7 3b
       0.0013603136 0.0056036008

exp_avg f4 [2]
000000 12 2c da 3a a0 c4 6c bc
       0.0016645214 -0.014451176

exp_avg_sq f4 [2]
000000 9a e9 55 3a 69 82 47 3d
       0.00081601145 0.048708353

exp_avg f4 [2, 2, 3]
000000 18 9b 73 3c e2 d6 6b 3c 2b 5d 85 3b a3 84 bc bb
       0.01486852 0.014394494 0.0040699444 -0.005753116
000010 4a b0 b1 bc 8e a5 63 bc 72 81 a8 3c 2a 8b a1 3c
       -0.021690506 -0.013894452 0.020569537 0.019719679
000020 e4 05 24 3c af 81 83 bc f8 8f 88 bc 74 33 9d bc
       0.01001117 -0.016053049 -0.016670212 -0.019189574

exp_avg_sq f4 [2, 2, 3]
000000 8f 32 c1 3b bb f9 b8 3b db 20 df 3b c5 20 c3 3b
       0.0058959196 0.0056450046 0.0068093366 0.005954834
000010 13 07 45 3c 85 da d0 3b 8d f1 32 3c 57 80 2d 3c
       0.012025612 0.006373706 0.010921848 0.010589681
000020 f8 71 26 3c c7 78 26 3c ea cd 07 3c da 1c 04 3c
       0.010159008 0.0101606315 0.00828884 0.008063519

exp_avg f4 [2]
000000 18 07 a2 34 6a e9 fa 34
       3.0180013e-07 4.673596e-07

exp_avg_sq f4 [2]
000000 97 fb de 2d 21 aa 59 2e
       2.5350206e-11 4.9491192e-11

exp_avg f4 [2]
000000 69 9b 9c bd 9b 47 16 be
       -0.0764683 -0.14675753

exp_avg_sq f4 [2]
000000 f4 7e 94 3e bf 36 88 3f
       0.29003108 1.0641707

exp_avg f4 [2]
000000 9f 2b 20 bd b2 65 99 bd
       -0.0391041 -0.074901

exp_avg_sq f4 [2]
000000 c9 ae d9 3e 70 72 b5 3f
       0.42516163 1.4175549

exp_avg f4 [1, 2]
000000 5c 43 a4 3e f7 1e aa 3e
       0.3208264 0.3322675

exp_avg_sq f4 [1, 2]
000000 c0 c8 ac 40 80 4b b7 40
       5.3995056 5.7279663
