Solvation_1/Run_results/ResNet/Blank_BAT_Res1/best/best_val_model.pt (torch, 36627 bytes, 105 tensors)

first_block_conv.conv.weight f4 [2, 1, 3]
-0.024222497 -0.013660903 -0.44261974 -0.4429516 -0.922788 0.009810942
00000000: 426e c6bc fbd1 5fbc 0e9f e2be 8dca e2be
00000010: d63b 6cbf 13be 203c

first_block_conv.conv.bias f4 [2]
0.17660333 0.5066903
00000000: 81d7 343e 75b6 013f

first_block_bn.weight f4 [2]
1.1483767 1.0312177
00000000: 02fe 923f f1fe 833f

first_block_bn.bias f4 [2]
-0.18113147 -0.27401367
00000000: 877a 39be 854b 8cbe

first_block_bn.running_mean f4 [2]
0.12565427 0.36291966
00000000: 83ab 003e 9bd0 b93e

first_block_bn.running_var f4 [2]
0.6576202 5.1524005
00000000: cc59 283f 77e0 a440

basicblock_list.0.bn1.weight f4 [2]
1.0 1.0
00000000: 0000 803f 0000 803f

basicblock_list.0.bn1.bias f4 [2]
0.0 0.0
00000000: 0000 0000 0000 0000

basicblock_list.0.bn1.running_mean f4 [2]
0.0 0.0
00000000: 0000 0000 0000 0000

basicblock_list.0.bn1.running_var f4 [2]
1.0 1.0
00000000: 0000 803f 0000 803f

basicblock_list.0.conv1.conv.weight f4 [2, 2, 3]
0.15771678 -0.1389012 -0.1297976 0.033901647 -0.46556345 0.24688165 -0.025103683 -0.25245878
-0.15919787 -0.5672549 0.04668536 -0.103993624
00000000: 8280 213e 1e3c 0ebe a9e9 04be 74dc 0a3d
00000010: 555e eebe 8bce 7c3e 3da6 cdbc 4742 81be
00000020: c404 23be 9e37 11bf 2639 3f3d 9cfa d4bd

basicblock_list.0.conv1.conv.bias f4 [2]
-0.27159628 0.37560156
00000000: ab0e 8bbe d94e c03e

basicblock_list.0.bn2.weight f4 [2]
0.91487545 0.6522419
00000000: 4735 6a3f 53f9 263f

basicblock_list.0.bn2.bias f4 [2]
-0.13193943 -0.50927544
00000000: 211b 07be e05f 02bf

basicblock_list.0.bn2.running_mean f4 [2]
-0.2866375 0.32073966
00000000: 27c2 92be fd37 a43e

basicblock_list.0.bn2.running_var f4 [2]
0.0055026463 0.06729773
00000000: 8b4f b43b 64d3 893d

basicblock_list.0.conv2.conv.weight f4 [2, 2, 3]
-0.03701429 -0.24203818 -0.21582796 -0.59425783 0.06630126 0.05992519 -0.32109973 -0.37970132
-0.10679589 0.15744872 0.47356176 0.011093528
00000000: 4c9c 17bd dbd8 77be 0102 5dbe 4821 18bf
00000010: f4c8 873d 1e74 753d 2f67 a4be 3668 c2be
00000020: ceb7 dabd 3d3a 213e b076 f23e a1c1 353c

basicblock_list.0.conv2.conv.bias f4 [2]
0.29338318 -0.05313802
00000000: 5236 963e 41a7 59bd

basicblock_list.1.bn1.weight f4 [2]
0.9128769 0.9418192
00000000: 4db2 693f 101b 713f

basicblock_list.1.bn1.bias f4 [2]
0.07987548 -0.14692499
00000000: c195 a33d 8173 16be

basicblock_list.1.bn1.running_mean f4 [2]
0.3251344 -0.065182105
00000000: 0478 a63e 327e 85bd

basicblock_list.1.bn1.running_var f4 [2]
0.088155046 0.068072446
00000000: a28a b43d 9169 8b3d

basicblock_list.1.conv1.conv.weight f4 [2, 2, 3]
-0.18445112 0.028576816 -0.23626573 -0.23424938 -0.22078918 0.3132029 0.22796531 0.36940035
0.017080028 0.25456238 0.27275535 0.14271614
00000000: c1e0 3cbe ed19 ea3c a5ef 71be 12df 6fbe
00000010: 8f16 62be 215c a03e bd6f 693e 0b22 bd3e
00000020: 6aeb 8b3c 0056 823e 97a6 8b3e 2e24 123e

basicblock_list.1.conv1.conv.bias f4 [2]
-0.037548658 0.36606774
00000000: 9fcc 19bd 3b6d bb3e

basicblock_list.1.bn2.weight f4 [2]
0.95840627 0.89822406
00000000: 1d5a 753f 03f2 653f

basicblock_list.1.bn2.bias f4 [2]
-0.29489753 0.033674806
00000000: cffc 96be 98ee 093d

basicblock_list.1.bn2.running_mean f4 [2]
-0.14831 0.6146535
00000000: 94de 17be ef59 1d3f

basicblock_list.1.bn2.running_var f4 [2]
0.37013403 1.2086475
00000000: 3582 bd3e f6b4 9a3f

basicblock_list.1.conv2.conv.weight f4 [2, 2, 3]
0.042152327 -0.016651379 0.13248383 -0.3553439 -0.050397772 -0.03521863 0.35959876 0.18712386
-0.14508669 -0.16459268 0.22233169 0.18777387
00000000: eba7 2c3d 7968 88bc d7a9 073e a3ef b5be
00000010: e56d 4ebd 6941 10bd 541d b83e 669d 3f3e
00000020: 9b91 14be fc8a 28be ebaa 633e cb47 403e

basicblock_list.1.conv2.conv.bias f4 [2]
0.38226613 0.15502118
00000000: 63b8 c33e dfbd 1e3e

basicblock_list.2.bn1.weight f4 [2]
0.95716506 0.9017998
00000000: c508 753f 5adc 663f

basicblock_list.2.bn1.bias f4 [2]
-0.28055078 -0.30827275
00000000: 5aa4 8fbe edd5 9dbe

basicblock_list.2.bn1.running_mean f4 [2]
0.6516601 0.15860398
00000000: 32d3 263f 1569 223e

basicblock_list.2.bn1.running_var f4 [2]
0.1990285 0.36028683
00000000: 21ce 4b3e 8477 b83e

basicblock_list.2.conv1.conv.weight f4 [2, 2, 3]
-0.13278773 -0.39869273 -0.0831842 -0.613611 0.1322047 -0.6138555 0.29682726 0.31663877
0.35744074 -0.2547101 -0.28068838 -0.026277706
00000000: 82f9 07be 7421 ccbe 7a5c aabd 9c15 1dbf
00000010: ab60 073e a225 1dbf bef9 973e 7a1e a23e
00000020: 7902 b73e 5d69 82be 63b6 8fbe 5844 d7bc

basicblock_list.2.conv1.conv.bias f4 [2]
0.13791682 0.13241208
00000000: 113a 0d3e 0897 073e

basicblock_list.2.bn2.weight f4 [2]
0.85627645 0.94656795
00000000: ef34 5b3f 4752 723f

basicblock_list.2.bn2.bias f4 [2]
0.057654995 -0.092551544
00000000: a527 6c3d aa8b bdbd

basicblock_list.2.bn2.running_mean f4 [2]
-0.029802084 0.12853064
00000000: 8023 f4bc 899d 033e

basicblock_list.2.bn2.running_var f4 [2]
1.3730327 0.3206428
00000000: 89bf af3f 4b2b a43e

basicblock_list.2.conv2.conv.weight f4 [2, 2, 3]
-0.08601789 -0.18974225 -0.00024959675 -0.083650604 0.12300367 -0.13886385 -0.27139008 -0.15507235
-0.03292032 0.3036549 0.33995953 0.5344872
00000000: 262a b0bd cb4b 42be 4fdc 82b9 0251 abbd
00000010: 59e9 fb3d 5332 0ebe a4f3 8abe 49cb 1ebe
00000020: 75d7 06bd a878 9b3e 2d0f ae3e 27d4 083f

basicblock_list.2.conv2.conv.bias f4 [2]
-0.24037886 -0.3167102
00000000: e025 76be d727 a2be

final_bn.weight f4 [2]
1.2291372 1.174656
00000000: 5e54 9d3f 215b 963f

final_bn.bias f4 [2]
-0.1520736 0.11140657
00000000: 2fb9 1bbe 2129 e43d

final_bn.running_mean f4 [2]
0.35876137 -0.15778798
00000000: 92af b73e 2c93 21be

final_bn.running_var f4 [2]
0.20986278 1.0083612
00000000: 45e6 563e fb11 813f

dense.weight f4 [1, 2]
0.7309827 0.87608117
00000000: af21 3b3f db46 603f

exp_avg f4 [2, 1, 3]
-0.1510917 0.12097118 0.0044214567 -0.024532357 0.011599413 -0.016918626
00000000: c8b7 1abe bdbf f73d dee1 903b 15f8 c8bc
00000010: 770b 3e3c ee98 8abc

exp_avg_sq f4 [2, 1, 3]
2.0538743 0.7002303 0.009163151 0.05609643 0.013179448 0.011690964
00000000: ad72 0340 4b42 333f 0a21 163c 5fc5 653d
00000010: 9dee 573c 758b 3f3c

exp_avg f4 [2]
1.0700955e-05 5.992478e-06
00000000: 4088 3337 fe12 c936

exp_avg_sq f4 [2]
4.5927342e-07 1.9094957e-09
00000000: 0f92 f634 3438 0331

exp_avg f4 [2]
0.069502145 -0.010942779
00000000: 2457 8e3d 5749 33bc

exp_avg_sq f4 [2]
2.033959 0.2891101
00000000: 622c 0240 3d06 943e

exp_avg f4 [2]
0.1406413 -0.0055572167
00000000: 4604 103e 5019 b6bb

exp_avg_sq f4 [2]
8.96373 1.1502285
00000000: 706b 0f41 b03a 933f

exp_avg f4 [2, 2, 3]
0.079669654 0.061466515 -0.04152462 -0.023256412 0.054358695 0.06758466 -6e-45 -6e-45
-6e-45 -6e-45 -6e-45 -6e-45
00000000: d829 a33d 50c4 7b3d b815 2abd 3b84 bebc
00000010: 39a7 5e3d d469 8a3d 0400 0080 0400 0080
00000020: 0400 0080 0400 0080 0400 0080 0400 0080

exp_avg_sq f4 [2, 2, 3]
0.65656143 0.4192031 0.28496218 0.012418491 0.032901473 0.19805107 7e-43 7e-43
7e-43 7e-43 7e-43 7e-43
00000000: 6914 283f caa1 d63e 90e6 913e ed76 4b3c
00000010: b2c3 063d e6cd 4a3e f401 0000 f401 0000
00000020: f401 0000 f401 0000 f401 0000 f401 0000

exp_avg f4 [2]
-2.0310094e-05 6e-45
00000000: 985f aab7 0400 0000

exp_avg_sq f4 [2]
2.307415e-08 7e-43
00000000: 9834 c632 f401 0000

exp_avg f4 [2]
0.010229428 -6e-45
00000000: 5599 273c 0400 0080

exp_avg_sq f4 [2]
0.12928401 7e-43
00000000: 0763 043e f401 0000

exp_avg f4 [2]
0.07326635 -6e-45
00000000: ab0c 963d 0400 0080

exp_avg_sq f4 [2]
2.2690601 7e-43
00000000: 4838 1140 f401 0000

exp_avg f4 [2, 2, 3]
0.02919133 -0.015824173 0.036122277 -6e-45 6e-45 6e-45 -0.007998455 -0.0055959253
-0.0004010821 -6e-45 -6e-45 6e-45
00000000: a822 ef3c b2a1 81bc f4f4 133d 0400 0080
00000010: 0400 0000 0400 0000 f40b 03bc 065e b7bb
00000020: 5448 d2b9 0400 0080 0400 0080 0400 0000

exp_avg_sq f4 [2, 2, 3]
0.0632319 0.040281404 0.026815986 7e-43 7e-43 7e-43 0.004415823 0.00401138
0.0052424697 7e-43 7e-43 7e-43
00000000: ba7f 813d 1dfe 243d 33ad db3c f401 0000
00000010: f401 0000 f401 0000 9cb2 903b e571 833b
00000020: 06c9 ab3b f401 0000 f401 0000 f401 0000

exp_avg f4 [2]
-4.5660097e-05 0.00054231443
00000000: 2883 3fb8 1b2a 0e3a

exp_avg_sq f4 [2]
1.2926799e-08 4.2197685e-06
00000000: aa14 5e32 8997 8d36

exp_avg f4 [2]
0.0065606795 -0.0047945497
00000000: f8fa d63b 991b 9dbb

exp_avg_sq f4 [2]
0.009535434 0.009524299
00000000: 823a 1c3c ce0b 1c3c

exp_avg f4 [2]
-0.006139362 0.0066962685
00000000: b42c c9bb 5f6c db3b

exp_avg_sq f4 [2]
0.0017868157 0.0028148084
00000000: 9633 ea3a a678 383b

exp_avg f4 [2, 2, 3]
0.0011607576 -0.10201414 0.007662524 0.07016546 0.019227048 0.081783675 -0.058421064 0.06226807
0.043742985 -0.08008516 0.07064356 -0.06533938
00000000: 9024 983a caec d0bd e915 fb3b e9b2 8f3d
00000010: 0b82 9d3c 337e a73d ed4a 6fbd ce0c 7f3d
00000020: d82b 333d b003 a4bd 92ad 903d a7d0 85bd

exp_avg_sq f4 [2, 2, 3]
0.05716628 0.14297746 0.052535113 0.03860246 0.048969965 0.17977305 0.02604522 0.019743733
0.1343401 0.019450875 0.0212095 0.047052205
00000000: 3027 6a3d af68 123e 0f2f 573d 9d1d 1e3d
00000010: bb94 483d 6d16 383e c95c d53c 9cbd a13c
00000020: 7490 093e 7157 9f3c 8cbf ad3c d0b9 403d

exp_avg f4 [2]
-6.9835454e-07 -1.8222262e-07
00000000: 8f76 3bb5 f9a8 43b4

exp_avg_sq f4 [2]
6.228489e-11 1.6275463e-10
00000000: 47f7 882e 5bf3 322f

exp_avg f4 [2]
0.010650995 -0.013793305
00000000: 8381 2e3c 50fd 61bc

exp_avg_sq f4 [2]
0.007837212 1.2224511
00000000: a667 003c 4779 9c3f

exp_avg f4 [2]
0.009171785 -0.0307132
00000000: 4145 163c 409a fbbc

exp_avg_sq f4 [2]
0.0030319083 0.08446477
00000000: fbb2 463b defb ac3d

exp_avg f4 [2, 2, 3]
0.019508012 0.0030927262 0.059720203 0.1289598 -0.03047207 -0.075150356 -0.013182683 0.024927413
0.007643535 0.023112316 0.073317744 0.0836597
00000000: 44cf 9f3c 56af 4a3b 2c9d 743d 0a0e 043e
00000010: 90a0 f9bc 6ee8 99bd 2efc 57bc 9334 cc3c
00000020: 9e76 fa3b 0a56 bd3c 9d27 963d c755 ab3d

exp_avg_sq f4 [2, 2, 3]
0.09920132 0.14555351 0.18981805 6.067817 6.391256 4.4322805 0.005011681 0.0062971725
0.008018647 1.3965635 0.48549017 0.4463851
00000000: 102a cb3d fb0b 153e aa5f 423e 8f2b c240
00000010: 2b85 cc40 3ed5 8d40 0739 a43b 8358 ce3b
00000020: a560 033c 98c2 b23f 2b92 f83e 968c e43e

exp_avg f4 [2]
-6.7097762e-06 8.574642e-07
00000000: 8a24 e1b6 7e2c 6635

exp_avg_sq f4 [2]
1.446184e-09 4.6094673e-11
00000000: 13c3 c630 fdb9 4a2e

exp_avg f4 [2]
-0.0076324334 0.010427586
00000000: 7e19 fabb 77d8 2a3c

exp_avg_sq f4 [2]
0.041086126 0.09611183
00000000: ed49 283d 47d6 c43d

exp_avg f4 [2]
0.0016717017 0.0052945516
00000000: 001d db3a eb7d ad3b

exp_avg_sq f4 [2]
0.20656087 0.0036692007
00000000: b184 533e f976 703b

exp_avg f4 [2, 2, 3]
-0.010068618 -0.006454185 0.0068970844 0.0019638587 -0.0099111665 0.0013388715 0.014126384 0.029492376
-0.068953454 -0.024286201 -0.013434007 -0.0437552
00000000: d8f6 24bc a17d d3bb f000 e23b 15b4 003b
00000010: 7262 22bc 137d af3a 5972 673c ff99 f13c
00000020: 7837 8dbd dbf3 c6bc 4f1a 5cbc a738 33bd

exp_avg_sq f4 [2, 2, 3]
0.005518732 0.0011435918 0.0073233293 0.00011732581 0.040180057 0.00018885816 0.19002168 0.22862998
0.09168705 0.28903025 0.30870432 0.27036184
00000000: 7bd6 b43b 93e4 953a 8af8 ef3b d10c f638
00000010: d893 243d 3a08 4639 0b95 423e fa1d 6a3e
00000020: 6cc6 bb3d c6fb 933e 7e0e 9e3e de6c 8a3e

exp_avg f4 [2]
-2.7263006e-06 -9.479147e-06
00000000: 7df5 36b6 a008 1fb7

exp_avg_sq f4 [2]
1.1633421e-10 2.3122724e-09
00000000: 57d2 ff2e ede5 1e31

exp_avg f4 [2]
0.0023987165 -0.04487224
00000000: c933 1d3b f4cb 37bd

exp_avg_sq f4 [2]
0.010417967 0.43859
00000000: 1fb0 2a3c de8e e03e

exp_avg f4 [2]
0.002754146 -0.020890301
00000000: e77e 343b 2322 abbc

exp_avg_sq f4 [2]
0.3271996 0.078121826
00000000: b586 a73e 56fe 9f3d

exp_avg f4 [2, 2, 3]
-0.0074966094 -0.010004816 -0.006093641 0.07358004 0.0869523 0.1010887 9.3995244e-05 -0.00011206081
0.0098596 -0.023963973 -0.01614004 -0.03421698
00000000: 1ea6 f5bb 3deb 23bc 2aad c7bb 22b1 963d
00000010: 0c14 b23d 9807 cf3d 501f c538 3002 ebb8
00000020: 298a 213c 1850 c4bc 1e38 84bc 1b27 0cbd

exp_avg_sq f4 [2, 2, 3]
0.053570237 0.06548182 0.022475814 1.6383699 0.61798626 1.5408431 0.014154975 0.013763565
0.0077789407 0.12681897 0.14835621 0.1603439
00000000: 776c 5b3d 551b 863d 331f b83c 1bb6 d13f
00000010: 5934 1e3f 593a c53f 45ea 673c 9380 613c
00000020: 7ce6 fe3b d5dc 013e b1ea 173e 3131 243e

exp_avg f4 [2]
-4.517803e-06 1.8689988e-06
00000000: a297 97b6 4fda fa35

exp_avg_sq f4 [2]
5.3069776e-10 7.4723325e-11
00000000: 89e0 1130 7e51 a42e

exp_avg f4 [2]
-0.0043422356 0.07168098
00000000: 5049 8ebb 7acd 923d

exp_avg_sq f4 [2]
2.6185374 6.038486
00000000: 1e96 2740 473b c140

exp_avg f4 [2]
0.038068097 0.023945779
00000000: 4bed 1b3d f029 c43c

exp_avg_sq f4 [2]
1.7382822 2.867445
00000000: 0880 de3f 3884 3740

exp_avg f4 [1, 2]
-0.015220784 0.099157706
00000000: 9860 79bc 3213 cb3d

exp_avg_sq f4 [1, 2]
6.0701585 12.230656
00000000: bd3e c240 c4b0 4341
