Solvation_1/Run_results/ResNet/Macro_BAT_Res1/best/best_val_model.pt (torch, 36627 bytes, 105 tensors)

first_block_conv.conv.weight f4 [2, 1, 3]
-0.22472936 -0.15622224 -1.0246975 0.05156932 -0.18439758 0.10852671
00000000: 741f 66be b9f8 1fbe 4a29 83bf 5a3a 533d
00000010: b8d2 3cbe 4043 de3d

first_block_conv.conv.bias f4 [2]
0.3926787 -0.32160318
00000000: 2f0d c93e 2ca9 a4be

first_block_bn.weight f4 [2]
0.75274867 0.8816988
00000000: 23b4 403f 03b7 613f

first_block_bn.bias f4 [2]
0.109963715 -0.2630596
00000000: a834 e13d bfaf 86be

first_block_bn.running_mean f4 [2]
0.24294913 -0.32419142
00000000: a8c7 783e 6bfc a5be

first_block_bn.running_var f4 [2]
5.4764977 0.010248115
00000000: 783f af40 b6e7 273c

basicblock_list.0.bn1.weight f4 [2]
1.0 1.0
00000000: 0000 803f 0000 803f

basicblock_list.0.bn1.bias f4 [2]
0.0 0.0
00000000: 0000 0000 0000 0000

basicblock_list.0.bn1.running_mean f4 [2]
0.0 0.0
00000000: 0000 0000 0000 0000

basicblock_list.0.bn1.running_var f4 [2]
1.0 1.0
00000000: 0000 803f 0000 803f

basicblock_list.0.conv1.conv.weight f4 [2, 2, 3]
0.1856039 0.2711906 -0.43650952 0.0135658 0.009988963 -0.04075278 -0.2596156 -0.13547744
0.1675045 -0.27097553 -0.08566416 -0.038964808
00000000: f30e 3e3e 7fd9 8a3e 2d7e dfbe 1743 5e3c
00000010: bfa8 233c 63ec 26bd 56ec 84be 99ba 0abe
00000020: 4d86 2b3e 4ebd 8abe b170 afbd 9099 1fbd

basicblock_list.0.conv1.conv.bias f4 [2]
0.20939423 -0.012733242
00000000: 716b 563e 169f 50bc

basicblock_list.0.bn2.weight f4 [2]
0.95086527 1.1375079
00000000: e86b 733f dc99 913f

basicblock_list.0.bn2.bias f4 [2]
-0.4136159 -0.117111914
00000000: 77c5 d3be 5fd8 efbd

basicblock_list.0.bn2.running_mean f4 [2]
0.21304566 -0.07249093
00000000: a428 5a3e 2076 94bd

basicblock_list.0.bn2.running_var f4 [2]
0.0017911681 0.019185392
00000000: a1c5 ea3a af2a 9d3c

basicblock_list.0.conv2.conv.weight f4 [2, 2, 3]
0.3100171 0.1286749 0.1956586 0.680679 -0.19761837 0.96361506 0.0024618197 -0.3083204
-0.47674742 -0.0040712617 -0.1794807 -0.0036097018
00000000: 90ba 9e3e 5ac3 033e ba5a 483e fb40 2e3f
00000010: 785c 4abe 7aaf 763f 7b56 213b 2cdc 9dbe
00000020: 3d18 f4be 3868 85bb cac9 37be bf90 6cbb

basicblock_list.0.conv2.conv.bias f4 [2]
-0.22865376 -0.00030738363
00000000: 3624 6abe 5528 a1b9

basicblock_list.1.bn1.weight f4 [2]
1.1857901 0.73987496
00000000: f8c7 973f 7268 3d3f

basicblock_list.1.bn1.bias f4 [2]
-0.18727337 -0.78370446
00000000: 97c4 3fbe dba0 48bf

basicblock_list.1.bn1.running_mean f4 [2]
0.123550616 -0.022186043
00000000: 1b08 fd3d 81bf b5bc

basicblock_list.1.bn1.running_var f4 [2]
0.16168104 0.1812211
00000000: b78f 253e 0692 393e

basicblock_list.1.conv1.conv.weight f4 [2, 2, 3]
-0.42087644 -0.4598053 0.15192512 -0.11456032 -0.00037840518 -0.042504005 0.39068314 0.186033
-0.35495478 -0.18625087 -0.01897914 -0.6127392
00000000: 1e7d d7be 9a6b ebbe 4292 1b3e 9a9e eabd
00000010: af64 c6b9 ae18 2ebd 9f07 c83e 6f7f 3e3e
00000020: a2bc b5be 8cb8 3ebe 247a 9bbc 7adc 1cbf

basicblock_list.1.conv1.conv.bias f4 [2]
0.38014916 -0.3113732
00000000: e9a2 c23e 4f6c 9fbe

basicblock_list.1.bn2.weight f4 [2]
0.79782605 0.6175103
00000000: 543e 4c3f 2815 1e3f

basicblock_list.1.bn2.bias f4 [2]
-0.1618123 -0.1651102
00000000: 20b2 25be a612 29be

basicblock_list.1.bn2.running_mean f4 [2]
0.19898275 -0.28511474
00000000: 22c2 4b3e 8ffa 91be

basicblock_list.1.bn2.running_var f4 [2]
1.0074574 0.7901696
00000000: 5df4 803f 8e48 4a3f

basicblock_list.1.conv2.conv.weight f4 [2, 2, 3]
0.17279603 0.1143167 0.14382769 0.18741152 0.038749482 -0.04936851 -0.162342 -0.099649206
-0.007017163 -0.03983186 -0.07033823 -0.045814108
00000000: 71f1 303e e01e ea3d 9147 133e cee8 3f3e
00000010: c7b7 1e3d a236 4abd fb3c 26be e214 ccbd
00000020: 3bf0 e5bb bc26 23bd 7d0d 90bd 93a7 3bbd

basicblock_list.1.conv2.conv.bias f4 [2]
0.4118891 0.19930853
00000000: 21e3 d23e 8917 4c3e

basicblock_list.2.bn1.weight f4 [2]
0.86802685 1.0447105
00000000: 0237 5e3f 13b9 853f

basicblock_list.2.bn1.bias f4 [2]
-0.2815228 0.037681546
00000000: c223 90be f757 1a3d

basicblock_list.2.bn1.running_mean f4 [2]
0.63523966 0.21286112
00000000: 119f 223f 44f8 593e

basicblock_list.2.bn1.running_var f4 [2]
0.2560198 0.27305552
00000000: 0715 833e efcd 8b3e

basicblock_list.2.conv1.conv.weight f4 [2, 2, 3]
-0.3313423 -0.33135188 -0.45466724 0.22030771 -0.0491731 0.23015468 -0.43911204 0.05900297
0.13220322 -0.26917118 -0.02564411 -0.0015091888
00000000: b3a5 a9be f4a6 a9be 25ca e8be 5898 613e
00000010: bc69 49bd abad 6b3e 4bd3 e0be 19ad 713d
00000020: 4860 073e ced0 89be 9913 d2bc f9cf c5ba

basicblock_list.2.conv1.conv.bias f4 [2]
0.123709284 -0.14138183
00000000: 4b5b fd3d 66c6 10be

basicblock_list.2.bn2.weight f4 [2]
0.86318505 1.0556308
00000000: b2f9 5c3f e91e 873f

basicblock_list.2.bn2.bias f4 [2]
-0.09164818 -0.109399684
00000000: 0ab2 bbbd f10c e0bd

basicblock_list.2.bn2.running_mean f4 [2]
-0.010982743 -0.21026577
00000000: f7f0 33bc e94f 57be

basicblock_list.2.bn2.running_var f4 [2]
0.93319 0.3457789
00000000: 8ae5 6e3f ef09 b13e

basicblock_list.2.conv2.conv.weight f4 [2, 2, 3]
-0.08764036 -0.09255997 -0.09657404 0.10765078 0.18391599 0.42576528 0.038330637 0.29427084
0.04783279 -0.108491376 -0.042869177 -0.031063242
00000000: ca7c b3bd 1590 bdbd 9cc8 c5bd 0378 dc3d
00000010: 7954 3c3e e8fd d93e 9600 1d3d abaa 963e
00000020: 51ec 433d ba30 debd 9797 2fbd 5778 febc

basicblock_list.2.conv2.conv.bias f4 [2]
-0.38943568 -0.11033567
00000000: 1d64 c7be abf7 e1bd

final_bn.weight f4 [2]
1.8563666 2.8043404
00000000: 6c9d ed3f 507a 3340

final_bn.bias f4 [2]
0.21771127 0.200856
00000000: b4ef 5e3e 32ad 4d3e

final_bn.running_mean f4 [2]
0.26171464 0.11607435
00000000: 76ff 853e 64b8 ed3d

final_bn.running_var f4 [2]
0.3572601 0.3338278
00000000: ccea b63e 7aeb aa3e

dense.weight f4 [1, 2]
1.279687 -2.1803281
00000000: c9cc a33f 7f8a 0bc0

exp_avg f4 [2, 1, 3]
-0.07247468 -0.20478477 0.047128342 -0.5585119 -0.9767605 -1.3894215
00000000: 9b6d 94bd 19b3 51be a609 413d a3fa 0ebf
00000010: fa0c 7abf 90d8 b1bf

exp_avg_sq f4 [2, 1, 3]
2.4571304 0.88093114 0.17900398 1106.7052 622.58154 747.3027
00000000: a041 1d40 b484 613f d24c 373e 9156 8a44
00000010: 38a5 1b44 5fd3 3a44

exp_avg f4 [2]
2.0040145e-05 -0.00151019
00000000: e21b a837 91f1 c5ba

exp_avg_sq f4 [2]
6.6236394e-09 1.597194e-05
00000000: 2696 e331 7bfb 8537

exp_avg f4 [2]
-0.10259749 0.11156182
00000000: a21e d2bd 867a e43d

exp_avg_sq f4 [2]
1.0875937 15.761098
00000000: 4536 8b3f 752d 7c41

exp_avg f4 [2]
-0.4427116 0.023916028
00000000: 18ab e2be 8ceb c33c

exp_avg_sq f4 [2]
8.780845 2.3985236
00000000: 577e 0c41 6981 1940

exp_avg f4 [2, 2, 3]
1.3905125 1.6403666 1.8426437 2.626957 11.59306 1.2212921 0.916404 0.6880665
0.9883691 -0.6191265 0.029083045 -0.0020716414
00000000: 50fc b13f 88f7 d13f c0db eb3f 1020 2840
00000010: 2c7d 3941 4d53 9c3f 7499 6a3f 2025 303f
00000020: c205 7d3f 137f 1ebf 913f ee3c 60c4 07bb

exp_avg_sq f4 [2, 2, 3]
466.83173 441.42325 487.06808 1317.7539 966.0665 130.3419 13.282756 10.742381
37.384907 6.1421924 0.80551636 1.6538023
00000000: 766a e943 2db6 dc43 b788 f343 20b8 a444
00000010: 4284 7144 8757 0243 2b86 5441 cbe0 2b41
00000020: 258a 1542 d78c c440 5236 4e3f cbaf d33f

exp_avg f4 [2]
-4.9402646e-05 0.00024808545
00000000: b035 4fb8 7711 8239

exp_avg_sq f4 [2]
1.4274526e-06 1.5330555e-05
00000000: e696 bf35 1e9a 8037

exp_avg f4 [2]
0.27136108 -0.32304764
00000000: d7ef 8a3e 8066 a5be

exp_avg_sq f4 [2]
9.995346 1.6802758
00000000: f0ec 1f41 4713 d73f

exp_avg f4 [2]
0.16105461 -0.7459982
00000000: 80eb 243e bdf9 3ebf

exp_avg_sq f4 [2]
5.869937 13.678842
00000000: 86d6 bb40 89dc 5a41

exp_avg f4 [2, 2, 3]
0.210432 0.1460008 0.050968073 -0.17376083 -0.07960877 -0.21918197 -0.036089275 -0.2657344
-0.032638546 0.0481894 -0.18904871 0.028308475
00000000: 7c7b 573e 3c81 153e e6c3 503d 5cee 31be
00000010: ec09 a3bd 3d71 60be 59d2 13bd 570e 88be
00000020: ffaf 05bd 4062 453d fc95 41be 2de7 e73c

exp_avg_sq f4 [2, 2, 3]
0.86209494 0.47556496 0.6557378 1.0089386 0.35594812 1.0048475 6.285079 7.371394
3.2638319 5.3618903 18.71438 8.228656
00000000: 41b2 5c3f 407d f33e 6fde 273f e624 813f
00000010: d53e b63e d89e 803f 5e1f c940 76e2 eb40
00000020: 9fe2 5040 9b94 ab40 0db7 9541 93a8 0341

exp_avg f4 [2]
-0.00024350488 0.0004964382
00000000: 5855 7fb9 6723 023a

exp_avg_sq f4 [2]
8.094595e-06 0.0002506425
00000000: 05ce 0737 ab68 8339

exp_avg f4 [2]
0.0018296032 0.0074801524
00000000: 4ccf ef3a 111c f53b

exp_avg_sq f4 [2]
0.06265368 0.11772763
00000000: 9350 803d 2f1b f13d

exp_avg f4 [2]
0.022867413 0.004368513
00000000: 7154 bb3c be25 8f3b

exp_avg_sq f4 [2]
0.14049543 0.00086651085
00000000: 09de 0f3e 8f26 633a

exp_avg f4 [2, 2, 3]
0.009607185 0.004602654 0.036557697 -0.0069519337 0.026210206 0.004446792 0.03958968 -0.09513435
-0.002010364 -0.0037612794 -0.101366445 0.001820684
00000000: 7467 1d3c dcd1 963b 86bd 153d 0ccd e3bb
00000010: c9b6 d63c 65b6 913b ca28 223d ccd5 c2bd
00000020: 50c0 03bb cc7f 76bb 3699 cfbd 04a4 ee3a

exp_avg_sq f4 [2, 2, 3]
0.08473348 0.0941722 3.1026886 0.00429392 0.24008672 0.012855803 0.56283116 0.52068025
0.29200926 0.018032381 0.040978182 0.11234602
00000000: bf88 ad3d 5bdd c03d 7392 4640 03b4 8c3b
00000010: 4bd9 753e 25a1 523c b415 103f 4d4b 053f
00000020: 3d82 953e a5b8 933c bdd8 273d ac15 e63d

exp_avg f4 [2]
-4.6607497e-06 3.950095e-06
00000000: 8963 9cb6 0f8b 8436

exp_avg_sq f4 [2]
2.4510884e-08 5.543258e-10
00000000: 018c d232 365f 1830

exp_avg f4 [2]
0.017489955 0.0038663484
00000000: 1847 8f3c 9062 7d3b

exp_avg_sq f4 [2]
0.20003773 0.9860471
00000000: b1d6 4c3e 956d 7c3f

exp_avg f4 [2]
0.04460674 -0.01800704
00000000: 8fb5 363d 8083 93bc

exp_avg_sq f4 [2]
0.5397506 0.32532203
00000000: 182d 0a3f 9c90 a63e

exp_avg f4 [2, 2, 3]
0.00041316124 0.0034581926 -0.008117032 0.0959015 0.061144173 0.065090746 -0.046831667 -5.80661e-05
0.025047658 0.1152741 0.09423945 0.012290046
00000000: 909d d839 d8a2 623b 4dfd 04bc 0168 c43d
00000010: 5072 7a3d 4c4e 853d 90d2 3fbd 008c 73b8
00000020: bf30 cd3c d414 ec3d 9d00 c13d 305c 493c

exp_avg_sq f4 [2, 2, 3]
0.041562352 0.03791635 0.029001145 0.629649 0.6583137 0.60685754 0.62381124 0.60373545
0.17814864 6.340152 6.750955 6.5624557
00000000: 493d 2a3d 2d4e 1b3d cf93 ed3c ad30 213f
00000010: 3f87 283f 045b 1b3f 18b2 1f3f 688e 1a3f
00000020: 996c 363e 86e2 ca40 d307 d840 a3ff d140

exp_avg f4 [2]
1.3941187e-06 8.249671e-05
00000000: 8e1d bb35 1502 ad38

exp_avg_sq f4 [2]
3.8967932e-10 9.7538745e-08
00000000: 7d3a d62f 7e76 d133

exp_avg f4 [2]
0.03437314 -0.019941367
00000000: daca 0c3d 145c a3bc

exp_avg_sq f4 [2]
1.0068156 0.55353624
00000000: 55df 803f 8db4 0d3f

exp_avg f4 [2]
0.022875404 -0.06811153
00000000: 3365 bb3c 0f7e 8bbd

exp_avg_sq f4 [2]
0.17174412 0.09838554
00000000: b1dd 2f3e 5c7e c93d

exp_avg f4 [2, 2, 3]
0.019719385 0.011309318 -0.011238866 -0.3152724 -0.3282669 0.25402832 0.10086683 0.105115294
0.5040426 0.12061034 -0.15965652 0.13179201
00000000: 8c8a a13c b84a 393c 3823 38bc 626b a1be
00000010: 9912 a8be 0010 823e 4593 ce3d b046 d73d
00000020: f008 013f 8e02 f73d 007d 23be 7cf4 063e

exp_avg_sq f4 [2, 2, 3]
0.2647389 0.3048603 0.32158706 2.7344637 1.6104231 2.5833244 0.91709626 14.70239
16.61002 1.4769671 0.51563233 1.9213495
00000000: db8b 873e a616 9c3e 0fa7 a43e 7401 2f40
00000010: 5822 ce3f 3055 2540 d2c6 6a3f fd3c 6b41
00000020: 52e1 8441 420d bd3f 7b00 043f c8ee f53f

exp_avg f4 [2]
3.0492061e-05 -0.00018153059
00000000: 34c9 ff37 3f59 3eb9

exp_avg_sq f4 [2]
2.2259087e-07 5.2490367e-07
00000000: 5001 6f34 1be7 0c35

exp_avg f4 [2]
0.04957799 0.07423135
00000000: 4a12 4b3d 9b06 983d

exp_avg_sq f4 [2]
0.6482263 0.53179705
00000000: 29f2 253f da23 083f

exp_avg f4 [2]
0.08474766 0.02332643
00000000: 2e90 ad3d 1217 bf3c

exp_avg_sq f4 [2]
4.752968 0.3646523
00000000: 5018 9840 b5b3 ba3e

exp_avg f4 [2, 2, 3]
0.007058899 -0.00249789 0.023673315 0.117128626 0.10492514 0.07762465 0.17841756 0.0915944
0.08137663 -0.058651205 -0.084064275 -0.028197292
00000000: 564e e73b a4b3 23bb 8aee c13c 22e1 ef3d
00000010: fee2 d63d acf9 9e3d 18b3 363e d895 bb3d
00000020: caa8 a63d 3f3c 70bd e429 acbd 02fe e6bc

exp_avg_sq f4 [2, 2, 3]
0.06542359 0.065501764 0.069292456 0.5218008 0.51768917 0.39683965 2.8269095 2.8980508
2.8792498 2.2143686 2.6269999 2.610849
00000000: cefc 853d ca25 863d 34e9 8d3d bd94 053f
00000010: 4787 043f 912e cb3e 16ec 3440 aa79 3940
00000020: a145 3840 37b8 0d40 c420 2840 2618 2740

exp_avg f4 [2]
-1.1553916e-06 0.0001028511
00000000: f412 9bb5 c4b1 d738

exp_avg_sq f4 [2]
4.142891e-10 1.0282596e-07
00000000: 02c2 e32f 2bd1 dc33

exp_avg f4 [2]
-0.53120226 -0.5420832
00000000: dffc 07bf f7c5 0abf

exp_avg_sq f4 [2]
16.401066 14.7346525
00000000: 6235 8341 23c1 6b41

exp_avg f4 [2]
-0.5755123 0.8942989
00000000: c654 13bf c6f0 643f

exp_avg_sq f4 [2]
41.050076 360.86182
00000000: 4733 2442 506e b443

exp_avg f4 [1, 2]
-0.86848956 0.614828
00000000: 5555 5ebf 5e65 1d3f

exp_avg_sq f4 [1, 2]
47.818626 41.75872
00000000: 4646 3f42 ee08 2742
