Solvation_1/Run_results/ResNet/SOAP_TESA_Res1/best/best_val_model.pt (torch, 36627 bytes, 105 tensors)

first_block_conv.conv.weight f4 [2, 1, 3]
000000 db 6e 84 be 99 c3 ab 3e ab 30 c8 3e 36 a8 2c bc
       -0.25865826 0.33547667 0.3909963 -0.0105381515
000010 fb a7 b3 bd 5c 49 04 3f
       -0.08772274 0.5167444

first_block_conv.conv.bias f4 [2]
000000 7f 14 0f 3e 4d 07 6c 3c
       0.13972662 0.0144060375

first_block_bn.weight f4 [2]
000000 b6 12 6f 3f cf 15 72 3f
       0.93387926 0.9456453

first_block_bn.bias f4 [2]
000000 2d 60 ef bd c1 0b e4 bd
       -0.11688266 -0.111350544

first_block_bn.running_mean f4 [2]
000000 7a 35 0f 3e e4 a8 6d 3c
       0.13985243 0.014505599

first_block_bn.running_var f4 [2]
000000 ac 8a 93 3d 28 55 c5 3d
       0.07204184 0.09635383

basicblock_list.0.bn1.weight f4 [2]
000000 00 00 80 3f 00 00 80 3f
       1.0 1.0

basicblock_list.0.bn1.bias f4 [2]
000000 00 00 00 00 00 00 00 00
       0.0 0.0

basicblock_list.0.bn1.running_mean f4 [2]
000000 00 00 00 00 00 00 00 00
       0.0 0.0

basicblock_list.0.bn1.running_var f4 [2]
000000 00 00 80 3f 00 00 80 3f
       1.0 1.0

basicblock_list.0.conv1.conv.weight f4 [2, 2, 3]
000000 99 f9 2d 3e b4 ff 65 be 7a 43 8f 3e 94 51 86 3e
       0.16989745 -0.22460824 0.27981168 0.26234114
000010 99 dc 76 3e d6 6e ef bd 92 f1 00 3d 11 ee 29 be
       0.24107589 -0.11691062 0.03148038 -0.16594721
000020 c4 97 f4 bd 42 4a 08 bf d2 ab fd 3b c7 ff 77 be
       -0.119430095 -0.5323831 0.00774143 -0.24218665

basicblock_list.0.conv1.conv.bias f4 [2]
000000 27 34 47 3e 6e 76 54 be
       0.19453488 -0.20748302

basicblock_list.0.bn2.weight f4 [2]
000000 e7 73 86 3f 80 85 87 3f
       1.050412 1.0587616

basicblock_list.0.bn2.bias f4 [2]
000000 83 6e e8 3c 31 89 7c 3d
       0.028373009 0.061654273

basicblock_list.0.bn2.running_mean f4 [2]
000000 dc 63 83 3e 64 be a0 be
       0.25662124 -0.31395257

basicblock_list.0.bn2.running_var f4 [2]
000000 e2 ef e3 3d fb 3a 98 3e
       0.111297384 0.297325

basicblock_list.0.conv2.conv.weight f4 [2, 2, 3]
000000 06 69 e3 be 02 52 cd 3e 65 1d 0c 3d 5b 17 22 3e
       -0.44416064 0.4010163 0.03420772 0.15829222
000010 c9 1c 04 be e1 a1 08 bd d1 54 f0 3b 32 f3 e0 be
       -0.12901606 -0.033357505 0.0073343297 -0.43935543
000020 3e 93 a3 be 83 de 08 3d 93 3e 88 be 4b ec 91 3e
       -0.31948274 0.03341533 -0.2661024 0.2850059

basicblock_list.0.conv2.conv.bias f4 [2]
000000 81 21 69 be 6e ff 03 3d
       -0.22766687 0.03222602

basicblock_list.1.bn1.weight f4 [2]
000000 16 24 70 3f 2c ef 85 3f
       0.9380506 1.0463614

basicblock_list.1.bn1.bias f4 [2]
000000 22 fe de bc c2 b1 ba bd
       -0.02722079 -0.09115936

basicblock_list.1.bn1.running_mean f4 [2]
000000 07 0a 13 be 19 f7 02 3d
       -0.14359294 0.031973932

basicblock_list.1.bn1.running_var f4 [2]
000000 d9 e3 33 3f 1e c3 18 3f
       0.7026954 0.59672725

basicblock_list.1.conv1.conv.weight f4 [2, 2, 3]
000000 94 a7 d2 bb 59 51 26 3e 47 9a 8e be 8d 92 21 3a
       -0.0064286683 0.16241969 -0.2785208 0.00061635004
000010 65 cc ed bd 2b b9 be 3e 64 9c d0 be 2b bc 8f bd
       -0.11611251 0.37250647 -0.40744317 -0.07018312
000020 3b 54 0c 3d c8 e8 23 bc 4f 7e a1 bd f2 fd 11 be
       0.034260016 -0.01000423 -0.078854196 -0.14257029

basicblock_list.1.conv1.conv.bias f4 [2]
000000 12 ca aa 3e 51 66 48 3d
       0.33357292 0.0489257

basicblock_list.1.bn2.weight f4 [2]
000000 94 53 86 3f 24 7b 6e 3f
       1.0494256 0.9315665

basicblock_list.1.bn2.bias f4 [2]
000000 02 6c 38 bd dd a3 9b bd
       -0.04502488 -0.07599614

basicblock_list.1.bn2.running_mean f4 [2]
000000 06 d0 af 3e 21 1d 92 bc
       0.34338397 -0.017836155

basicblock_list.1.bn2.running_var f4 [2]
000000 a0 01 76 3e f8 a4 9b 3e
       0.24024057 0.303993

basicblock_list.1.conv2.conv.weight f4 [2, 2, 3]
000000 78 db 1b 3e 7d 71 27 be e6 50 c2 3e 47 17 51 be
       0.1522044 -0.16351886 0.37952346 -0.20419036
000010 a3 79 8c be 8e f9 6a 3a 81 05 da 3d 4e 19 56 3e
       -0.2743655 0.0008963578 0.10645581 0.2090809
000020 7b ba 3c bd f6 f7 90 3e ca b0 59 be 58 20 5f 3e
       -0.04607628 0.2831418 -0.21258846 0.21789682

basicblock_list.1.conv2.conv.bias f4 [2]
000000 c8 b2 90 be 63 26 04 3d
       -0.282614 0.03226317

basicblock_list.2.bn1.weight f4 [2]
000000 1a dd 85 3f 9f f6 73 3f
       1.04581 0.9529819

basicblock_list.2.bn1.bias f4 [2]
000000 35 83 a0 bd 14 08 48 3d
       -0.07837526 0.04883583

basicblock_list.2.bn1.running_mean f4 [2]
000000 ba 8a 8b be ba 7d 82 3e
       -0.27254277 0.25486547

basicblock_list.2.bn1.running_var f4 [2]
000000 ad 0c c5 3f 54 20 0b 3f
       1.5394493 0.54346204

basicblock_list.2.conv1.conv.weight f4 [2, 2, 3]
000000 08 d6 98 3d 4d 4f 84 3e 72 12 b6 be 17 e9 14 be
       0.07462698 0.25841752 -0.35560948 -0.14542042
000010 55 f9 24 be 04 9f 47 be 27 40 b2 3e 79 54 8b bd
       -0.16110738 -0.19494253 0.3481457 -0.06803221
000020 94 a8 e9 bc 79 6e a1 be d0 66 62 3d df b4 8d be
       -0.028522767 -0.31529596 0.05527383 -0.27677056

basicblock_list.2.conv1.conv.bias f4 [2]
000000 da 71 00 be 44 5c 5a 3d
       -0.12543431 0.053310648

basicblock_list.2.bn2.weight f4 [2]
000000 1d 7a 7d 3f 2d 5d 84 3f
       0.99014455 1.0340935

basicblock_list.2.bn2.bias f4 [2]
000000 95 e4 2f bd 6c b6 49 3c
       -0.042942602 0.012311559

basicblock_list.2.bn2.running_mean f4 [2]
000000 c2 a1 4b be ca 88 63 3c
       -0.19885924 0.0138875935

basicblock_list.2.bn2.running_var f4 [2]
000000 93 28 ef 3e ab 90 d5 3e
       0.46710643 0.41711935

basicblock_list.2.conv2.conv.weight f4 [2, 2, 3]
000000 b7 f1 8a 3d c8 b9 b2 be ba 23 c7 3d 38 7b ad be
       0.06784385 -0.34907365 0.09723611 -0.3388307
000010 1e 8a ba be 9c a5 9b be 15 d9 b9 3e 2f ed 27 3e
       -0.364335 -0.30399787 0.36298433 0.16399072
000020 7a fb 39 be 5d fc 86 bc f7 98 1f be f1 fc d9 be
       -0.18162337 -0.016477758 -0.15585695 -0.4257579

basicblock_list.2.conv2.conv.bias f4 [2]
000000 6b 66 e9 bd f1 b5 9c 3e
       -0.11396488 0.3060756

final_bn.weight f4 [2]
000000 61 55 76 3f 87 d5 72 3f
       0.9622403 0.94857067

final_bn.bias f4 [2]
000000 dc 28 db 3c d4 51 a1 bd
       0.026752882 -0.078769356

final_bn.running_mean f4 [2]
000000 4c e9 02 bf 20 11 05 3f
       -0.5113723 0.51979256

final_bn.running_var f4 [2]
000000 ba 45 9b 3f d4 94 28 3f
       1.2130654 0.65852094

dense.weight f4 [1, 2]
000000 a1 0e c9 3b 14 c7 c0 be
       0.006135777 -0.37651885

exp_avg f4 [2, 1, 3]
000000 c7 f8 11 bc 7e f8 45 bc 25 a6 92 3b 9c 58 85 3b
       -0.008909411 -0.012083171 0.0044753724 0.004069401
000010 e4 7b d6 3c 75 4c 94 3b
       0.026182123 0.004525716

exp_avg_sq f4 [2, 1, 3]
000000 69 71 b7 3b 8c 40 b7 3b 8b 0a 20 3c 6c e3 12 3c
       0.0055982363 0.0055924114 0.009768139 0.008965354
000010 70 4d 17 3c 2d 90 6d 39
       0.009234771 0.00022655791

exp_avg f4 [2]
000000 ba 42 21 b5 dd 7a f8 b7
       -6.0074274e-07 -2.9621116e-05

exp_avg_sq f4 [2]
000000 49 a5 18 2e 3e 55 e4 31
       3.47076e-11 6.6453643e-09

exp_avg f4 [2]
000000 79 53 36 3b e8 06 72 bc
       0.002782075 -0.014772154

exp_avg_sq f4 [2]
000000 55 58 3a 3c b8 8f 5f 3d
       0.011373599 0.05458042

exp_avg f4 [2]
000000 9a 0f 27 3b 44 c9 a8 3b
       0.0025491477 0.005150946

exp_avg_sq f4 [2]
000000 ca 94 1d 3a f7 48 cd 3c
       0.0006011246 0.025059206

exp_avg f4 [2, 2, 3]
000000 3b ed ef 3c 54 98 f0 3b 46 8c 83 bc dc f1 d5 3c
       0.029287925 0.0073423777 -0.016058099 0.026116304
000010 af f7 0b bc 6a 2f fe 3c 74 ab 7d 3b b8 65 04 bb
       -0.008542939 0.031028468 0.003870693 -0.002020223
000020 b0 f7 ad b9 c8 fa 5e 3a f0 f4 65 39 b1 25 46 39
       -0.00033181673 0.0008505997 0.00021930388 0.00018896793

exp_avg_sq f4 [2, 2, 3]
000000 45 65 a6 3b 99 bd ca 3d 9c a2 4c 3c 33 05 85 3d
       0.0050779902 0.09899444 0.012489941 0.06495132
000010 1e a5 f5 3c db 3d 33 3c 38 0b 7c 39 94 b6 af 37
       0.02998596 0.01094004 0.00024036772 2.0946645e-05
000020 73 4e 88 38 44 fb 2f 36 26 74 a1 3a a8 52 10 37
       6.499598e-05 2.6223288e-06 0.001231794 8.602314e-06

exp_avg f4 [2]
000000 5e 02 87 37 8b dd 4d 34
       1.6094356e-05 1.917271e-07

exp_avg_sq f4 [2]
000000 50 a3 09 31 59 3a d2 2c
       2.0028956e-09 5.975037e-12

exp_avg f4 [2]
000000 5c e8 07 3b c0 33 2f b8
       0.0020737862 -4.1771447e-05

exp_avg_sq f4 [2]
000000 b3 84 22 3d b6 15 e8 38
       0.039677333 0.00011066666

exp_avg f4 [2]
000000 c4 23 b9 3b 56 46 9d bb
       0.0056500155 -0.0047996445

exp_avg_sq f4 [2]
000000 59 e1 de 3b d8 df 14 3c
       0.006801766 0.009086572

exp_avg f4 [2, 2, 3]
000000 8e d7 d4 ba 86 ae 6a bc 02 0b b5 3b 40 c5 d0 36
       -0.0016238557 -0.014323836 0.005524994 6.221846e-06
000010 6f c3 b8 39 70 a7 ae 38 c0 b3 11 bb 4c 80 27 bc
       0.00035240824 8.328154e-05 -0.0022232383 -0.010223459
000020 f7 36 0a bc 90 9b 24 ba e8 bd 28 3b d0 ff bd 3a
       -0.008435956 -0.0006279284 0.0025747959 0.0014495794

exp_avg_sq f4 [2, 2, 3]
000000 92 f2 cb 39 f1 a8 c7 3a 16 62 92 3a 93 90 1a 36
       0.00038899906 0.0015232844 0.0011168148 2.3031942e-06
000010 02 e7 9a 35 69 a3 d3 35 39 ad 53 3e 39 29 e6 3d
       1.1541126e-06 1.5768284e-06 0.20671548 0.11238331
000020 35 b9 30 3d 3a 8e 0a 3b 0b 23 50 39 be 07 84 3b
       0.043145377 0.0021141903 0.0001984948 0.0040292433

exp_avg f4 [2]
000000 5b 97 65 b8 f2 8e 89 38
       -5.4738815e-05 6.559295e-05

exp_avg_sq f4 [2]
000000 5c 9d 15 32 6b 47 f6 34
       8.708721e-09 4.5873034e-07

exp_avg f4 [2]
000000 90 2c 4f bb 9f e9 3c 3b
       -0.0031612255 0.0028825772

exp_avg_sq f4 [2]
000000 42 c7 9e 39 16 cb 76 39
       0.00030284567 0.00023536044

exp_avg f4 [2]
000000 56 b7 c1 ba 66 03 83 3a
       -0.001477937 0.000999552

exp_avg_sq f4 [2]
000000 9b 0c 87 38 a3 32 d6 39
       6.4396496e-05 0.00040854988

exp_avg f4 [2, 2, 3]
000000 fe b8 fb 3b 38 ca f6 bb ed 47 bf 3b c3 87 75 3c
       0.007681965 -0.0075314306 0.0058374316 0.014985981
000010 68 2c c4 3b de 98 1d 3c de ac 83 ba 95 c5 4c 3a
       0.005986739 0.009618966 -0.0010046025 0.00078114244
000020 df 9c 36 bc 2e 4d 6c ba 36 f6 57 39 8e c0 7c b9
       -0.011145799 -0.0009014186 0.00020595719 -0.00024104325

exp_avg_sq f4 [2, 2, 3]
000000 b3 f5 49 3b 17 06 66 3c 6b 4e ed 3a 14 24 ef 3a
       0.0030816614 0.014039538 0.0018105035 0.0018245005
000010 e7 35 1b 3a b6 be f6 3a cb 84 83 37 f4 e8 47 38
       0.0005920813 0.0018825147 1.5678253e-05 4.766225e-05
000020 ae 8a 6e 3b 63 fa c9 39 ae ce 99 36 b6 61 2e 36
       0.0036398578 0.0003852426 4.583816e-06 2.5984896e-06

exp_avg f4 [2]
000000 8b 6e a6 35 67 ce ce 33
       1.2400136e-06 9.630167e-08

exp_avg_sq f4 [2]
000000 7c 56 ac 2d 73 3b 5b 2c
       1.9592543e-11 3.1154773e-12

exp_avg f4 [2]
000000 0f 1f 14 3b ee d9 11 ba
       0.002260152 -0.0005563785

exp_avg_sq f4 [2]
000000 87 74 11 3a f5 e4 ad 36
       0.0005548675 5.182456e-06

exp_avg f4 [2]
000000 a6 b2 c2 ba cb cb 9c ba
       -0.0014854267 -0.001196259

exp_avg_sq f4 [2]
000000 91 08 28 3a 3e 98 1f 39
       0.0006409968 0.00015220136

exp_avg f4 [2, 2, 3]
000000 f2 6d 01 3b 54 85 33 bb f8 54 51 3b 53 6a 9e 39
       0.001974937 -0.0027392702 0.0031941514 0.00030215326
000010 fc f0 54 b9 b7 04 57 39 c5 6e 0a bd 2f a1 92 3c
       -0.00020307669 0.00020505754 -0.033797044 0.017899124
000020 aa 6a ec bb 8f 70 b0 ba f8 35 ca ba 2e a3 dd ba
       -0.007214864 -0.001346128 -0.0015427461 -0.0016909593

exp_avg_sq f4 [2, 2, 3]
000000 3f 82 0d 3a bb 4a 3e 3a 07 2b 00 3a a3 c5 a5 35
       0.00053981313 0.00072590605 0.0004889224 1.2350978e-06
000010 b9 51 fd 35 c3 16 be 35 e9 00 d2 3c 87 c5 c5 3b
       1.8873753e-06 1.4162728e-06 0.0256352 0.00603551
000020 e5 e4 fd 3c 81 0c ff 37 b7 b7 1a 38 53 2f 0c 38
       0.030992934 3.0404191e-05 3.688756e-05 3.3422675e-05

exp_avg f4 [2]
000000 57 51 83 32 13 bc 9e b2
       1.5287396e-08 -1.8479147e-08

exp_avg_sq f4 [2]
000000 0c c4 a7 26 12 91 b7 2a
       1.1641091e-15 3.2607993e-13

exp_avg f4 [2]
000000 f7 24 ce 3b 88 0d de bb
       0.0062910276 -0.0067765154

exp_avg_sq f4 [2]
000000 d6 a7 68 3b 73 2e 89 3b
       0.0035500429 0.0041864454

exp_avg f4 [2]
000000 ee d7 e5 3a ad 09 ac 39
       0.0017535666 0.00032813606

exp_avg_sq f4 [2]
000000 45 6a ba 38 89 38 6e 38
       8.8889654e-05 5.6796274e-05

exp_avg f4 [2, 2, 3]
000000 97 84 a7 3c be 05 0e 3d 6c de 94 3c 5e 68 01 3c
       0.020448966 0.034673445 0.018172465 0.007898418
000010 dd 74 72 3c 84 e7 25 3b 30 11 da 3b 2d fd ac bb
       0.01479837 0.0025314996 0.006654881 -0.0052792043
000020 d2 a4 15 3c 1e f4 2e 3c 67 df da 3c 4a 79 f9 3a
       0.0091335345 0.010678319 0.026717855 0.0019033339

exp_avg_sq f4 [2, 2, 3]
000000 a9 52 0a 3c 9b 40 16 3c 73 e9 e6 3a ba 17 da 3a
       0.008442559 0.009170677 0.0017617181 0.0016639151
000010 79 3b d7 3a 29 09 bc 3a b7 68 81 3d d7 58 d9 3c
       0.0016420922 0.0014345992 0.06318801 0.02653162
000020 cd bc b1 3c 7b ab b1 3c 67 f3 c2 3c 6c df 85 3c
       0.021696473 0.021688214 0.023797704 0.016341887

exp_avg f4 [2]
000000 40 24 b5 b2 f2 16 47 34
       -2.1087658e-08 1.8541667e-07

exp_avg_sq f4 [2]
000000 68 20 fb 2b 2c 19 30 2c
       1.7843617e-12 2.5025077e-12

exp_avg f4 [2]
000000 85 22 f1 3b 3a 10 6a 3a
       0.0073588514 0.00089288095

exp_avg_sq f4 [2]
000000 74 7d c9 39 38 5d 09 3c
       0.00038431177 0.0083840415

exp_avg f4 [2]
000000 0c 6e 2d 3a 46 e3 3a 3b
       0.00066158245 0.0028516813

exp_avg_sq f4 [2]
000000 42 01 89 3a e3 41 c9 3b
       0.0010452645 0.0061418875

exp_avg f4 [2, 2, 3]
000000 42 6c bb b8 36 e2 61 b9 5c 33 47 b9 00 f9 0a b6
       -8.9370194e-05 -0.00021541942 -0.00018997252 -2.070854e-06
000010 f6 26 13 39 f2 38 41 39 56 8a 9a 3c d2 83 33 3c
       0.00014033527 0.00018427128 0.018864792 0.010956721
000020 93 b3 01 3c 90 c0 5f bc 48 ef 0a 3c 38 54 a6 bb
       0.007916349 -0.01365675 0.008479901 -0.0050759576

exp_avg_sq f4 [2, 2, 3]
000000 2e 7b 09 35 69 98 15 35 36 49 e7 34 30 c3 02 36
       5.1215727e-07 5.572861e-07 4.308037e-07 1.9485124e-06
000010 1a f7 2e 36 ff 58 1a 36 c1 1b 33 3b 99 6a 93 3b
       2.6071853e-06 2.299959e-06 0.0027329775 0.0044987914
000020 98 b5 81 3b 3a 0d 63 3c ba 2c 55 3c 42 c0 0a 3d
       0.0039584152 0.013858134 0.013011152 0.033874758

exp_avg f4 [2]
000000 19 18 30 b3 69 a8 db b2
       -4.100011e-08 -2.557154e-08

exp_avg_sq f4 [2]
000000 12 69 31 27 3d e7 96 2b
       2.4620643e-15 1.0722323e-12

exp_avg f4 [2]
000000 36 7a 95 39 29 25 34 bc
       0.0002851055 -0.010995188

exp_avg_sq f4 [2]
000000 0e 1f b4 38 10 36 5f 3e
       8.588853e-05 0.21797967

exp_avg f4 [2]
000000 8a ee 86 ba 08 0e 23 bb
       -0.0010294479 -0.002488019

exp_avg_sq f4 [2]
000000 04 28 05 39 b9 b0 80 3d
       0.00012698775 0.06283707

exp_avg f4 [1, 2]
000000 76 a5 23 3d 00 ab de 3c
       0.039952718 0.027181149

exp_avg_sq f4 [1, 2]
000000 a5 3b 0c 40 00 f0 a5 3f
       2.1911404 1.2963867
