Solvation_1/Run_results/ResNet/BAT_TESA_Res1/best/best_val_model.pt (torch, 36627 bytes, 105 tensors)

first_block_conv.conv.weight f4 [2, 1, 3]
0	0xbeb238a6	-0.34808844
1	0x3e0c8bd5	0.13725217
2	0x3e27c46e	0.16383526
3	0xbee0aa51	-0.4387994
4	0x3ef37591	0.47550634
5	0xbda6f0f2	-0.081514254

first_block_conv.conv.bias f4 [2]
0	0xbed38654	-0.41313422
1	0x3f0e9f0b	0.5571143

first_block_bn.weight f4 [2]
0	0x3f13322a	0.5749842
1	0x3f6a626e	0.9155644

first_block_bn.bias f4 [2]
0	0x3f841680	1.0319366
1	0x3d85d406	0.06534581

first_block_bn.running_mean f4 [2]
0	0xbed52d1d	-0.4163598
1	0x3f0dd609	0.55404717

first_block_bn.running_var f4 [2]
0	0x3c5ea2b9	0.013588601
1	0x3ca42135	0.020035366

basicblock_list.0.bn1.weight f4 [2]
0	0x3f800000	1.0
1	0x3f800000	1.0

basicblock_list.0.bn1.bias f4 [2]
0	0x00000000	0.0
1	0x00000000	0.0

basicblock_list.0.bn1.running_mean f4 [2]
0	0x00000000	0.0
1	0x00000000	0.0

basicblock_list.0.bn1.running_var f4 [2]
0	0x3f800000	1.0
1	0x3f800000	1.0

basicblock_list.0.conv1.conv.weight f4 [2, 2, 3]
0	0x3e8e59f2	0.27802998
1	0xbd421240	-0.047380686
2	0xbe6c4d2e	-0.23076317
3	0xbe7983f1	-0.24366738
4	0xbe3a1ac7	-0.18174277
5	0x3c60a7e8	0.013711907
6	0x3df2f679	0.11863417
7	0x3f126230	0.5718107
8	0x3ee650bf	0.4498348
9	0x3daca06d	0.08429036
10	0xbd8146c1	-0.06312323
11	0xbe76d014	-0.24102813

basicblock_list.0.conv1.conv.bias f4 [2]
0	0xbea09d58	-0.31370044
1	0x3c1d7f39	0.009612852

basicblock_list.0.bn2.weight f4 [2]
0	0x3f897593	1.0739006
1	0x3f8ffcbd	1.1249005

basicblock_list.0.bn2.bias f4 [2]
0	0x3d3830cd	0.044968415
1	0xbea8e89d	-0.3298997

basicblock_list.0.bn2.running_mean f4 [2]
0	0xbec38102	-0.38184363
1	0x3f96a5a5	1.1769301

basicblock_list.0.bn2.running_var f4 [2]
0	0x3c980744	0.018558152
1	0x3d9a8304	0.075445205

basicblock_list.0.conv2.conv.weight f4 [2, 2, 3]
0	0xbeb1aad6	-0.3470065
1	0xbd1d6d4b	-0.038434308
2	0xbec4f883	-0.3847085
3	0xbe2fc857	-0.17166267
4	0xbeec1c96	-0.4611556
5	0xbf002360	-0.5005398
6	0xbe7a0a9e	-0.24418113
7	0xbe437c24	-0.19090325
8	0xbec4ac43	-0.38412675
9	0xbea82d4f	-0.32847068
10	0xbed564e5	-0.4167854
11	0xbf1333c9	-0.5750089

basicblock_list.0.conv2.conv.bias f4 [2]
0	0xbde8966d	-0.113568164
1	0x3ee8885a	0.45416528

basicblock_list.1.bn1.weight f4 [2]
0	0x3f57d6a6	0.843119
1	0x3f85edd8	1.0463209

basicblock_list.1.bn1.bias f4 [2]
0	0xbe8f0292	-0.27931648
1	0xbcda2534	-0.026629068

basicblock_list.1.bn1.running_mean f4 [2]
0	0x3f167f78	0.5878825
1	0x3e674481	0.22584726

basicblock_list.1.bn1.running_var f4 [2]
0	0x3f36a13d	0.7133978
1	0x3f7726ce	0.96543586

basicblock_list.1.conv1.conv.weight f4 [2, 2, 3]
0	0xbe818186	-0.2529413
1	0xbed8968a	-0.42302352
2	0xbc553088	-0.013012059
3	0x3ea73533	0.32657775
4	0xbd86a471	-0.065743335
5	0x3e69cdb8	0.22832382
6	0xbe821ad2	-0.25411087
7	0xbe96d7e4	-0.29461586
8	0xbb1a2f72	-0.0023526815
9	0xbeaa1428	-0.33218503
10	0xbe820556	-0.25394696
11	0x3ed7a04a	0.42114478

basicblock_list.1.conv1.conv.bias f4 [2]
0	0xbcbafea3	-0.022826498
1	0xbe1aaab2	-0.15104178

basicblock_list.1.bn2.weight f4 [2]
0	0x3f7661f6	0.96243227
1	0x3f5c7f20	0.8613148

basicblock_list.1.bn2.bias f4 [2]
0	0x3c8ae66e	0.01695558
1	0xbd960b16	-0.07326333

basicblock_list.1.bn2.running_mean f4 [2]
0	0x3cf7a7a0	0.030231297
1	0xbe57aa0a	-0.21060959

basicblock_list.1.bn2.running_var f4 [2]
0	0x3d8370b1	0.064179786
1	0x3e0e6240	0.13904667

basicblock_list.1.conv2.conv.weight f4 [2, 2, 3]
0	0x3e9a352f	0.301187
1	0x3eb0edc4	0.345564
2	0x3ecb8e6b	0.39757094
3	0x3d16eaf9	0.03684518
4	0x3deaea20	0.11470437
5	0x3ed8a7a1	0.4231539
6	0x3de8c1b0	0.11365068
7	0x3c8ee931	0.017445179
8	0xbcde78f2	-0.02715728
9	0x3d374188	0.04474023
10	0xbdfeb872	-0.12437524
11	0x3e334034	0.1750496

basicblock_list.1.conv2.conv.bias f4 [2]
0	0xbca28ade	-0.019841608
1	0xbc589627	-0.013219393

basicblock_list.2.bn1.weight f4 [2]
0	0x3f3a71b8	0.7282977
1	0x3f9a78f4	1.2068162

basicblock_list.2.bn1.bias f4 [2]
0	0xbe143a19	-0.14475287
1	0x3d37e1e7	0.04489317

basicblock_list.2.bn1.running_mean f4 [2]
0	0x3f7c102c	0.98462176
1	0x3ec40cbd	0.3829097

basicblock_list.2.bn1.running_var f4 [2]
0	0x3fa4ed58	1.2884932
1	0x3f20c119	0.62794644

basicblock_list.2.conv1.conv.weight f4 [2, 2, 3]
0	0xbe3a0b28	-0.18168318
1	0xbe7af41e	-0.24507186
2	0x3e237022	0.15960744
3	0x3e4de8cc	0.20108336
4	0x3ecf0678	0.40434623
5	0x3f1d75cc	0.6150787
6	0x3dbe085e	0.0927894
7	0x3d84ff8d	0.06494055
8	0x3e68e84d	0.22744866
9	0x3ef6337c	0.48086154
10	0x3e841bab	0.2580236
11	0x3cc07ede	0.023497995

basicblock_list.2.conv1.conv.bias f4 [2]
0	0xbe272f30	-0.16326594
1	0x3e5aae79	0.21355619

basicblock_list.2.bn2.weight f4 [2]
0	0x3f843f30	1.0331783
1	0x3f723e48	0.94626284

basicblock_list.2.bn2.bias f4 [2]
0	0x3dc1086e	0.09425436
1	0x3e1ea65f	0.15493153

basicblock_list.2.bn2.running_mean f4 [2]
0	0x3df3b65c	0.11900017
1	0x3ee5f447	0.4491293

basicblock_list.2.bn2.running_var f4 [2]
0	0x3f524cff	0.82148737
1	0x3f069e1e	0.5258502

basicblock_list.2.conv2.conv.weight f4 [2, 2, 3]
0	0x3f046cc9	0.5172849
1	0x3e9277e4	0.28607094
2	0x3f2a9111	0.66627604
3	0x3ee8aef4	0.4544598
4	0x3e7d84e1	0.2475772
5	0x3e91dfa1	0.28490928
6	0xbd25a34e	-0.040438943
7	0x3e37b036	0.17938313
8	0x3e85106c	0.2598909
9	0x3e4d2893	0.20035009
10	0x3e0dded6	0.13854536
11	0xbd07f1b4	-0.03318949

basicblock_list.2.conv2.conv.bias f4 [2]
0	0x3d8c6e38	0.0685696
1	0x3d9fa433	0.077949904

final_bn.weight f4 [2]
0	0x3f97a122	1.1846049
1	0x3faf419d	1.3691899

final_bn.bias f4 [2]
0	0x3e0f6dcf	0.14006732
1	0x3e055603	0.13021092

final_bn.running_mean f4 [2]
0	0x3fcd7738	1.6052008
1	0x3f1e9279	0.6194225

final_bn.running_var f4 [2]
0	0x40d75d0d	6.7301087
1	0x3f9675bb	1.1754678

dense.weight f4 [1, 2]
0	0xbf4a291f	-0.78968996
1	0xbf6a4603	-0.9151308

exp_avg f4 [2, 1, 3]
0	0xbf8502ca	-1.0391476
1	0xbff222e1	-1.8916894
2	0xbf1f3371	-0.6218787
3	0xbfb809be	-1.4377973
4	0xbfc0fc3a	-1.5076973
5	0xbf86bb46	-1.0525901

exp_avg_sq f4 [2, 1, 3]
0	0x4382a510	261.28955
1	0x43b6ae33	365.36093
2	0x43ab041d	342.03214
3	0x449a7096	1235.5183
4	0x44b27f9a	1427.9875
5	0x44785298	993.2905

exp_avg f4 [2]
0	0x38f2f4d2	0.000115850606
1	0xb9b74642	-0.00034956826

exp_avg_sq f4 [2]
0	0x34d07b4f	3.8832738e-07
1	0x35b285a6	1.330093e-06

exp_avg f4 [2]
0	0x3efbe411	0.49197438
1	0xbe3abae8	-0.18235362

exp_avg_sq f4 [2]
0	0x4011da58	2.2789516
1	0x40e20f79	7.0643888

exp_avg f4 [2]
0	0xbcb7b19b	-0.022423556
1	0xbd9dfe2a	-0.077144936

exp_avg_sq f4 [2]
0	0x3e1bcd3e	0.15215012
1	0x40073420	2.1125565

exp_avg f4 [2, 2, 3]
0	0x3e5fb43c	0.21846098
1	0x3d101769	0.035178576
2	0xbd878db0	-0.066188216
3	0x3e8b4f14	0.2720877
4	0x3d8d83f2	0.06909932
5	0x3ea7abb6	0.32748193
6	0xbf09b010	-0.53784275
7	0x3dc7daf2	0.097585574
8	0x3eb89e78	0.36058402
9	0xbf20b7ce	-0.62780464
10	0xbf8ae535	-1.0851198
11	0x3f344c72	0.70429146

exp_avg_sq f4 [2, 2, 3]
0	0x3fa06cf6	1.2533252
1	0x3f591f03	0.84812945
2	0x3f51d5c9	0.81966835
3	0x3ee2fa6e	0.44331688
4	0x3e9c035d	0.30471316
5	0x3f66cea6	0.9015907
6	0x406233b3	3.5344055
7	0x3f66deeb	0.90183896
8	0x3f42928c	0.7600486
9	0x41e6827a	28.81371
10	0x4121174e	10.06819
11	0x41133152	9.199541

exp_avg f4 [2]
0	0xb9d4ccc8	-0.00040588365
1	0xb86f3be8	-5.7037832e-05

exp_avg_sq f4 [2]
0	0x35ab4c6a	1.2762732e-06
1	0x36077ea7	2.019029e-06

exp_avg f4 [2]
0	0xbc848688	-0.01617743
1	0x3d968354	0.073492676

exp_avg_sq f4 [2]
0	0x3f9ec7ea	1.2404759
1	0x3f85b9f3	1.0447372

exp_avg f4 [2]
0	0xbdd7d6d1	-0.1053902
1	0x3ea9832a	0.33107883

exp_avg_sq f4 [2]
0	0x4157b444	13.48151
1	0x3f932871	1.1496717

exp_avg f4 [2, 2, 3]
0	0xbcf1ecbf	-0.029531835
1	0xbd182ef1	-0.03715414
2	0xbd0bf86f	-0.03417247
3	0x3d3f17ef	0.046653684
4	0x3d4616ee	0.04836171
5	0x3d948d47	0.07253509
6	0x3d285aba	0.04110215
7	0x3dc7971c	0.09745619
8	0x3d431998	0.04763183
9	0xbe9ac459	-0.30227926
10	0x3ba6d700	0.005091548
11	0x3dcb613f	0.099306576

exp_avg_sq f4 [2, 2, 3]
0	0x3cbaeb0e	0.022817161
1	0x3cc34896	0.023838323
2	0x3d0d9c53	0.03457291
3	0x3dadd8c8	0.08488613
4	0x3da2f3f3	0.07956686
5	0x3dc1283c	0.09431502
6	0x40654b8b	3.5827358
7	0x40cbb1aa	6.3654375
8	0x3fcbea92	1.593096
9	0x3f7d10c9	0.9885374
10	0x3f55ce60	0.8351803
11	0x3f381667	0.71909183

exp_avg f4 [2]
0	0xb857b0d7	-5.142469e-05
1	0x39b15b61	0.00033828153

exp_avg_sq f4 [2]
0	0x32d2ac5f	2.4525603e-08
1	0x36409e74	2.8702461e-06

exp_avg f4 [2]
0	0x3dcf9c1c	0.101371974
1	0xbcc48c0b	-0.023992559

exp_avg_sq f4 [2]
0	0x3e9ae734	0.3025452
1	0x3c5ebbc4	0.0135945715

exp_avg f4 [2]
0	0x3e5dfde9	0.2167889
1	0xbbc88fe0	-0.006120667

exp_avg_sq f4 [2]
0	0x4017ecb7	2.373823
1	0x4094bbf5	4.647944

exp_avg f4 [2, 2, 3]
0	0x3c80f5f1	0.015742274
1	0xbd167247	-0.036730077
2	0xbcc75514	-0.02433256
3	0xbb9aba8e	-0.004721946
4	0x3a7dad00	0.0009676963
5	0xbd388cce	-0.045056157
6	0xbc583ef4	-0.013198603
7	0xbd06e914	-0.032937124
8	0x3be20e2d	0.0068986625
9	0xbd9b2a2f	-0.07576405
10	0x3c146d85	0.009059315
11	0xbdaeb0e7	-0.08529835

exp_avg_sq f4 [2, 2, 3]
0	0x3d320300	0.043459892
1	0x3cbabc13	0.022794759
2	0x3d6d7a13	0.057977747
3	0x3e3ec7d5	0.18630917
4	0x3ea9e2a2	0.3318072
5	0x3ebfbf36	0.3745057
6	0x3ba5591d	0.0050460235
7	0x3c10a66a	0.008828739
8	0x3c6d193a	0.0144713465
9	0x3d996bfd	0.074913
10	0x3d8a7b17	0.06761759
11	0x3e39c8a2	0.18142942

exp_avg f4 [2]
0	0x374f9130	1.2371966e-05
1	0x350ebf20	5.3177246e-07

exp_avg_sq f4 [2]
0	0x33a98f84	7.895781e-08
1	0x3194f646	4.335365e-09

exp_avg f4 [2]
0	0xbd41a7ee	-0.04727929
1	0xbcda180b	-0.026622793

exp_avg_sq f4 [2]
0	0x3dc1e5d6	0.09467666
1	0x3d6c48e3	0.057686698

exp_avg f4 [2]
0	0xbd498b4c	-0.04920511
1	0x3d0055a6	0.03133168

exp_avg_sq f4 [2]
0	0x3f44b149	0.76833016
1	0x3d6c283f	0.05765557

exp_avg f4 [2, 2, 3]
0	0x3cb0a8a0	0.021564782
1	0xba7636b0	-0.00093923043
2	0xbd0f5386	-0.034991764
3	0x3b6308ca	0.003464269
4	0x3bef4c54	0.0073028
5	0xbc249963	-0.010046336
6	0xbe87761e	-0.26457304
7	0xbf060c74	-0.5236275
8	0xbcb5146e	-0.022104468
9	0xbe01f9d6	-0.12692961
10	0xbe5c1af7	-0.21494661
11	0xbe7b91bd	-0.24567313

exp_avg_sq f4 [2, 2, 3]
0	0x3d07ebc3	0.033183824
1	0x3cfefa70	0.031125277
2	0x3cece52f	0.028917877
3	0x3c698b98	0.014254473
4	0x3c6efb03	0.014586213
5	0x3c6934df	0.014233797
6	0x40486cc6	3.131639
7	0x4046cba9	3.1061804
8	0x403082ed	2.757991
9	0x3f9682d4	1.1758676
10	0x3fc1bfc5	1.5136648
11	0x3f9f1d07	1.2430733

exp_avg f4 [2]
0	0x33b06a08	8.2149256e-08
1	0xb7cd941a	-2.450687e-05

exp_avg_sq f4 [2]
0	0x2e913c6e	6.604571e-11
1	0x324311f7	1.1354579e-08

exp_avg f4 [2]
0	0x3a7cb508	0.0009640013
1	0x3adef450	0.0017010067

exp_avg_sq f4 [2]
0	0x3d0b8430	0.03406161
1	0x3cabea39	0.02098571

exp_avg f4 [2]
0	0x3aa42b34	0.0012525083
1	0xbd6b153d	-0.0573933

exp_avg_sq f4 [2]
0	0x3cc6fda4	0.024290867
1	0x40954006	4.6640654

exp_avg f4 [2, 2, 3]
0	0xbd91e880	-0.07124424
1	0xbdc0a46b	-0.0940636
2	0xbe290f51	-0.16509749
3	0x3c750fd5	0.014957388
4	0x3d204e0a	0.039136924
5	0xbd3dbd6e	-0.046323232
6	0xbcce4a2a	-0.025181849
7	0x3d59dbdb	0.053188186
8	0xbd3894d7	-0.04506382
9	0x3ba62bcc	0.005071139
10	0x3cd3bab5	0.025845865
11	0x3a509880	0.00079572946

exp_avg_sq f4 [2, 2, 3]
0	0x3e003455	0.12519963
1	0x3e046a9d	0.12931295
2	0x3e228674	0.15871602
3	0x3e6bf985	0.23044403
4	0x3dc5334d	0.096289255
5	0x3d4b5710	0.049643576
6	0x3da667a8	0.081252396
7	0x3ddfb82a	0.109237984
8	0x3dd55908	0.10417372
9	0x3d6366a9	0.055517826
10	0x3d8f7d10	0.07006276
11	0x3e42f310	0.19038033

exp_avg f4 [2]
0	0x37b37962	2.1394986e-05
1	0x36ad852e	5.171306e-06

exp_avg_sq f4 [2]
0	0x321cacd2	9.11969e-09
1	0x31eb71cf	6.8523387e-09

exp_avg f4 [2]
0	0x3d1ad35b	0.03779922
1	0xb9e45dc0	-0.00043557398

exp_avg_sq f4 [2]
0	0x3e6ece1e	0.23320815
1	0x3dd111bb	0.1020846

exp_avg f4 [2]
0	0xbd101e14	-0.035184935
1	0xbc9b4a2c	-0.018956266

exp_avg_sq f4 [2]
0	0x3ffe4bf2	1.9866927
1	0x3f871f7f	1.0556487

exp_avg f4 [2, 2, 3]
0	0x3cbbb8c6	0.022915255
1	0x3ac05231	0.0014672932
2	0x3c4cc8a8	0.012499012
3	0xbb95c6f4	-0.004570836
4	0x3b928f76	0.0044726683
5	0x3bdbccbe	0.006707757
6	0xbd7c024c	-0.061525628
7	0x3cb22863	0.021747774
8	0x3d09d48f	0.033649977
9	0xbd311809	-0.043235812
10	0x3c284904	0.0102713145
11	0xbdb5ce3a	-0.08877225

exp_avg_sq f4 [2, 2, 3]
0	0x3d10d59f	0.035359975
1	0x3c851e73	0.01624987
2	0x3c98321c	0.018578582
3	0x3c23a940	0.009989083
4	0x3c47be24	0.012191329
5	0x3c8d5fa8	0.017257527
6	0x3e43b13e	0.19110581
7	0x3e7713cb	0.24128644
8	0x3e7233a3	0.2365251
9	0x3e3b1e29	0.18273224
10	0x3e30517c	0.17218584
11	0x3e32ba60	0.17453909

exp_avg f4 [2]
0	0xb4b22c2d	-3.3187226e-07
1	0xb5936e45	-1.0984446e-06

exp_avg_sq f4 [2]
0	0x2e8fef49	6.545393e-11
1	0x304aaba3	7.373108e-10

exp_avg f4 [2]
0	0xbea23a52	-0.3168512
1	0xbec74cf1	-0.3892589

exp_avg_sq f4 [2]
0	0x40529492	3.290318
1	0x4080d4cb	4.0259757

exp_avg f4 [2]
0	0xbe50e9c2	-0.20401672
1	0xbe745082	-0.23858836

exp_avg_sq f4 [2]
0	0x417f7a60	15.967377
1	0x41fb5097	31.41435

exp_avg f4 [1, 2]
0	0x3f02f0fe	0.51148975
1	0x3f1dc8ac	0.61634326

exp_avg_sq f4 [1, 2]
0	0x4139238e	11.57118
1	0x4163dabc	14.240902
