Solvation_1/Run_results/ResNet/JustBonds_Class_Res1/best/best_val_model.pt (torch, 36627 bytes, 105 tensors)

first_block_conv.conv.weight f4 [2, 1, 3]
0	0x3e5b22aa	0.21399942
1	0xbd1778c7	-0.036980417
2	0x3ebdf173	0.37098274
3	0xbeae6980	-0.34064865
4	0x3f020028	0.5078149
5	0xbddbbde8	-0.10729581

first_block_conv.conv.bias f4 [2]
0	0x3d3389dd	0.04383265
1	0xbf134599	-0.5752807

first_block_bn.weight f4 [2]
0	0x3f5b5d0c	0.85688853
1	0x3f710b04	0.94157434

first_block_bn.bias f4 [2]
0	0xbe80a8f2	-0.25128895
1	0xbe3f5ff7	-0.18688951

first_block_bn.running_mean f4 [2]
0	0x3d8ad082	0.06778051
1	0xbf129066	-0.57251585

first_block_bn.running_var f4 [2]
0	0x3e2f1bb0	0.17100406
1	0x3e0ab9bc	0.13547415

basicblock_list.0.bn1.weight f4 [2]
0	0x3f800000	1.0
1	0x3f800000	1.0

basicblock_list.0.bn1.bias f4 [2]
0	0x00000000	0.0
1	0x00000000	0.0

basicblock_list.0.bn1.running_mean f4 [2]
0	0x00000000	0.0
1	0x00000000	0.0

basicblock_list.0.bn1.running_var f4 [2]
0	0x3f800000	1.0
1	0x3f800000	1.0

basicblock_list.0.conv1.conv.weight f4 [2, 2, 3]
0	0xbe0bd01f	-0.1365361
1	0xbda0be47	-0.078487925
2	0xbf3b6f97	-0.7321715
3	0x3cbae2d9	0.022813248
4	0xbe86f49e	-0.26358503
5	0xbe794f09	-0.24346556
6	0x3d78d1bd	0.060746897
7	0x3e692f65	0.22771986
8	0xbed121c3	-0.4084607
9	0xbda198ed	-0.078904964
10	0x3e5eb1ef	0.21747564
11	0xbedc5836	-0.4303605

basicblock_list.0.conv1.conv.bias f4 [2]
0	0x3be53bd2	0.0069956565
1	0x3e964a87	0.29353735

basicblock_list.0.bn2.weight f4 [2]
0	0x3f848bc3	1.0355152
1	0x3fa6476f	1.299055

basicblock_list.0.bn2.bias f4 [2]
0	0x3e0bf67b	0.13668244
1	0xbef46913	-0.47736415

basicblock_list.0.bn2.running_mean f4 [2]
0	0xbe370fff	-0.17877196
1	0x3e817d11	0.2529073

basicblock_list.0.bn2.running_var f4 [2]
0	0x3f0ead74	0.5573342
1	0x3db9022f	0.090336196

basicblock_list.0.conv2.conv.weight f4 [2, 2, 3]
0	0x3e8337e6	0.25628585
1	0xbd43f9a4	-0.047845498
2	0x3efb7c78	0.491184
3	0x3e54ca06	0.20780191
4	0xbef4e0e1	-0.4782782
5	0xbdd8c006	-0.105835006
6	0xbdfd43fc	-0.123664826
7	0xbe3d364e	-0.18477747
8	0xbdefa45d	-0.11701272
9	0xbf4964f3	-0.7866966
10	0xbe49f4ce	-0.19722292
11	0x3f20058f	0.6250848

basicblock_list.0.conv2.conv.bias f4 [2]
0	0xbe3bb9da	-0.18332615
1	0x3e8958a0	0.26825428

basicblock_list.1.bn1.weight f4 [2]
0	0x3f67ae4d	0.90500337
1	0x3f889ab6	1.0672214

basicblock_list.1.bn1.bias f4 [2]
0	0xbe871940	-0.26386452
1	0xbe64a3a9	-0.22328056

basicblock_list.1.bn1.running_mean f4 [2]
0	0x3e47c34f	0.19508098
1	0x3e44a64e	0.19204065

basicblock_list.1.bn1.running_var f4 [2]
0	0x3efa361c	0.48869407
1	0x3f2a7864	0.6658995

basicblock_list.1.conv1.conv.weight f4 [2, 2, 3]
0	0xbc01aed1	-0.007915215
1	0x3e0fe001	0.14050294
2	0xbddadbfc	-0.1068649
3	0xbeba9478	-0.36441398
4	0xbc6bce93	-0.014392513
5	0xbe8878b8	-0.266546
6	0x3dd40503	0.103525184
7	0x3d5efec0	0.054442167
8	0xbef2b5d5	-0.47404352
9	0xbecafb07	-0.39644644
10	0xbe12791f	-0.14304017
11	0x3eda24d0	0.4260621

basicblock_list.1.conv1.conv.bias f4 [2]
0	0x3e68590b	0.22690217
1	0xbeacad4c	-0.33725965

basicblock_list.1.bn2.weight f4 [2]
0	0x3f7d27cf	0.9888887
1	0x3f44e580	0.7691269

basicblock_list.1.bn2.bias f4 [2]
0	0xbcb4bbb1	-0.022062154
1	0xbf6ed243	-0.93289584

basicblock_list.1.bn2.running_mean f4 [2]
0	0x3e2a9d8f	0.16661666
1	0xbec79412	-0.38980156

basicblock_list.1.bn2.running_var f4 [2]
0	0x3ea9cc67	0.3316376
1	0x3f52b963	0.8231413

basicblock_list.1.conv2.conv.weight f4 [2, 2, 3]
0	0x3ea7fec1	0.3281155
1	0x3d5e8664	0.054327384
2	0x3ebb7665	0.36613765
3	0xbea0566c	-0.31315935
4	0xbcb01d08	-0.021498218
5	0x3dcc6229	0.0997966
6	0x3cad520a	0.021157283
7	0xbdf33bc8	-0.11876637
8	0xbe8f15b2	-0.2794624
9	0x3d5a74cf	0.053334054
10	0xbe9162cc	-0.2839569
11	0xbeb49b5f	-0.3527479

basicblock_list.1.conv2.conv.bias f4 [2]
0	0x3e26c9bf	0.16287898
1	0xbecc7e94	-0.3994032

basicblock_list.2.bn1.weight f4 [2]
0	0x3f85621f	1.0420569
1	0x3f719272	0.9436408

basicblock_list.2.bn1.bias f4 [2]
0	0x3e00cd74	0.12578374
1	0xbc4e5fdf	-0.0125961

basicblock_list.2.bn1.running_mean f4 [2]
0	0x3f191c0c	0.5980842
1	0xbe156e2b	-0.14592807

basicblock_list.2.bn1.running_var f4 [2]
0	0x3f2ad2a0	0.6672764
1	0x3f6318be	0.8870963

basicblock_list.2.conv1.conv.weight f4 [2, 2, 3]
0	0xbebd9b4d	-0.37032548
1	0xbee4a2d3	-0.44655475
2	0x3db41a58	0.08794087
3	0xbe83c052	-0.25732666
4	0xbe50de47	-0.20397292
5	0xbe7e4092	-0.24829319
6	0x3e8ed77c	0.27898777
7	0x3ec38ec5	0.38194862
8	0x3e9047d8	0.28179812
9	0x3dab803b	0.083740674
10	0xbe23c42f	-0.15992807
11	0x3e8b34fd	0.27188864

basicblock_list.2.conv1.conv.bias f4 [2]
0	0x3e8ffdd6	0.2812335
1	0x3de51207	0.11185079

basicblock_list.2.bn2.weight f4 [2]
0	0x3f98e44f	1.1944674
1	0x3f25f556	0.6482748

basicblock_list.2.bn2.bias f4 [2]
0	0x3e1e3bb2	0.1545246
1	0xbf2b46f6	-0.6690515

basicblock_list.2.bn2.running_mean f4 [2]
0	0xbb020985	-0.00198421
1	0x3ec23e87	0.3793833

basicblock_list.2.bn2.running_var f4 [2]
0	0x3fcaec49	1.5853359
1	0x3f94ecca	1.1634762

basicblock_list.2.conv2.conv.weight f4 [2, 2, 3]
0	0xbee42198	-0.4455688
1	0x3f1b375f	0.60631365
2	0x3e9f3690	0.31096315
3	0xbe1a6f33	-0.15081482
4	0xbe523de7	-0.20531426
5	0x3d85fb2a	0.06542046
6	0xbcba86ab	-0.022769293
7	0xbe381644	-0.17977244
8	0xbda72e62	-0.08163144
9	0xbe5cc53b	-0.21559612
10	0xbb461597	-0.003022527
11	0xbe22c4c0	-0.15895367

basicblock_list.2.conv2.conv.bias f4 [2]
0	0xbeaf9795	-0.34295335
1	0x3e61c1ee	0.22046635

final_bn.weight f4 [2]
0	0x3fb17550	1.3863926
1	0x3fda6c6b	1.7064337

final_bn.bias f4 [2]
0	0x3e2855dd	0.16439004
1	0x3d36471a	0.0445014

final_bn.running_mean f4 [2]
0	0x3ecb5db2	0.3971992
1	0xbd44b100	-0.048020363

final_bn.running_var f4 [2]
0	0x3f184556	0.594808
1	0x3f4b859d	0.7950075

dense.weight f4 [1, 2]
0	0x3f2a47d1	0.66515833
1	0xbfb3960c	-1.4030166

exp_avg f4 [2, 1, 3]
0	0x3f8423a4	1.0323377
1	0x3f23a2f0	0.639205
2	0xbf08242c	-0.53180194
3	0xbed7f6e8	-0.42180562
4	0xbf281129	-0.65651184
5	0xbfe24a6f	-1.7678965

exp_avg_sq f4 [2, 1, 3]
0	0x4198686b	19.050985
1	0x40f0fd39	7.530911
2	0x40d155f3	6.541742
3	0x42871a13	67.55093
4	0x42549b02	53.151375
5	0x42caf616	101.48064

exp_avg f4 [2]
0	0x36733e00	3.624591e-06
1	0x377b6ae2	1.4985651e-05

exp_avg_sq f4 [2]
0	0x2ea4c500	7.492851e-11
1	0x314b1d30	2.955698e-09

exp_avg f4 [2]
0	0x3e1f4507	0.15553676
1	0x3ea93118	0.33045268

exp_avg_sq f4 [2]
0	0x40797932	3.8980222
1	0x3fd6f152	1.6792395

exp_avg f4 [2]
0	0x3dfb35d2	0.12266125
1	0xbea04ef9	-0.3131025

exp_avg_sq f4 [2]
0	0x3f2393f3	0.6389763
1	0x40b34746	5.6024504

exp_avg f4 [2, 2, 3]
0	0x3caf7ee8	0.021422818
1	0xbd769fa7	-0.06021085
2	0xbc2eb350	-0.010662869
3	0xbe068a83	-0.13138776
4	0x3c03e0da	0.008049214
5	0x3c973d25	0.018461773
6	0xbfc36042	-1.526375
7	0xbf6ac0aa	-0.9170023
8	0xbf63e4da	-0.89021075
9	0xbe2a8c20	-0.16655016
10	0xbfac6780	-1.3469086
11	0xbf015cf3	-0.50532454

exp_avg_sq f4 [2, 2, 3]
0	0x3d070bda	0.032970287
1	0x3d16f7d8	0.036857456
2	0x3b6eda23	0.0036445938
3	0x3e94b684	0.29045498
4	0x3c95593e	0.01823103
5	0x3c42ea0d	0.011896622
6	0x419d30e2	19.648869
7	0x4140fd28	12.061806
8	0x40c562b6	6.1682997
9	0x41a719a5	20.887522
10	0x41c828bd	25.019892
11	0x4072c356	3.7931724

exp_avg f4 [2]
0	0xb5741289	-9.0924055e-07
1	0x36480321	2.9804144e-06

exp_avg_sq f4 [2]
0	0x2fa3d76f	2.9802602e-10
1	0x30129c83	5.3336907e-10

exp_avg f4 [2]
0	0xbdc1f95b	-0.09471389
1	0xbe81a9f1	-0.25324968

exp_avg_sq f4 [2]
0	0x3e01a9b3	0.12662391
1	0x3eab33d6	0.33437985

exp_avg f4 [2]
0	0xbe826b54	-0.2547251
1	0xbd77d762	-0.06050814

exp_avg_sq f4 [2]
0	0x400518e5	2.0796444
1	0x3e5e2c6c	0.21696633

exp_avg f4 [2, 2, 3]
0	0xbd7b46c3	-0.06134678
1	0x3b46a860	0.0030312762
2	0xbcf91b5a	-0.03040855
3	0x3e7f6d3b	0.24944012
4	0x3cf49390	0.02985552
5	0x3e836f8a	0.25671035
6	0x3e2bf834	0.167939
7	0x3e7d0127	0.24707471
8	0x3e9c1c5e	0.30490392
9	0x3d0434d6	0.03227695
10	0xbef8c680	-0.48588943
11	0xbf1c0d6f	-0.60958

exp_avg_sq f4 [2, 2, 3]
0	0x3e55104b	0.20806997
1	0x3dea862d	0.11451373
2	0x3edd3edf	0.4321203
3	0x3f6d9a4b	0.9281356
4	0x3d14a35c	0.036288604
5	0x3f8ab452	1.0836279
6	0x3fdff463	1.7496456
7	0x402ee7c8	2.7328968
8	0x401577c8	2.3354359
9	0x3d00632d	0.03134458
10	0x4003ab94	2.0573473
11	0x3facf517	1.3512295

exp_avg f4 [2]
0	0xbb6ff350	-0.0036613531
1	0xb6023b3b	-1.9405986e-06

exp_avg_sq f4 [2]
0	0x3a5c236e	0.00083976134
1	0x350e8758	5.3096073e-07

exp_avg f4 [2]
0	0xbd9de4fc	-0.07709691
1	0x3d673f38	0.056456774

exp_avg_sq f4 [2]
0	0x3e441f31	0.19152524
1	0x3e0c8391	0.13722064

exp_avg f4 [2]
0	0xb8b76c00	-8.7462366e-05
1	0xbd2e2222	-0.04251302

exp_avg_sq f4 [2]
0	0x3ccf79c6	0.02532662
1	0x3d5387e8	0.051643282

exp_avg f4 [2, 2, 3]
0	0x3e01b37d	0.12666126
1	0x3e9ce7f5	0.3064572
2	0x3e9a9fcb	0.30200037
3	0x3b9131d0	0.004430987
4	0x3df4f876	0.11961453
5	0x3cc6d80c	0.024272941
6	0xbdbce824	-0.09223965
7	0xbe48df47	-0.19616424
8	0x3e002b92	0.12516621
9	0x3d1d1a3c	0.038355097
10	0xbda50d5f	-0.08059191
11	0x3e4800ee	0.19531605

exp_avg_sq f4 [2, 2, 3]
0	0x40205710	2.5053139
1	0x40e6aa78	7.208309
2	0x3fb03d96	1.3768795
3	0x3e9070ca	0.2821105
4	0x3fd3ec16	1.6556423
5	0x3e3c3b22	0.18381932
6	0x3f263657	0.64926666
7	0x3ec8bbeb	0.3920587
8	0x3e18acf7	0.14909731
9	0x3e79ba7e	0.24387547
10	0x3e52e01c	0.20593303
11	0x3f3281b2	0.6972915

exp_avg f4 [2]
0	0x3526fa58	6.2204117e-07
1	0x33221919	3.774139e-08

exp_avg_sq f4 [2]
0	0x2f99114b	2.7842825e-10
1	0x29c53986	8.758536e-14

exp_avg f4 [2]
0	0xbce1c706	-0.027560722
1	0x3dbd55ec	0.09244904

exp_avg_sq f4 [2]
0	0x3dcf84d7	0.10132759
1	0x3eaa970b	0.33318362

exp_avg f4 [2]
0	0xbd90d62d	-0.07072101
1	0x3ca4154a	0.020029683

exp_avg_sq f4 [2]
0	0x3f4e9b16	0.8070539
1	0x3c421350	0.011845425

exp_avg f4 [2, 2, 3]
0	0x3c360565	0.011109685
1	0xbc7b9664	-0.01535568
2	0xbce3585c	-0.027752094
3	0xbca93318	-0.020654246
4	0x3d8482e1	0.06470276
5	0x3d8f02f8	0.06982988
6	0xbd828d9b	-0.06374665
7	0x3d424b8c	0.04743533
8	0x3d26a6c1	0.040686373
9	0xbb4fda60	-0.0031715855
10	0x3e016106	0.12634668
11	0xbe5dcfc4	-0.21661288

exp_avg_sq f4 [2, 2, 3]
0	0x3d74dbcb	0.059779923
1	0x3d9008d5	0.070329346
2	0x3d839e4a	0.064266756
3	0x3e3dceb1	0.18535878
4	0x3efd8129	0.49512604
5	0x3eab5dd7	0.33470032
6	0x3e2aa44f	0.16664241
7	0x3e536f6e	0.20647976
8	0x3e319852	0.17343262
9	0x3fa3e34b	1.2803739
10	0x3fb12c67	1.3841676
11	0x3f0977f1	0.5369864

exp_avg f4 [2]
0	0x3318c6a8	3.5570935e-08
1	0x32a6da47	1.9424204e-08

exp_avg_sq f4 [2]
0	0x2bead615	1.668612e-12
1	0x2cd3e409	6.0222977e-12

exp_avg f4 [2]
0	0x3d05ab93	0.03263433
1	0xbd5d14c5	-0.053974885

exp_avg_sq f4 [2]
0	0x3c9e7a60	0.019345462
1	0x3cc2f210	0.023797065

exp_avg f4 [2]
0	0x3df86e97	0.12130468
1	0xbe0705aa	-0.13185754

exp_avg_sq f4 [2]
0	0x3e71fd86	0.23631868
1	0x3d7bca9f	0.06147253

exp_avg f4 [2, 2, 3]
0	0xbd4541b8	-0.048158377
1	0x3a414aa4	0.0007373488
2	0x3e2f21ba	0.1710271
3	0x3c30f467	0.010800458
4	0x3d8aa9b2	0.06770648
5	0x3d83ae9b	0.06429788
6	0x3de65db3	0.112483405
7	0xbc77ef61	-0.015132756
8	0xbd012cc2	-0.031536825
9	0xbcec83d4	-0.028871454
10	0xbd9bb04b	-0.076019846
11	0xbdc75a30	-0.09733999

exp_avg_sq f4 [2, 2, 3]
0	0x3c83e615	0.016100923
1	0x3c4ee993	0.012628931
2	0x3f4a96e9	0.7913652
3	0x3c78bc25	0.015181576
4	0x3cdaebac	0.026723705
5	0x3ccd1dfc	0.025038712
6	0x3da86d95	0.08224026
7	0x3d99ce55	0.07510058
8	0x3dc249ff	0.0948677
9	0x3e3cfd85	0.18456085
10	0x3dc6af8e	0.09701453
11	0x3e2b02ff	0.16700362

exp_avg f4 [2]
0	0x34f7a144	4.612467e-07
1	0xb2ee04cc	-2.7709028e-08

exp_avg_sq f4 [2]
0	0x2e3479dc	4.1035494e-11
1	0x28bfea81	2.130696e-14

exp_avg f4 [2]
0	0xbd3c0973	-0.04590745
1	0x3cb523d2	0.022111807

exp_avg_sq f4 [2]
0	0x3e1db2b0	0.15400195
1	0x3ebe1d09	0.37131527

exp_avg f4 [2]
0	0xbdf81bc4	-0.12114671
1	0x3c35cf5f	0.011096804

exp_avg_sq f4 [2]
0	0x408de71a	4.4344606
1	0x3c87bad8	0.016568586

exp_avg f4 [2, 2, 3]
0	0xbd8b3d01	-0.06798745
1	0xbd0240a4	-0.031799927
2	0xbe11f2ad	-0.1425273
3	0xbd9d61dc	-0.07684681
4	0xbd090fb4	-0.03346224
5	0xbc5106b8	-0.0127579495
6	0x3d6f8cdf	0.058483955
7	0x3e29c275	0.16578086
8	0x3de4cb02	0.11171533
9	0x3eb1f636	0.34758157
10	0xbd0a6e5a	-0.033796646
11	0xbece6b2d	-0.40316144

exp_avg_sq f4 [2, 2, 3]
0	0x3efa3683	0.48869714
1	0x3facb38d	1.3492295
2	0x3efda1db	0.49537548
3	0x3f53be55	0.827123
4	0x3f7c130e	0.98466575
5	0x3f9f4508	1.2442942
6	0x3eef4153	0.46729526
7	0x407b1a9d	3.9234993
8	0x3f9f5737	1.2448491
9	0x401f3653	2.4876907
10	0x403f2d7f	2.9871519
11	0x3fdf1cfd	1.7430722

exp_avg f4 [2]
0	0x34dcc8e4	4.112436e-07
1	0x343dafe2	1.7665982e-07

exp_avg_sq f4 [2]
0	0x2c64baa7	3.2504362e-12
1	0x2cce5fc9	5.8655064e-12

exp_avg f4 [2]
0	0x3d3f95db	0.046773773
1	0xbf3e6c43	-0.74383944

exp_avg_sq f4 [2]
0	0x40985a01	4.760987
1	0x4129816a	10.594095

exp_avg f4 [2]
0	0x3e15fe8a	0.1464788
1	0xbf0ba5bc	-0.54549766

exp_avg_sq f4 [2]
0	0x4179264c	15.57185
1	0x41adb556	21.713543

exp_avg f4 [1, 2]
0	0x3e08e5d5	0.13368924
1	0x3f6c0858	0.9220023

exp_avg_sq f4 [1, 2]
0	0x41ed7915	29.684122
1	0x4186343a	16.775501
