Solvation_1/Runs/Macro_TESA_Lin6/ep_0_best.pt (torch, 915476 bytes, 21 tensors)

linear_relu_stack.0.weight f4 [512, 16]
0.09943912 0.20206064 0.17879514 0.17195544 -0.0704152 0.20471273 0.020558633 -0.13117225
0.027266614 -0.18853733 -0.022540543 0.14593457 -0.16689715 0.16196778 0.18974319 0.0951956
-0.11991492 0.15725568 -0.16042873 -0.11008057 0.018938942 -0.059352484 0.15229313 -0.24003902
0.1949336 -0.11303879 -0.05690285 0.23725063 -0.010328048 0.107187524 -0.073043026 0.21025418
-0.20028947 -0.063006185 0.11095114 0.15219477 -0.1681378 0.04583746 -0.20883827 -0.14324045
-0.1794352 0.2306084 -0.24255276 -0.06971455 0.14427404 -0.12444139 -0.19374368 0.15106647
-0.17153753 -0.007760429 0.21064754 -0.22703494 -0.21626869 -0.052149165 0.076660834 0.12758139
-0.24008621 0.10932223 -0.04612774 0.05375436 -0.18791763 0.04160678 -0.23058292 -0.015855499
0.23667228 0.10658722 -0.13561836 -0.026116358 -0.2255071 -0.1881238 -0.22490332 0.10694958
0.218389 0.10698955 0.14209427 0.009775143 0.11234127 0.10912709 0.14638993 -0.076619074
0.1377871 0.05703511 0.21588388 -0.107783265 -0.15485485 0.14458297 -0.114374585 0.1156387
0.106774405 -0.21139383 0.065905474 0.22544917 0.23230508 -0.006118198 -0.22138016 -0.22232409
-0.12154592 -0.21180233 -0.20095378 -0.019021882 -0.119844615 -0.043444637 0.03766253 -0.00664196
-0.20958559 -0.1381774 0.06477884 0.18611315 0.20101206 0.14051329 0.0031508312 0.08105707
-0.12180594 0.0084493635 -0.12280682 -0.09121559 0.1642197 -0.23027688 0.22828883 -0.113074616
0.22192991 0.08643338 0.10289794 0.1974282 -0.021260697 -0.08607307 0.029098837 0.045118317
0.22084415 0.20059614 -0.1877035 0.13499221 -0.12496043 -0.18327317 0.11496879 0.07699251
-0.086444214 0.15783392 0.22968616 0.06706888 0.21306981 -0.13720602 0.015918128 0.053922888
-0.20738931 -0.14487636 0.182474 -0.15071797 0.17320777 -0.016117074 -0.2106365 0.07867657
0.09941628 0.11555471 0.16838354 0.04388022 -0.16879289 -0.021542672 0.059057295 0.25338396
-0.14541253 0.07591317 0.12419918 0.025668364 0.16327852 -0.048271284 0.16984554 -0.16470201
0.039565783 -0.19814771 0.2351806 0.109829135 -0.17651689 0.00859343 0.102240145 -0.0731916
-0.070805565 0.0075532985 -0.105070986 -0.0472505 -0.01127958 0.111832954 -0.13394237 0.15813129
0.19550024 -0.021591421 -0.1448557 -0.008318107 -0.23058084 0.08138651 -0.17435735 0.24380712
0.20344217 0.24861644 -0.21095558 -0.066139735 -0.15621997 0.10722414 0.15363692 -0.01401524
-0.03616862 0.21319959 -0.016139992 -0.06373899 -0.102995835 -0.035458773 0.15475918 0.031296786
-0.2337424 -0.21377267 0.045902472 -0.057380486 -0.0616482 0.23919843 0.16086651 0.23964618
-0.14743991 0.054727666 -0.14879555 -0.15793343 0.102246255 -0.0101856515 0.14125896 0.1869066
-0.0871433 -0.10687515 0.06134272 -0.120767005 -0.048340153 0.13705382 0.17094079 -0.20552945
-0.14469543 0.192427 -0.06838965 -0.1590052 0.2421039 0.23101121 -0.21295108 0.077225745
0.24481761 -0.23799527 -0.11208734 -0.25706774 0.011773132 0.05769896 0.23378116 0.007450848
0.15127236 -0.10032982 -0.18114792 0.044766936 0.1311289 0.051259704 0.10839549 0.1996137
00000000: bda6 cb3d fce8 4e3e 1316 373e 1615 303e
00000010: d835 90bd 37a0 513e 946a a83c 0552 06be
00000020: 3c5e df3c ee0f 41be f2a6 b8bc df6f 153e
00000030: 16e7 2abe e2da 253e 0a4c 423e e9f5 c23d
00000040: f495 f5bd a207 213e 6e47 24be ec71 e1bd
00000050: d725 9b3c 971b 73bd bbf2 1b3e cacc 75be
00000060: ac9c 473e e280 e7bd f612 69bd d4f1 723e
00000070: f936 29bc 2285 db3d 9597 95bd df4c 573e
00000080: af18 4dbe 6309 81bd 5a3a e33d f2d8 1b3e
00000090: 512c 2cbe 0fc0 3b3d b3d9 55be a0ad 12be
000000a0: dcbd 37be 9c24 6c3e c05f 78be 81c6 8ebd
000000b0: 93bc 133e 21db febd be64 46be 2bb1 1a3e
000000c0: 89a7 2fbe 324b febb fdb3 573e d97b 68be
000000d0: 8a75 5dbe 5d9a 55bd 5b00 9d3d b2a4 023e
000000e0: 29d9 75be 55e4 df3d 71f0 3cbd 882d 5c3d
000000f0: 7b6d 40be df6b 2a3d ee1d 6cbe 64e3 81bc
00000100: 385a 723e 674a da3d 8adf 0abe f9f1 d5bc
00000110: 55eb 66be 87a3 40be 0e4d 66be 6208 db3d
00000120: 5ea1 5f3e 561d db3d 2981 113e ec27 203c
00000130: 2e13 e63d 067e df3d 3ee7 153e 76ea 9cbd
00000140: 1018 0d3e a69d 693d aa10 5d3e 79bd dcbd
00000150: 4592 1ebe 8f0d 143e 393d eabd fcd3 ec3d
00000160: 8aac da3d a077 58be 73f9 863d 26dc 663e
00000170: 62e1 6d3e 2a7b c8bb 7bb1 62be eda8 63be
00000180: 11ed f8bd b6e2 58be d4c6 4dbe c7d3 9bbc
00000190: 1871 f5bd 01f3 31bd 0644 1a3d cca4 d9bb
000001a0: 9b9d 56be 607e 0dbe c5aa 843d 7294 3e3e
000001b0: 1bd6 4d3e b7e2 0f3e 2d7e 4e3b 4001 a63d
000001c0: 6575 f9bd 336f 0a3c 2482 fbbd 3dcf babd
000001d0: 3629 283e b4cd 6bbe 8cc4 693e aa93 e7bd
000001e0: 9841 633e fc03 b13d 28bc d23d 9e2a 4a3e
000001f0: ea2a aebc 1447 b0bd af60 ee3c fccd 383d
00000200: f824 623e 1369 4d3e 5935 40be 663b 0a3e
00000210: 41eb ffbd f6ab 3bbe c274 eb3d 40ae 9d3d
00000220: aa09 b1bd 379f 213e d932 6b3e 695b 893d
00000230: f92e 5a3e bc7f 0cbe bc66 823c 3fde 5c3d
00000240: dd5d 54be 785a 14be 77da 3a3e d055 1abe
00000250: 615d 313e f407 84bc 18b1 57be 2e21 a13d
00000260: c39a cb3d f3a7 ec3d bc6c 2c3e bfbb 333d
00000270: 0bd8 2cbe 427a b0bc 10e6 713d 8bbb 813e
00000280: 06e7 14be 5d78 9b3d 245c fe3d 7646 d23c
00000290: 7c32 273e 1cb8 45bd fdeb 2d3e a5a7 28be
000002a0: bb0f 223d 3ce7 4abe 2fd3 703e 19ee e03d
000002b0: d8c0 34be 75cb 0c3c 4863 d13d 7ae5 95bd
000002c0: 8202 91bd a981 f73b 752f d7bd be89 41bd
000002d0: fdcd 38bc ad08 e53d 3028 09be 2bed 213e
000002e0: 3731 483e 7ee0 b0bc 0d55 14be ab48 08bc
000002f0: 621d 6cbe f8ad a63d bc8a 32be 93a8 793e
00000300: 2553 503e 4f95 7e3e bd04 58be 4574 87bd
00000310: 21f8 1fbe 5498 db3d ff52 1d3e 2da0 65bc
00000320: 8c25 14bd fe50 5a3e 0438 84bc 9689 82bd
00000330: 7bef d2bd 383d 11bd 3179 1e3e 0f31 003d
00000340: 2b5a 6fbe 39e7 5abe 3b04 3c3d cd07 6bbd
00000350: d382 7cbd 6ff0 743e 31ba 243e cf65 753e
00000360: 7dfa 16be 1e2a 603d dc5d 18be 4db9 21be
00000370: 7c66 d13d b8e1 26bc 30a6 103e 7264 3f3e
00000380: 3078 b2bd 5ce1 dabd 8142 7b3d b154 f7bd
00000390: 5300 46bd d657 0c3e 1a0b 2f3e 5076 52be
000003a0: 0a2b 14be 950b 453e df0f 8cbd 42d2 22be
000003b0: 16ea 773e 348e 6c3e d90f 5abe 8828 9e3d
000003c0: 78b1 7a3e 08b5 73be 0c8e e5bd 629e 83be
000003d0: 18e4 403c bf55 6c3d 5464 6f3e 3e26 f43b
000003e0: 24e7 1a3e b879 cdbd d77e 39be 895d 373d
000003f0: a846 063e b2f5 513d 74fe dd3d 8967 4c3e

linear_relu_stack.0.bias f4 [512]
-0.22600634 0.11094053 0.25104257 0.21727854 -0.14426905 0.25208208 0.10802267 -0.09699493
0.12178121 0.15850854 -0.12742148 0.16833004 0.2268283 -0.22854692 0.10205009 0.25126225
-0.13589668 0.17849961 -0.1328235 0.097523056 0.09204387 0.17808084 -0.21553725 0.22766751
0.056046635 -0.08308217 0.14796051 -0.069653004 0.2076905 0.058365744 -0.016660424 0.052883454
0.077022605 -0.1443524 0.20724057 0.11886162 -0.06955781 0.19018823 -0.14126511 0.18301871
-0.19912383 -0.12856346 0.030111935 -0.006215123 0.19802906 0.16567315 0.09860996 0.26448345
0.1272597 -0.24055865 -0.23482312 0.0317139 -0.17784408 -0.13172469 -0.106587246 0.1593832
-0.106494814 0.1360096 -0.011041238 -0.12640199 -0.028568998 0.018447492 -0.19516478 -0.18066074
-0.07463344 -0.11307304 -0.07224325 0.07190186 -0.12343881 -0.12743576 -0.07849345 0.0752134
0.03409327 -0.22107607 -0.24756119 0.021942187 0.21539967 0.22261767 -0.2168775 -0.22090815
-0.06688504 -0.019557571 0.0916474 0.053685483 -0.22977841 0.08389648 0.13151026 0.010722799
0.043143917 0.1383847 -0.14784548 -0.12916338 0.021546017 0.064266086 -0.0712512 0.038036257
0.21712053 -0.014981905 0.13511583 0.2433891 -0.024683164 0.070638046 0.05262642 0.23228282
0.13400036 0.22913395 0.0017071059 0.13548966 0.15806623 0.043748684 -0.09125806 0.14657472
-0.22769435 0.09513272 0.1635986 0.19291884 -0.020387542 -0.15755242 0.25193995 0.12894289
-0.15941408 0.20914713 -0.11141414 -0.14550819 0.05689351 0.2328879 0.021077417 -0.11255067
-0.10202461 0.022957679 -0.11653652 -0.033730183 -0.21518126 0.095794946 -0.033592608 -0.053997573
-0.21510673 0.12557031 -0.23509489 0.14522152 -0.13323282 0.09714165 -0.14699689 -0.070225626
-0.2468357 -0.2475536 0.18197636 -0.14758915 0.20740326 -0.19588394 0.12690276 -0.04539477
0.19457486 -0.06990122 -0.094389066 0.042514864 0.13474527 0.02231271 -0.07528187 0.072312064
-0.16131927 -0.21657473 -0.07944105 -0.18230172 0.13186686 0.0601701 -0.013156593 -0.10970779
-0.14107876 0.2502796 0.114494994 0.23188452 -0.09090696 0.18899104 0.043526035 -0.20659053
-0.039276235 -0.088458925 -0.10418761 0.0031481294 0.23098333 0.047786817 0.072850175 0.14093186
-0.2214507 0.045190964 0.16056775 -0.07596344 -0.1549296 -0.2264423 0.050740533 -0.0649711
0.16678078 0.25423223 0.035640124 -0.12133243 -0.13701546 0.012003158 -0.117929526 -0.18963486
0.14658831 -0.12440288 -0.036745474 -0.09887076 -0.23575085 -0.23977377 -0.07197341 -0.079456806
0.11555317 -0.22538428 -0.049345728 -0.16263114 -0.07287101 0.1544471 -0.20072153 -0.14988922
-0.005568836 -0.05887654 -0.07148493 0.1387932 -0.2081576 0.1875899 0.11192142 -0.097920634
0.1040712 -0.053869992 0.01346108 -0.20818 0.21862997 -0.1676761 0.1467223 0.10280699
-0.12930624 -0.17357603 -0.23192306 -0.15401375 0.04424395 0.18727681 0.025490688 -0.18762383
0.08346325 -0.21082191 0.12908761 0.074085 -0.19305496 0.2171484 -0.02216173 0.03230954
-0.22564632 -0.10977572 -0.20484906 0.04230768 0.24172935 0.13953243 -0.22513951 -0.162128
00000000: 356e 67be ca34 e33d a788 803e 447e 5e3e
00000010: 44bb 13be e710 813e fd3a dd3d 47a5 c6bd
00000020: 6d68 f93d 1050 223e c77a 02be b65e 2c3e
00000030: ae45 683e 3408 6abe a3ff d03d 72a5 803e
00000040: 8028 0bbe 9ac8 363e e202 08be 2bba c73d
00000050: 7f81 bc3d d35a 363e ccb5 5cbe ac21 693e
00000060: 2891 653d fc26 aabd f682 173e 3ca6 8ebd
00000070: d2ac 543e eb10 6f3d 717b 88bc 529c 583d
00000080: 07be 9d3d 1ed1 13be df36 543e b96d f33d
00000090: 5374 8ebd b4c0 423e cda7 10be 4269 3b3e
000000a0: 1ee7 4bbe 24a6 03be 4ead f63c 3ba8 cbbb
000000b0: 21c8 4a3e 39a6 293e 05f4 c93d 606a 873e
000000c0: 5e50 023e 0255 76be 7975 70be 6fe6 013d
000000d0: c21c 36be d6e2 06be 6a4a dabd 5935 233e
000000e0: f419 dabd 1a46 0b3e 4fe6 34bc 866f 01be
000000f0: 8809 eabc 321f 973c 47d9 47be 21ff 38be
00000100: 6bd9 98bd d792 e7bd 45f4 93bd 4841 933d
00000110: 7dcd fcbd 857e 02be 2dc1 a0bd 7c09 9a3d
00000120: 62a5 0b3d c461 62be ae80 7dbe 1ac0 b33c
00000130: bb91 5c3e e3f5 633e 2315 5ebe bf35 62be
00000140: 06fb 88bd 3337 a0bc a2b1 bb3d 4fe5 5b3d
00000150: 084b 6bbe ebd1 ab3d a0aa 063e aeae 2f3c
00000160: adb7 303d b8b4 0d3e ce64 17be 6843 04be
00000170: 4681 b03c f09d 833d 26ec 91bd e8cb 1b3d
00000180: d854 5e3e aa76 75bc ce5b 0a3e fe3a 793e
00000190: 5934 cabc aeaa 903d cd8e 573d 8cdb 6d3e
000001a0: 6437 093e 17a2 6a3e f8c0 df3a cdbd 0a3e
000001b0: 1ddc 213e d231 333d 81e5 babd af17 163e
000001c0: b528 69be f2d4 c23d 6486 273e 848c 453e
000001d0: c603 a7bc 6c55 21be 46fe 803e 9b09 043e
000001e0: 723d 23be aa2a 563e 192d e4bd 1900 15be
000001f0: 2b09 693d 2a7a 6e3e 8caa ac3c f780 e6bd
00000200: 47f2 d0bd be11 bc3c b3aa eebd a928 0abd
00000210: 7a58 5cbe 2430 c43d 6798 09bd 8f2c 5dbd
00000220: f044 5cbe 8195 003e b7bc 70be f3b4 143e
00000230: 2f6e 08be 34f2 c63d 5a86 16be 74d2 8fbd
00000240: 7fc2 7cbe b17e 7dbe 0358 3a3e 9c21 17be
00000250: 8561 543e cd95 48be ccf2 013e deef 39bd
00000260: a23e 473e 5f28 8fbd 0e4f c1bd 1124 2e3d
00000270: aafa 093e 25c9 b63c 622d 9abd 5918 943d
00000280: e130 25be c4c5 5dbe fdb1 a2bd 4dad 3abe
00000290: 1b08 073e ec74 763d c08e 57bc 7aae e0bd
000002a0: f376 10be a624 803e 5a7c ea3d 2373 6d3e
000002b0: 6e2d babd de86 413e 5b48 323d 788c 53be
000002c0: 1ee0 20bd f429 b5bd 5060 d5bd d950 4e3b
000002d0: e586 6c3e 1cbc 433d 7932 953d 7150 103e
000002e0: f9c3 62be 291a 393d df6b 243e b892 9bbd
000002f0: dda5 1ebe 7ee0 67be 4ed5 4f3d 910f 85bd
00000300: 95c8 2a3e ba2a 823e 61fb 113d 237d f8bd
00000310: c84d 0cbe e5a8 443c 0985 f1bd a42f 42be
00000320: 3f1b 163e f0c6 febd 6c82 16bd c17c cabd
00000330: ac68 71be 4187 75be cc66 93bd 40ba a2bd
00000340: 24a7 ec3d 23cb 66be bf1e 4abd c788 26be
00000350: 653d 95bd 6127 1e3e f289 4dbe 8f7c 19be
00000360: c87a b6bb 8728 71bd b166 92bd ce1f 0e3e
00000370: 4427 55be 9117 403e 0f37 e53d 9d8a c8bd
00000380: 4823 d53d c8a6 5cbd dd8b 5c3c 232d 55be
00000390: 89e0 5f3e 49b3 2bbe 5f3e 163e 798c d23d
000003a0: db68 04be eabd 31be 3d7d 6dbe c8b5 1dbe
000003b0: 2539 353d 7ec5 3f3e d9d1 d03c 7620 40be
000003c0: c8ee aa3d b3e1 57be 8b2f 043e e0b9 973d
000003d0: 33b0 45be 265c 5e3e 848c b5bc 0257 043d
000003e0: d40f 67be 18d2 e0bd f4c3 51be d14a 2d3d
000003f0: e687 773e 97e1 0e3e f98a 66be e204 26be

linear_relu_stack.2.weight f4 [128, 512]
-0.024557756 -0.01371083 0.029564342 -0.013992041 -0.0109475 -0.0055485237 0.002496242 -0.0018865315
-0.012471107 -0.0155954985 -0.036123168 -0.034006275 -0.027146397 -0.0418722 0.010698587 0.003731028
0.015625257 -0.044495113 0.02106997 0.003258105 0.033556726 -0.04383317 0.033427328 -0.0021840024
0.018949024 0.044486683 0.02810808 -0.045600146 -0.033297714 -0.04216142 0.0053133275 0.019764952
-0.006108266 -0.033186782 0.039602738 -0.0055987784 0.021022465 0.041640814 0.01668217 -0.047905657
0.00024716978 -0.026562802 0.017237393 -0.037433874 -0.040894344 -0.005319273 -0.034987647 0.020358767
0.013546664 0.039888192 0.010711666 0.020840023 0.0047849733 -0.018489033 0.022937914 -0.01679598
0.032363247 0.019554462 0.033999003 0.016244017 0.044858005 -0.04476497 0.05986731 -0.038504124
0.0016292435 -0.042969685 -0.04643004 0.033860184 -0.006259754 -0.0028234508 -0.0018546481 -0.014628786
-0.01648591 0.024933264 -0.009015362 -0.012009987 -0.0004350635 -0.044665065 -0.01874721 0.029918488
-0.010793628 -0.037100203 0.03676669 -0.039857246 0.01789685 -0.0054434123 -0.01572486 0.019444192
-0.045419596 -0.01032779 -0.011430019 0.013009668 0.0036814206 -0.0061923135 -0.018152332 0.0112819495
-0.029155279 -0.033302527 0.003165029 0.032706074 0.047342177 -0.013482223 0.03573836 0.0132499905
0.015515272 -0.010537187 0.02736035 -0.017583137 -0.006571044 -0.029421778 -0.043934625 0.03523193
-0.032398753 0.006599373 -0.009444964 -0.004861051 0.009857364 -0.031338453 -0.020222621 -0.03254459
-0.018878955 -0.009377667 0.009401509 -0.0051917103 0.038901262 -0.039643586 -0.031435553 0.011199009
0.028223014 0.03856118 -0.0059998697 -0.03556297 -0.0062924265 -0.041679945 -0.049964357 0.037593663
-0.04424601 0.039524667 0.0014288402 0.043322567 0.016076399 -0.0040073255 -0.03943761 0.010290394
0.034987647 -0.016860832 -0.00039979088 -0.020953389 0.036860377 -0.014202184 0.057799842 0.007282257
0.011192288 0.0062876046 0.026078383 -0.0017292 0.01880662 -0.04217991 -0.03199156 -0.03614094
0.0053426996 -0.014211208 0.02970005 0.028734926 -0.04428086 -0.008363936 0.000679709 0.026361208
0.03195139 -0.0049732025 -0.031887203 -0.0063366923 -0.0044514644 0.010595557 0.0023610357 0.0029049162
-0.020873068 0.042386554 0.025952933 0.03542247 0.025155853 0.035617657 -0.00012268675 -0.030254599
0.027086847 0.020676257 -0.04694806 0.04202791 0.03196209 -0.008607824 0.0008120324 0.03879962
-0.0005116754 0.015971199 0.03235743 -0.0024435362 0.006519581 0.012933291 0.0066485265 0.046089172
0.023570418 0.040128347 0.02346552 0.029517073 0.034378905 0.03797644 0.008030643 -0.027560592
0.016707435 0.0018829303 -0.027527256 -0.023247272 -0.009888572 0.013575517 0.00076532364 -0.024599737
0.03814577 0.020706806 0.020287111 -0.043071974 0.03176287 -0.01498383 0.023545831 -0.02730939
-0.03685594 0.024374688 0.027017435 0.039721668 0.030306704 0.012743371 -0.022991551 -0.016203716
-0.023707474 -0.044260412 0.025509477 -0.016495975 0.050651617 -0.02214596 0.009362954 0.017718608
-0.006627888 0.050010834 0.040030416 -0.01758716 -0.022057414 0.020258505 -0.028852345 -0.015153022
-0.029141191 -0.021003317 0.014386264 0.041672777 -0.036239885 -0.022856899 -0.010555081 0.03252362
00000000: 592d c9bc 64a3 60bc eb30 f23c e03e 65bc
00000010: 255d 33bc 64d0 b5bb fe97 233b 7e45 f7ba
00000020: 9d53 4cbc 4384 7fbc e3f5 13bd 2a4a 0bbd
00000030: 1f62 debc 2f82 2bbd 2049 2f3c 4384 743b
00000040: 8a00 803c 8240 36bd ee9a ac3c ee85 553b
00000050: c772 093d 698a 33bd 18eb 083d 7b21 0fbb
00000060: fc3a 9b3c ab37 363d eb42 e63c 38c7 3abd
00000070: 2f63 08bd 74b1 2cbd 6c1b ae3b 1cea a13c
00000080: d927 c8bb ddee 07bd 7b36 223d f575 b7bb
00000090: 4e37 ac3c 8f8f 2a3d 0ca9 883c b938 44bd
000000a0: 9196 8139 3c9a d9bc 6f35 8d3c 4354 19bd
000000b0: d480 27bd 4c4d aebb 354f 0fbd 6ec7 a63c
000000c0: d4f2 5d3c cd61 233d fc7f 2f3c b2b8 aa3c
000000d0: 44cb 9c3b 5076 97bc 4be8 bb3c b997 89bc
000000e0: 538f 043d ae30 a03c 8a42 0b3d 2c12 853c
000000f0: 07bd 373d 795b 37bd 6d37 753d 80b6 1dbd
00000100: 578c d53a fb00 30bd 6d2d 3ebd fab0 0a3d
00000110: 9f1e cdbb a509 39bb aa17 f3ba 93ad 6fbc
00000120: 760d 87bc d840 cc3c 2bb5 13bc 89c5 44bc
00000130: 3c19 e4b9 b7f2 36bd c093 99bc 9e17 f53c
00000140: c2d7 30bc 62f6 17bd ab98 163d 5a41 23bd
00000150: 6a9c 923c a75e b2bb 6cd1 80bc 6d49 9f3c
00000160: e609 3abd e435 29bc f944 3bbc 8126 553c
00000170: fd43 713b e4e8 cabb 33b4 94bc edd7 383c
00000180: 0dd7 eebc 3b68 08bd 606c 4f3b cef6 053d
00000190: dfe9 413d 8be4 5cbc 6362 123d 7d16 593c
000001a0: c433 7e3c 2aa4 2cbc d022 e03c 830a 90bc
000001b0: ea51 d7bb f105 f1bc cbf4 33bd 5b4f 103d
000001c0: 8eb4 04bd 8e3f d83b 0dbf 1abc 7449 9fbb
000001d0: c880 213c c05c 00bd e9a9 a5bc 7a4d 05bd
000001e0: 0aa8 9abc c9a4 19bc c908 1a3c 391f aabb
000001f0: ee56 1f3d 5061 22bd 91c2 00bd 0c7c 373c
00000200: f333 e73c 54f2 1d3d 8e9a c4bb 7aaa 11bd
00000210: b330 cebb 97b8 2abd 6da7 4cbd d0fb 193d
00000220: 4e3b 35bd 9ee4 213d ec47 bb3a 0173 313d
00000230: a7b2 833c e24f 83bb 5589 21bd 0a99 283c
00000240: 354f 0f3d ba1f 8abc 069b d1b9 71a6 abbc
00000250: e8fa 163d 47b0 68bc 87bf 6c3d 00a0 ee3b
00000260: dc5f 373c 4008 ce3b 55a2 d53c 53a6 e2ba
00000270: 5710 9a3c d7c4 2cbd 9509 03bd 8608 14bd
00000280: d011 af3b 20d6 68bc 854d f33c 8265 eb3c
00000290: d95f 35bd e408 09bc 802e 323a 76f3 d73c
000002a0: 76df 023d 3ff6 a2bb 289c 02bd 07a4 cfbb
000002b0: 97dd 91bb fd98 2d3c 9bbb 1a3b 6860 3e3b
000002c0: fffd aabc 869d 2d3d 3f9b d43c 2717 113d
000002d0: a613 ce3c d2e3 113d 79a5 00b9 7ed8 f7bc
000002e0: 3ce5 dd3c 4161 a93c 9c4c 40bd 7525 2c3d
000002f0: aeea 023d d507 0dbc 92de 543a 5aec 1e3d
00000300: f421 06ba 08d6 823c 3989 043d bc23 20bb
00000310: 36a2 d53b 27e6 533c e2db d93b 00c8 3c3d
00000320: c016 c13c 9f5d 243d c33a c03c cacd f13c
00000330: e5d0 0c3d 2f8d 1b3d f592 033c c0c6 e1bc
00000340: 08de 883c a8cc f63a d780 e1bc 1071 bebc
00000350: ad03 22bc d86b 5e3c 00a0 483a 6385 c9bc
00000360: bd3e 1c3d 52a1 a93c 2831 a63c 3d6c 30bd
00000370: c819 023d bd7e 75bc 30e3 c03c f1b7 dfbc
00000380: 41f6 16bd 6dad c73c ab53 dd3c 30b3 223d
00000390: c445 f83c 92c9 503c c758 bcbc a8bd 84bc
000003a0: 2d36 c2bc 684a 35bd 40f9 d03c 9122 87bc
000003b0: 1278 4f3d 726b b5bc 1367 193c 9d26 913c
000003c0: c12e d9bb 29d8 4c3d eff6 233d f312 90bc
000003d0: c0b1 b4bc 2af5 a53c c15b ecbc 6144 78bc
000003e0: 82b9 eebc 260f acbc 5db4 6b3c 13b1 2a3d
000003f0: 4670 14bd 643e bbbc 38ef 2cbc 7d37 053d

linear_relu_stack.2.bias f4 [128]
-0.03275196 -0.015917733 -0.009823906 0.01789086 9.306703e-06 -0.0093725845 -0.004864055 -0.022923682
-0.025723388 -0.040874567 -0.037330724 -0.021329725 0.0040677283 0.0066569117 -0.034781102 0.018940091
0.003520391 0.028609073 0.046068665 0.028490676 0.010929351 0.04159387 -0.017191572 0.0409686
-0.01310848 0.0501938 -0.013909508 0.01241084 -0.029531114 0.034636915 0.021382349 -0.031510424
-0.0044371393 -0.0005987612 0.0069701117 -0.034512516 -0.008632126 0.023638615 -0.016055753 -0.016407775
0.04390697 0.000452801 0.0411377 -0.023026522 -0.0311095 0.020661235 0.028674735 0.02536121
-0.022624977 0.0073302216 -0.027576098 -0.024200266 0.031661574 0.029087268 -0.016622085 0.0059274733
0.052382067 -0.014914252 -0.04616156 -0.011280944 -0.0067694415 -0.020430421 -0.026806476 -0.008899969
-0.034577753 0.004657894 -0.029445754 0.0002415803 -0.023529913 -0.019696755 -0.02713199 -0.026757948
0.011783131 0.040028926 0.009102188 -0.01795107 0.029420093 -0.002954426 -0.03151662 -0.0044071814
0.008368071 0.009322641 -0.045605697 0.0076281633 0.03390852 -0.010207075 0.013486529 0.013166585
-0.0026545618 0.013174798 0.00514141 0.02971379 -0.05045525 9.149662e-05 0.01605117 0.03628482
0.0009048757 0.013944134 0.034482624 -0.02663733 -0.023417125 0.028641278 -0.0094617745 0.038394414
0.03146934 0.037928175 -0.044338226 0.003788906 -0.040462982 -0.046966918 -0.026829656 -0.021499328
-0.0007015831 0.027026515 -0.0045400583 0.02754021 0.010430387 0.007501448 -0.018151062 -0.045342132
0.03289746 -0.0041062008 0.019762075 -0.018376175 -0.009062369 0.013448742 -0.004572381 -0.008419902
00000000: eb26 06bd e865 82bc 73f4 20bc da8f 923c
00000010: fc23 1c37 788f 19bc a762 9fbb 72ca bbbc
00000020: dbb9 d2bc 176c 27bd 1ae8 18bd adbb aebc
00000030: 944a 853b 3922 da3b a176 0ebd 4028 9b3c
00000040: 5cb6 663b 935d ea3c 7fb2 3c3d 4765 e93c
00000050: 0511 333c 555e 2a3d 57d5 8cbc b1ce 273d
00000060: f3c4 56bc 0498 4d3d b4e4 63bc d656 4b3c
00000070: 3ceb f1bc 70df 0d3d 092a af3c 1311 01bd
00000080: 6c65 91bb 2ff6 1cba 8965 e43b ff5c 0dbd
00000090: c36d 0dbc c5a5 c13c 5b87 83bc 9969 86bc
000000a0: ccd7 333d ec65 ed39 0180 283d 1ea2 bcbc
000000b0: 5ad9 febc c041 a93c 47e7 ea3c 50c2 cf3c
000000c0: 0458 b9bc 5b32 f03b 45e7 e1bc a33f c6bc
000000d0: 91af 013d 6c48 ee3c 0a2b 88bc 403b c23b
000000e0: 948e 563d e85a 74bc e713 3dbd b5d3 38bc
000000f0: 31d2 ddbb b35d a7bc 4199 dbbc 2dd1 11bc
00000100: 67a1 0dbd 3fa1 983b 3938 f1bc b850 7d39
00000110: cec1 c0bc 175b a1bc e843 debc 7c33 dbbc
00000120: 090e 413c 5ff5 233d 5821 153c 1f0e 93bc
00000130: 6802 f13c 0b9f 41bb 9217 01bd 1e6a 90bb
00000140: 3c1a 093c febd 183c 0acd 3abd acf5 f93b
00000150: a9e3 0a3d 933b 27bc 9af6 5c3c a9b8 573c
00000160: 28f8 2dbb 1cdb 573c 4679 a83b 566a f33c
00000170: 2aaa 4ebd e0e1 bf38 be7d 833c 649f 143d
00000180: 2e35 6d3a f075 643c a73d 0d3d 8836 dabc
00000190: 45d5 bfbc 1da1 ea3c 8f05 1bbc 7643 1d3d
000001a0: ffe5 003d 935a 1b3d 009c 35bd 4b4f 783b
000001b0: 83bc 25bd 6260 40bd dec9 dbbc 5c1f b0bc
000001c0: 72ea 37ba b666 dd3c c5c4 94bb 029c e13c
000001d0: 37e4 2a3c b5ce f53b 89b1 94bc acb8 39bd
000001e0: 7dbf 063d 4f8d 86bb 13e4 a13c a289 96bc
000001f0: 557a 14bc 1d58 5c3c e9d3 95bb a1f3 09bc

linear_relu_stack.4.weight f4 [10, 128]
-0.00036614336 0.05136433 0.0068447096 0.04886999 -0.009886404 0.0718809 0.065996945 -0.060538452
0.066952966 0.024462827 -0.022888932 0.0805932 0.03577348 0.0029967066 -0.08841291 0.0756429
0.06479928 -0.070791535 0.064585686 0.0055581587 -0.052970532 -0.08308639 -0.01816583 0.06551987
0.07023648 0.042676095 0.01400887 0.016793175 -0.0013369805 0.016175013 -0.0697467 0.020492282
0.03958486 0.08166555 -0.0951162 -0.052473158 0.086155705 -0.058508072 -0.026339956 0.00804608
0.061513763 0.085935794 0.03201041 -0.06762778 -0.016039873 -0.019639852 -0.059422337 -0.060987428
0.065052785 -0.016717384 -0.07294206 0.03532497 -0.0064357775 0.09636578 -0.08943783 0.08255061
-0.0037228956 0.061865006 -0.07578272 0.040078267 0.074481845 0.0017734028 -0.06932756 -0.03215987
-0.043761816 -0.045046058 -0.030204494 -0.007876731 -0.03860458 0.079895146 -0.053263582 0.10248048
0.04428849 0.03393298 0.036886826 0.06044558 -0.013065993 0.011023863 -0.08453933 0.041763205
-0.055070706 -0.07365177 0.035833683 0.015120937 0.021954505 -0.07148241 0.0862013 0.041173533
-0.06311578 0.048479024 -0.023957724 0.089819334 -0.05109248 -0.025578652 0.0790373 -0.008569987
-0.07181945 -0.09749447 0.08421824 0.02160932 -0.013950456 0.015851503 0.03489758 0.035919853
-0.069719814 0.0748711 0.019168729 0.021957023 0.077322096 0.033100624 0.071527794 -0.0261918
0.0027536096 0.0736187 -0.011919591 0.014391073 0.010337604 0.04254072 -0.005633716 -0.05711186
-0.0669819 0.061801076 -0.027492154 0.06784052 -0.069039054 -0.04748681 -0.08814724 -0.088517524
0.067428276 -0.009539532 -0.07675895 -0.014142667 -0.06502192 0.08818598 -0.011883026 0.003319387
-0.053899445 -0.060636647 -0.021135576 -0.0019393682 -0.05539851 -0.05371093 0.02691605 0.010171544
0.014635995 -0.0677162 -0.06874092 -0.0070768446 0.105471104 0.085574225 -0.0066527994 0.06212569
0.059673466 0.082659274 -0.025860546 -0.0544778 0.06000194 -0.04973883 -0.082528405 -0.012114222
0.030232778 0.07852404 -0.068602175 -0.040718094 0.025489334 0.05542649 -0.022060987 0.052363776
0.08780597 -0.043304853 -0.020301579 0.0038855912 0.05510406 0.08180743 0.060957313 0.054465648
-0.004688298 -0.082840204 -0.047016814 -0.0549125 -0.011008353 -0.03918716 0.0977179 -0.08520752
-0.026187606 -0.045247436 0.07120167 -0.08065339 -0.057439446 0.09531008 -0.036712553 0.08819571
0.004300233 -0.025520457 -0.09550166 -0.06532472 -0.086807676 0.034008622 0.008971837 0.06835523
0.051105186 -0.03569392 0.06838859 -0.027384708 -0.07442246 -0.025664972 0.04946257 0.019119205
0.06869596 -0.051079437 -0.09335708 0.07639977 0.02460346 0.06082623 -0.004181114 0.036431216
0.09528406 0.062067945 0.040474977 -0.059107926 -0.047843236 -0.087588206 0.026222723 -0.055776995
-0.023709634 0.076921426 0.068326585 -0.044268075 0.06884449 0.04153074 0.0815681 0.046944782
0.025436468 0.014840554 -0.0059771114 0.07836922 0.04301403 -0.042866167 -0.015420778 0.037529487
-0.0852007 -0.04733582 0.020830091 0.07208241 -0.07994575 0.0755618 -0.08700573 0.05823427
-0.047306366 0.070672415 -0.03144694 0.054785937 -0.007450706 -0.038081758 0.053833287 -0.038137913
00000000: eef6 bfb9 6763 523d 9649 e03b e62b 483d
00000010: 95fa 21bc 4b36 933d 6829 873d 2bf7 77bd
00000020: a31e 893d 4466 c83c 9281 bbbc 0c0e a53d
00000030: 3687 123d 6564 443b d411 b5bd aaea 9a3d
00000040: 7cb5 843d 27fb 90bd 8045 843d 3721 b63b
00000050: a1f7 58bd 3229 aabd 82d0 94bc 482f 863d
00000060: 25d8 8f3d 21cd 2e3d 7685 653c d791 893c
00000070: 9f3d afba 7681 843c 5cd7 8ebd 6edf a73c
00000080: bc23 223d 4540 a73d 48cc c2bd 18ee 56bd
00000090: 6772 b03d 29a6 6fbd e4c6 d7bc b5d3 033c
000000a0: dbf5 7b3d 1bff af3d 591d 033d 6f80 8abd
000000b0: 0d66 83bc c1e3 a0bc d664 73bd f4cd 79bd
000000c0: 653a 853d e5f2 88bc a662 95bd eab0 103d
000000d0: 37e3 d2bb 6c5b c53d 2e2b b7bd 4b10 a93d
000000e0: d3fb 73bb 2966 7d3d f933 9bbd 1c29 243d
000000f0: f089 983d 8671 e83a 9cfb 8dbd 11ba 03bd
00000100: 973f 33bd 3782 38bd 6a6f f7bc 680d 01bc
00000110: d61f 1ebd 11a0 a33d ea2a 5abd 49e1 d13d
00000120: d967 353d 4ffd 0a3d a416 173d c995 773d
00000130: bf12 56bc 6f9d 343c f522 adbd e50f 2b3d
00000140: d291 61bd bdd6 96bd 57c6 123d cebd 773c
00000150: efd9 b33c 5f65 92bd 4f8a b03d 94a5 283d
00000160: d942 81bd f191 463d fd42 c4bc 33f3 b73d
00000170: 5946 51bd 528a d1bc 4fde a13d 2169 0cbc
00000180: 1316 93bd 2eab c7bd 9d7a ac3d 0706 b13c
00000190: 7490 64bc 03db 813c c4f0 0e3d b220 133d
000001a0: 43c9 8ebd 0556 993d bd07 9d3c 37df b33c
000001b0: 0c5b 9e3d 8594 073d 2a7d 923d 3090 d6bc
000001c0: e775 343b 67c5 963d 634a 43bc 89c8 6b3c
000001d0: 0e5f 293c 2e3f 2e3d 099b b8bb 20ee 69bd
000001e0: ce2d 89bd 2023 7d3d 3a37 e1bc f8ef 8a3d
000001f0: 5964 8dbd 8781 42bd 8a86 b4bd ad48 b5bd
00000200: d617 8a3d b24b 1cbc cc33 9dbd a5b6 67bc
00000210: 362a 85bd da9a b43d 06b1 42bc 138a 593b
00000220: aac5 5cbd 225e 78bd 8424 adbc 6632 feba
00000230: 8ce9 62bd feff 5bbd 0c7f dc3c 8ca6 263c
00000240: d0cb 6f3c cbae 8abd 0ac8 8cbd e0e4 e7bb
00000250: 3c01 d83d 8a41 af3d baff d9bb 8277 7e3d
00000260: 2a6c 743d 4449 a93d 7fd9 d3bc 1d24 5fbd
00000270: 98c4 753d f2ba 4bbd a704 a9bd bb7a 46bc
00000280: bbaa f73c 36d1 a03d 4c7f 8cbd 04c8 26bd
00000290: 02cf d03c e306 633d 3eb9 b4bc 667b 563d
000002a0: 9ed3 b33d 6e60 31bd 7f4f a6bc 67a5 7e3b
000002b0: cbb4 613d a78a a73d 60ae 793d 5f17 5f3d
000002c0: 4ba0 99bb 20a8 a9bd b494 40bd eeeb 60bd
000002d0: 615c 34bc b782 20bd 5320 c83d 4881 aebd
000002e0: 6487 d6bc 6055 39bd 2ed2 913d 9b2d a5bd
000002f0: a045 6bbd ee31 c33d e75f 16bd f49f b43d
00000300: f8e8 8c3b 4710 d1bc 6096 c3bd f8c8 85bd
00000310: 39c8 b1bd a04c 0b3d 9dfe 123c d4fd 8b3d
00000320: ac53 513d ca33 12bd 510f 8c3d e555 e0bc
00000330: cd6a 98bd 593f d2bc 4499 4a3d e19f 9c3c
00000340: 78b0 8c3d ac38 51bd ff31 bfbd 7c77 9c3d
00000350: 328d c93c ed24 793d ba01 89bb e638 153d
00000360: 4a24 c33d f53a 7e3d 17c9 253d 271b 72bd
00000370: 45f7 43bd 7261 b3bd 09d1 d63c 6b76 64bd
00000380: b53a c2bc fb88 9d3d cfee 8b3d 7152 35bd
00000390: 57fe 8c3d 231c 2a3d 2d0d a73d 2c49 403d
000003a0: 2460 d03c cc25 733c a5db c3bb 0b80 a03d
000003b0: 7b2f 303d 6f94 2fbd 6ea7 7cbc 85b8 193d
000003c0: b47d aebd 34e3 41bd dea3 aa3c f19f 933d
000003d0: 99ba a3bd 25c0 9a3d 0f30 b2bd 0f87 6e3d
000003e0: 52c4 41bd b3bc 903d 82ce 00bd 3867 603d
000003f0: 0d25 f4bb 9efb 1bbd 4b80 5c3d 8036 1cbd

linear_relu_stack.4.bias f4 [10]
0.078321114 -0.036035627 0.03305015 -0.006911919 0.082056545 0.0028629145 0.027228996 -0.034504104
0.059192773 -0.086145364
00000000: d266 a03d 189a 13bd 985f 073d 617d e2bb
00000010: 430d a83d bc9f 3b3b 580f df3c 2d54 0dbd
00000020: 1f74 723d fb6c b0bd

linear_relu_stack.6.weight f4 [1, 10]
-0.09613843 0.08412838 0.019487245 -0.2008762 0.076634675 0.12755162 0.19761607 -0.23462574
-0.1101818 -0.16679412
00000000: 3ae4 c4bd 804b ac3d b7a3 9f3c 7eb2 4dbe
00000010: a4f2 9c3d e49c 023e de5b 4a3e bb41 70be
00000020: ffa6 e1bd 14cc 2abe

exp_avg f4 [512, 16]
0.012831669 -0.010550213 -0.010665709 -0.000745401 -0.004496477 0.0124537265 -0.0004007893 0.025714431
0.0007587226 0.03434242 0.0067191357 0.0015684918 -0.014394417 -0.03461731 0.0051222555 -0.059001774
0.025563767 -0.11096312 -0.14426772 -0.06633044 -0.06030362 0.02293661 -0.059118457 0.054804016
0.0054071066 0.102334596 0.041151308 0.0004399755 0.03246645 -0.09394533 0.0043434133 -0.2417806
-0.009335205 0.013023893 0.0027445832 0.007225205 0.0069649075 -0.005322351 -0.00074287504 0.010866969
0.0056912103 0.008528349 0.00083426654 -0.00034279376 -0.017560158 -0.0049532 -9.5750336e-05 0.02168545
-0.0008216916 -0.011600453 -0.0069290427 0.0046029105 0.0043459795 -0.0040833154 0.014021895 -0.005184939
0.0001664505 0.003599671 0.005537664 0.0005079471 0.015024252 0.010575486 0.00023852829 -0.0180323
-0.0065350006 -0.005020816 -0.0063298387 -0.004993414 -0.0033760224 -0.0077414596 -0.0059856367 -0.0071576005
0.00854844 -0.0023470812 0.009010409 -0.000227267 0.0067000077 -0.00095342245 0.007287153 0.0025382119
-0.0067608007 -0.072718486 -0.06453404 -0.015032961 -0.021359619 -0.0055270004 -0.034721203 0.024398202
-0.020599656 0.04879327 -0.012570712 -0.0010857658 0.096535 0.06579088 -0.0009948391 -0.06574246
-0.011437588 0.019042498 0.012974881 0.013117484 0.013917554 -0.01455217 0.015304146 0.018049255
0.001933171 0.015128747 -0.0037825105 0.0016058153 -0.034847315 -0.015450815 0.00184674 0.023316694
-0.020710522 -0.0151459295 -0.015150584 -0.0064479643 7.629103e-05 -0.008170826 -0.046312902 -0.015583397
0.026007108 -0.00092394394 0.037767816 -0.0009757541 0.012816695 -0.02052165 0.0012589534 -0.020439735
-0.016903693 -0.006830389 -0.00390904 0.004526533 0.0065288832 -0.013875227 -0.025682295 -0.012107062
0.007944403 -0.00041095223 0.014918265 -0.0015511704 0.01718071 -0.0076809265 0.00029251052 -0.0076975897
0.0013026855 -0.03410542 -0.013010989 0.007975233 0.005330757 -0.01735818 0.012633106 0.04238255
0.05245803 0.08216167 0.07012421 0.0024018306 0.0047231317 -0.072587274 0.020494975 -0.12379018
-0.009214279 -0.011693422 -0.003908024 -0.009614475 -0.005208797 -0.01091618 -0.01352007 0.006056236
0.0049490742 0.019481309 0.0054868003 0.00046520142 -0.017763786 -0.03348571 0.0045929835 -0.027639156
-0.007415663 -0.035626173 -0.03499486 -0.02335598 -0.017774597 0.002933395 -0.029113613 -0.0060989754
0.021309415 0.016669061 0.03559286 0.0011835234 0.0020176007 -0.031231523 0.00066518004 -0.066841364
0.0004833544 -0.016110253 -0.015560726 -0.00062411773 -0.0034767776 0.008006757 -0.027378451 -0.03918885
-0.01666343 -0.031806376 -0.006948723 -0.0003809563 0.015488755 0.01749201 0.008958562 -0.006331531
0.005108543 -0.0019273082 0.025672138 0.007813907 0.008672816 0.010878984 -0.022608021 -0.023995096
-0.01708899 -0.022132626 -0.004560323 0.0008985401 0.030446958 0.014448512 0.007217079 -0.030387383
0.015120665 -0.029909916 -0.005721601 -0.028101316 -0.026732063 0.016247695 -0.0022435768 0.015098651
0.005352026 0.018704776 0.008348644 -0.00045140696 0.009457374 -0.0065982123 -0.0003037392 -0.030594656
0.021589624 -0.0017122036 0.0023250266 0.013246982 0.0072377017 0.009616134 0.0030985037 0.0017142677
-0.00964008 0.006119039 -0.00047978756 0.0005880356 -0.0039475355 -0.021777762 0.0028424608 -0.027906923
00000000: ec3b 523c cdda 2cbc 3abf 2ebc 0467 43ba
00000010: 2f57 93bb b70a 4c3c 0721 d2b9 12a7 d23c
00000020: 03e5 463a a3aa 0c3d 322c dc3b da95 cd3a
00000030: 90d6 6bbc e1ca 0dbd 98d8 a73b d8ab 71bd
00000040: 1b6b d13c a240 e3bd ebba 13be 41d8 87bd
00000050: ee00 77bd 8fe5 bb3c 3226 72bd 2d7a 603d
00000060: 192e b13b cd94 d13d 468e 283d 83ac e639
00000070: 8afb 043d 6966 c0bd 3153 8e3b 5595 77be
00000080: b0f2 18bc 2b62 553c 77de 333b 6ac1 ec3b
00000090: e139 e43b 1e67 aebb 80bd 42ba 5f0b 323c
000000a0: 557d ba3b 7dba 0b3c aeb2 5a3a 00b9 b3b9
000000b0: 52da 8fbc 744e a2bb 92cd c8b8 afa5 b13c
000000c0: ca66 57ba d40f 3ebc 060d e3bb 03d4 963b
000000d0: b868 8e3b 55cd 85bb 17bc 653c 6ce6 a9bb
000000e0: 3789 2e39 75e8 6b3b 4b75 b53b c127 053a
000000f0: 4828 763c ce44 2d3c 731d 7a39 79b8 93bc
00000100: 8f23 d6bb a885 a4bb 896a cfbb cb9f a3bb
00000110: 4240 5dbb 12ac fdbb 2923 c4bb 4e8a eabb
00000120: c20e 0c3c 7dd1 19bb 65a0 133c 854e 6eb9
00000130: bd8b db3b 19ef 79ba 12c9 ee3b 2158 263b
00000140: b589 ddbb 6eed 94bd 6c2a 84bd cf4c 76bc
00000150: 5efa aebc d71b b5bb d237 0ebd bdde c73c
00000160: 9cc0 a8bc 74db 473d 63f5 4dbc 4150 8eba
00000170: 24b4 c53d 5ebd 863d 4365 82ba fca3 86bd
00000180: b964 3bbc 03ff 9b3c 9894 543c b7ea 563c
00000190: 7406 643c 3a6c 6ebc 3ebe 7a3c 08dc 933c
000001a0: 7462 fd3a 90de 773c ffe3 77bb 387a d23a
000001b0: 0fbc 0ebd 6a25 7dbc 500e f23a a702 bf3c
000001c0: 1da9 a9bc a226 78bc 283a 78bc 7249 d3bb
000001d0: 6ffe 9f38 eede 05bc 99b2 3dbd 8151 7fbc
000001e0: dc0c d53c d434 72ba 6db2 1a3d c0c9 7fba
000001f0: 1dfd 513c 051d a8bc 7703 a53a 3b71 a7bc
00000200: 9d79 8abc 75d1 dfbb 6717 80bb 5053 943b
00000210: 3ef0 d53b ec54 63bc ad63 d2bc b35c 46bc
00000220: 3e29 023c 1375 d7b9 bd6b 743c a450 cbba
00000230: 8fbe 8c3c 48b0 fbbb 195c 9939 103c fcbb
00000240: dfbe aa3a 20b2 0bbd 0b2c 55bc 8daa 023c
00000250: a1ad ae3b be32 8ebc 16fb 4e3c 5399 2d3d
00000260: 3bde 563d 6144 a83d 489d 8f3d 0868 1d3b
00000270: 80c4 9a3b a3a8 94bd 14e5 a73c b585 fdbd
00000280: 7df7 16bc c495 3fbc e20e 80bb 0886 1dbc
00000290: 8eae aabb c7d9 32bc 4983 5dbc 6473 c63b
000002a0: d82b a23b 4497 9f3c 9eca b33b 47e6 f339
000002b0: 5c85 91bc 5028 09bd bd80 963b 836b e2bc
000002c0: 17ff f2bb c0ec 11bd c556 0fbd 0a55 bfbc
000002d0: 089c 91bc 343e 403b ac7f eebc ead9 c7bb
000002e0: 1591 ae3c 8e8d 883c d2c9 113d 7520 9b3a
000002f0: b939 043b 40d9 ffbc 7a5f 2e3a 20e4 88bd
00000300: bb6a fd39 a6f9 83bc 6af2 7ebc d59b 23ba
00000310: a6da 63bb c62e 033c c648 e0bc 7d84 20bd
00000320: bf81 88bc 6747 02bd 1db2 e3bb 17bb c7b9
00000330: 8cc4 7d3c 674b 8f3c efc6 123c bb78 cfbb
00000340: 9165 a73b bb9d fcba 604e d23c e705 003c
00000350: 6d18 0e3c c43d 323c 7534 b9bc 5d91 c4bc
00000360: 36fe 8bbc 7b4f b5bc c36e 95bb 018c 6b3a
00000370: e66b f93c 74b9 6c3c 3f7d ec3b f6ee f8bc
00000380: aabc 773c a405 f5bc 457c bbbb bb34 e6bc
00000390: 33fd dabc e319 853c f908 13bb 5560 773c
000003a0: 0c60 af3b c23a 993c c0c8 083c d1aa ecb9
000003b0: 1af3 1a3c d135 d8bb 2f3f 9fb9 a5a1 fabc
000003c0: b9dc b03c 056c e0ba 795f 183b df09 593c
000003d0: 3e2a ed3b fd8c 1d3c 4410 4b3b 47b1 e03a
000003e0: 6df1 1dbc 3882 c83b ff8b fbb9 6726 1a3a
000003f0: 545a 81bb 4767 b2bc 9448 3a3b 0f9d e4bc

exp_avg_sq f4 [512, 16]
2.8057686e-05 4.4711873e-05 2.4249797e-05 3.938411e-05 3.457128e-05 1.3910613e-05 1.8001987e-05 4.223126e-05
1.732477e-05 6.849162e-05 1.8294522e-05 2.578728e-07 3.962327e-05 0.00015615138 1.8814506e-05 0.00024754688
0.00038328161 0.00088121794 0.001178442 0.00073999306 0.0005900582 0.00034465446 0.0008107111 0.0007180221
0.0009766443 0.0013865796 0.0011037407 5.640191e-06 0.0013478482 0.004530894 0.00016645134 0.0039603333
2.338036e-05 2.3954246e-05 2.886507e-05 1.8369703e-05 1.7186414e-05 1.5711637e-05 5.3271096e-06 2.8247077e-05
1.919995e-05 4.889084e-05 1.5652573e-05 1.5974568e-07 6.0372942e-05 0.00021033802 7.106415e-08 0.00013948148
2.7998909e-05 2.7416998e-05 6.134299e-05 1.7610806e-05 7.711049e-06 1.8098568e-05 3.427032e-05 3.615325e-05
5.212939e-05 4.53697e-05 4.910589e-05 3.173021e-07 4.041108e-05 9.821242e-05 1.5767108e-07 8.7933906e-05
7.2904727e-06 4.8103916e-06 9.546297e-06 4.3156574e-06 3.0099577e-06 8.913234e-06 7.353637e-06 6.4667697e-06
1.7176797e-05 6.4205133e-06 2.0234622e-05 8.486231e-08 1.1968733e-05 1.6028262e-05 8.253767e-05 1.9884026e-06
0.0007515212 0.00036469076 0.0007401393 0.0002403957 0.0001409999 0.00067714025 0.00018738801 0.0003260748
0.0005961926 0.0005443975 0.00063672673 4.4056437e-06 0.00083931145 0.0019640748 2.0450402e-06 0.0012645562
3.1767348e-05 2.230978e-05 3.793718e-05 1.8601437e-05 1.804837e-05 3.1120853e-05 5.244439e-05 3.6561418e-05
3.774862e-05 6.683328e-05 3.4623074e-05 4.4157792e-07 0.0001074465 0.00026498138 2.5884377e-05 0.000113038885
7.517022e-05 9.890361e-05 4.6548357e-05 0.00011374805 8.735371e-05 3.9739047e-05 0.0002635351 3.9048657e-05
0.00010021622 4.0978455e-05 0.00013213704 9.559743e-07 6.199694e-05 0.00010296202 4.1770927e-05 0.00012064824
8.4562394e-05 6.0898823e-05 5.424056e-05 7.0921036e-05 5.5866833e-05 4.2420514e-05 0.00018275045 5.5902103e-05
0.0001636109 6.403317e-05 0.00019625384 1.0814861e-06 5.3016636e-05 8.038686e-05 1.2109501e-05 6.983467e-05
0.0002210855 0.000307456 0.00029881147 0.00033294622 0.00023986878 0.00023801299 5.0339626e-05 0.00041172316
0.00013067591 0.000694956 0.00021980795 2.524979e-06 0.00032887768 0.0011901483 0.00042455425 0.0015349151
2.1285574e-05 5.3652206e-05 1.8720737e-05 5.5525128e-05 4.964492e-05 2.8835617e-05 6.955364e-05 2.2398068e-05
5.6019293e-05 3.8132846e-05 6.978477e-05 3.63094e-07 3.5655885e-05 9.168305e-05 5.3311418e-05 5.2421157e-05
8.321148e-05 0.00016267439 8.4113184e-05 0.00018508475 0.00014336154 9.9228724e-05 5.8718462e-05 0.00012642899
7.213032e-05 0.00016801842 0.0001033122 9.186228e-07 0.00012536829 0.0003250298 4.3591973e-07 0.0003445672
0.00015053284 5.052906e-05 7.1464e-05 1.3214765e-05 3.5951263e-05 9.576788e-05 0.00021812445 0.0001575543
0.00026666606 0.0001599835 0.00025140657 1.0950337e-06 5.1796786e-05 8.225177e-05 0.00018889687 7.025949e-05
4.5426594e-05 1.8528053e-05 8.128474e-05 3.0166973e-05 1.49606885e-05 5.4034328e-05 8.7830944e-05 9.726153e-05
3.8015303e-05 0.00012034864 2.4446854e-05 4.5399022e-07 0.00014183311 0.00022845795 0.0001394433 0.00026692098
3.508063e-05 5.5207827e-05 2.7712695e-05 6.3857304e-05 5.6158482e-05 2.262169e-05 3.0015151e-05 3.5197514e-05
1.6615419e-05 6.438922e-05 1.3658142e-05 2.1886054e-07 6.981266e-05 0.00022145698 1.01056486e-07 0.00013959449
6.244518e-05 1.490403e-05 4.8429487e-05 1.7493523e-05 1.3555286e-05 4.264173e-05 0.00010181503 3.8942428e-05
0.00011986659 5.1993975e-05 0.00010976945 2.9498398e-07 5.1495786e-05 0.0001260698 5.9093076e-05 0.00016064431
00000000: 6c5d eb37 0289 3b38 0b6c cb37 5e30 2538
00000010: a100 1138 a161 6937 f902 9737 7821 3138
00000020: a954 9137 29a3 8f38 3077 9937 c571 8a34
00000030: 2a31 2638 91bc 2339 d8d3 9d37 2ec9 8139
00000040: 30f3 c839 8901 673a f475 9a3a 18fc 413a
00000050: 23ae 1a3a bdb2 b439 e785 543a a639 3c3a
00000060: bf02 803a e4bd b53a 64ab 903a df40 bd36
00000070: 48aa b03a e577 943b 7189 2e39 afc5 813b
00000080: f120 c437 5af1 c837 4423 f237 a318 9a37
00000090: 8b2b 9037 7ccc 8337 86bf b236 23f4 ec37
000000a0: 940f a137 2410 4d38 a54d 8337 8f86 2b34
000000b0: f438 7d38 2f8e 5c39 ee9b 9833 c641 1239
000000c0: 33df ea37 8efd e537 44a5 8038 ebba 9337
000000d0: b45e 0137 61d2 9737 7abd 0f38 42a3 1738
000000e0: 82a5 5a38 584b 3e38 0cf7 4d38 ab59 aa34
000000f0: 117f 2938 64f7 cd38 4c4c 2934 2869 b838
00000100: afa0 f436 f368 a136 0929 2037 37cf 9036
00000110: aefe 4936 0c8a 1537 43bf f636 21fd d836
00000120: e416 9037 ca6f d736 85bd a937 8c3d b633
00000130: 51cd 4837 6e74 8637 1318 ad38 7f70 0536
00000140: bc01 453a f733 bf39 e805 423a bb12 7c39
00000150: 5fd9 1339 1d82 313a 967d 4439 05f5 aa39
00000160: cf49 1c3a e6b5 0e3a 02ea 263a 31d4 9336
00000170: 3d05 5c3a b5b7 003b 863d 0936 77bf a53a
00000180: ee3d 0538 e325 bb37 bd1e 1f38 480a 9c37
00000190: 9466 9737 c387 0238 bcf7 5b38 8659 1938
000001a0: 4654 1e38 d828 8c38 3e38 1138 0212 ed34
000001b0: e754 e138 33ed 8a39 4722 d937 4a0f ed38
000001c0: b4a4 9d38 796a cf38 eb3c 4338 058c ee38
000001d0: aa31 b738 7aad 2638 152b 8a39 2dc8 2338
000001e0: 2c2b d238 48e0 2b38 448e 0a39 074f 8035
000001f0: 5b04 8238 50ed d738 3133 2f38 8804 fd38
00000200: 1757 b138 9d6d 7f38 5c80 6338 71bb 9438
00000210: 8e52 6a38 aeec 3138 b3a0 3f39 6d78 6a38
00000220: f78e 2b39 8c49 8638 7dc9 4d39 9427 9135
00000230: 2e5e 5e38 5e95 a838 e929 4b37 3474 9238
00000240: 30d3 6739 0c32 a139 cca9 9c39 498f ae39
00000250: 4985 7b39 2093 7939 c323 5338 8cdc d739
00000260: 0c06 0939 b52d 363a 3f7c 6639 cf72 2936
00000270: 376d ac39 c0fe 9b3a b596 de39 342f c93a
00000280: 6c8e b237 9e08 6138 7a0a 9d37 a7e3 6838
00000290: d439 5038 04e4 f137 53dd 9138 7ce3 bb37
000002a0: 42f6 6a38 d5f0 1f38 6a59 9238 42ef c234
000002b0: 378d 1538 f645 c038 b39a 5f38 cade 5b38
000002c0: d381 ae38 9393 2a39 ec65 b038 4f13 4239
000002d0: 5253 1639 0419 d038 7848 7638 0692 0439
000002e0: ac44 9738 1a2e 3039 51a9 d838 4797 7635
000002f0: 4b75 0339 c368 aa39 5a08 ea34 07a7 b439
00000300: 5ad8 1d39 2aef 5338 f1de 9538 fcb4 5d37
00000310: 60ca 1638 fdd6 c838 56b8 6439 2935 2539
00000320: 50cf 8b39 3ec1 2739 38cf 8339 12f9 9235
00000330: 6040 5938 957e ac38 9e12 4639 4758 9338
00000340: 6f88 3e38 b16c 9b37 6a77 aa38 150f fd37
00000350: abff 7a37 eba2 6238 e131 b838 e3f8 cb38
00000360: 9f72 1f38 af63 fc38 3813 cd37 f1bb f334
00000370: 09b9 1439 378e 6f39 8737 1239 87f1 8b39
00000380: 8a23 1338 f48e 6738 8f78 e837 21eb 8538
00000390: b68b 6b38 b6c3 bd37 0cc9 fb37 0ba1 1338
000003a0: 5761 8b37 b308 8738 4625 6537 edff 6a34
000003b0: 6368 9238 e836 6839 6404 d933 1c60 1239
000003c0: 00f5 8238 520c 7a37 c420 4b38 0ebf 9237
000003d0: 836b 6337 35da 3238 8785 d538 1d56 2338
000003e0: e360 fb38 1b14 5a38 0634 e638 4a5e 9e34
000003f0: 2efd 5738 9b31 0439 b5da 7738 a172 2839

exp_avg f4 [512]
-0.018955577 0.0028445288 0.0017432483 -0.0043426966 0.0040971553 0.01811223 -0.022436982 0.017773861
0.020128345 -0.027579071 -0.004544126 -0.012110399 0.0070421104 -0.011148175 0.005529936 -0.007510365
0.0031125355 0.034086578 0.008272503 -0.011445635 0.02737828 -0.012223122 0.00023455737 -0.01164114
0.0074206507 0.0048562256 -0.012095234 -0.0102726305 -0.013046104 0.009065038 0.030441925 0.025293592
0.014475844 0.0194634 -0.0067712744 0.00027876458 0.010250991 -0.00077530724 -0.032237478 0.024232658
0.008616958 0.010159731 0.0036321473 -0.017012255 0.003549551 -0.004246305 -0.03119489 -0.013049372
-0.027848735 -0.033652794 -0.022716705 -0.0048190043 0.005741045 0.00929886 -0.026634086 0.011714367
-0.0021727344 0.010585614 0.025150444 0.006964467 0.020921621 -0.0025035592 -0.034617253 0.023366373
0.0066219415 -0.012356323 -0.002819506 0.022561029 -0.0010615591 0.0014714049 0.003464641 -0.021173615
0.00020370295 0.0062225005 0.009333163 -0.01074847 0.019133927 -0.008535478 -0.0142049305 0.019301185
-0.022829501 -0.0076473644 -0.014156436 0.0093555525 -0.006083436 0.04021357 -0.017862128 0.0148538
-0.01781718 -0.013939932 0.013844608 0.0071461955 -0.02633842 0.035980564 -0.012231506 -0.004496811
0.013800732 0.0047259587 -0.0032352032 -0.009915749 0.02572136 0.0065849978 0.0010313835 -0.010623371
-0.003725159 0.001413652 -0.011093076 -0.006664119 0.005717772 -0.004166015 -0.013638755 -0.006598579
-0.00069604744 -0.011234207 0.005454185 0.010464543 -0.006103133 -0.006947896 -0.0076556327 -0.0018256184
-0.0056726965 -0.0052559595 -0.0063676904 0.005815285 -0.0034950941 0.0050013894 -0.00784483 -0.01347573
0.011276935 -0.039205108 0.026499834 -0.0068353415 -0.008419018 0.0023666648 0.003838093 0.027890041
-0.012300096 0.0012808659 -0.002080149 -0.009749854 0.020795051 0.01113924 -0.010115528 -0.027115697
0.0029662014 0.008585525 0.0002680958 -0.0006437629 -0.00049351685 0.006012842 0.0030579134 -0.008543617
0.0057145087 0.0060699545 -0.04835346 -0.0057944353 0.0033460073 0.0070185605 0.0027240226 -0.029286817
-0.001948408 -0.0149302455 -0.018908067 -0.0025255668 -0.0040080524 -0.0018858904 -0.00043141376 0.011262697
0.021688495 0.009585237 -5.399082e-05 -0.012869402 -0.001027954 -0.013104585 0.0101649575 -0.017090907
0.0030921437 0.05106875 0.034572873 -0.004038935 0.0057473066 0.014378054 -0.027801124 -0.0026421072
-0.01651766 0.006532701 -0.024783826 -0.015573359 -0.0004933373 -0.009871718 0.0021970714 -0.04200115
0.00075208157 -0.022476312 -0.0040688897 -0.0049318103 0.021079708 0.0074009565 0.0059214877 0.008076486
-0.0054162787 -0.000257328 0.026968626 0.0011513459 0.007890767 0.0041620308 -0.006640898 -0.005798516
0.014965999 -0.029448207 0.015953982 -0.005642165 0.020613218 -0.010383056 -0.040671755 0.029129514
-0.029005557 -0.010221198 0.0050356067 -0.00259976 -0.020916993 -0.010134329 -0.027617237 -0.01313151
0.012773545 -0.004714614 0.007914335 -0.030264797 0.0003816652 -0.0017109724 -0.012518881 0.029928336
0.018810598 -0.012095853 -0.012042769 -0.030881057 0.03525982 0.0023797106 0.03287524 -0.0023061577
0.0018282912 -0.0034736074 0.0045620515 -0.00036774686 0.009594236 -0.019447347 -0.038039654 -0.0044659213
0.002902872 0.018045668 -0.023547307 -0.018420545 -0.003324711 -0.02347266 0.007838778 0.0097359335
00000000: ba48 9bbc 466b 3a3b b57d e43a 2e4d 8ebb
00000010: 6e41 863b 1960 943c c3cd b7bc 7d9a 913c
00000020: 33e4 a43c 81ed e1bc e4e6 94bb b26a 46bc
00000030: 81c1 e63b d6a6 36bc 7734 b53b 8219 f6bb
00000040: aefb 4b3b 5e9e 0b3d 6489 073c 7986 3bbc
00000050: 6a48 e03c 7d43 48bc 84f3 7539 7bba 3ebc
00000060: ee28 f33b f920 9f3b 172b 46bc 894e 28bc
00000070: 54bf 55bc 8685 143c 5861 f93c 8234 cf3c
00000080: 172c 6d3c b571 9f3c 91e1 ddbb 2627 9239
00000090: c6f3 273c fd3d 4bba 720b 04bd 9183 c63c
000000a0: 242e 0d3c 0075 263c 5209 6e3b 495d 8bbc
000000b0: 959f 683b 9724 8bbb 6d8c ffbc 08cd 55bc
000000c0: 0823 e4bc 83d7 09bd 6218 babc bde8 9dbb
000000d0: 601f bc3b 3f5a 183c ba2f dabc 9eed 3f3c
000000e0: 6f64 0ebb 486f 2d3c 4e08 ce3c 2f36 e43b
000000f0: d263 ab3c c112 24bb d2ca 0dbd d66a bf3c
00000100: dffc d83b 2d72 4abc 76c7 38bb e8d1 b83c
00000110: 0324 8bba 28dc c03a 080f 633b 4a74 adbc
00000120: 1899 5539 1ee6 cb3b 1fea 183c 5a1a 30bc
00000130: c1be 9c3c 64d8 0bbc ccbb 68bc 851d 9e3c
00000140: ef04 bbbc be96 fabb 65f0 67bc 0848 193c
00000150: 8f57 c7bb fcb6 243d 9953 92bc 5a5d 733c
00000160: 56f5 91bc 5064 64bc 7fd4 623c a22a ea3b
00000170: acc3 d7bc 5b60 133d a866 48bc fc59 93bb
00000180: 771c 623c 37dc 9a3b b405 54bb aa75 22bc
00000190: 9ab5 d23c f7c6 d73b 7d2f 873a a60d 2ebc
000001a0: cc21 74bb 4a4a b93a bcbf 35bc af5e dabb
000001b0: 265c bb3b 1183 88bb 1675 5fbc e538 d8bb
000001c0: f476 36ba ae0f 38bc 05b9 b23b 7973 2b3c
000001d0: cafc c7bb 2dab e3bb 1adc fabb 9749 efba
000001e0: 07e2 b9bb 2f3a acbb 0fa8 d0bb 258e be3b
000001f0: f30d 65bb b2e2 a33b 9a87 00bc 4fc9 5cbc
00000200: e5c2 383c 8995 20bd 2e16 d93c 00fb dfbb
00000210: ecef 09bc 0c1a 1b3b 8488 7b3b a879 e43c
00000220: 5886 49bc bae2 a73a 1c53 08bb dabd 1fbc
00000230: 625a aa3c 5c81 363c 99bb 25bc bd21 debc
00000240: 9a64 423b 4daa 0c3c 368f 8c39 32c2 28ba
00000250: 5b5f 01ba 6007 c53b 4667 483b 87fa 0bbc
00000260: c640 bb3b 78e6 c63b 470e 46bd 3fdf bdbb
00000270: b048 5b3b f4fb e53b 8485 323b e8ea efbc
00000280: b961 ffba fd9d 74bc 17e5 9abc fb83 25bb
00000290: fb55 83bb fb2f f7ba 602f e2b9 2d87 383c
000002a0: 12ac b13c 660b 1d3c 3474 62b8 2fda 52bc
000002b0: 6abc 86ba 9db4 56bc ec8a 263c 3b02 8cbc
000002c0: 90a5 4a3b 772d 513d 499c 0d3d 0b59 84bb
000002d0: e753 bc3b ee91 6b3c 2fbf e3bc 3427 2dbb
000002e0: 0b50 87bc 4510 d63b 7307 cbbc 6727 7fbc
000002f0: 4e53 01ba fcbc 21bc befc 0f3b 6609 2cbd
00000300: 5727 453a 3e20 b8bc 5254 85bb 069b a1bb
00000310: 5aaf ac3c b983 f23b 0a09 c23b 3d53 043c
00000320: 0a7b b1bb fbe9 86b9 4fed dc3c c2e8 963a
00000330: 4748 013c a561 883b e49b d9bb 7a01 bebb
00000340: f333 753c 5e3d f1bc edb1 823c e9e1 b8bb
00000350: 0ddd a83c b11d 2abc 6d97 26bd 05a1 ee3c
00000360: 109d edbc d076 27bc bb01 a53b bc60 2abb
00000370: 1d5a abbc 750a 26bc 8b3d e2bc 8b25 57bc
00000380: 2248 513c 0c7d 9abb 20ab 013c e1ed f7bc
00000390: 3c1a c839 b542 e0ba fe1b 4dbc 452c f53c
000003a0: af18 9a3c af2d 46bc 094f 45bc 45fa fcbc
000003b0: 9a6c 103d ebf4 1b3b 30a8 063d e822 17bb
000003c0: 46a3 ef3a 76a5 63bb 437d 953b 26ce c0b9
000003d0: 2431 1d3c 0b50 9fbc 78cf 1bbd dd56 92bb
000003e0: 1c3e 3e3b 82d4 933c 48e6 c0bc afe6 96bc
000003f0: 65e3 59bb bc49 c0bc 386e 003c 7783 1f3c
