Solvation_1/Runs/Macro_TESA_Lin7/ep_105.pt (torch, 915476 bytes, 21 tensors)

linear_relu_stack.0.weight f4 [512, 16]
0	0x3e71679b	0.23574679
1	0xbd7202ff	-0.05908489
2	0x3d20c078	0.039246053
3	0xbe606e43	-0.21917062
4	0x3d724c9f	0.059155103
5	0xbdd8c829	-0.105850525
6	0xbd136b45	-0.035990972
7	0xbe3f8494	-0.18702918
8	0xbe5436fb	-0.20724098
9	0xbd45a3a5	-0.048251767
10	0x3e0b14dd	0.13582177
11	0xbdc15fd4	-0.09442106
12	0xbdd524b2	-0.1040739
13	0x3de157e6	0.110030934
14	0x3e01eb1f	0.12687348
15	0xbefaf12d	-0.49012128
16	0x3d67596e	0.05648177
17	0x3e5a10e4	0.21295506
18	0xbe33afb6	-0.17547497
19	0xbdd61079	-0.10452361
20	0xbb278400	-0.0025560856
21	0x3cd6105c	0.026130848
22	0x3e0bc243	0.13648324
23	0x3ec08bf5	0.3760678
24	0x3eb3e31d	0.3513421
25	0xbe66eeec	-0.22552079
26	0x3dc22472	0.09479608
27	0xbc978b7b	-0.018499127
28	0xbd96062f	-0.07325398
29	0x3c5061d4	0.012718637
30	0xbde95563	-0.11393239
31	0xbd17a4b4	-0.037022308
32	0xbde4e94d	-0.11177311
33	0xbdd257f4	-0.10270682
34	0xbe32b08b	-0.17450158
35	0x3e16c531	0.1472366
36	0x3d893239	0.06699032
37	0xbe2c46f0	-0.16823936
38	0xbe4d6de3	-0.2006145
39	0xbe78c42d	-0.24293585
40	0x3e398f22	0.18121007
41	0x3e1d3633	0.15352707
42	0xbe10f658	-0.14156473
43	0x3e945322	0.28969675
44	0x3de7f03b	0.11325117
45	0x3df17d6d	0.11791501
46	0xbcee35e0	-0.029078424
47	0xbe3e9f8d	-0.18615551
48	0x3e2cd780	0.16879082
49	0xbdd0ea4c	-0.102009386
50	0x3e5733ce	0.21015856
51	0xbdaf51b5	-0.08560506
52	0xbd3e0809	-0.04639438
53	0xbe7214db	-0.23640768
54	0xbca3e198	-0.020005032
55	0x3de09c72	0.109673396
56	0x3e4f8023	0.20263724
57	0xbea5a84a	-0.32354957
58	0x3e3a02a3	0.18165068
59	0x3d2ebd4f	0.042661007
60	0xbe4bd92e	-0.19907066
61	0xbdf95891	-0.12175096
62	0xbdb00436	-0.08594553
63	0x3e515b58	0.20445001
64	0xbe4595b9	-0.19295396
65	0x3e4c4e52	0.19951752
66	0xbe6ed31f	-0.23322724
67	0xbd639990	-0.05556637
68	0x3b1f16fc	0.0024275174
69	0x3e38c63e	0.18044373
70	0xbdf87043	-0.12130787
71	0xbe8c64e6	-0.2742073
72	0xbe187e13	-0.14891843
73	0x3e227792	0.15865925
74	0xbe4e52b7	-0.2014874
75	0x3e80ade2	0.25132662
76	0x3e640982	0.22269252
77	0x3e491882	0.19638255
78	0x3dff8b15	0.124777
79	0xbe507b24	-0.20359474
80	0xbe12a891	-0.14322115
81	0xbe42064c	-0.18947715
82	0x3c63ea47	0.013910837
83	0x3cec716f	0.028862683
84	0x3d87dd68	0.06634027
85	0xbdec481a	-0.1153719
86	0x3e42ed31	0.19035794
87	0xbcb64f69	-0.022254663
88	0x3dc11f00	0.09429741
89	0xbe8edbff	-0.2790222
90	0x3d65712a	0.056016125
91	0xbe82966c	-0.25505388
92	0x3e2735e6	0.16329154
93	0xbd4435f9	-0.047903035
94	0x3d747ac1	0.05968738
95	0x3ca2c720	0.01987034
96	0x3e6977bf	0.22799586
97	0xbe0e74f2	-0.13911799
98	0x3d483925	0.048882622
99	0xbdbdf351	-0.092749245
100	0xbe7caa71	-0.24674393
101	0xbe445191	-0.1917174
102	0x3e3fbc28	0.1872412
103	0xbe0ece81	-0.13945962
104	0xbe7921e1	-0.2432933
105	0xbd4aa34a	-0.04947213
106	0x3d8f32c6	0.06992106
107	0x3e0b20ef	0.13586782
108	0xbda1e1a7	-0.07904368
109	0x3e28e5f4	0.1649397
110	0x3e4cbc3b	0.19993679
111	0xbea42d64	-0.3206588
112	0x3c0756ef	0.008260473
113	0x3df05e1b	0.11736699
114	0xbd8e5c29	-0.06951172
115	0xbe4cf01a	-0.20013466
116	0x3df0622a	0.11737473
117	0x3dae7bca	0.08519705
118	0xbe2abf0a	-0.16674438
119	0xbe4ce083	-0.2000752
120	0x3e627bac	0.2211749
121	0x3e6f5da9	0.23375572
122	0x3e5703e6	0.20997581
123	0x3ebad1c5	0.36488166
124	0xbe8eb103	-0.27869424
125	0x3e76da80	0.24106789
126	0x3c4cc982	0.012499215
127	0xbc63798f	-0.013883962
128	0xbd8a0146	-0.06738524
129	0xbe782fcc	-0.24236983
130	0xbd9ef92b	-0.07762369
131	0x3d9a0df3	0.07522192
132	0x3e164576	0.14674935
133	0xbc9b879f	-0.018985568
134	0x3dbd1648	0.092327654
135	0xbd70f7ac	-0.05882995
136	0xbc80b9b1	-0.015713545
137	0x3d6e5d57	0.058194485
138	0xbdfcc8a4	-0.12342957
139	0x3e10ad16	0.14128527
140	0xbe5d0b28	-0.21586287
141	0xbc85a214	-0.016312636
142	0x3e1a999c	0.1509766
143	0xbe0df6f0	-0.1386373
144	0x3e1e2f33	0.15447693
145	0xbdfe3ea9	-0.12414295
146	0x3d54143c	0.05177711
147	0xbea7de31	-0.32786706
148	0xbe4d7314	-0.2006343
149	0x3e1a683a	0.15078822
150	0x3c6d662c	0.014489692
151	0x3e33c01b	0.17553751
152	0x3d8167c7	0.06318622
153	0xbdc8da2f	-0.0980724
154	0xbea15fe7	-0.3151848
155	0xbe2e7a75	-0.17038901
156	0xbe1a5776	-0.15072426
157	0xbde0ffcd	-0.1098629
158	0xbdc1c32b	-0.094610535
159	0xbe7b027c	-0.24512666
160	0xbe0595de	-0.13045451
161	0x3e017aac	0.12644452
162	0x3e08611f	0.13318299
163	0x3d3ad841	0.045616392
164	0xbe446ffd	-0.19183345
165	0xbdbd1299	-0.09232063
166	0xbda53164	-0.08066061
167	0x3d845705	0.0646191
168	0x3e5b58cb	0.2142059
169	0xbe8c904c	-0.2745384
170	0xbd8dfc4f	-0.0693289
171	0xbe9d34c6	-0.30704325
172	0x3bb617aa	0.00555702
173	0xbd1905f8	-0.037359208
174	0x3da672e0	0.081273794
175	0x3c9af0f8	0.018913731
176	0xbd853ead	-0.06506095
177	0x3d005885	0.03133442
178	0x3dbcaade	0.09212278
179	0xbe1bfa61	-0.1523223
180	0x3e1b5d19	0.15172233
181	0xbe2dd7c9	-0.16976847
182	0xbe1aa8fc	-0.15103525
183	0xbbe27606	-0.006911042
184	0xbed0dee2	-0.40795046
185	0xbe2cd855	-0.16879399
186	0xbdcd1880	-0.10014439
187	0xbe9ce562	-0.30643755
188	0xbd87c5a8	-0.06629497
189	0x3df4fd68	0.11962396
190	0xbe008dc9	-0.12554087
191	0xba99acc4	-0.0011724462
192	0x3dbae39f	0.091254465
193	0xbd887f11	-0.06664861
194	0xbe7b66dd	-0.24550958
195	0xbe101d8c	-0.14073771
196	0xbe624a70	-0.22098708
197	0x3e09a5e4	0.13442189
198	0xbe4760be	-0.19470498
199	0xbe6e5067	-0.23272859
200	0x3dd546dd	0.10413907
201	0x3e6ab9f3	0.22922496
202	0xbd417751	-0.04723293
203	0x3e86a865	0.2630035
204	0xbe519855	-0.20468266
205	0xbe43b866	-0.19113311
206	0xbd8731a5	-0.06601266
207	0x3e611f2e	0.2198455
208	0xbd12abee	-0.035808496
209	0x3e2518e0	0.1612277
210	0x3c12bd57	0.008956275
211	0x3df09b2f	0.11748349
212	0xbd21f447	-0.0395396
213	0xbde1db21	-0.11028124
214	0xbd9f65fc	-0.07783124
215	0xbda21c8a	-0.079156
216	0xbe2ba80f	-0.16763328
217	0x3e141eae	0.14464828
218	0xbd88b530	-0.06675184
219	0x3e60a7a9	0.21938957
220	0x3de24b84	0.1104956
221	0x3e44f399	0.1923355
222	0x3e304b92	0.17216328
223	0x3e14cf66	0.14532241
224	0x3e55521c	0.20832103
225	0x3e751b66	0.23936233
226	0x3c13b51b	0.009015347
227	0xbce270e3	-0.02764172
228	0x3d4ea80b	0.050453227
229	0x3d00240a	0.03128437
230	0xbe80c81d	-0.25152674
231	0x3e5fe0a3	0.21863036
232	0x3e2c816c	0.16846246
233	0x3d844fb1	0.064605124
234	0xbe64e040	-0.2235117
235	0xbda3a709	-0.07990844
236	0x3daa053a	0.08301778
237	0x3e502e5d	0.20330186
238	0xbd9288a3	-0.07154968
239	0x3cb6d1c6	0.022316825
240	0x3d9cd7be	0.07658337
241	0x3e19964a	0.14998737
242	0xbdba01a0	-0.09082341
243	0xbc77b4de	-0.015118806
244	0xbd645805	-0.055748004
245	0xbe6cb85a	-0.231172
246	0x3dd4b74e	0.10386525
247	0x3e515d9d	0.20445867
248	0xbe680a00	-0.22660065
249	0xbe88aa3f	-0.26692387
250	0x3e6cb948	0.23117554
251	0xbec26670	-0.3796878
252	0xbd372402	-0.044712074
253	0xbda07be0	-0.07836127
254	0x3e2800d2	0.16406563
255	0xbe385093	-0.17999487

linear_relu_stack.0.bias f4 [512]
0	0xbe114dba	-0.14189807
1	0x3c6c8998	0.014437102
2	0x3e129f79	0.14318646
3	0xbd80b373	-0.06284227
4	0x3e2e0515	0.16994126
5	0xbe20895b	-0.15677397
6	0x3db49170	0.088168025
7	0x3e1edc17	0.15513645
8	0x3e06f0c0	0.13177776
9	0xbe6cb295	-0.23114999
10	0x3e4cb8d1	0.19992377
11	0xbe842e85	-0.25816742
12	0x3e152568	0.1456505
13	0x3e20c4a8	0.15700018
14	0xbe5a65d0	-0.21327901
15	0xbcd5200a	-0.026016254
16	0x3dca2387	0.098700576
17	0xbd7e4df9	-0.06208608
18	0xbdde000a	-0.10839851
19	0xbe68b5dd	-0.22725625
20	0xbddd19f2	-0.10795964
21	0xbe1e079f	-0.15432595
22	0x3d4a7751	0.049430195
23	0xbd342097	-0.043976393
24	0xbe6ae46c	-0.22938699
25	0xbc95a080	-0.018265009
26	0xbe6c98b0	-0.2310512
27	0xbdcbf167	-0.09958153
28	0xbd36c031	-0.04461688
29	0x3c620aca	0.013796518
30	0x3e275562	0.16341165
31	0x3d3af858	0.045646995
32	0xbe4c86c9	-0.19973291
33	0xbe082511	-0.1329539
34	0xbe5ed44c	-0.21760672
35	0x3e53e624	0.2069326
36	0xbea0052c	-0.31253946
37	0x3e029c4c	0.12754935
38	0x3deb2c5a	0.11483069
39	0xbea2233b	-0.31667504
40	0xbe0109c8	-0.12601388
41	0xbde0e8a0	-0.1098187
42	0xbe92ddca	-0.28684837
43	0xbe7e4edc	-0.2483477
44	0xbdbe1d83	-0.09282973
45	0x3dba9259	0.09109945
46	0xbe2a944b	-0.16658132
47	0x3d97a45f	0.07404398
48	0xbd2a3ae8	-0.041560084
49	0xbea0582d	-0.31317273
50	0xbe535c70	-0.20640731
51	0xbe675c98	-0.22593915
52	0xbe3bd8ff	-0.18344496
53	0x3dc79872	0.097458735
54	0x3b05bf75	0.0020408307
55	0x3dff7a08	0.124744475
56	0x3e1d2b6c	0.15348595
57	0xbe564b6e	-0.20927212
58	0x3e81ff1d	0.25389948
59	0x3e5fdd28	0.21861708
60	0xbe2d7b7d	-0.16941638
61	0xbea0d591	-0.31412938
62	0x3e03a411	0.12855555
63	0xbdf28baf	-0.11843049
64	0x3d8da692	0.069165364
65	0xbdc32760	-0.095289946
66	0xbde67295	-0.112523235
67	0xbd96473f	-0.07337808
68	0xbd8ed46e	-0.069741115
69	0x3a8c8ec7	0.0010723703
70	0x3daccea4	0.08437851
71	0xbe8118e3	-0.252143
72	0xbd86cc9c	-0.06581995
73	0xbe4f9bbe	-0.20274255
74	0x3d006e14	0.03135498
75	0x3d87a911	0.06624044
76	0x3d51ab32	0.051188655
77	0xbe18e998	-0.14932859
78	0xbe83cfb3	-0.257444
79	0xbe27cf96	-0.16387782
80	0x3de61fba	0.1123652
81	0xbc2852d7	-0.010273657
82	0xbd6052d2	-0.054766484
83	0xbe8ebe0b	-0.27879366
84	0xbe61386f	-0.21994184
85	0xbe08186b	-0.13290565
86	0xbe36f0db	-0.17865317
87	0x3df937a0	0.12168813
88	0xbdc0901f	-0.09402489
89	0xbe92aac7	-0.28645918
90	0xbdea1a70	-0.11430824
91	0xbc0fb3ef	-0.008770927
92	0x3e41d193	0.18927602
93	0x3e2fc08f	0.17163299
94	0x3e1ebe6c	0.15502328
95	0x3e3f13a0	0.1865983
96	0x3cb32ee7	0.02187295
97	0x3d64a674	0.055822805
98	0xbda46259	-0.08026571
99	0xbe19d77e	-0.1502361
100	0xbdc09286	-0.09402947
101	0xbdf1c2d1	-0.118047364
102	0xbdde59d5	-0.10856978
103	0xbeb2904f	-0.34875724
104	0x3d125e4e	0.035734467
105	0x3dfbe8e4	0.1230028
106	0x3d320348	0.04346016
107	0x3e54ecd4	0.20793468
108	0xbe492a69	-0.19645084
109	0x3da89b6e	0.08232771
110	0x3e08c340	0.13355732
111	0xbd622983	-0.05521537
112	0xbca58619	-0.020205544
113	0xbe4e228f	-0.2013037
114	0xbe7a98a1	-0.24472286
115	0xbe1ebfb7	-0.15502821
116	0xbe5e9358	-0.21735895
117	0xbd731acb	-0.059351724
118	0xbe8037ed	-0.25042668
119	0xbe2a511a	-0.166325
120	0xbe3cbaa4	-0.18430573
121	0xbdc0607d	-0.09393404
122	0xbe201798	-0.15634
123	0x3e6c0c6d	0.23051615
124	0xbe6f54de	-0.23372218
125	0x3e3cc1d5	0.18433316
126	0xbdde241f	-0.10846733
127	0x3d8426b8	0.064526975
128	0x3d9d5a00	0.07683182
129	0xbe027c82	-0.12742808
130	0x3e6744a6	0.22584781
131	0x3e498ec4	0.19683367
132	0xbe80fb49	-0.25191715
133	0xbe377668	-0.17916262
134	0x3e296852	0.16543701
135	0x3e3321ee	0.17493412
136	0xbd04ca83	-0.032419693
137	0x3d2d05f0	0.04224199
138	0x3e28651e	0.16444823
139	0xbe34b833	-0.17648391
140	0x3e2616af	0.1621959
141	0x3dd4bac6	0.10387187
142	0xbe37aedb	-0.17937796
143	0xbce0c8ce	-0.027439501
144	0x3d351776	0.044211827
145	0xbdbe5045	-0.09292654
146	0xbe393f05	-0.18090446
147	0xbd3bc314	-0.045840338
148	0xbbb8365c	-0.0056217145
149	0xbe86a601	-0.26298526
150	0xbde8ad6a	-0.11361201
151	0x3e38bbe4	0.18040425
152	0x3d105ef7	0.035246816
153	0xbe414d90	-0.18877244
154	0xbe254cce	-0.1614258
155	0x3dbd1f17	0.092344455
156	0xbe3c8862	-0.18411401
157	0xbd2b91e4	-0.04188718
158	0xbe16c5ac	-0.14723843
159	0x3d11e4ad	0.035618473
160	0xbe28ae19	-0.16472663
161	0x3e328258	0.17432535
162	0xbd0b47dc	-0.034004077
163	0xbaf0ca24	-0.001837079
164	0xbe80e19a	-0.2517212
165	0x3e6646be	0.22487924
166	0xbe17d42d	-0.14827032
167	0x3da2893a	0.0793633
168	0xbe3c8e29	-0.18413605
169	0xbe191d87	-0.1495267
170	0xbc46e208	-0.012138851
171	0xbd04b914	-0.032403067
172	0x3de2d74b	0.1107622
173	0x3caf3464	0.021387286
174	0x3e166d9e	0.14690253
175	0x3cd2195c	0.025646858
176	0x3dd787a3	0.105239175
177	0xbd704c3a	-0.058666445
178	0x3e4397e5	0.19100912
179	0x3e725bce	0.23667833
180	0xbdc6b6dc	-0.097028464
181	0x3d1ac93f	0.03778958
182	0x3924a5a4	0.00015701965
183	0xbe4cd703	-0.20003895
184	0xbe920d56	-0.285258
185	0x3d2ba185	0.041902084
186	0xbe5b7117	-0.21429859
187	0x3d9da85e	0.07698129
188	0x3cba0d1a	0.022711325
189	0x3d840eb8	0.0644812
190	0xbdef58f4	-0.11686888
191	0xbe488209	-0.19580854
192	0x3d80868d	0.062756635
193	0xbe18d094	-0.14923316
194	0x3d99172e	0.07475124
195	0x3e1d09c1	0.15335752
196	0x3b4281ba	0.0029679374
197	0xbdcdfcd3	-0.10057988
198	0xbe268e17	-0.1626514
199	0xbe23d02d	-0.15997382
200	0xbde2ce5f	-0.110745184
201	0xbe1714f3	-0.14754085
202	0xbd8e7f1b	-0.06957837
203	0x3d86d562	0.06583668
204	0x3e110e9b	0.14165728
205	0xbe65f614	-0.22457153
206	0xbe021bb0	-0.12705874
207	0x3dcf7cb6	0.101312086
208	0xbe0cee90	-0.1376288
209	0xbe331827	-0.17489682
210	0xbd5f3015	-0.054489214
211	0x3e4ee1c9	0.20203318
212	0xbe0f3b0f	-0.13987373
213	0x3e348f6c	0.17632836
214	0xbcda81d5	-0.026673237
215	0x3d815103	0.0631428
216	0x3e919561	0.2843428
217	0x3d4d67ae	0.050147705
218	0xbda72f4b	-0.08163317
219	0x3e11c349	0.14234652
220	0xbe3be72b	-0.18349902
221	0xbe96c891	-0.29449895
222	0x3e77d832	0.24203566
223	0x3e44286c	0.19156045
224	0xbe5cefad	-0.21575804
225	0xbe18cd32	-0.14922026
226	0xbe40ab6f	-0.18815397
227	0xbe3de5ac	-0.18544644
228	0x3dfe09d2	0.12404217
229	0xbe25edb4	-0.16203958
230	0x3e4d15c4	0.20027834
231	0x3e0aa17c	0.13538164
232	0xbdd3f9ff	-0.10350417
233	0xbd22ca59	-0.039743755
234	0xbde914e4	-0.11380938
235	0xbe8898a0	-0.26678944
236	0x3d932cb3	0.0718626
237	0x3e155daf	0.14586519
238	0x3e1d9bfd	0.15391536
239	0x3e2a3006	0.16619882
240	0xbd961a26	-0.07329206
241	0xbe2516d8	-0.16121995
242	0xbcac1af2	-0.021008942
243	0xbe1c91f0	-0.15290046
244	0x3d9575d1	0.07297862
245	0x3d43dece	0.047819905
246	0x3cc7fb03	0.024411684
247	0x3de99aa5	0.11406449
248	0x3e2f0b72	0.1709421
249	0x3dbfdb52	0.09368004
250	0xbe15b2b0	-0.14618945
251	0xbdc7292a	-0.09724648
252	0xbe411221	-0.18854572
253	0xbdcd573a	-0.10026403
254	0x3d45193b	0.048119765
255	0xbd9321d4	-0.071841866

linear_relu_stack.2.weight f4 [128, 512]
0	0xbb9b6952	-0.00474278
1	0x3d08fa6a	0.03344194
2	0x3d086b70	0.033305585
3	0x3cfdb3b2	0.030969474
4	0xbd08e3a9	-0.03342024
5	0x3b8a3c01	0.004218579
6	0x38a0bcfb	7.664595e-05
7	0xbcb5266f	-0.022113053
8	0xbc56bfb8	-0.013107233
9	0x3ced1323	0.02893979
10	0xbcc13463	-0.02358455
11	0xbc82d4b5	-0.015970567
12	0xbd4dedb5	-0.050275523
13	0xbd228a9c	-0.03968297
14	0xb93a5f25	-0.00017773786
15	0x3d2a21af	0.04153603
16	0x3ccb6608	0.024828926
17	0xbc01fc8f	-0.00793375
18	0xbb7e402f	-0.003879558
19	0xbd1f5e2b	-0.038908165
20	0x3c65d03e	0.0140267
21	0xbcf3560e	-0.02970412
22	0x3cc477f1	0.023982974
23	0xbccdf9bd	-0.025143499
24	0xbd08cf1f	-0.03340065
25	0x3c6c64c5	0.014428322
26	0xbc25255a	-0.010079706
27	0x3c56ceb4	0.013110805
28	0xbb2bfc1e	-0.0026242803
29	0xbd562a7a	-0.052286603
30	0xbc2565e6	-0.010095095
31	0xbcb4d5fd	-0.022074694
32	0x3cf8b39f	0.030359088
33	0xbcf3ebb6	-0.029775482
34	0xbd22433d	-0.039614905
35	0x3c2948f0	0.010332331
36	0xbcfa1c0c	-0.030530952
37	0xbc9816d2	-0.01856557
38	0x3d015052	0.03157074
39	0xbc8a5ac8	-0.016888991
40	0x3d0f3d24	0.034970418
41	0x3ae51755	0.0017478267
42	0xbd1640eb	-0.036683004
43	0x3c51488a	0.012773642
44	0x3d34130d	0.04396348
45	0x3bc9c3f3	0.006157392
46	0x3c81ab53	0.015828764
47	0xbb9aff5d	-0.0047301487
48	0xbcde5fe4	-0.027145334
49	0x3d2e3ab2	0.042536445
50	0x3bf70766	0.0075387238
51	0xbcd1155f	-0.025522886
52	0xbc122f2a	-0.008922378
53	0xbc872f3b	-0.016502013
54	0x3d0e2ac2	0.034708746
55	0xbd42e6da	-0.04758344
56	0x3bf4ed8b	0.0074746064
57	0xbcdab54d	-0.02669778
58	0x39d2f95d	0.0004024011
59	0xbc36ab27	-0.011149204
60	0x3cc57858	0.024105236
61	0xbd0ae16c	-0.033906385
62	0xbb81d7b6	-0.0039624823
63	0xbc2cef52	-0.010555105
64	0xbd22963f	-0.039694067
65	0x3680ff27	3.844401e-06
66	0xbbe75b33	-0.0070604323
67	0x3cfd5748	0.030925408
68	0x3cb072e8	0.021539167
69	0x3c8e1c00	0.017347336
70	0x3c62ee25	0.013850723
71	0x3b481eb7	0.0030535886
72	0xbc7175fc	-0.014737602
73	0xbc86e6e4	-0.01646752
74	0xbd3e7d04	-0.046505943
75	0xbb7bff19	-0.003845161
76	0x3d1b8ef7	0.03797814
77	0xbce32e39	-0.027732002
78	0x3c43e951	0.011957482
79	0x3a93f452	0.0011288023
80	0x3c494d55	0.012286504
81	0x3d05db44	0.03267981
82	0x3d09085a	0.03345523
83	0xbd22d075	-0.03974958
84	0x3b1e7e07	0.0024184005
85	0xbc28fda6	-0.010314381
86	0x3ba31dd9	0.0049779234
87	0x3c83ae42	0.016074304
88	0xbc8c3916	-0.017117064
89	0x3cc3ca6d	0.023900235
90	0xbceaf8cd	-0.02868309
91	0xbcc3677b	-0.023853054
92	0x3c84ea43	0.016224986
93	0xbd595a9f	-0.05306494
94	0xbd2503f8	-0.040286988
95	0x3c8ddea1	0.017318072
96	0xbcd19572	-0.025583956
97	0x3cbc7adc	0.023007803
98	0xbc9b718f	-0.018975047
99	0xbccf6c83	-0.025320297
100	0x3c810680	0.01575017
101	0xbce0d03a	-0.02744304
102	0xbcd1f827	-0.025631024
103	0xbd0d5c5f	-0.03451192
104	0xbce248a8	-0.027622536
105	0xbb08535b	-0.0020801637
106	0xbd221531	-0.03957099
107	0xbbd23244	-0.0064146835
108	0xbcf78570	-0.030214995
109	0xbd09820d	-0.03357129
110	0xbc21faf5	-0.009886493
111	0xbccfd369	-0.025369363
112	0x3d162aa7	0.03666177
113	0x3d049ac7	0.03237417
114	0xbd060cd0	-0.032727063
115	0xbd3662c8	-0.0445278
116	0x3c89c0ce	0.01681557
117	0xbd384afe	-0.044993393
118	0xbbedebf6	-0.0072607948
119	0x3ca80acf	0.020512966
120	0xbc1e6ec4	-0.009669963
121	0x3ca3a537	0.019976242
122	0x3cd929a8	0.026509121
123	0xbc6695a4	-0.014073763
124	0x3c8c8b93	0.017156398
125	0xbcabd6f4	-0.020976521
126	0xbc922936	-0.017841917
127	0x3bf85ba1	0.0075792824
128	0x3bae3750	0.0053166524
129	0xbb83e8f1	-0.0040255715
130	0x39b21c29	0.00033971787
131	0x3cb5e22b	0.022202572
132	0xbd58ba12	-0.052911825
133	0xbcf7be52	-0.030242119
134	0xbb591b4c	-0.0033127842
135	0x3d08781c	0.03331767
136	0x3c8827d8	0.016620561
137	0xbd0dc03c	-0.034607157
138	0xbc3769f1	-0.011194692
139	0xbd416eb2	-0.047224708
140	0x3ca9b097	0.020714087
141	0xbd587d4b	-0.052853864
142	0x3cd9f8a6	0.026607823
143	0x3ca4c6c2	0.020114306
144	0xbcaec398	-0.0213335
145	0x3cdde2d6	0.027085703
146	0x3cc73bfc	0.024320595
147	0xbcdafc79	-0.026731716
148	0xbbf75480	-0.007547915
149	0xbaae8600	-0.0013315082
150	0x3b6bcebe	0.0035981382
151	0xbd198a37	-0.037485328
152	0x3c904528	0.017611101
153	0xbd13fefd	-0.036131848
154	0xbd0b3a89	-0.03399137
155	0x3b435bb7	0.0029809305
156	0xbc2e2eab	-0.010631244
157	0xbd1d146d	-0.038349558
158	0xbd12d37a	-0.03584621
159	0xbcf07685	-0.02935339
160	0x3c095620	0.00838235
161	0xbcd020ac	-0.025406204
162	0xbce85bd6	-0.028364103
163	0xbcb3f4f3	-0.021967387
164	0xbcf824f0	-0.03029105
165	0x3c0577c4	0.00814623
166	0x3cea7592	0.028620515
167	0xbccc7a80	-0.024960756
168	0xbd0d13cb	-0.034442704
169	0xbd30270f	-0.043006
170	0x3c86957a	0.016428698
171	0xbb01221c	-0.0019704169
172	0xbcdef4b1	-0.027216287
173	0x3d29c2e5	0.04144563
174	0x3c322105	0.01087213
175	0x3cd380ba	0.025818218
176	0xbcb750d1	-0.022377403
177	0x3ca4e22f	0.020127384
178	0xbc74b39a	-0.0149353985
179	0x3cbefb9f	0.023313342
180	0xbd212ed4	-0.0393513
181	0x3bbc8d6e	0.0057541644
182	0xbcbe3e6a	-0.02322312
183	0x3ce9d333	0.02854309
184	0xbb0d43cf	-0.002155531
185	0xbd0553de	-0.032550685
186	0xbc5980f8	-0.013275377
187	0xbce9363c	-0.028468244
188	0x3d034cb2	0.032055564
189	0xbb6c4940	-0.0036054403
190	0xbd3fe751	-0.04685146
191	0xbd236e7a	-0.03990028
192	0xbd401ea9	-0.04690424
193	0xbd5ae31c	-0.053439245
194	0xbc509b5d	-0.012732354
195	0xbb043fb1	-0.0020179565
196	0x3d0b92df	0.034075614
197	0x3d49e3d6	0.049289547
198	0x3d0b3ada	0.033991672
199	0x3cdd4be3	0.027013725
200	0xbc955f17	-0.018233819
201	0xbcae06dd	-0.021243507
202	0x3d0060ad	0.031342197
203	0x3c9de6ec	0.019275151
204	0xbd327253	-0.04356606
205	0x3c8a6339	0.016893016
206	0xbd0e4de5	-0.034742255
207	0x3cb620e9	0.02223249
208	0x3d1ee5b6	0.03879329
209	0xbc93438d	-0.017976547
210	0x3c84d8d8	0.01621668
211	0xbcc97d7a	-0.024595965
212	0xbbe649b9	-0.0070278314
213	0x3c52cec6	0.012866681
214	0xbcf869db	-0.030323913
215	0xbcd8c10a	-0.026459236
216	0xb972894a	-0.00023130063
217	0xbd0c823f	-0.0343039
218	0x3cc6884c	0.024234913
219	0xbbe7a22b	-0.0070688925
220	0x3c06f9e6	0.008238291
221	0xbbc15220	-0.0058996826
222	0xbc67879b	-0.014131452
223	0xbbf3f51f	-0.007444992
224	0xbd00421f	-0.031313058
225	0x3c105c64	0.00881109
226	0xbc94f7e1	-0.018184604
227	0x3cd53ddc	0.026030473
228	0x3cf99c1a	0.030469943
229	0xbb925805	-0.004466059
230	0xbc800619	-0.015627908
231	0xbd3ca361	-0.046054248
232	0x3b9a60ad	0.0047112317
233	0x3d076adc	0.033060893
234	0x3d211fc4	0.039336935
235	0xbcd70fdf	-0.026252685
236	0xbd39627c	-0.045259938
237	0x3cf7f8e0	0.03027004
238	0x3ce3af80	0.027793646
239	0xbd1cb63b	-0.038259726
240	0xbd001e4d	-0.031278897
241	0xbc7aa3b1	-0.015297816
242	0x3cc9906e	0.024605002
243	0xbcc98591	-0.024599822
244	0x395c4ebd	0.00021010167
245	0x3b5039b3	0.0031772673
246	0xbab36772	-0.0013687445
247	0xbd319c5c	-0.043362007
248	0xbd3af197	-0.045640554
249	0x3d123265	0.03569259
250	0x3b1977ee	0.002341743
251	0xbc94081c	-0.018070273
252	0x3cfa66ea	0.030566651
253	0xbcf1d63c	-0.0295211
254	0x3c95c6f3	0.018283343
255	0x3bd3e6c0	0.0064667165

linear_relu_stack.2.bias f4 [128]
0	0xbd4bc0ca	-0.049744405
1	0xbceeda0c	-0.029156707
2	0xbc35d5cf	-0.011098339
3	0x3d06d464	0.032917395
4	0x3d39007f	0.04516649
5	0xbcc56683	-0.024096733
6	0xbbe4604f	-0.0069694887
7	0x3ce6712c	0.028130136
8	0x3cb49052	0.022041474
9	0x3c2f173b	0.010686691
10	0xbca2310f	-0.019798784
11	0x3b98b7c7	0.00466058
12	0xbcc67089	-0.024223583
13	0xbc56097c	-0.013063785
14	0x3cfbd917	0.030743165
15	0xbd4c3fd6	-0.049865566
16	0x3d5a3515	0.05327328
17	0x3cf619aa	0.030041534
18	0x3d1047f0	0.035224855
19	0x3ce1f170	0.027580947
20	0x3d214054	0.03936799
21	0x3d064cbb	0.03278802
22	0x3c9ed1e6	0.019387197
23	0xbce72d80	-0.028219938
24	0xbbc6ff1b	-0.0060728914
25	0xbc17de09	-0.009269246
26	0x39d9867b	0.0004148966
27	0x3c2bb5d7	0.010480366
28	0x3d145bd8	0.0362204
29	0x3d2b673e	0.041846506
30	0x3d498903	0.04920293
31	0x3c9648ae	0.018345203
32	0xbd333a16	-0.043756567
33	0x3d1ca177	0.038239922
34	0xbc82705c	-0.015922718
35	0xbc13303d	-0.008983669
36	0xb9b0e6ed	-0.0003374139
37	0xbd35e9c5	-0.044412393
38	0x3cfcef1a	0.030875731
39	0x3d0636dc	0.03276716
40	0x3d7cf2bf	0.06175494
41	0xbddde2be	-0.10834263
42	0xbc948d29	-0.018133717
43	0x3c6b6dba	0.014369423
44	0x3cf721cc	0.030167483
45	0x3bb8a86a	0.005635311
46	0x3c92434c	0.017854355
47	0xbcd0c901	-0.025486471
48	0xbbeb876c	-0.0071877744
49	0x3c88c50e	0.016695525
50	0x3d4db314	0.05021961
51	0x3d133a03	0.035943996
52	0xb9f45447	-0.00046602098
53	0xbcb6a0c6	-0.02229346
54	0x3d51c1d9	0.05121026
55	0xbd467a1b	-0.048456293
56	0xbd393d37	-0.045224395
57	0x3d6cffdf	0.057861205
58	0xbc6d23bc	-0.014473852
59	0xbcbd7876	-0.02312873
60	0x3cb44da8	0.022009686
61	0xbd415e83	-0.047209274
62	0xbc046437	-0.008080534
63	0x3cc23077	0.02370475
64	0xbd2c4e4d	-0.04206686
65	0xbd44d573	-0.048055124
66	0xbc148af4	-0.009066332
67	0xbc6dc1f9	-0.014511579
68	0xbd103a84	-0.035212055
69	0x3b4d3be3	0.0031316213
70	0xbb34f8f8	-0.0027614217
71	0x3d247c82	0.040157802
72	0xbcba5b7b	-0.0227487
73	0x3c8ccf48	0.017188683
74	0xbd3df1e2	-0.046373256
75	0xbc6e1ca4	-0.014533196
76	0xbc51d783	-0.01280773
77	0x3c1983aa	0.00936977
78	0xbce11a58	-0.027478382
79	0x3ce61c36	0.028089624
80	0x3d2d52c9	0.04231528
81	0xbda67423	-0.0812762
82	0xbc3f4962	-0.011675211
83	0xbcd2fc13	-0.025754964
84	0xbd07bcbc	-0.033138976
85	0x3cbd5cd2	0.02311555
86	0xbbb2312b	-0.00543799
87	0x3cd75277	0.02628444
88	0xbcba2a1b	-0.022725156
89	0x3c2c8eb7	0.010532073
90	0xbbf63071	-0.007513099
91	0x3cc33c9c	0.023832612
92	0x3c99e99b	0.01878815
93	0x3cf64f97	0.030067248
94	0x3cacd001	0.021095278
95	0x3d19637a	0.037448384
96	0x3d5b7867	0.05358162
97	0xbd663374	-0.056201413
98	0x3a88246e	0.0010386833
99	0xbc89b4d8	-0.016809866
100	0x3d04fa0e	0.032465033
101	0x3cf2b24e	0.029626038
102	0x3cf6af2b	0.030112823
103	0x3b2226f5	0.0024742458
104	0xbd33ea3b	-0.04392455
105	0xbcd7cec8	-0.026343718
106	0x3d2b89cb	0.041879456
107	0xbd154725	-0.0364448
108	0x3d59d047	0.053177144
109	0xbc2fa635	-0.010720779
110	0xbce95c22	-0.028486315
111	0x3da87cee	0.082269534
112	0xbb2337e6	-0.0024905144
113	0x3bbcf514	0.0057665203
114	0xbae81531	-0.0017706511
115	0x3cd49259	0.02594869
116	0xbbd53777	-0.006506856
117	0xba86ad7f	-0.0010275095
118	0x3cfaf2eb	0.03063341
119	0x3cd9f0b2	0.02660403
120	0xbcb33087	-0.021873726
121	0x3d0af5a3	0.033925664
122	0xbd0a20b7	-0.033722606
123	0xbcc0623e	-0.023484346
124	0x3d0bdc32	0.03414554
125	0xbd450678	-0.048101872
126	0x3c97638b	0.018480083
127	0x3c14f4c4	0.00909156

linear_relu_stack.4.weight f4 [10, 128]
0	0xbd4f978e	-0.050681643
1	0xbc8047c6	-0.015659224
2	0x3db04c1d	0.086082675
3	0x3d50505e	0.050857894
4	0xbd25a3e6	-0.04043951
5	0x3e35cf5a	0.1775488
6	0x3c5f9e4d	0.013648582
7	0x3d13efe8	0.036117464
8	0x3d1286e0	0.035773158
9	0x3de9743a	0.113991216
10	0x3c71f0b9	0.014766865
11	0x3e297481	0.16548349
12	0x3be54018	0.006996166
13	0x3daeba09	0.08531577
14	0x3d8245ae	0.063609466
15	0xbd7d92ac	-0.061907455
16	0x3d9a4c4a	0.07534082
17	0x3cf23750	0.02956739
18	0xbd5954c0	-0.05305934
19	0x3b894ec0	0.004190296
20	0x3d0eed54	0.034894302
21	0xbd631de0	-0.055448413
22	0x3d740e90	0.0595842
23	0xbd786dff	-0.060651775
24	0x3d5ad558	0.053426117
25	0xbdc08b0c	-0.09401521
26	0x3e9eb8c3	0.31000337
27	0xbdc4f4a9	-0.09616978
28	0x3e7136ce	0.23556063
29	0xbdfaa589	-0.122386046
30	0x3d356c3b	0.04429267
31	0x3db3423d	0.08752868
32	0xbd67bcca	-0.056576528
33	0xbe104709	-0.14089598
34	0xbcfadeaf	-0.030623762
35	0xbdb6026a	-0.08887179
36	0xbd4dab0c	-0.05021195
37	0xbe20c6e3	-0.1570087
38	0x3d4e9d2c	0.05044286
39	0x3e3feb7d	0.18742175
40	0x3de83058	0.11337346
41	0x3e27ecfa	0.16398993
42	0xbd7f28ea	-0.062294878
43	0x3cc589db	0.024113586
44	0x3d5e156f	0.05421966
45	0x3e791ce5	0.24327429
46	0x3d2a54e3	0.04158486
47	0x3cc43d83	0.023955112
48	0xbd83eee7	-0.064420514
49	0x3d0b27fe	0.033973686
50	0x3d6d1c63	0.0578884
51	0xbcf9cf19	-0.03049426
52	0xbd5b78f8	-0.05358216
53	0x3caf77a6	0.021419358
54	0xbd043de1	-0.032285575
55	0x3d0e98c4	0.034813657
56	0xbcbeb6aa	-0.02328046
57	0x3e1f8b00	0.15580368
58	0x3d2b65a8	0.041844994
59	0xbc69bcae	-0.014266176
60	0xbd8966b2	-0.06709041
61	0x3d968493	0.07349505
62	0xbdc0ed5b	-0.09420272
63	0x3d478893	0.04871423
64	0x3d2a85a6	0.041631363
65	0xbcc019fd	-0.023449892
66	0xbc4e373f	-0.012586414
67	0xbd8d944e	-0.069130525
68	0x3d3543cc	0.04425411
69	0xbe0f6e70	-0.14006972
70	0xbd3140d5	-0.04327472
71	0x3d9e4cad	0.077294685
72	0x3d18114c	0.03712587
73	0x3e5bd344	0.2146731
74	0x3d83ccba	0.06435533
75	0x3d67c5dd	0.05658518
76	0xbc5c0244	-0.013428275
77	0xbd8bd2ec	-0.068273395
78	0x3e8e035a	0.27736932
79	0xbdae6f9c	-0.085173815
80	0x3dd23fd8	0.102660835
81	0xbe03c09b	-0.12866442
82	0x3d0cb432	0.034351535
83	0xbd0dd703	-0.03462888
84	0x3cf8b9ba	0.030361999
85	0x3e137523	0.14400153
86	0xbc2753ce	-0.010212852
87	0x3bf51160	0.007478878
88	0xbe0a77af	-0.13522218
89	0x3d51da6d	0.051233698
90	0xbd8b9e80	-0.06817341
91	0xbd8b93fc	-0.06815335
92	0x3d528574	0.051396802
93	0x3dbe4be6	0.0929182
94	0xbd31cf7b	-0.04341076
95	0x3d5b4d4d	0.053540517
96	0xbcb10a9d	-0.021611506
97	0x3e6be427	0.23036252
98	0xbd874eb3	-0.066068076
99	0xbda06f00	-0.078336716
100	0x3d77c649	0.060491834
101	0xbdeb00a5	-0.11474732
102	0xbd75dad0	-0.06002313
103	0xbe1a2bad	-0.15055723
104	0xbd632317	-0.055453386
105	0xbd375e7a	-0.044767834
106	0xbc46d4da	-0.012135709
107	0x3d717391	0.058948103
108	0xbd325f33	-0.04354782
109	0xbe23445c	-0.15944046
110	0xbda5d28b	-0.080967985
111	0x3d317bb5	0.043330867
112	0xbd1d83dc	-0.03845583
113	0xbcfc08c5	-0.0307659
114	0x3c518424	0.012787852
115	0xbd788c2a	-0.060680546
116	0xbcb09558	-0.021555588
117	0x3e022390	0.12708879
118	0xbcb335f4	-0.021876313
119	0x3d71fc30	0.059078395
120	0x3d4d6db1	0.050153438
121	0x3d49099c	0.04908143
122	0x3d5057a8	0.050864846
123	0xbc791c7d	-0.015204546
124	0xbcef99e8	-0.029248193
125	0x3c0fa448	0.008767195
126	0x3d798cc9	0.06092528
127	0xbca95545	-0.020670542
128	0x3d016a9a	0.031595804
129	0x3c69eb40	0.014277279
130	0xbd37af45	-0.044844884
131	0x3d4cc678	0.049993962
132	0xbd3fc33f	-0.04681706
133	0xbd95224a	-0.07281931
134	0x3d6c0d65	0.05762996
135	0xbdf937c8	-0.121688426
136	0x3d16e8c4	0.036843076
137	0x3d8f2568	0.069895566
138	0xbd2184dd	-0.03943335
139	0xbae60044	-0.0017547687
140	0xbdb1c555	-0.08680216
141	0x3a408780	0.000734441
142	0x3d6e812c	0.058228657
143	0x3d132e08	0.03593257
144	0xbd94a07c	-0.072571725
145	0xbd2e8bc9	-0.04261378
146	0xbbd8d5cb	-0.006617283
147	0x3c76a915	0.015054961
148	0xbd634fd1	-0.05549604
149	0xbda5715a	-0.08078261
150	0x3d4ebbed	0.05047219
151	0xbcc3311a	-0.023827124
152	0xbd9da963	-0.076983236
153	0x3d964ef8	0.07339281
154	0x3d5a7bbf	0.05334067
155	0x3c2a858d	0.010407818
156	0x3c9e024d	0.019288206
157	0xbc26f343	-0.010189834
158	0x3ceb326a	0.028710563
159	0x3d0a5061	0.03376806
160	0x3d481205	0.04884531
161	0x3c88d1e0	0.016701639
162	0xbd819fa5	-0.06329278
163	0xbcd976c2	-0.026545886
164	0xbda8aae7	-0.08235722
165	0x3c7a9a9e	0.015295653
166	0xbdbbfe14	-0.09179321
167	0xbdb5bf3c	-0.08874366
168	0xbde5c03e	-0.11218308
169	0xbd547611	-0.05187041
170	0x3da08d4f	0.078394525
171	0xbd956f46	-0.07296614
172	0x3cf246f0	0.029574841
173	0xbd3b02da	-0.045657016
174	0x3c03b5b8	0.008038931
175	0x3c67fa00	0.014158726
176	0x3cc89e0e	0.024489429
177	0xbd56969e	-0.052389733
178	0xbe14be7f	-0.14525793
179	0x3d1e998e	0.03872066
180	0xbd9e80d6	-0.07739417
181	0xbd36efc1	-0.04466224
182	0x3d2095e9	0.039205465
183	0x3cdc12bc	0.026864402
184	0xbbb85230	-0.005625032
185	0xba6b381b	-0.0008972899
186	0xbda9d0b3	-0.08291759
187	0xbd1db7bf	-0.038505312
188	0xbcdef9a4	-0.027218647
189	0xbd045cec	-0.03231518
190	0xbbfb7367	-0.007673669
191	0xbdc24ffa	-0.094879106
192	0x3c5f2c1f	0.013621359
193	0x3c9f4459	0.01944177
194	0xbcc68f08	-0.024238124
195	0x3ca7b86a	0.020473678
196	0x3c94fa20	0.018185675
197	0x3c7806e5	0.015138363
198	0xbc4a5b18	-0.01235082
199	0xbdbaeba3	-0.091269754
200	0x3d77a822	0.06046308
201	0xbd8fe978	-0.070269525
202	0xbd91acdf	-0.07113051
203	0xbc13ac76	-0.009013286
204	0x3d65a2cf	0.05606347
205	0xbd0182f2	-0.03161902
206	0x3bfb6009	0.0076713604
207	0xbd5b9bed	-0.0536155
208	0xbdbdf634	-0.09275475
209	0x3b915fbe	0.004436462
210	0x3ce5d3e8	0.028055146
211	0xbd1a5d50	-0.037686646
212	0xbdb22677	-0.08698743
213	0xbc79b4c0	-0.015240848
214	0x3b8a7be8	0.0042261966
215	0xbdac6d63	-0.08419301
216	0xbd9b0fe5	-0.07571391
217	0xbd35289a	-0.044228174
218	0xbda05ee0	-0.07830596
219	0xbba5f8fe	-0.0050650826
220	0xbc8cfa33	-0.017209148
221	0xbd9b23cc	-0.07575187
222	0xbc0cc63b	-0.008592184
223	0xbd84ba2b	-0.06480821
224	0x3d314735	0.0432808
225	0x391aaadc	0.00014750235
226	0x3cdfea36	0.02733336
227	0x3d9a69eb	0.075397335
228	0x3d882201	0.06647111
229	0xbd353b3c	-0.044245943
230	0x3c119531	0.008885668
231	0xbd2b9b77	-0.04189631
232	0x3bb24606	0.0054404764
233	0xbd2778b2	-0.04088659
234	0xbd1658d6	-0.036705814
235	0xbd9dd5f6	-0.077068254
236	0x3d8c5af2	0.06853284
237	0x3bdb2a68	0.006688405
238	0x3d3093b6	0.043109618
239	0xbd746804	-0.05966951
240	0x3d89fa90	0.06737244
241	0x3cd04f71	0.025428506
242	0x3c96954c	0.018381737
243	0xbce19d5d	-0.027540857
244	0x3d6a5830	0.05721301
245	0xbb912814	-0.0044298265
246	0x3d7d4ba3	0.06183971
247	0x3c84477a	0.016147364
248	0xbd3d3a9f	-0.046198484
249	0x3d439a32	0.047754474
250	0x3d280ee1	0.041029815
251	0x3da6565f	0.08121943
252	0x3d2408da	0.040047504
253	0xbcbec470	-0.023287028
254	0xbd907ee3	-0.07055452
255	0x3a3e3441	0.0007255711

linear_relu_stack.4.bias f4 [10]
0	0x3d042105	0.032258052
1	0xbd9acb74	-0.07558337
2	0xbcdbd06a	-0.026832778
3	0xbd10889e	-0.03528654
4	0x3d990a75	0.07472698
5	0xbcac21a7	-0.02101214
6	0x3d934207	0.07190328
7	0x3b6d40b4	0.0036201896
8	0x3d2eb15d	0.042649616
9	0x3d331235	0.043718535

linear_relu_stack.6.weight f4 [1, 10]
0	0xbeb8635a	-0.360133
1	0xbe4acb38	-0.19804084
2	0x3ae1c59b	0.0017225029
3	0xbe5ddd42	-0.21666434
4	0xbe8558e0	-0.2604437
5	0x3ec38873	0.3819004
6	0xbd051af6	-0.032496415
7	0x3e1208bf	0.14261149
8	0xbe682779	-0.22671308
9	0xbe11a826	-0.142243

exp_avg f4 [512, 16]
0	0x3a68797b	0.00088681997
1	0x3cbb167c	0.02283787
2	0xba9ce7d9	-0.0011970951
3	0x3c91ecfd	0.0178132
4	0x3ca1a45f	0.019731699
5	0xbb87ced6	-0.00414453
6	0xbac3e7b9	-0.0014946378
7	0x3d00182d	0.031273056
8	0xbcc80215	-0.024415055
9	0x3d0c0874	0.03418775
10	0xbd2c0d0e	-0.042004637
11	0x3b19ff7e	0.0023498232
12	0x3b748738	0.0037312042
13	0xbbb74df9	-0.005594012
14	0x3c6bbe6d	0.014388663
15	0x3bd1ad82	0.0063988576
16	0xbd34eb2e	-0.044169597
17	0xbcb154b4	-0.021646835
18	0xbcb9f4cd	-0.022699738
19	0x3cdb6d35	0.026785472
20	0x3c0ce03a	0.008598382
21	0x3c299844	0.010351244
22	0x3d9eef6a	0.07760508
23	0x3dd0f834	0.10203591
24	0x3d8a5e37	0.06756251
25	0x3dd7c637	0.10535853
26	0x3e04bdaf	0.12962984
27	0xbc686556	-0.014184317
28	0xbd3fcaa3	-0.04682411
29	0xbccaeb41	-0.02477038
30	0xbc306c50	-0.010768011
31	0xbd6f0f7a	-0.05836437
32	0xbc6508c8	-0.013979144
33	0x3ce16ff7	0.02751921
34	0x3c96e418	0.01841931
35	0x3cd2b7a9	0.025722342
36	0x3d09882e	0.033577137
37	0xbc5480aa	-0.012970129
38	0xbb5d1d8b	-0.0033739533
39	0xbd2b69c6	-0.04184892
40	0xbd82e891	-0.06392015
41	0xbd2f596e	-0.042809896
42	0xbd8990a8	-0.06717044
43	0xba02b8cb	-0.0004986643
44	0xbc866f42	-0.016410474
45	0xbc8feb7b	-0.01756834
46	0x3c805edc	0.015670232
47	0xbcd8c754	-0.026462235
48	0xbc85bb47	-0.016324652
49	0xbcaec96c	-0.02133628
50	0xbdc29933	-0.09501877
51	0xbd03df92	-0.032195635
52	0xbcf53d27	-0.029936386
53	0xbbe437ef	-0.0069646756
54	0x3c9aad0c	0.018881343
55	0xbbb22a1e	-0.0054371497
56	0x3dbb5e5c	0.09148857
57	0xbc8fae1a	-0.017539073
58	0x3dd5093b	0.10402151
59	0xba9681a1	-0.0011482724
60	0x3c7b9bed	0.015357
61	0x3d0ba820	0.034095883
62	0xba82b497	-0.0009972033
63	0x3ce0f0eb	0.027458629
64	0xbc856bc3	-0.016286736
65	0xb8c08ece	-9.181873e-05
66	0xba5cbde0	-0.00084206276
67	0x3c2f1ece	0.010688497
68	0x3c3d0234	0.01153617
69	0xbd0fbfe5	-0.035095114
70	0x3c9f4630	0.019442648
71	0xbda8c68e	-0.08240996
72	0xbd92f905	-0.07176403
73	0xbdbc973c	-0.09208533
74	0xbd8892b3	-0.06668606
75	0xbaad018a	-0.0013199311
76	0xbce1aa3c	-0.027546994
77	0xbcc94f48	-0.024573937
78	0x3ba7db4b	0.0051225773
79	0xbc61b4b5	-0.013775994
80	0xbc284819	-0.010271096
81	0xbccc3651	-0.024928244
82	0xbb93cf61	-0.0045108055
83	0xbcc4dc75	-0.024030903
84	0xbc9d65b3	-0.019213533
85	0xbc7e7206	-0.015530115
86	0x3a994315	0.0011692966
87	0xbd05baec	-0.032648966
88	0x3c2de6e8	0.010614134
89	0xbd1a8653	-0.037725758
90	0x3cddecbf	0.027090428
91	0xbb20f470	-0.0024559759
92	0xbc518f59	-0.012790524
93	0xbc47ee96	-0.012202879
94	0x3ba211f1	0.0049459864
95	0xbbedc858	-0.007256549
96	0x3c6dd5e4	0.0145163275
97	0xbb3bfe62	-0.002868556
98	0xbb9053b2	-0.0044045085
99	0x3c21fdf4	0.009887207
100	0x3bbed7e8	0.005824078
101	0x3c169541	0.009190858
102	0x3c206880	0.00979054
103	0xbc3a0143	-0.01135284
104	0xbd003559	-0.031300876
105	0xbc0829cd	-0.008310747
106	0xbd267bfe	-0.040645592
107	0x398f53d4	0.00027337542
108	0xbb9ffbf0	-0.004882328
109	0xbc32bbd1	-0.010909037
110	0x3c3fbdcd	0.011702967
111	0x3a8f19e5	0.0010917751
112	0xba11c90f	-0.0005561271
113	0x3d476307	0.048678424
114	0x3b2920bd	0.0025806867
115	0x3c930fcb	0.017951867
116	0x3d05158e	0.03249126
117	0xbcc975b9	-0.024592267
118	0xbc9bea62	-0.01903266
119	0xbd236759	-0.039893482
120	0xbd8ba735	-0.068190016
121	0xbd21945a	-0.03944812
122	0xbdb6ddd5	-0.0892903
123	0x3c3420d5	0.010994156
124	0x3bc5c6c6	0.0060356585
125	0xbd028fe0	-0.03187549
126	0x3be7478a	0.0070580887
127	0xb9c23928	-0.00037045148
128	0x3bb49e7d	0.0055120573
129	0x3c28db33	0.010306167
130	0x3c658c27	0.014010466
131	0x3c42bcca	0.011885831
132	0x3c4a3348	0.012341328
133	0x3c270f5e	0.010196535
134	0xb9a9f414	-0.00032416044
135	0xbc459c6b	-0.012061219
136	0xbd0ec05a	-0.03485141
137	0xbc82dee0	-0.015975416
138	0xbd08b0bb	-0.03337167
139	0x3a58a671	0.0008264548
140	0x3bde8c63	0.0067916377
141	0x3bce7d27	0.0063015404
142	0x3bacb445	0.0052705132
143	0x3b47c82d	0.0030484304
144	0x3ce2b1b9	0.027672635
145	0xbd02cafe	-0.03193187
146	0x3cf06aef	0.029347865
147	0xbce6283c	-0.028095357
148	0xbce03083	-0.027366882
149	0x3d30a701	0.043128017
150	0x3b6d22a2	0.0036183973
151	0xbd96e159	-0.073672004
152	0xbde422e2	-0.11139466
153	0xbda19898	-0.07890433
154	0xbd962546	-0.07331328
155	0xbbc85083	-0.0061131134
156	0xbd3909c9	-0.045175347
157	0xbd421156	-0.047379814
158	0xbb8ed46c	-0.0043588188
159	0xbcc0cb54	-0.023534454
160	0xbc68f572	-0.014218675
161	0xbce6fbb5	-0.028196195
162	0xbbd85fab	-0.0066032014
163	0xbcfb9fc8	-0.030715838
164	0xbcc95275	-0.024575451
165	0xbc3a246e	-0.011361225
166	0xba4b6ddb	-0.0007760205
167	0x3d2d2141	0.04226804
168	0x3c07b2ae	0.008282347
169	0x3d373888	0.044731647
170	0x3cc541a3	0.02407915
171	0xbb30b18a	-0.002696129
172	0xbcc88fb3	-0.024482584
173	0xbcacca7e	-0.02109265
174	0xbb270af1	-0.00254887
175	0xbcb0bb79	-0.021573769
176	0x3d15682e	0.036476307
177	0xbd758d48	-0.05994919
178	0xbc7ace15	-0.015307923
179	0xbda51be4	-0.0806196
180	0xbdb484d5	-0.08814398
181	0x3bc8e1ad	0.0061304183
182	0x3ba235bd	0.0049502538
183	0x3d1a824d	0.03772192
184	0x3c2d361f	0.0105719855
185	0x3d28a24d	0.041170407
186	0x3bca93bd	0.0061821626
187	0xb9d05e05	-0.00039742902
188	0x3b5c78bb	0.0033641297
189	0x3b640f7f	0.0034799275
190	0x3a21bfa0	0.0006170217
191	0x3c81aace	0.015828516
192	0x3cb04315	0.021516362
193	0x3d434b08	0.047678977
194	0x3cec98e1	0.028881492
195	0x3d2e9cec	0.04263012
196	0x3d0bed21	0.03416169
197	0xbb2cca00	-0.0026365519
198	0xbcbb0b91	-0.022832664
199	0x3ca7800a	0.020446796
200	0xbd4d6e73	-0.05015416
201	0x3cc0d6a4	0.023539849
202	0xbd6dcdcb	-0.058057588
203	0x3b9439c2	0.004523487
204	0xba41a592	-0.00073870376
205	0xbd07ddb0	-0.033170402
206	0x3b666a7b	0.0035158682
207	0xbd2f92f6	-0.042864762
208	0x3b955459	0.004557174
209	0xbb987b35	-0.0046533593
210	0xbc55d9aa	-0.013052383
211	0x3b7e9042	0.0038843309
212	0x3a8dca00	0.0010817647
213	0x398f4c8d	0.0002733212
214	0x3af170f8	0.0018420508
215	0xbcb55d3c	-0.022139184
216	0xbbab8ee2	-0.005235539
217	0xbcbb6075	-0.022873143
218	0xbc1ea36b	-0.009682517
219	0x3a036025	0.000501158
220	0x3b4d133b	0.003129198
221	0x3b67d95c	0.003537736
222	0x3bd30b70	0.0064405724
223	0x3be2e53d	0.0069243
224	0xbc3be179	-0.011467331
225	0x3a6c9fe7	0.0009026513
226	0x3a69fafc	0.0008925644
227	0xb908c09f	-0.00013041728
228	0xbb1d93c5	-0.0024044376
229	0x3c7994e3	0.015233251
230	0xbac1bb81	-0.0014780612
231	0x3cfe8a60	0.031071842
232	0xbbf1900b	-0.0073719076
233	0x3d008804	0.031379715
234	0xbbbab81c	-0.005698217
235	0xba2898f6	-0.00064314844
236	0x3abf4b52	0.0014594591
237	0x3b9d182c	0.0047941413
238	0xba0600ed	-0.0005111832
239	0xbb269903	-0.0025420792
240	0xbd2d8f15	-0.04237278
241	0x3d6b13cb	0.057391923
242	0x3d160e3e	0.036634676
243	0x3d185c95	0.037197668
244	0x3d102713	0.035193514
245	0xbd044f3f	-0.032302137
246	0x3ce040cf	0.027374653
247	0x3e1cddd8	0.15319002
248	0x3db2e2f3	0.087346934
249	0x3e26fcc7	0.16307364
250	0x3dca6eb7	0.098843984
251	0xbbc8f599	-0.006132793
252	0xbd3ec951	-0.04657871
253	0xbd3a74a1	-0.045521382
254	0xbd0d06d4	-0.03443034
255	0xbcaeea60	-0.021351993

exp_avg_sq f4 [512, 16]
0	0x3ce85245	0.028359542
1	0x3c7b7d2d	0.015349668
2	0x3dcb5bcf	0.099296205
3	0x3cb02727	0.021503044
4	0x3c5063f7	0.012719146
5	0x3d16c02e	0.03680437
6	0x3d2105c5	0.039312143
7	0x3cb97c79	0.022642361
8	0x3d9c5eaa	0.07635243
9	0x3ced0537	0.02893315
10	0x3dc62870	0.096756816
11	0x3a0d5f9e	0.0005392971
12	0x3c849534	0.016184427
13	0x3ca3d3f7	0.019998534
14	0x3ca9fc0c	0.020750068
15	0x3bc778b5	0.0060873874
16	0x3f67c7d7	0.90539306
17	0x3fce4af3	1.6116623
18	0x3edff12e	0.43738693
19	0x3fe1144b	1.7584318
20	0x3fd74869	1.6818973
21	0x3ed63733	0.4183899
22	0x3f4ebf4d	0.8076065
23	0x3f885ae4	1.0652738
24	0x3f5036f6	0.81333864
25	0x3f8c4ba9	1.096059
26	0x3f8b8975	1.0901324
27	0x3be6cb03	0.007043244
28	0x3e59482b	0.21218936
29	0x3e7ac408	0.24488842
30	0x3b5b8ab3	0.003349942
31	0x3da959d5	0.08269087
32	0x3daa3512	0.083109036
33	0x3e1def8a	0.15423408
34	0x3cf7b5cb	0.030238053
35	0x3e34f169	0.17670216
36	0x3e269f81	0.16271783
37	0x3c8d4df8	0.017249092
38	0x3c4332be	0.011913953
39	0x3d82b3d6	0.06381957
40	0x3d53a7ae	0.051673584
41	0x3d96ff47	0.07372909
42	0x3d5d65d7	0.0540522
43	0x39eb2ca4	0.00044855953
44	0x3cac4750	0.021030098
45	0x3d2ee319	0.042697046
46	0x3d0cabc2	0.03434349
47	0x3c5f0b27	0.013613499
48	0x3e216995	0.15762933
49	0x3e6461f5	0.22302993
50	0x3ed1c1b9	0.4096811
51	0x3e89f186	0.2694208
52	0x3e5be234	0.21473008
53	0x3dabbf07	0.08386045
54	0x3df81b8a	0.12114628
55	0x3e4f1891	0.20224215
56	0x3ea3bc9a	0.3197983
57	0x3e86bb48	0.2631476
58	0x3eaa64c0	0.3327999
59	0x3b0b6511	0.0021269957
60	0x3d7655e1	0.060140494
61	0x3d8ad626	0.06779127
62	0x3a84df11	0.001013728
63	0x3d6d4d80	0.057935238
64	0x3db74f0d	0.089506246
65	0x3e190711	0.14944102
66	0x3d0e4125	0.034730095
67	0x3e27a347	0.16370879
68	0x3e1a78d7	0.15085159
69	0x3d73d2ab	0.05952708
70	0x3c98b0e2	0.018639032
71	0x3db1d524	0.086832315
72	0x3d570578	0.05249545
73	0x3dd4bb1e	0.10387252
74	0x3d3d78a2	0.046257623
75	0x3a08f4b0	0.00052244496
76	0x3cbbf3dc	0.02294343
77	0x3d3ac818	0.04560098
78	0x3c085d73	0.008323061
79	0x3ca28b83	0.019841915
80	0x3ce84863	0.02835483
81	0x3d5811f4	0.052751496
82	0x3cac9f5d	0.021072084
83	0x3d78d1ce	0.06074696
84	0x3d5e78a7	0.05431428
85	0x3c08f43a	0.008359009
86	0x3cce4855	0.025180975
87	0x3c99d935	0.01878033
88	0x3d15b8ac	0.03655307
89	0x3cb7095c	0.02234333
90	0x3d47be56	0.048765503
91	0x3967935a	0.0002208477
92	0x3c1b6569	0.009484627
93	0x3ca42c31	0.020040603
94	0x3c0046c9	0.0078293765
95	0x3c01aced	0.007914764
96	0x3c90bdb4	0.017668582
97	0x3c44e059	0.012016379
98	0x3d8652d6	0.065587685
99	0x3c755821	0.014974625
100	0x3c18ef5d	0.009334412
101	0x3cb1b9f6	0.021695118
102	0x3d1e93a8	0.038715035
103	0x3cd50220	0.02600199
104	0x3d17bac5	0.03704335
105	0x3d04b474	0.032398656
106	0x3d1b6690	0.037939608
107	0x39bc9fd5	0.00035977238
108	0x3c3d7584	0.011563662
109	0x3c986fe0	0.018608034
110	0x3d09e3e6	0.033664607
111	0x3b8a6e89	0.0042246026
112	0x3e664b12	0.22489575
113	0x3ec9eecc	0.3944
114	0x3df83ccb	0.1212097
115	0x3eda7250	0.4266534
116	0x3ecf5bdc	0.4049977
117	0x3e043831	0.1291206
118	0x3dc6dd4b	0.09710177
119	0x3e59cf18	0.21270406
120	0x3e5085f0	0.20363593
121	0x3e63b559	0.22237147
122	0x3e8f1f6b	0.27953658
123	0x3aee481b	0.0018179448
124	0x3d700246	0.058595918
125	0x3da9f171	0.082980044
126	0x3cc81514	0.024424113
127	0x3d2ca6cc	0.042151257
128	0x3bb3df67	0.005489278
129	0x3bf4d2dd	0.007471426
130	0x3bf72524	0.0075422693
131	0x3c059ebd	0.008155522
132	0x3bf3662e	0.0074279523
133	0x3b211626	0.0024579852
134	0x3bed60bb	0.007244197
135	0x3be427ff	0.0069627757
136	0x3bd8660f	0.006603963
137	0x3c016916	0.00789859
138	0x3bd5bfec	0.006523123
139	0x384e21e2	4.9145783e-05
140	0x3ad952fe	0.001658052
141	0x3b00706a	0.0019598254
142	0x3be74a00	0.007058382
143	0x3a147b3d	0.0005664116
144	0x3cbf6606	0.023364078
145	0x3c3cfc09	0.011534699
146	0x3d0305aa	0.031987824
147	0x3c12a0e9	0.008949497
148	0x3c090287	0.008362419
149	0x3d23c684	0.03998424
150	0x3d402be3	0.046916854
151	0x3dd06b2b	0.10176691
152	0x3d2e645c	0.04257618
153	0x3de3f8c8	0.11131436
154	0x3cde988b	0.027172348
155	0x39904d67	0.0002752349
156	0x3c06da4d	0.008230758
157	0x3bd98c78	0.0066390596
158	0x39072c70	0.00012891158
159	0x3b5540df	0.0032539887
160	0x3d7cb055	0.0616916
161	0x3dfc0bc0	0.12306929
162	0x3d459398	0.04823646
163	0x3e0c5dea	0.137077
164	0x3dfee3e4	0.124458104
165	0x3c7dcf8e	0.015491379
166	0x3c87569a	0.016520787
167	0x3d2a1223	0.041521203
168	0x3d28a7ef	0.04117578
169	0x3d45492e	0.048165493
170	0x3d4cc1dd	0.04998957
171	0x39bf2b6b	0.00036462708
172	0x3c885367	0.016641332
173	0x3cecb6e4	0.028895803
174	0x3b2a78b3	0.0026011884
175	0x3c88b627	0.01668842
176	0x3d25f302	0.040514953
177	0x3daadafa	0.08342548
178	0x3ce14390	0.027498037
179	0x3dbc5fff	0.09197997
180	0x3dba3658	0.090923965
181	0x3c04cdf5	0.008105745
182	0x3bab0762	0.005219386
183	0x3ca868b9	0.020557748
184	0x3c80fb64	0.015744872
185	0x3cbf10bd	0.023323411
186	0x3c4c9671	0.01248704
187	0x394ba029	0.00019419253
188	0x3c0a11f4	0.008427132
189	0x3c6fe533	0.014642048
190	0x38d277ad	0.00010035872
191	0x3c395273	0.011311161
192	0x3d2ee8d2	0.042702504
193	0x3ce037f5	0.027370432
194	0x3d6d1526	0.057881497
195	0x3d014428	0.03155914
196	0x3cbc6d38	0.023001298
197	0x3d6e39b3	0.058160495
198	0x3da4600e	0.080261335
199	0x3d9100b8	0.07080215
200	0x3da9a58f	0.08283531
201	0x3d9c55b9	0.07633538
202	0x3dd6ed0a	0.1049443
203	0x3a51dcec	0.0008005637
204	0x3cba0e51	0.022711905
205	0x3cc77f32	0.024352644
206	0x39c74454	0.00038007146
207	0x3ccf1800	0.025279999
208	0x3bc84fd6	0.006113033
209	0x3c418ae8	0.011812903
210	0x3c3dc432	0.011582421
211	0x3c5674e7	0.013089395
212	0x3c3f5d61	0.011679978
213	0x3aeb8f72	0.0017971827
214	0x3a9fbf53	0.0012187756
215	0x3c16ae5d	0.009196845
216	0x3b6768a8	0.0035310183
217	0x3c1e835d	0.009674874
218	0x3b54d2e7	0.003247434
219	0x3842b36d	4.6420308e-05
220	0x3ae1cb84	0.001722679
221	0x3b2cd913	0.0026374504
222	0x3b54fe5e	0.0032500247
223	0x3a65f799	0.00087725517
224	0x3c9f3fce	0.019439604
225	0x3ce16830	0.0275155
226	0x3b8e6ca8	0.004346449
227	0x3cec0806	0.02881242
228	0x3ce97562	0.028498355
229	0x3c868049	0.016418593
230	0x3adc8cf1	0.0016826672
231	0x3ca32a86	0.019917738
232	0x3b07a440	0.0020697266
233	0x3ca8d9ec	0.020611726
234	0x3b2d7b98	0.0026471373
235	0x38a261fd	7.743014e-05
236	0x3b8a07b6	0.004212345
237	0x3bdf5f2e	0.006816766
238	0x3b9b1b82	0.004733504
239	0x3ac44080	0.0014972836
240	0x3e77924a	0.24176899
241	0x3ef64840	0.48101997
242	0x3e263bfa	0.16233817
243	0x3f02b102	0.5105134
244	0x3ef10b10	0.47078753
245	0x3d9a91aa	0.075473145
246	0x3e5328f4	0.20621091
247	0x3e5851c1	0.21124937
248	0x3e5402d5	0.20704205
249	0x3e6d067d	0.23147006
250	0x3e6be176	0.23035225
251	0x3b000ae2	0.0019537737
252	0x3d71d4aa	0.059040703
253	0x3d4732e9	0.048632536
254	0x3d5b6b4a	0.053569116
255	0x3cc2f71a	0.023799468
