Solvation_1/Runs/Macro_TESA_Lin7/ep_25.pt (torch, 915476 bytes, 21 tensors)

linear_relu_stack.0.weight f4 [512, 16]
0	0x3e852acd	0.26009217
1	0xbd9765e2	-0.073924795
2	0x3bfef3db	0.0077805347
3	0xbe429f05	-0.19005974
4	0x3d0ab599	0.03386459
5	0xbe1132f8	-0.141796
6	0xbcc88c8c	-0.02448108
7	0xbe38f77d	-0.1806316
8	0xbe2acbe8	-0.16679347
9	0xbd1f4729	-0.038886223
10	0x3e179db8	0.14806259
11	0xbe32b866	-0.17453155
12	0xbd85bab5	-0.06529752
13	0x3dc3c2b2	0.095586196
14	0x3e1400db	0.14453451
15	0xbec79ed6	-0.3898837
16	0x3d4e9e50	0.050443947
17	0x3e4c3e21	0.19945575
18	0xbe37cca9	-0.17949165
19	0xbdd31d57	-0.103083305
20	0xbc245cca	-0.010031888
21	0x3ca8f115	0.02062277
22	0x3e01b6b9	0.1266736
23	0x3ea44028	0.32080197
24	0x3eaa3b3a	0.3324831
25	0xbe5f8635	-0.2182854
26	0x3df87473	0.12131586
27	0x3d9284bf	0.071542256
28	0xbddf477a	-0.10902305
29	0x3c20eec3	0.00982255
30	0xbdd0f8fb	-0.10203739
31	0xbd81a7f5	-0.063308634
32	0xbe07df4a	-0.13268772
33	0xbd9878cd	-0.07444916
34	0xbe45974f	-0.19296001
35	0x3e25794e	0.16159555
36	0x3db3da98	0.08781928
37	0xbe1233ba	-0.14277545
38	0xbe683d95	-0.22679742
39	0xbe761488	-0.2403127
40	0x3e383319	0.17988242
41	0x3e0a2982	0.13492396
42	0xbe20a134	-0.15686494
43	0x3e347c01	0.17625429
44	0x3dbaf1ca	0.09128149
45	0x3df3ff61	0.11913944
46	0xbcda7382	-0.026666407
47	0xbe42d3aa	-0.19026056
48	0x3e08fc51	0.13377501
49	0xbd986d59	-0.074427314
50	0x3e4c6ca1	0.19963314
51	0xbdb42dde	-0.08797811
52	0xbd21205c	-0.0393375
53	0xbe6d9764	-0.23202282
54	0xbc6cd795	-0.014455696
55	0x3dcbd97d	0.09953592
56	0x3e441d84	0.19151884
57	0xbea1e919	-0.31623152
58	0x3e46221d	0.1934895
59	0x3e051316	0.12995562
60	0xbe5aa756	-0.21352896
61	0xbe092159	-0.13391627
62	0xbdc0c9c9	-0.094134875
63	0x3e5c0ba3	0.21488814
64	0xbe377edf	-0.17919491
65	0x3e4ae155	0.1981252
66	0xbe53f127	-0.20697461
67	0xbd1be0f2	-0.03805632
68	0x3bdef5ba	0.006804195
69	0x3e47f28e	0.19526121
70	0xbe04e66c	-0.12978524
71	0xbe70c78c	-0.23513621
72	0xbe2577ea	-0.16159025
73	0x3e0b38d5	0.13595898
74	0xbe64ce0d	-0.22344227
75	0x3e1c7a30	0.15280986
76	0x3e482763	0.19546275
77	0x3e57839e	0.21046302
78	0x3e1192e0	0.14216185
79	0xbe5dde61	-0.21666862
80	0xbe1a369c	-0.15059894
81	0xbe38ed70	-0.18059325
82	0x3cbc061b	0.02295213
83	0x3cee2198	0.029068753
84	0x3d8bddff	0.06829452
85	0xbdfb8761	-0.12281681
86	0x3e4ff4b4	0.2030819
87	0xbc9af1a8	-0.018914059
88	0x3dcb6d7e	0.09932993
89	0xbe84670a	-0.25859863
90	0x3d999f24	0.07501057
91	0xbe5b703f	-0.21429537
92	0x3e339673	0.1753786
93	0xbd24783c	-0.040153727
94	0x3d94ee96	0.07272069
95	0x3ca74da9	0.020422773
96	0x3e8a99c4	0.2707044
97	0xbe2e4073	-0.17016773
98	0x3c26c118	0.010177873
99	0xbd929cf2	-0.07158841
100	0xbe7d4302	-0.24732593
101	0xbe4bd689	-0.19906057
102	0x3e5b4352	0.214124
103	0xbe04b7b9	-0.1296071
104	0xbe69c41d	-0.22828718
105	0xbd0356f8	-0.03206536
106	0x3dab0c92	0.08352007
107	0x3d8a5484	0.06754401
108	0xbcea4980	-0.0285995
109	0x3e68be91	0.22728945
110	0x3e568a95	0.20951302
111	0xbe9901cc	-0.29884183
112	0x3acd3dcc	0.0015658676
113	0x3e131f9f	0.14367531
114	0xbdf98b88	-0.121848166
115	0xbe5d96e5	-0.21639593
116	0x3df0b73d	0.117537
117	0x3dc3513b	0.09536978
118	0xbe08c7f1	-0.13357522
119	0xbe188dd9	-0.1489786
120	0x3e481c00	0.19541931
121	0x3e4af38b	0.19819467
122	0x3e2dd4cb	0.16975705
123	0x3e4bf48f	0.1991751
124	0xbe827e13	-0.25486812
125	0x3e6bf6de	0.23043391
126	0x3cabb710	0.020961314
127	0xbd471f01	-0.048613552
128	0xbdc21938	-0.09477466
129	0xbe5c1f2a	-0.21496263
130	0xbda714d0	-0.081582665
131	0x3dae4270	0.08508766
132	0x3e257d8d	0.16161175
133	0xbd81a18a	-0.06329639
134	0x3de994fd	0.114053704
135	0xbd52d3b9	-0.051471446
136	0xbd83ada8	-0.06429607
137	0x3da0f471	0.078591235
138	0xbde2af40	-0.110685825
139	0xbd5907e3	-0.052986037
140	0xbe5dd8e9	-0.21664776
141	0xbd2d1809	-0.04225925
142	0x3e242499	0.16029586
143	0xbe2cabff	-0.16862486
144	0x3e2a47f6	0.16629013
145	0xbdda28bb	-0.106523
146	0x3d85a476	0.06525509
147	0xbe958763	-0.29204854
148	0xbe2cd0ce	-0.16876528
149	0x3e1f2fb3	0.1554554
150	0x3a6583d2	0.00087552995
151	0x3de8b971	0.11363495
152	0x3bdae34b	0.0066799275
153	0xbd85a99e	-0.065264925
154	0xbe9cbb1a	-0.30611497
155	0xbddbc9c1	-0.10731841
156	0xbe247afb	-0.16062538
157	0xbdf511ca	-0.119662836
158	0xbe0287fc	-0.12747186
159	0xbe82fbcd	-0.25582734
160	0xbe0ca616	-0.13735232
161	0x3e0c9160	0.13727331
162	0x3e200525	0.15626962
163	0x3cfb2e82	0.030661825
164	0xbe51be81	-0.20482828
165	0xbe03c3d2	-0.12867668
166	0xbd865a88	-0.06560236
167	0x3c14d663	0.009084317
168	0x3e39b01b	0.18133585
169	0xbe81fe9b	-0.2538956
170	0xbd210297	-0.03930911
171	0xbe6e0f8a	-0.23248115
172	0x3c195165	0.009357785
173	0xbd55aea4	-0.052168503
174	0x3dc10310	0.09424412
175	0x3cd06bdd	0.025442058
176	0xbd71a90c	-0.058999106
177	0x3b9f43ae	0.004860363
178	0x3e1da04d	0.15393181
179	0xbe361dac	-0.17784756
180	0x3e18aa3c	0.1490869
181	0xbe42ccaf	-0.19023393
182	0xbe55638d	-0.20838757
183	0xbbbd1038	-0.0057697557
184	0xbea4770c	-0.32122076
185	0xbdf12d08	-0.11776167
186	0xbdee9b1a	-0.11650677
187	0xbe390e50	-0.18071866
188	0xbdba5bd5	-0.09099547
189	0x3dd56b03	0.104208015
190	0xbe34c04b	-0.17651479
191	0x3b9678e8	0.00459205
192	0x3d9b59b9	0.075854726
193	0xbdde0139	-0.10840077
194	0xbe68979c	-0.22714084
195	0xbe2dae3f	-0.16961001
196	0xbe73b815	-0.2380069
197	0x3e13c380	0.14430046
198	0xbe5268c3	-0.20547776
199	0xbe69f5bd	-0.22847648
200	0x3d868b09	0.065694876
201	0x3e4e344b	0.20137136
202	0xbd7c4c8e	-0.061596446
203	0x3df82da3	0.121180795
204	0xbe294f36	-0.16534123
205	0xbe5cc635	-0.21559985
206	0xbdabeba2	-0.08394553
207	0x3e3a2f7d	0.18182178
208	0xbd875e12	-0.06609739
209	0x3e4fa465	0.20277555
210	0xbc7937b9	-0.015211039
211	0x3e1dc210	0.1540606
212	0xbc1c0644	-0.009522978
213	0xbe12a958	-0.14322412
214	0xbdeef71a	-0.11668225
215	0xbd5b1410	-0.05348593
216	0xbe2d64d2	-0.16932991
217	0x3dd6645a	0.10468359
218	0xbda0984f	-0.078415506
219	0x3d861634	0.06547204
220	0x3d8ec1ad	0.069705345
221	0x3e586f9a	0.21136323
222	0x3e4a027b	0.19727509
223	0x3db80ede	0.08987211
224	0x3e5500e5	0.20801122
225	0x3e7c5c9e	0.24644706
226	0x3c5f218e	0.01361884
227	0xbbe81cef	-0.0070835273
228	0x3d3ee85f	0.046608325
229	0x3d03b6db	0.032156806
230	0xbe3c0bdb	-0.18363898
231	0x3e3c52ad	0.18390913
232	0x3dc18ac7	0.09450298
233	0x3d8b7214	0.06808868
234	0xbe4790c3	-0.19488816
235	0x3b705084	0.0036669085
236	0x3df4e7eb	0.11958297
237	0x3e5d53f2	0.21614054
238	0xbd80bccb	-0.062860094
239	0x3dc02574	0.093821436
240	0x3dba3072	0.090912715
241	0x3e1dd0ad	0.15411635
242	0xbda87301	-0.0822506
243	0xbbb40f7c	-0.00549501
244	0xbd6f57f8	-0.058433503
245	0xbe53eab2	-0.20694998
246	0x3df04c5e	0.11733316
247	0x3e2a352a	0.16621843
248	0xbe470d19	-0.1943859
249	0xbe76be9b	-0.24096148
250	0x3e6c67e6	0.23086509
251	0xbe5fed70	-0.21867919
252	0xbd9aa70f	-0.07551395
253	0xbd85df87	-0.06536775
254	0x3e2fa179	0.1715144
255	0xbe569a72	-0.20957354

linear_relu_stack.0.bias f4 [512]
0	0xbe3780e7	-0.17920266
1	0x3b26956b	0.002541865
2	0x3e144d02	0.14482501
3	0xbd5fdbdd	-0.054653037
4	0x3e2594a5	0.16169985
5	0xbe174897	-0.14773785
6	0x3d998e23	0.074978136
7	0x3e1ed722	0.15511754
8	0x3e54a8b1	0.20767476
9	0xbe4b0c31	-0.1982887
10	0x3e63c00b	0.22241227
11	0xbe542a7c	-0.20719332
12	0x3e278276	0.1635836
13	0x3e6ba561	0.23012306
14	0xbe6130cc	-0.21991271
15	0xbcf09ef5	-0.029372672
16	0x3df5af9e	0.11996387
17	0xbd25966e	-0.040426664
18	0xbdb75b00	-0.08952904
19	0xbe74aa5e	-0.23893115
20	0xbdc866b5	-0.09785215
21	0xbe0da4d5	-0.1383241
22	0x3dc633ab	0.09677824
23	0xbd88b5ab	-0.066752754
24	0xbe4caf5e	-0.19988772
25	0x3d7284fb	0.05920885
26	0xbe513cb7	-0.20433317
27	0xbd20fddb	-0.039304595
28	0x3b241ce6	0.002504164
29	0x3d0afe4b	0.03393392
30	0x3e23e9fd	0.16007228
31	0x3df54f95	0.1197807
32	0xbdd0166b	-0.10160526
33	0xbdb1f12e	-0.086885795
34	0xbe4bc5d2	-0.19899681
35	0x3e7ac7c9	0.24490274
36	0xbe8b3e42	-0.27195936
37	0x3df54394	0.1197578
38	0x3e27d5a1	0.16390087
39	0xbe7260ae	-0.23669693
40	0xbdfa0cdf	-0.12209486
41	0xbdca76ed	-0.098859645
42	0xbe6894c9	-0.22713007
43	0xbe7eceb5	-0.2488354
44	0xbd12c5e1	-0.035833243
45	0x3dd0db7a	0.10198112
46	0xbe39e531	-0.18153836
47	0x3dbd1ffe	0.09234618
48	0xbc30343b	-0.01075464
49	0xbe865c99	-0.2624252
50	0xbe2ffc79	-0.17186154
51	0xbe2def13	-0.16985731
52	0xbe2cc444	-0.16871744
53	0x3de025c0	0.109447
54	0x3d92993e	0.07158135
55	0x3e0f6b68	0.14005816
56	0x3e32f77d	0.17477222
57	0xbe405ef3	-0.1878622
58	0x3e894f6c	0.26818407
59	0x3e6411cc	0.22272414
60	0xbdc6380f	-0.09678661
61	0xbe85ef60	-0.2615919
62	0x3e091e07	0.13390361
63	0xbd1b62c9	-0.037936006
64	0x3d837fdb	0.06420871
65	0xbd8b2218	-0.06793612
66	0xbd764067	-0.060120013
67	0xbd8c0911	-0.06837667
68	0xbd093b57	-0.033503857
69	0x3c51e5d1	0.01281114
70	0x3e2286c5	0.15871723
71	0xbe7995bc	-0.24373525
72	0xbcbc8e5e	-0.023017105
73	0xbe09332e	-0.1339843
74	0x3d115e2f	0.03549021
75	0x3e07871b	0.13235132
76	0x3e07bc19	0.13255347
77	0xbdfdc132	-0.12390365
78	0xbe4196ac	-0.18905133
79	0xbe11ae74	-0.14226705
80	0x3e4cc9c1	0.19998838
81	0x3d75e088	0.060028583
82	0xbd309856	-0.04311403
83	0xbe6a4689	-0.2287847
84	0xbe5c9f7b	-0.21545212
85	0xbde4b9a2	-0.11168219
86	0xbde22cd6	-0.11043708
87	0x3e07259b	0.13197939
88	0xbd70649e	-0.058689706
89	0xbe867096	-0.2625777
90	0xbdf0b9ec	-0.11754212
91	0x3dc264c6	0.09491877
92	0x3e563284	0.20917708
93	0x3e5f5da0	0.21813059
94	0x3e29525b	0.16535322
95	0x3e34e5d9	0.17665805
96	0x3d686266	0.056734465
97	0x3d8a5f12	0.067564145
98	0xbce50482	-0.027956251
99	0xbe001762	-0.1250892
100	0xbd87540c	-0.066078275
101	0xbdc71e09	-0.097225256
102	0xbddd4c22	-0.10805537
103	0xbe82c840	-0.25543404
104	0x3d7b91e3	0.061418425
105	0x3df2f7b8	0.11863655
106	0x3d990635	0.07471887
107	0x3e70f44a	0.23530689
108	0xbe3d5869	-0.18490757
109	0x3dbefcba	0.093255475
110	0x3e09d0c2	0.13458541
111	0xbd951961	-0.07280231
112	0x3c7326c8	0.014840789
113	0xbe503850	-0.20333982
114	0xbe5058c4	-0.20346361
115	0xbe196b0f	-0.14982246
116	0xbe55bcd1	-0.20872809
117	0xbda64e3e	-0.08120392
118	0xbe52fbdb	-0.20603888
119	0xbe0ed190	-0.13947129
120	0xbe4e04e6	-0.20119056
121	0xbd4de9d1	-0.050271813
122	0xbe0e6c0c	-0.13908404
123	0x3e6338ce	0.22189638
124	0xbdfcdefc	-0.123472184
125	0x3e5d2e98	0.21599805
126	0xbdef64d9	-0.11689157
127	0x3daa6369	0.08319742
128	0x3da1b63b	0.07896086
129	0xbe0607f7	-0.13088976
130	0x3e5f4147	0.21802245
131	0x3e5e27dd	0.21694894
132	0xbe31d327	-0.17365704
133	0xbe45f8a2	-0.19333127
134	0x3e445eda	0.19176808
135	0x3e4a80a4	0.19775635
136	0x3ca3fd95	0.020018378
137	0x3dc36e9e	0.09542583
138	0x3e2c14e9	0.16804852
139	0xbe32cee9	-0.17461742
140	0x3e0fb0cf	0.14032291
141	0x3df6dc3f	0.12053727
142	0xbe0c0b0d	-0.1367609
143	0x3bfd1398	0.007723283
144	0x3d050e50	0.032484353
145	0xbd8453ff	-0.064613335
146	0xbe38db41	-0.18052389
147	0x3d355798	0.04427299
148	0xbab95be7	-0.0014141769
149	0xbe87d4b1	-0.26529458
150	0xbdafba7f	-0.08580493
151	0x3e568c24	0.20951897
152	0x3d144306	0.03619673
153	0xbe425b75	-0.189802
154	0xbe16e6da	-0.147365
155	0x3e0010d4	0.1250642
156	0xbe0af2d7	-0.13569199
157	0xbd5ac9b9	-0.053415034
158	0xbdea66b0	-0.11445367
159	0x3d4e1730	0.050315082
160	0xbe163257	-0.1466764
161	0x3e5b8491	0.21437289
162	0xbcc4332e	-0.023950186
163	0xbc5495de	-0.012975184
164	0xbe739918	-0.2378887
165	0x3e659f06	0.22423944
166	0xbe3d181e	-0.18466231
167	0x3e06e5d1	0.13173606
168	0xbe3e46d5	-0.18581708
169	0xbe006d58	-0.12541711
170	0x3e0cff11	0.13769175
171	0xbc7164ed	-0.014733535
172	0x3e28b752	0.16476181
173	0x3cdafae0	0.026730955
174	0x3e34f6c2	0.17672256
175	0x3d37cb9b	0.044871908
176	0x3e06004d	0.13086052
177	0xbcb8bf5a	-0.022552181
178	0x3e540115	0.20703538
179	0x3e8015e5	0.25016704
180	0xbdb87c12	-0.090080395
181	0x3da00fbb	0.078155
182	0x3ce5f491	0.02807072
183	0xbe2a5389	-0.16633429
184	0xbe87fea8	-0.26561475
185	0x3d9fbc47	0.07799583
186	0xbe37a7f6	-0.17935166
187	0x3da9613f	0.08270501
188	0x3cc023c7	0.02345456
189	0x3d0a9608	0.033834487
190	0xbe18290b	-0.14859407
191	0xbe5065b4	-0.20351297
192	0x3db00254	0.08594194
193	0xbe242714	-0.16030532
194	0x3dbaa524	0.09113529
195	0x3e3fcd87	0.18730746
196	0x3d5f932e	0.05458372
197	0xbd9c32a2	-0.07626845
198	0xbe40a733	-0.18813781
199	0xbe26e369	-0.16297688
200	0xbdeca8ee	-0.11555658
201	0xbdf6c3c6	-0.120490596
202	0xbcc4b4e2	-0.024012033
203	0x3d8c7b2b	0.0685943
204	0x3e178fb1	0.14800908
205	0xbe481f7e	-0.19543263
206	0xbd18dedb	-0.037321907
207	0x3e04f085	0.12982376
208	0xbdd4eacf	-0.10396349
209	0xbe2f35ef	-0.17110418
210	0xbd41a7eb	-0.04727928
211	0x3e5c5dad	0.2152011
212	0xbcde0022	-0.027099673
213	0x3e42413f	0.18970202
214	0xbbdd8086	-0.006759706
215	0x3d88c532	0.06678237
216	0x3e89d065	0.26916805
217	0x3d7d5c12	0.061855383
218	0xbd954b97	-0.07289808
219	0x3e5aa256	0.21350989
220	0xbe2fb52d	-0.17158957
221	0xbe8501d0	-0.25977945
222	0x3e6d94e7	0.23201333
223	0x3e3dead4	0.18546611
224	0xbe5d1c3e	-0.21592805
225	0xbe02b38c	-0.12763804
226	0xbe443929	-0.1916243
227	0xbe047587	-0.12935458
228	0x3de5b1c1	0.112155445
229	0xbe235e16	-0.1595386
230	0x3e580d05	0.21098717
231	0x3e0912a8	0.13386023
232	0xbcaf7efd	-0.021422857
233	0x3c0136a7	0.007886565
234	0xbdf55199	-0.11978454
235	0xbe7c77e1	-0.24655105
236	0x3e12f821	0.14352466
237	0x3e681de7	0.22667657
238	0x3e47afc8	0.19500649
239	0x3e38dafa	0.18052283
240	0x3bb5141b	0.0055260784
241	0xbe1fd9c5	-0.15610416
242	0x3d2cf2a9	0.042223606
243	0xbe037fbf	-0.128417
244	0x3dc1cb86	0.09462647
245	0x3d68560b	0.056722682
246	0x3d5fe7a1	0.054664258
247	0x3e16d817	0.14730869
248	0x3e556092	0.2083762
249	0x3e20a853	0.1568921
250	0xbe209f45	-0.15685757
251	0xbd032d1c	-0.03202544
252	0xbe1c2ed2	-0.15252236
253	0xbd993273	-0.074803255
254	0x3d354e3b	0.04426406
255	0xbda9083c	-0.08253524

linear_relu_stack.2.weight f4 [128, 512]
0	0xbb9b6952	-0.00474278
1	0x3d08fa6a	0.03344194
2	0x3d086b70	0.033305585
3	0x3cfdb3b2	0.030969474
4	0xbd08e3a9	-0.03342024
5	0x3b8a3c01	0.004218579
6	0x38a0bcfb	7.664595e-05
7	0xbcb5266f	-0.022113053
8	0xbc56bfb8	-0.013107233
9	0x3ced1323	0.02893979
10	0xbcc13463	-0.02358455
11	0xbc82d4b5	-0.015970567
12	0xbd4dedb5	-0.050275523
13	0xbd228a9c	-0.03968297
14	0xb93a5f25	-0.00017773786
15	0x3d2a21af	0.04153603
16	0x3ccb6608	0.024828926
17	0xbc01fc8f	-0.00793375
18	0xbb7e402f	-0.003879558
19	0xbd1f5e2b	-0.038908165
20	0x3c65d03e	0.0140267
21	0xbcf3560e	-0.02970412
22	0x3cc477f1	0.023982974
23	0xbccdf9bd	-0.025143499
24	0xbd08cf1f	-0.03340065
25	0x3c6c64c5	0.014428322
26	0xbc25255a	-0.010079706
27	0x3c56ceb4	0.013110805
28	0xbb2bfc1e	-0.0026242803
29	0xbd562a7a	-0.052286603
30	0xbc2565e6	-0.010095095
31	0xbcb4d5fd	-0.022074694
32	0x3cf8b39f	0.030359088
33	0xbcf3ebb6	-0.029775482
34	0xbd22433d	-0.039614905
35	0x3c2948f0	0.010332331
36	0xbcfa1c0c	-0.030530952
37	0xbc9816d2	-0.01856557
38	0x3d015052	0.03157074
39	0xbc8a5ac8	-0.016888991
40	0x3d0f3d24	0.034970418
41	0x3ae51755	0.0017478267
42	0xbd1640eb	-0.036683004
43	0x3c51488a	0.012773642
44	0x3d34130d	0.04396348
45	0x3bc9c3f3	0.006157392
46	0x3c81ab53	0.015828764
47	0xbb9aff5d	-0.0047301487
48	0xbcde5fe4	-0.027145334
49	0x3d2e3ab2	0.042536445
50	0x3bf70766	0.0075387238
51	0xbcd1155f	-0.025522886
52	0xbc122f2a	-0.008922378
53	0xbc872f3b	-0.016502013
54	0x3d0e2ac2	0.034708746
55	0xbd42e6da	-0.04758344
56	0x3bf4ed8b	0.0074746064
57	0xbcdab54d	-0.02669778
58	0x39d2f95d	0.0004024011
59	0xbc36ab27	-0.011149204
60	0x3cc57858	0.024105236
61	0xbd0ae16c	-0.033906385
62	0xbb81d7b6	-0.0039624823
63	0xbc2cef52	-0.010555105
64	0xbd22963f	-0.039694067
65	0x3680ff27	3.844401e-06
66	0xbbe75b33	-0.0070604323
67	0x3cfd5748	0.030925408
68	0x3cb072e8	0.021539167
69	0x3c8e1c00	0.017347336
70	0x3c62ee25	0.013850723
71	0x3b481eb7	0.0030535886
72	0xbc7175fc	-0.014737602
73	0xbc86e6e4	-0.01646752
74	0xbd3e7d04	-0.046505943
75	0xbb7bff19	-0.003845161
76	0x3d1b8ef7	0.03797814
77	0xbce32e39	-0.027732002
78	0x3c43e951	0.011957482
79	0x3a93f452	0.0011288023
80	0x3c494d55	0.012286504
81	0x3d05db44	0.03267981
82	0x3d09085a	0.03345523
83	0xbd22d075	-0.03974958
84	0x3b1e7e07	0.0024184005
85	0xbc28fda6	-0.010314381
86	0x3ba31dd9	0.0049779234
87	0x3c83ae42	0.016074304
88	0xbc8c3916	-0.017117064
89	0x3cc3ca6d	0.023900235
90	0xbceaf8cd	-0.02868309
91	0xbcc3677b	-0.023853054
92	0x3c84ea43	0.016224986
93	0xbd595a9f	-0.05306494
94	0xbd2503f8	-0.040286988
95	0x3c8ddea1	0.017318072
96	0xbcd19572	-0.025583956
97	0x3cbc7adc	0.023007803
98	0xbc9b718f	-0.018975047
99	0xbccf6c83	-0.025320297
100	0x3c810680	0.01575017
101	0xbce0d03a	-0.02744304
102	0xbcd1f827	-0.025631024
103	0xbd0d5c5f	-0.03451192
104	0xbce248a8	-0.027622536
105	0xbb08535b	-0.0020801637
106	0xbd221531	-0.03957099
107	0xbbd23244	-0.0064146835
108	0xbcf78570	-0.030214995
109	0xbd09820d	-0.03357129
110	0xbc21faf5	-0.009886493
111	0xbccfd369	-0.025369363
112	0x3d162aa7	0.03666177
113	0x3d049ac7	0.03237417
114	0xbd060cd0	-0.032727063
115	0xbd3662c8	-0.0445278
116	0x3c89c0ce	0.01681557
117	0xbd384afe	-0.044993393
118	0xbbedebf6	-0.0072607948
119	0x3ca80acf	0.020512966
120	0xbc1e6ec4	-0.009669963
121	0x3ca3a537	0.019976242
122	0x3cd929a8	0.026509121
123	0xbc6695a4	-0.014073763
124	0x3c8c8b93	0.017156398
125	0xbcabd6f4	-0.020976521
126	0xbc922936	-0.017841917
127	0x3bf85ba1	0.0075792824
128	0x3bae3750	0.0053166524
129	0xbb83e8f1	-0.0040255715
130	0x39b21c29	0.00033971787
131	0x3cb5e22b	0.022202572
132	0xbd58ba12	-0.052911825
133	0xbcf7be52	-0.030242119
134	0xbb591b4c	-0.0033127842
135	0x3d08781c	0.03331767
136	0x3c8827d8	0.016620561
137	0xbd0dc03c	-0.034607157
138	0xbc3769f1	-0.011194692
139	0xbd416eb2	-0.047224708
140	0x3ca9b097	0.020714087
141	0xbd587d4b	-0.052853864
142	0x3cd9f8a6	0.026607823
143	0x3ca4c6c2	0.020114306
144	0xbcaec398	-0.0213335
145	0x3cdde2d6	0.027085703
146	0x3cc73bfc	0.024320595
147	0xbcdafc79	-0.026731716
148	0xbbf75480	-0.007547915
149	0xbaae8600	-0.0013315082
150	0x3b6bcebe	0.0035981382
151	0xbd198a37	-0.037485328
152	0x3c904528	0.017611101
153	0xbd13fefd	-0.036131848
154	0xbd0b3a89	-0.03399137
155	0x3b435bb7	0.0029809305
156	0xbc2e2eab	-0.010631244
157	0xbd1d146d	-0.038349558
158	0xbd12d37a	-0.03584621
159	0xbcf07685	-0.02935339
160	0x3c095620	0.00838235
161	0xbcd020ac	-0.025406204
162	0xbce85bd6	-0.028364103
163	0xbcb3f4f3	-0.021967387
164	0xbcf824f0	-0.03029105
165	0x3c0577c4	0.00814623
166	0x3cea7592	0.028620515
167	0xbccc7a80	-0.024960756
168	0xbd0d13cb	-0.034442704
169	0xbd30270f	-0.043006
170	0x3c86957a	0.016428698
171	0xbb01221c	-0.0019704169
172	0xbcdef4b1	-0.027216287
173	0x3d29c2e5	0.04144563
174	0x3c322105	0.01087213
175	0x3cd380ba	0.025818218
176	0xbcb750d1	-0.022377403
177	0x3ca4e22f	0.020127384
178	0xbc74b39a	-0.0149353985
179	0x3cbefb9f	0.023313342
180	0xbd212ed4	-0.0393513
181	0x3bbc8d6e	0.0057541644
182	0xbcbe3e6a	-0.02322312
183	0x3ce9d333	0.02854309
184	0xbb0d43cf	-0.002155531
185	0xbd0553de	-0.032550685
186	0xbc5980f8	-0.013275377
187	0xbce9363c	-0.028468244
188	0x3d034cb2	0.032055564
189	0xbb6c4940	-0.0036054403
190	0xbd3fe751	-0.04685146
191	0xbd236e7a	-0.03990028
192	0xbd401ea9	-0.04690424
193	0xbd5ae31c	-0.053439245
194	0xbc509b5d	-0.012732354
195	0xbb043fb1	-0.0020179565
196	0x3d0b92df	0.034075614
197	0x3d49e3d6	0.049289547
198	0x3d0b3ada	0.033991672
199	0x3cdd4be3	0.027013725
200	0xbc955f17	-0.018233819
201	0xbcae06dd	-0.021243507
202	0x3d0060ad	0.031342197
203	0x3c9de6ec	0.019275151
204	0xbd327253	-0.04356606
205	0x3c8a6339	0.016893016
206	0xbd0e4de5	-0.034742255
207	0x3cb620e9	0.02223249
208	0x3d1ee5b6	0.03879329
209	0xbc93438d	-0.017976547
210	0x3c84d8d8	0.01621668
211	0xbcc97d7a	-0.024595965
212	0xbbe649b9	-0.0070278314
213	0x3c52cec6	0.012866681
214	0xbcf869db	-0.030323913
215	0xbcd8c10a	-0.026459236
216	0xb972894a	-0.00023130063
217	0xbd0c823f	-0.0343039
218	0x3cc6884c	0.024234913
219	0xbbe7a22b	-0.0070688925
220	0x3c06f9e6	0.008238291
221	0xbbc15220	-0.0058996826
222	0xbc67879b	-0.014131452
223	0xbbf3f51f	-0.007444992
224	0xbd00421f	-0.031313058
225	0x3c105c64	0.00881109
226	0xbc94f7e1	-0.018184604
227	0x3cd53ddc	0.026030473
228	0x3cf99c1a	0.030469943
229	0xbb925805	-0.004466059
230	0xbc800619	-0.015627908
231	0xbd3ca361	-0.046054248
232	0x3b9a60ad	0.0047112317
233	0x3d076adc	0.033060893
234	0x3d211fc4	0.039336935
235	0xbcd70fdf	-0.026252685
236	0xbd39627c	-0.045259938
237	0x3cf7f8e0	0.03027004
238	0x3ce3af80	0.027793646
239	0xbd1cb63b	-0.038259726
240	0xbd001e4d	-0.031278897
241	0xbc7aa3b1	-0.015297816
242	0x3cc9906e	0.024605002
243	0xbcc98591	-0.024599822
244	0x395c4ebd	0.00021010167
245	0x3b5039b3	0.0031772673
246	0xbab36772	-0.0013687445
247	0xbd319c5c	-0.043362007
248	0xbd3af197	-0.045640554
249	0x3d123265	0.03569259
250	0x3b1977ee	0.002341743
251	0xbc94081c	-0.018070273
252	0x3cfa66ea	0.030566651
253	0xbcf1d63c	-0.0295211
254	0x3c95c6f3	0.018283343
255	0x3bd3e6c0	0.0064667165

linear_relu_stack.2.bias f4 [128]
0	0xbd4bc0ca	-0.049744405
1	0xbceeda0c	-0.029156707
2	0xbbf5a93e	-0.007496982
3	0x3d022831	0.03177661
4	0x3d4a9fbb	0.049468737
5	0x3c015278	0.007893197
6	0xbbe4604f	-0.0069694887
7	0x3ce1a899	0.027546214
8	0x3cb49052	0.022041474
9	0x3c185b27	0.009299076
10	0xbca2310f	-0.019798784
11	0x3b2fc166	0.0026818155
12	0xbcc67089	-0.024223583
13	0xbc56097c	-0.013063785
14	0x3c950af9	0.018193709
15	0xbd4c3fd6	-0.049865566
16	0x3d4dbc57	0.050228443
17	0x3ceecac8	0.029149428
18	0x3d25715a	0.040391304
19	0x3ce1f170	0.027580947
20	0x3d418843	0.04724909
21	0x3d0d19a0	0.034448266
22	0x3c9ed1e6	0.019387197
23	0xbce72d80	-0.028219938
24	0xbbc6ff1b	-0.0060728914
25	0xbc17de09	-0.009269246
26	0xbbe15532	-0.006876611
27	0x3c225453	0.0099078
28	0x3d54a616	0.051916204
29	0x3d2badd9	0.04191384
30	0x3d456bba	0.04819844
31	0x3c9648ae	0.018345203
32	0xbd333a16	-0.043756567
33	0x3ce31c93	0.027723586
34	0xbc1ebf0c	-0.009689104
35	0xbc13303d	-0.008983669
36	0x3c243fd9	0.010024988
37	0xbbd27ee9	-0.0064238203
38	0x3cef813b	0.029236427
39	0x3ccaac8b	0.024740478
40	0x3d54a8cf	0.0519188
41	0xbd41de70	-0.047331274
42	0xbc948d29	-0.018133717
43	0x3c6b6dba	0.014369423
44	0x3cf721cc	0.030167483
45	0x3c060892	0.008180754
46	0x3c92434c	0.017854355
47	0xbcd0c901	-0.025486471
48	0xbbeb876c	-0.0071877744
49	0x3ba2154f	0.004946388
50	0x3d308738	0.043097705
51	0x3d14aa03	0.03629495
52	0xb9f45447	-0.00046602098
53	0xbc7e07d5	-0.015504797
54	0x3d5f96b5	0.054587085
55	0xbd467a1b	-0.048456293
56	0xbd393d37	-0.045224395
57	0x3d1f5a29	0.038904343
58	0xbc3f3b4a	-0.01167185
59	0xbcbd7876	-0.02312873
60	0x3cb44da8	0.022009686
61	0xbd415e83	-0.047209274
62	0xbc79e85e	-0.015253155
63	0x3cc23077	0.02370475
64	0xbd28bda8	-0.041196495
65	0xbcd0e510	-0.02549985
66	0xbc148af4	-0.009066332
67	0xbc6dc1f9	-0.014511579
68	0xbd103a84	-0.035212055
69	0xbc371c61	-0.0111762
70	0xbb34f8f8	-0.0027614217
71	0x3cc4a537	0.024004562
72	0xbcba5b7b	-0.0227487
73	0x3c13cc1d	0.009020832
74	0xbd2a0699	-0.0415102
75	0xbca25a47	-0.019818438
76	0xbbb30105	-0.005462768
77	0x3c1983aa	0.00936977
78	0xbcaa41de	-0.020783361
79	0x3cf431a4	0.029808827
80	0x3cd6ca37	0.02621947
81	0xbd4fb8b3	-0.050713252
82	0xbc3f4962	-0.011675211
83	0xbcd2fc13	-0.025754964
84	0xbd07bcbc	-0.033138976
85	0x3c60e518	0.013726495
86	0xbb5a7ae9	-0.003333742
87	0x3cd75277	0.02628444
88	0x3c51c3f2	0.012803065
89	0x3c2c8eb7	0.010532073
90	0xbbf63071	-0.007513099
91	0x3cc33c9c	0.023832612
92	0x3c60837e	0.013703225
93	0x3ceaeb46	0.02867664
94	0x3cf53612	0.02993301
95	0x3cbfe550	0.023424774
96	0x3d666d95	0.05625685
97	0xbd35edeb	-0.04441635
98	0x3ce5b78d	0.028041625
99	0xbc17bb83	-0.009261015
100	0x3d04312e	0.032273464
101	0x3cd370d6	0.02581064
102	0x3cf6af2b	0.030112823
103	0xbadc025a	-0.0016785369
104	0xbd33ea3b	-0.04392455
105	0xbcd7cec8	-0.026343718
106	0x3d5123ab	0.051059406
107	0xbd25ee3b	-0.040510397
108	0x3d495f26	0.049163006
109	0x3c9f9487	0.019480003
110	0xbce95c22	-0.028486315
111	0x3d30d12d	0.043168236
112	0xbb2337e6	-0.0024905144
113	0x3bbcf514	0.0057665203
114	0xbae81531	-0.0017706511
115	0x3d055de2	0.032560237
116	0xbbd53777	-0.006506856
117	0xbca5933f	-0.020211814
118	0x3d0b14cf	0.03395539
119	0x3ce9c312	0.0285354
120	0xbcc086fe	-0.02350187
121	0x3d0af5a3	0.033925664
122	0xbd108e63	-0.03529204
123	0xbcb9aab9	-0.022664415
124	0x3d0bdc32	0.03414554
125	0xbd450678	-0.048101872
126	0x3c97638b	0.018480083
127	0x3c14f4c4	0.00909156

linear_relu_stack.4.weight f4 [10, 128]
0	0xbd4f978e	-0.050681643
1	0xbc8047c6	-0.015659224
2	0x3dcdba67	0.10045319
3	0x3d1c8a56	0.038217865
4	0xbd772cf2	-0.060345598
5	0x3e097088	0.13421834
6	0x3c5f9e4d	0.013648582
7	0x3d4e118d	0.050309706
8	0x3d1286e0	0.035773158
9	0x3deacfc8	0.114654124
10	0x3c71f0b9	0.014766865
11	0x3e0ef91a	0.13962212
12	0x3be54018	0.006996166
13	0x3daeba09	0.08531577
14	0x3d8bf4d6	0.06833808
15	0xbd7d92ac	-0.061907455
16	0x3dafe035	0.08587686
17	0x3d36a039	0.044586394
18	0xbd93a813	-0.07209792
19	0x3b894ec0	0.004190296
20	0x3cc0df8f	0.023544101
21	0xbd6955b0	-0.056966484
22	0x3d740e90	0.0595842
23	0xbd786dff	-0.060651775
24	0x3d5ad558	0.053426117
25	0xbdc08b0c	-0.09401521
26	0x3e3558c2	0.1770964
27	0xbd9d0898	-0.07667655
28	0x3e2ca983	0.16861539
29	0xbd9e3d51	-0.07726539
30	0x3d8438a2	0.06456114
31	0x3db3423d	0.08752868
32	0xbd67bcca	-0.056576528
33	0xbdbaad42	-0.091150776
34	0xbd3e8f3b	-0.046523314
35	0xbdb6026a	-0.08887179
36	0xbd2c57f8	-0.04207608
37	0xbd61a335	-0.055087287
38	0x3c026e21	0.007960827
39	0x3df071d1	0.11740459
40	0x3dc2ec74	0.09517756
41	0x3c9e6205	0.019333849
42	0xbd7f28ea	-0.062294878
43	0x3cc589db	0.024113586
44	0x3d5e156f	0.05421966
45	0x3e001e9b	0.12511675
46	0x3d2a54e3	0.04158486
47	0x3cc43d83	0.023955112
48	0xbd83eee7	-0.064420514
49	0x3ce37fd3	0.027770912
50	0x3d9014d8	0.07035226
51	0xbcfa497f	-0.030552624
52	0xbd5b78f8	-0.05358216
53	0x3c71b840	0.014753401
54	0xbd617658	-0.055044502
55	0x3d0e98c4	0.034813657
56	0xbcbeb6aa	-0.02328046
57	0x3e02cd6f	0.12773679
58	0x3cfa2700	0.030536175
59	0xbc69bcae	-0.014266176
60	0xbd8966b2	-0.06709041
61	0x3d968493	0.07349505
62	0xbd6004b0	-0.05469197
63	0x3d478893	0.04871423
64	0x3d2de416	0.042453848
65	0xbd2b159d	-0.04176866
66	0xbc4e373f	-0.012586414
67	0xbd8d944e	-0.069130525
68	0x3d3543cc	0.04425411
69	0xbdce400b	-0.10070809
70	0xbd3140d5	-0.04327472
71	0x3d94aae9	0.07259161
72	0x3d18114c	0.03712587
73	0x3e0e97b4	0.13925058
74	0x3dab6b80	0.083701134
75	0x3d8cf0bd	0.06881855
76	0xbd17e038	-0.037079066
77	0xbd8bd2ec	-0.068273395
78	0x3e132ce0	0.14372587
79	0xbd981805	-0.07426456
80	0x3db3501e	0.087555155
81	0xbd8a09ff	-0.06740188
82	0x3d0cb432	0.034351535
83	0xbd0dd703	-0.03462888
84	0x3cf8b9ba	0.030361999
85	0x3df1e5f4	0.11811438
86	0xba4ab9ff	-0.0007733404
87	0x3bf51160	0.007478878
88	0xbd1a39d0	-0.03765279
89	0x3d51da6d	0.051233698
90	0xbd8b9e80	-0.06817341
91	0xbd8b93fc	-0.06815335
92	0x3d806b11	0.06270421
93	0x3da2b3c9	0.079444475
94	0xbd676570	-0.056493223
95	0x3d4a7d41	0.049435858
96	0xbd2ec439	-0.0426676
97	0x3e31e9c9	0.17374338
98	0xbd33c5ff	-0.043889996
99	0xbdcad9ec	-0.099048465
100	0x3d333be9	0.043758307
101	0xbdf5cab0	-0.1200155
102	0xbd75dad0	-0.06002313
103	0x3d34fbe5	0.044185538
104	0xbd632317	-0.055453386
105	0xbd375e7a	-0.044767834
106	0xbcfb1a97	-0.030652327
107	0x3c42283d	0.011850414
108	0xbcd79870	-0.026317805
109	0xbdbbb6da	-0.091657355
110	0xbda5d28b	-0.080967985
111	0x3d3c68d7	0.04599842
112	0xbd1d83dc	-0.03845583
113	0xbcfc08c5	-0.0307659
114	0x3c518424	0.012787852
115	0xbdaa88f1	-0.08326901
116	0xbcb09558	-0.021555588
117	0x3dfabc4b	0.12242945
118	0xbd2b7d51	-0.041867558
119	0x3d22f0e9	0.03978053
120	0x3d2cbd18	0.04217252
121	0x3d49099c	0.04908143
122	0x3d81e0af	0.06341683
123	0xbc653623	-0.013989958
124	0xbcef99e8	-0.029248193
125	0x3c0fa448	0.008767195
126	0x3d798cc9	0.06092528
127	0xbca95545	-0.020670542
128	0x3d016a9a	0.031595804
129	0x3c69eb40	0.014277279
130	0xbd37be5b	-0.04485927
131	0x3d6f1447	0.058368947
132	0xbd2614b1	-0.040547077
133	0xbd95224a	-0.07281931
134	0x3d6c0d65	0.05762996
135	0xbdb202ff	-0.08691978
136	0x3d16e8c4	0.036843076
137	0x3d8f2568	0.069895566
138	0xbd2184dd	-0.03943335
139	0xbae60044	-0.0017547687
140	0xbdb1c555	-0.08680216
141	0x3a408780	0.000734441
142	0x3d6e812c	0.058228657
143	0x3d132e08	0.03593257
144	0xbd8b5057	-0.06802433
145	0xbcfcbed7	-0.030852718
146	0xb7830bc6	-1.56219e-05
147	0x3c76a915	0.015054961
148	0xbd634fd1	-0.05549604
149	0xbda5715a	-0.08078261
150	0x3d4ebbed	0.05047219
151	0xbcc3311a	-0.023827124
152	0xbd9da963	-0.076983236
153	0x3d964ef8	0.07339281
154	0x3d7afd63	0.061276805
155	0x3c465b3e	0.012106715
156	0x3c9e024d	0.019288206
157	0xbbcde7ac	-0.006283721
158	0x3ceb326a	0.028710563
159	0x3d0a5061	0.03376806
160	0x3d481205	0.04884531
161	0x3c88d1e0	0.016701639
162	0xbd649d02	-0.055813797
163	0xbcd976c2	-0.026545886
164	0xbdb92712	-0.09040655
165	0x3c7a9a9e	0.015295653
166	0xbdbbfe14	-0.09179321
167	0xbdb5bf3c	-0.08874366
168	0xbd88f68c	-0.0668765
169	0xbd547611	-0.05187041
170	0x3da08d4f	0.078394525
171	0xbd956f46	-0.07296614
172	0x3cf246f0	0.029574841
173	0x3c9e6fb9	0.019340383
174	0x3c03b5b8	0.008038931
175	0x3c67fa00	0.014158726
176	0x3cc89e0e	0.024489429
177	0xbd525fa6	-0.05136075
178	0xbdb491c6	-0.088168666
179	0x3d1e998e	0.03872066
180	0xbd9e80d6	-0.07739417
181	0xbd61d5ce	-0.05513554
182	0x3d3ee5e2	0.046605952
183	0x3cdc12bc	0.026864402
184	0xbbb85230	-0.005625032
185	0x3d1b588d	0.037926245
186	0xbd885b9c	-0.06658098
187	0xbd1db7bf	-0.038505312
188	0xbcdef9a4	-0.027218647
189	0xbd045cec	-0.03231518
190	0xbae54b1c	-0.0017493698
191	0xbdc24ffa	-0.094879106
192	0x3c5f2c1f	0.013621359
193	0x3c9f4459	0.01944177
194	0xbcc68f08	-0.024238124
195	0x3ca7b86a	0.020473678
196	0x3c94fa20	0.018185675
197	0x3c734945	0.014849012
198	0xbc4a5b18	-0.01235082
199	0xbd4d9606	-0.0501919
200	0x3d77a822	0.06046308
201	0xbd8fe978	-0.070269525
202	0xbd91acdf	-0.07113051
203	0xbb8a955b	-0.0042292303
204	0x3d8f023e	0.069828495
205	0xbd0182f2	-0.03161902
206	0x3daec5cf	0.08533823
207	0xbd5b9bed	-0.0536155
208	0xbd9a3f0f	-0.07531559
209	0x3b883113	0.0041562407
210	0x3ce5d3e8	0.028055146
211	0xbd1a5d50	-0.037686646
212	0xbdb22677	-0.08698743
213	0xbc79b4c0	-0.015240848
214	0x3b5e7d73	0.0033949285
215	0xbdac6d63	-0.08419301
216	0xbd98e576	-0.07465641
217	0xbd35289a	-0.044228174
218	0xbda05ee0	-0.07830596
219	0xbba5f8fe	-0.0050650826
220	0xbc5f12cd	-0.013615322
221	0xbd834e6f	-0.064114444
222	0xbb27ce66	-0.00256052
223	0xbdaf5a41	-0.085621364
224	0x3d6b08a6	0.057381295
225	0x391aaadc	0.00014750235
226	0x3cdfea36	0.02733336
227	0x3daa48f6	0.083146974
228	0x3d9d80ba	0.07690568
229	0xbd353b3c	-0.044245943
230	0x3c119531	0.008885668
231	0xbd2b9b77	-0.04189631
232	0x3bb24606	0.0054404764
233	0xbd2778b2	-0.04088659
234	0xbd086ed3	-0.033308815
235	0xbd9dd5f6	-0.077068254
236	0x3d978abb	0.073995076
237	0x3bdb2a68	0.006688405
238	0x3d3093b6	0.043109618
239	0xbd92de8f	-0.07171356
240	0x3d89fa90	0.06737244
241	0x3cd04f71	0.025428506
242	0x3c96954c	0.018381737
243	0xbcbea2c0	-0.023270965
244	0x3d6a5830	0.05721301
245	0x3d07f6d6	0.033194385
246	0x3d8aed6c	0.06783566
247	0x3ccd7bae	0.02508339
248	0xbd34de3c	-0.04415725
249	0x3d439a32	0.047754474
250	0x3d296721	0.041358117
251	0x3da6565f	0.08121943
252	0x3d2408da	0.040047504
253	0xbcbec470	-0.023287028
254	0xbd907ee3	-0.07055452
255	0x3a3e3441	0.0007255711

linear_relu_stack.4.bias f4 [10]
0	0x3cd90ec4	0.026496299
1	0xbd8aa7cf	-0.06770288
2	0xbcdbd06a	-0.026832778
3	0xbd10889e	-0.03528654
4	0x3d990a75	0.07472698
5	0xbcd609e8	-0.02612777
6	0x3d934207	0.07190328
7	0xbbe34928	-0.006936211
8	0x3d0f4818	0.034980863
9	0x3d331235	0.043718535

linear_relu_stack.6.weight f4 [1, 10]
0	0xbea7a9d3	-0.32746753
1	0xbe4fa5f9	-0.20278157
2	0x3ae1c59b	0.0017225029
3	0xbe5ddd42	-0.21666434
4	0xbe8558e0	-0.2604437
5	0x3eb29f59	0.34887198
6	0xbd051af6	-0.032496415
7	0x3dac07b1	0.083999045
8	0xbe4451dc	-0.19171852
9	0xbe11a826	-0.142243

exp_avg f4 [512, 16]
0	0xbcccb43a	-0.024988282
1	0x3c7dcc6a	0.015490631
2	0x3d7437c9	0.059623513
3	0x3a80c75f	0.0009825042
4	0x3c47c364	0.012192581
5	0x3d8a556c	0.06754574
6	0xbdba28c6	-0.09089808
7	0x3d489f0c	0.048979804
8	0x3d00a4f7	0.031407323
9	0x3d84c1f7	0.06482308
10	0x3c5bdae7	0.01341889
11	0x3b6cca00	0.0036131144
12	0xbc2a85fa	-0.010407919
13	0xbd69c901	-0.057076458
14	0xbe5a53c6	-0.2132102
15	0x3ce29933	0.027660942
16	0x3e2868b9	0.16446199
17	0xbe9a0f98	-0.30090022
18	0xbe29c4b1	-0.16578938
19	0xbe808216	-0.25099248
20	0xbe8def97	-0.27721855
21	0xbdc92b68	-0.09822732
22	0x3e9e6843	0.3093892
23	0x3be3d239	0.0069525507
24	0xbb0891e8	-0.002083892
25	0x3d5c15af	0.053731617
26	0x3d947ed8	0.07250756
27	0xbab0cdc5	-0.0013489058
28	0xbdc5fe6e	-0.09667669
29	0x3bb6e0ff	0.005581021
30	0xbb5a3d52	-0.003330071
31	0xbd5f162d	-0.054464508
32	0xbd97c1ee	-0.07410036
33	0x3df07347	0.117407374
34	0xbb568ff6	-0.0032739616
35	0x3dfb9b28	0.12285453
36	0x3dc58c59	0.0964591
37	0xba8b77ab	-0.0010640522
38	0xbc13758a	-0.009000191
39	0x3b4f59b3	0.0031639158
40	0xbd019df8	-0.03164479
41	0xbbe97050	-0.0071239844
42	0xbd0c789e	-0.034294717
43	0xbb2bc256	-0.0026208363
44	0xbcb5482c	-0.02212914
45	0xbcefcd38	-0.02927266
46	0xbea56351	-0.32302335
47	0x3d158868	0.03650704
48	0x3d732461	0.059360866
49	0xb9629250	-0.00021607545
50	0xbb237e05	-0.002494694
51	0xbcd7f8e8	-0.026363805
52	0xbd6b79d1	-0.05748922
53	0xbda7b99b	-0.08189698
54	0x3d9d0a33	0.07667961
55	0x3cca6a2c	0.02470883
56	0xbc8df27b	-0.017327538
57	0x3d480a81	0.048838142
58	0xbc61f0ca	-0.013790319
59	0xbb9e393f	-0.0048286016
60	0xbdc42a2a	-0.09578355
61	0xbd338d72	-0.043836065
62	0xbbbccb0a	-0.005761509
63	0xbdbe1c8b	-0.09282788
64	0xbd6c234d	-0.057650853
65	0x3d753f33	0.059874725
66	0xbbb53c6d	-0.005530885
67	0x3da63ec7	0.081174426
68	0x3d60af30	0.05485457
69	0xbb7dea25	-0.0038744297
70	0xbca6e4cd	-0.020372773
71	0x3d325f34	0.043547824
72	0x3d00b59b	0.031423192
73	0x3d3b79f3	0.045770597
74	0x3cd0c778	0.02548574
75	0x3a832929	0.0010006774
76	0x3c9510ef	0.018196551
77	0x3c9cd686	0.019145261
78	0xbdf49631	-0.11942709
79	0x3d1773ca	0.03697566
80	0x3d577dbb	0.05261014
81	0xbcc33dce	-0.023833182
82	0xbd34e2e1	-0.04416168
83	0xbc829f4c	-0.0159451
84	0xbceebd0e	-0.029142883
85	0xbb1e6844	-0.0024171034
86	0x3d66b506	0.05632498
87	0x3b8bd932	0.004267835
88	0x3bcfe1f0	0.0063440725
89	0x3bfe7119	0.007764947
90	0x3c86a708	0.016437069
91	0xb839f57d	-4.4336066e-05
92	0xbc0a1ba4	-0.008429442
93	0x3c88e796	0.016711991
94	0x3e45ae12	0.19304684
95	0xbd1390dc	-0.03602682
96	0xbd3d809c	-0.04626523
97	0x3c29a050	0.010353163
98	0x3ce59de4	0.02802939
99	0x3c520b73	0.0128201125
100	0x3d272479	0.040806267
101	0x3cfb1294	0.030648507
102	0xbda31acd	-0.07964096
103	0xbc47e4b1	-0.01220052
104	0x3cfdad87	0.030966533
105	0x3c23f0b9	0.010006123
106	0x3c9fa4ce	0.019487765
107	0x3bf4d012	0.007471093
108	0x3b5b4e7f	0.0033463535
109	0xbd21c08e	-0.039490275
110	0xbeac08de	-0.33600515
111	0x3d47ed6c	0.048810408
112	0xbd4935d7	-0.04912361
113	0x3df14ec9	0.11782605
114	0x3a637228	0.00086763734
115	0x3e0ebec5	0.1393996
116	0x3df2afe3	0.11849954
117	0x3d18b938	0.037286013
118	0xbd1addc7	-0.03780916
119	0x3c3d1d3b	0.011542614
120	0xbc836243	-0.016038066
121	0xbbab5ad8	-0.0052293353
122	0xbcfccf39	-0.03086053
123	0xba9a30e1	-0.0011763835
124	0xbac531ab	-0.001504471
125	0xbcc60a77	-0.024174912
126	0xbe2be0b4	-0.16784936
127	0x3c94d7c3	0.01816929
128	0xbcfdddb0	-0.030989498
129	0x3c761968	0.015020706
130	0x3c709fc2	0.014686527
131	0x3c08e671	0.008355723
132	0x3c91d656	0.017802399
133	0xba69e977	-0.00089230336
134	0xbc7f0b0d	-0.0155666
135	0x3c9e341f	0.019311963
136	0x3c0b809b	0.008514549
137	0x3cf38b4d	0.02972951
138	0x3bbb3c96	0.0057140095
139	0x3636a9c4	2.721893e-06
140	0xbc65410b	-0.013992558
141	0xbceef6fd	-0.029170508
142	0xbe089e7b	-0.13341706
143	0x3bb752e4	0.005594598
144	0xbd185e79	-0.03719947
145	0xbba19ee7	-0.0049322727
146	0x3bf23208	0.007391218
147	0xbd0c10c6	-0.034195684
148	0xbc8af6b0	-0.016963333
149	0xbd2d19da	-0.042260982
150	0x3d01c56b	0.031682413
151	0x3d62941a	0.055317022
152	0xbc21d80b	-0.009878169
153	0x3d912d30	0.07088697
154	0xbc76cf14	-0.01506402
155	0xbb0576b6	-0.0020364947
156	0xbcc15d65	-0.023604104
157	0xbc99c6a9	-0.018771486
158	0xbb3152d4	-0.0027057426
159	0xbc5f51fd	-0.013630387
160	0x3d76ea87	0.060282256
161	0xbda9ae30	-0.08285177
162	0xbb9239f7	-0.0044624764
163	0xbdd2d55c	-0.10294601
164	0xbdcaa71e	-0.09895156
165	0xbc8a1cf8	-0.016859517
166	0x3cfe4d95	0.031042853
167	0xbc37f0f2	-0.011226879
168	0xbad18c6b	-0.0015987282
169	0xbb043b93	-0.002017711
170	0x3c5ca560	0.013467163
171	0xba239191	-0.00062396476
172	0xbcc78380	-0.024354696
173	0xbc890945	-0.016728053
174	0x3df02a10	0.11726773
175	0xbd121374	-0.035663083
176	0x3cce7d74	0.025206305
177	0xbd5f53d3	-0.0545233
178	0x3d10ebc3	0.03538109
179	0xbdbd3b1e	-0.09239791
180	0xbd4fafee	-0.05070489
181	0xbc3b6515	-0.011437674
182	0xbb0e9bff	-0.0021760461
183	0x3d2993e2	0.041400798
184	0xb9a5fa1b	-0.00031657596
185	0x3d58701e	0.0528413
186	0xbc4fdc1f	-0.012686758
187	0xbaec0b79	-0.001800879
188	0xbd2e259b	-0.042516332
189	0xbd526614	-0.05136688
190	0xbb0654a2	-0.0020497222
191	0xbd01433a	-0.031558253
192	0xbd1e2e81	-0.03861857
193	0x3c8bdf78	0.017074332
194	0xbcecf139	-0.028923618
195	0x3c7994d6	0.015233239
196	0x3cf08e8e	0.02936485
197	0x3d2fd74a	0.042929925
198	0xbcf589e6	-0.029972982
199	0xbd4c9c74	-0.049953893
200	0x3cbd4a87	0.023106826
201	0xbd6d3fc8	-0.057922155
202	0x3cd48c99	0.025945948
203	0x3b0936ce	0.0020937207
204	0x3da31e8d	0.079648115
205	0x3d470c7d	0.048595894
206	0x3b4c52ec	0.0031177355
207	0x3d8a4de1	0.067531355
208	0xbc3bbdfd	-0.011458871
209	0x3d0e676d	0.034766603
210	0xbbf9ba80	-0.0076211095
211	0x3d3605de	0.04443919
212	0x3ce9f97d	0.028561348
213	0x3bc90231	0.0061342944
214	0xbb4408cd	-0.0029912472
215	0xbc153781	-0.009107471
216	0x3c2d4a54	0.010576803
217	0xbc1e97c9	-0.009679743
218	0x3c47849a	0.012177611
219	0x399f0abd	0.00030334844
220	0x3a77165c	0.0009425634
221	0xbb77a1e8	-0.0037785713
222	0xbd82fa0e	-0.063953504
223	0x3c08436b	0.008316855
224	0x3c74a137	0.014931015
225	0xbc3e9be9	-0.011633852
226	0xbaf98fde	-0.0019040068
227	0xbc9108b8	-0.017704353
228	0xbc224b1b	-0.009905602
229	0x3be4c978	0.0069820248
230	0x398eabbd	0.00027212306
231	0xbc304782	-0.010759236
232	0xbc602c39	-0.0136824185
233	0xbc6d0ecd	-0.014468861
234	0xbc01e027	-0.007926977
235	0x392836df	0.0001604217
236	0x3b8defd7	0.0043315697
237	0x3cd2a6bf	0.025714276
238	0x3e01ff02	0.12694934
239	0xbc556bed	-0.01302622
240	0x3e069f5f	0.13146733
241	0xbddb3052	-0.10702576
242	0xbbd7170c	-0.0065640267
243	0xbdebd5ea	-0.1151541
244	0xbdfb6261	-0.12274624
245	0xbcd2103b	-0.025642505
246	0x3e175d8d	0.1478178
247	0xbd73635b	-0.059420925
248	0xbd210e04	-0.039320007
249	0xbd4bd375	-0.049762208
250	0xbcfc6694	-0.030810632
251	0xbb320e41	-0.002716914
252	0x3b2af215	0.0026084234
253	0x3d6cfd50	0.057858765
254	0x3e982d6f	0.29722163
255	0xbd0b8eff	-0.03407192

exp_avg_sq f4 [512, 16]
0	0x3c24aebe	0.010051427
1	0x3bb83e50	0.0056226626
2	0x3d0a9474	0.033832982
3	0x3bcff082	0.0063458094
4	0x3b8eb520	0.004355088
5	0x3c233db7	0.009963444
6	0x3cd32b92	0.025777612
7	0x3c47a48e	0.012185229
8	0x3cc4bd3b	0.024016013
9	0x3c74db28	0.014944829
10	0x3cdf95b1	0.027293058
11	0x39229aae	0.00015507147
12	0x3bf424a4	0.007450657
13	0x3c7db0e3	0.015484068
14	0x3d90169f	0.07035565
15	0x3adc79dd	0.0016820986
16	0x3e17a32c	0.14808339
17	0x3e690864	0.22757107
18	0x3df72d56	0.12069194
19	0x3e71f689	0.23629202
20	0x3e6587f4	0.22415143
21	0x3dd316a6	0.10307054
22	0x3e8b1b55	0.2716929
23	0x3e34e808	0.17666638
24	0x3e4185bf	0.18898676
25	0x3e3574ce	0.17720339
26	0x3e841961	0.25800613
27	0x3ab123c8	0.0013514692
28	0x3d2961a9	0.0413529
29	0x3d6305df	0.05542552
30	0x3a25f5c3	0.0006330872
31	0x3c85cce9	0.01633306
32	0x3d099e78	0.033598393
33	0x3d8795d2	0.06620373
34	0x3c7f3590	0.015576735
35	0x3d98b0ac	0.074555725
36	0x3d8d2670	0.06892097
37	0x3bf6f560	0.007536575
38	0x3ba14fdb	0.0049228496
39	0x3cf64420	0.030061781
40	0x3cd74957	0.026280088
41	0x3d07ee4b	0.03318624
42	0x3ce9ae91	0.028525623
43	0x394e7161	0.00019687928
44	0x3c8442c8	0.016145125
45	0x3d0db8a4	0.034599915
46	0x3e0e0aae	0.13871261
47	0x3bd65fe6	0.0065421937
48	0x3d3e4f73	0.046462487
49	0x3d8b771b	0.06809827
50	0x3dfa32e3	0.12216737
51	0x3da995da	0.08280535
52	0x3d86137a	0.065466836
53	0x3d0444bc	0.032292113
54	0x3d82e4d5	0.063913025
55	0x3d45aa9f	0.04825842
56	0x3dc7f91f	0.09764313
57	0x3d56c917	0.052437868
58	0x3dfa7632	0.12229575
59	0x3a2b2933	0.00065292715
60	0x3cb41dd2	0.021986876
61	0x3cd0d646	0.025492799
62	0x39a5b828	0.0003160846
63	0x3c973ce0	0.018461645
64	0x3cd73a41	0.026272895
65	0x3d1895ea	0.037252344
66	0x3c4dae94	0.01255383
67	0x3d2242c9	0.039614473
68	0x3d1583cb	0.03650264
69	0x3caa3f98	0.020782277
70	0x3c1526ca	0.009103486
71	0x3cc9b8e9	0.024624305
72	0x3c90849f	0.017641364
73	0x3ce8abde	0.028402265
74	0x3c7d5565	0.015462254
75	0x3931b1c1	0.00016946254
76	0x3c1eeb0f	0.009699597
77	0x3ca77324	0.020440646
78	0x3d2c02a1	0.041994695
79	0x3baebe96	0.005332778
80	0x3c542e4f	0.012950494
81	0x3cb76124	0.022385187
82	0x3c78decc	0.015189838
83	0x3cd2ddce	0.02574053
84	0x3cb8c685	0.022555599
85	0x3b8cc66b	0.004296114
86	0x3ca85445	0.020547995
87	0x3c4ac633	0.012376356
88	0x3ca2f187	0.01989056
89	0x3c63e8f6	0.013910523
90	0x3ccc9253	0.024972117
91	0x38f19908	0.0001152028
92	0x3bece1f8	0.007229086
93	0x3c6a3178	0.014294021
94	0x3d6bcd47	0.057568815
95	0x3b8997f4	0.0041990224
96	0x3cbc43a8	0.02298148
97	0x3c4cc0d4	0.012497146
98	0x3d576ca4	0.052593842
99	0x3c47264b	0.012155126
100	0x3c1e0e98	0.009647034
101	0x3cbd7cf5	0.023130873
102	0x3d5b5058	0.05354342
103	0x3cd36aae	0.025807705
104	0x3d02379b	0.03179131
105	0x3cff8ffe	0.03119659
106	0x3d00b918	0.03142652
107	0x39a31368	0.00031104241
108	0x3c814783	0.01578117
109	0x3d0515ef	0.03249162
110	0x3e26b04a	0.16278186
111	0x3ba7cb18	0.005120646
112	0x3c4e2f80	0.012584567
113	0x3cc70a44	0.024296887
114	0x3c31a7d7	0.010843239
115	0x3cceaa3d	0.02522766
116	0x3cbcb482	0.023035292
117	0x3bf77718	0.007552039
118	0x3c0a6ad2	0.0084483195
119	0x3c4075f7	0.011746875
120	0x3c879049	0.016548293
121	0x3c4555b9	0.012044364
122	0x3cb6e7c7	0.022327317
123	0x39004d73	0.00012235883
124	0x3b927759	0.0044697938
125	0x3c0ca9eb	0.0085854335
126	0x3cb908ea	0.022587258
127	0x3b0c65ba	0.0021422938
128	0x3b368313	0.0027849122
129	0x3b584494	0.003299986
130	0x3b36612e	0.002782892
131	0x3b5ed218	0.0033999737
132	0x3b50d271	0.0031863714
133	0x3ae3c506	0.0017377443
134	0x3b87abfd	0.0041403756
135	0x3b5b54ef	0.0033467372
136	0x3b419fa9	0.0029544628
137	0x3b7c1f97	0.0038470977
138	0x3b2331a7	0.0024901421
139	0x37ca1dcf	2.4094157e-05
140	0x3b005cdf	0.0019586605
141	0x3b8a931d	0.004228963
142	0x3d1dbbf6	0.03850933
143	0x398baa23	0.00026638908
144	0x3be88952	0.007096448
145	0x3b7efebb	0.0038909155
146	0x3c8227ff	0.015888212
147	0x3b4af164	0.0030966634
148	0x3b1b203c	0.0023670336
149	0x3c42585b	0.011861886
150	0x3c1f13cc	0.00970931
151	0x3c8f8f4b	0.017524382
152	0x3b746bf1	0.0037295783
153	0x3c8f33cb	0.017480751
154	0x3b81c7e1	0.003960595
155	0x38bc7e98	8.9881185e-05
156	0x3b2c8b00	0.0026327968
157	0x3ae9074b	0.0017778663
158	0x383af382	4.457264e-05
159	0x3a94ac56	0.0011342864
160	0x3c4001e4	0.011719201
161	0x3cbe6a60	0.023244083
162	0x3c77e890	0.015131131
163	0x3ccf4575	0.025301674
164	0x3cb1a0ea	0.021683175
165	0x3ba60fdf	0.00506781
166	0x3c07e92e	0.00829534
167	0x3c178a88	0.009249337
168	0x3c6319db	0.013861145
169	0x3c2adbf3	0.010428417
170	0x3c8e0b76	0.01733945
171	0x38eb1a0c	0.00011210525
172	0x3b998f4c	0.004686272
173	0x3c0b9363	0.008519026
174	0x3c8e33cd	0.017358685
175	0x3b86982a	0.004107495
176	0x3c0d4d1e	0.008624343
177	0x3c8b8c34	0.017034627
178	0x3c573c9f	0.013137012
179	0x3c93c123	0.01803643
180	0x3c9130f5	0.01772354
181	0x3b38a7c2	0.0028176163
182	0x3ac03ef9	0.0014667205
183	0x3c05ae6a	0.008159259
184	0x3bb47bcc	0.005507922
185	0x3c11f30a	0.008908043
186	0x3b8926ed	0.0041855485
187	0x3883a80e	6.2778694e-05
188	0x3b2c4546	0.0026286407
189	0x3ba0c998	0.0049068443
190	0x3804dad4	3.1675052e-05
191	0x3b42c242	0.0029717837
192	0x3c9e399d	0.019314582
193	0x3c2bf8a6	0.010496294
194	0x3cbbbe2b	0.022917828
195	0x3c21cc51	0.009875373
196	0x3c01862a	0.007905522
197	0x3cdb8e3d	0.026801223
198	0x3d180a71	0.037119333
199	0x3cd51ca1	0.026014628
200	0x3cfb5ed1	0.03068486
201	0x3ce1f1e6	0.027581166
202	0x3d114c3d	0.035473097
203	0x398ae2b2	0.00026490312
204	0x3c069744	0.0082147755
205	0x3bde5840	0.0067854226
206	0x3908e4d1	0.00013055211
207	0x3bc60aba	0.006043759
208	0x3b22dc13	0.0024850413
209	0x3b98a29a	0.0046580555
210	0x3ba9c9cd	0.005181527
211	0x3b9be3ea	0.004757394
212	0x3b8f209d	0.0043679015
213	0x3a8b9be2	0.0010651315
214	0x3a33fc5f	0.00068659143
215	0x3b83fd08	0.0040279664
216	0x3b0f6f1a	0.002188629
217	0x3b8ab3e5	0.004232871
218	0x3aeb53a4	0.0017954004
219	0x37e0b5bd	2.678751e-05
220	0x3a950941	0.0011370556
221	0x3aded7e0	0.0017001592
222	0x3bd717f6	0.0065641357
223	0x3a478def	0.00076123973
224	0x3b80014d	0.003906405
225	0x3b575708	0.003285827
226	0x3ab21776	0.0013587314
227	0x3b47124a	0.0030375891
228	0x3b5df1be	0.0033866013
229	0x3b9ca8ab	0.004780849
230	0x39d98b20	0.00041493122
231	0x3b516ac0	0.0031954497
232	0x3a6e6417	0.0009093894
233	0x3b6545e3	0.0034984283
234	0x3a6f4909	0.00091280096
235	0x378f3841	1.7073124e-05
236	0x3b3028db	0.002687982
237	0x3bb73f97	0.0055922973
238	0x3cd11756	0.025523823
239	0x3a8a19c1	0.001053624
240	0x3cf26793	0.029590404
241	0x3d75d139	0.060013983
242	0x3d05a789	0.032630477
243	0x3d7f89eb	0.06238739
244	0x3d5dcdb6	0.05415126
245	0x3c5bd395	0.013417144
246	0x3d59b6b3	0.05315275
247	0x3cda7c54	0.026670612
248	0x3d21cce8	0.039502054
249	0x3ce46cb0	0.027883857
250	0x3d41d1ae	0.047319107
251	0x39a55e3a	0.00031541457
252	0x3c4718ee	0.01215194
253	0x3c6e5416	0.014546415
254	0x3dabbfd8	0.08386201
255	0x3b72f40c	0.0037071733
