Solvation_1/Runs/Macro_TESA_Lin7/ep_70.pt (torch, 915476 bytes, 21 tensors)

linear_relu_stack.0.weight f4 [512, 16]
000000 c3 f9 6e 3e 90 f3 66 bd 98 c7 f2 3c ce 98 59 be
       0.23337464 -0.056384623 0.02963619 -0.21249697
000010 38 ba 53 3d 9f c4 03 be 72 64 15 bd 6f 6f 3e be
       0.051691264 -0.12867974 -0.036472745 -0.18597196
000020 03 83 3b be 6c 6a 51 bd 10 f4 14 3e 08 76 e4 bd
       -0.18311696 -0.051126882 0.14546227 -0.11155325
000030 2d d5 db bd b8 a4 c8 3d e1 e2 07 3e 25 75 f4 be
       -0.107340194 0.097970426 0.13270141 -0.47745624
000040 32 d9 62 3d 9f 18 59 3e 1a d8 2f be e7 4e d9 bd
       0.055382915 0.21200798 -0.1717228 -0.106107526
000050 09 33 e5 bb 7d 81 b4 3c d3 1d 08 3e bd 42 b9 3e
       -0.0069946093 0.022034401 0.13292627 0.3618373
000060 c2 2d b3 3e 7f 09 66 be 1f 44 c8 3d 06 02 c9 3c
       0.34995848 -0.2246456 0.09778618 0.024537098
000070 96 b4 97 bd f8 ee 80 3c b0 47 da bd 78 82 2b bd
       -0.07407491 0.01573895 -0.106582046 -0.04187247
000080 24 ca ea bd 89 90 c0 bd 66 48 39 be ee 44 1d 3e
       -0.114643365 -0.09402568 -0.18094024 0.15358326
000090 40 8a 98 3d 23 a4 26 be 99 5e 4b be 51 d7 79 be
       0.07448244 -0.1627355 -0.19860305 -0.24398543
0000a0 b9 1c 39 3e 55 a8 13 3e 1b 4e 16 be db 6e 84 3e
       0.18077363 0.14419682 -0.14678232 0.25865826
0000b0 00 cc cf 3d 17 dd fa 3d 98 57 e4 bc 79 93 44 be
       0.10146332 0.12249201 -0.0278738 -0.19196881
0000c0 50 8c 25 3e 64 91 c0 bd a3 bd 53 3e 14 dc af bd
       0.16166806 -0.09402731 0.2067781 -0.085868984
0000d0 76 ca 37 bd 77 ab 6a be 8b 2f 85 bc b1 9c df 3d
       -0.044870816 -0.22916971 -0.016258022 0.109185584
0000e0 5e f7 4f 3e cd d2 a5 be 9b 69 42 3e 39 25 6c 3d
       0.20309207 -0.3238739 0.18985598 0.057652686
0000f0 48 7e 52 be 24 57 f8 bd 40 97 b8 bd d9 53 50 3e
       -0.20555985 -0.12125996 -0.09013224 0.20344485
000100 86 80 3f be ed b8 48 3e f5 eb 64 be 21 da 55 bd
       -0.18701372 0.19601794 -0.22355635 -0.052209977
000110 1d d4 4a 3b 27 95 42 3e ed 3d ef bd c3 95 83 be
       0.0030949183 0.1900221 -0.11681733 -0.25700197
000120 c1 43 1c be 61 38 16 3e b9 78 5a be 50 07 6a 3e
       -0.15260221 0.14669944 -0.21335115 0.22854352
000130 2e 15 58 3e 5b b1 4e 3e cd e5 06 3e 11 9d 55 be
       0.2110183 0.20184843 0.131736 -0.20860697
000140 a6 77 12 be 03 58 39 be 1b b7 aa 3c 3f 1e f3 3c
       -0.14303455 -0.1809998 0.020839265 0.029677508
000150 5c 79 89 3d c4 8f f5 bd 61 fd 4b 3e 42 b0 92 bc
       0.067126006 -0.11990312 0.19920875 -0.017906312
000160 cb 6e c0 3d 37 5f 8b be 5e 1f 7f 3d a7 a6 78 be
       0.09396132 -0.2722108 0.062285773 -0.24282323
000170 79 5e 2e 3e c0 41 45 bd e0 e5 84 3d 7d 66 a8 3c
       0.17028226 -0.048158407 0.06489158 0.020556683
000180 9b a8 70 3e 25 8b 17 be e3 a1 3a 3d 50 55 b7 bd
       0.23501818 -0.14799173 0.045564543 -0.08951819
000190 5f 36 7e be f6 a7 4f be 3e 1e 4b 3e af e9 0e be
       -0.24825428 -0.20278916 0.19835755 -0.1395633
0001a0 e4 78 71 be e2 9f 58 bd 89 28 98 3d fd ff e9 3d
       -0.23581272 -0.05288685 0.074296065 0.11425779
0001b0 06 79 72 bd c9 c4 3e 3e 5f d9 4f 3e 8b 06 9e be
       -0.05919745 0.18629755 0.20297764 -0.30864367
0001c0 4c ca ed 3b ae 0a fe 3d fb c4 9e bd 71 ff 51 be
       0.0072567817 0.12404381 -0.07752415 -0.205076
0001d0 2e c4 ec 3d dd d7 a2 3d 8d 22 25 be fc 3e 45 be
       0.11560856 0.07951329 -0.16126461 -0.19262308
0001e0 f0 40 59 3e 44 c5 64 3e 7c 1f 54 3e b7 ad a8 3e
       0.21216178 0.22340876 0.20715135 0.32945034
0001f0 e9 58 90 be 73 8b 74 3e 6c 63 af 3c e1 c3 7f bc
       -0.28192833 0.2388132 0.021409713 -0.015610666
000200 e0 bc a9 bd 6c e7 68 be a7 7a a3 bd e4 a4 97 3d
       -0.08287978 -0.2274453 -0.079823785 0.07404497
000210 50 ab 19 3e cf 23 1b bd 22 07 c7 3d 0f 94 6d bd
       0.15006757 -0.037875947 0.09718157 -0.058002528
000220 d4 df 08 bd 9d aa 63 3d e0 80 00 be 90 04 bc 3d
       -0.033416584 0.05558263 -0.12549162 0.09180558
000230 44 4f 64 be 6f 4b c5 bc cd da 1e 3e d4 ae 1c be
       -0.22295862 -0.024083821 0.15513153 -0.15301067
000240 7b de 1f 3e e2 48 ea bd f6 75 83 3d 87 d4 a1 be
       0.15612213 -0.114396825 0.06418984 -0.31607458
000250 bc 44 3d be 5d 8a 1d 3e 36 33 29 3a c7 3b 20 3e
       -0.18483251 0.15384813 0.00064544694 0.15647803
000260 d3 be 4d 3d c3 70 c0 bd 87 a9 a6 be 3c 97 20 be
       0.050230812 -0.093965076 -0.32551214 -0.15682691
000270 fe b2 20 be d5 11 e5 bd d9 ad d9 bd 42 94 80 be
       -0.1569328 -0.11185042 -0.10628862 -0.25113112
000280 05 a6 06 be cc 93 03 3e 62 14 0f 3e bc 66 30 3d
       -0.13149269 0.12849349 0.13972619 0.043066725
000290 94 0f 45 be 4a 80 b6 bd 4e eb a6 bd 65 f6 4a 3d
       -0.19244224 -0.08911188 -0.081503496 0.049551386
0002a0 ec e5 5a 3e a7 ce 89 be 5e 91 63 bd 58 05 93 be
       0.2137677 -0.26915476 -0.055558555 -0.28715014
0002b0 80 55 6e 3b 66 bc 3c bd b7 8c b1 3d 59 a4 a9 3c
       0.003636688 -0.04607811 0.08669417 0.02070825
0002c0 0d a7 97 bd 68 b3 ad 3c 53 59 da 3d dd ca 1e be
       -0.07404909 0.021203712 0.106615685 -0.15507074
0002d0 ad 73 1e 3e 05 1b 36 be 6e 8b 38 be 1c 76 9b b9
       0.15473814 -0.17783745 -0.18021938 -0.00029651902
0002e0 4f 28 bb be 2d 8d 10 be 5f 7c c9 bd 9f 3b 8f be
       -0.3655419 -0.14116354 -0.09838175 -0.27975175
0002f0 08 4a 93 bd 8e 63 e5 3d bd e0 0e be f4 8a 80 3b
       -0.07191855 0.11200629 -0.13952918 0.0039228145
000300 83 6b bc 3d b8 2f b1 bd b0 05 75 be 06 18 15 be
       0.09200194 -0.0865168 -0.23927951 -0.14559945
000310 bc 35 68 be 48 ec 10 3e 1e 4d 4f be 78 6d 6b be
       -0.22676748 0.14152634 -0.20244262 -0.22990978
000320 7f f0 c4 3d 57 c7 60 3e 26 46 3e bd f8 22 69 3e
       0.096161835 0.21951042 -0.046453618 0.22767246
000330 f4 fa 40 be f6 50 50 be de 5d 8c bd 8e 24 59 3e
       -0.18845731 -0.20343384 -0.06853841 0.21205351
000340 f0 f3 5d bd 51 35 35 3e f4 11 85 3b d1 06 08 3e
       -0.054187715 0.1769612 0.004060978 0.1328385
000350 a9 e5 cd bc c4 78 ec bd db 1d a5 bd 04 ed 85 bd
       -0.025133925 -0.11546472 -0.08062335 -0.06539348
000360 bd ed 31 be 26 32 08 3e 8e a2 9c bd 5f 9f 38 3e
       -0.17375846 0.1330038 -0.07648192 0.18029545
000370 8a e4 ca 3d 16 73 50 3e 68 29 38 3e e7 ef 0a 3e
       0.099068716 0.20356402 0.17984545 0.13568078
000380 a0 43 52 3e e2 dc 72 3e f8 f6 3e 3a 24 a8 a3 bc
       0.2053361 0.23717073 0.0007284726 -0.019977637
000390 47 5a 55 3d 89 3c f4 3c 98 d1 68 be df d5 59 3e
       0.05208805 0.029814022 -0.22736204 0.21272992
0003a0 ad d8 0e 3e 77 3b 91 3d 8f b3 59 be 50 77 06 bd
       0.13949843 0.0709142 -0.21259902 -0.03282863
0003b0 e4 17 b2 3d 86 04 4f 3e 6c 4c 92 bd 87 ce 14 3d
       0.08695963 0.2021657 -0.071434826 0.036329772
0003c0 fd 01 af 3d 83 90 17 3e ae 95 c6 bd d4 de 6d bc
       0.08545301 0.1480122 -0.09696518 -0.014518458
0003d0 a0 9f 72 bd f7 e5 64 be a4 0d de 3d 5d 0e 47 3e
       -0.05923426 -0.2235335 0.108424455 0.19439073
0003e0 30 a0 58 be e2 82 85 be 84 15 6a 3e 4e 0b ab be
       -0.21154857 -0.26076418 0.2285977 -0.33407062
0003f0 61 84 3c bd 96 f0 8e bd 75 13 2b 3e 56 62 3b be
       -0.046024684 -0.06979482 0.16706641 -0.18299231

linear_relu_stack.0.bias f4 [512]
000000 31 ec 1b be 0b 37 e8 3b cf 8f 11 3e d4 40 70 bd
       -0.15226819 0.0070866398 0.14215015 -0.058655575
000010 ae 2d 2d 3e fa a9 1e be b2 31 bb 3d 8a 12 17 3e
       0.16911957 -0.15494528 0.09140338 0.14753166
000020 8d 4a 20 3e 38 bd 60 be ae 86 51 3e 0f 0a 7a be
       0.15653439 -0.21947181 0.20461532 -0.244179
000030 82 bb 17 3e 51 af 3a 3e 07 7a 5d be 56 7d eb bc
       0.14817622 0.1823094 -0.21628581 -0.028746288
000040 b6 76 da 3d 1f e1 5c bd 15 e7 d5 bd 62 70 6d be
       0.106671736 -0.05392563 -0.10444466 -0.23187402
000050 25 6f ca bd cc c8 13 be d6 53 8e 3d 68 71 36 bd
       -0.098844804 -0.14432067 0.06949584 -0.044541746
000060 38 72 5b be 75 71 d1 3a d6 25 63 be 07 2f b5 bd
       -0.2143029 0.0015979247 -0.22182402 -0.088468604
000070 71 65 17 bd 6f a0 66 3c ab b4 25 3e 1e de 89 3d
       -0.036961976 0.014076336 0.161822 0.067318186
000080 61 ad 2d be f8 16 e2 bd 18 39 53 be 3e f9 5a 3e
       -0.1696067 -0.11039537 -0.20627248 0.21384141
000090 ef ba 99 be 29 ab 02 3e a4 cf f8 3d 92 f4 95 be
       -0.30025432 0.12760605 0.12148979 -0.29288155
0000a0 d1 e3 04 be cd cd d9 bd 76 da 8b be 3a 96 7d be
       -0.1297753 -0.106349565 -0.2731511 -0.24764338
0000b0 8a ce b3 bd cd fc c3 3d 15 e0 30 be d9 cd b0 3d
       -0.087796286 0.09569702 -0.1727298 0.08633012
0000c0 28 66 12 bd 44 b6 99 be ef a4 4b be 66 0e 58 be
       -0.035741955 -0.3002187 -0.19887136 -0.21099243
0000d0 0c d2 36 be 5e 36 ca 3d a5 90 df 3c 66 eb fd 3d
       -0.17853564 0.09873651 0.027290652 0.12398414
0000e0 32 fe 23 3e 70 4d 4f be 7a 8d 82 3e 10 2c 63 3e
       0.16014937 -0.20244384 0.25498563 0.22184777
0000f0 6f 8b 14 be 22 b9 9a be 08 ce 01 3e 14 a9 a7 bd
       -0.14506315 -0.3021937 0.12676251 -0.08186546
000100 5f e8 8e 3d 94 c4 b0 bd 6f c4 bd bd c5 67 93 bd
       0.06977915 -0.08631244 -0.09265982 -0.07197527
000110 12 95 6e bd ef f6 73 3b 72 f7 e0 3d c5 64 7e be
       -0.058247633 0.0037226041 0.109846964 -0.24843128
000120 ee 36 72 bd 4d 05 31 be 0d 5e 0a 3d be 6c 99 3d
       -0.059134416 -0.17287178 0.0337811 0.07491444
000130 c7 57 9c 3d b2 eb 10 be b4 e5 65 be 83 af 1d be
       0.0763393 -0.1415241 -0.22450906 -0.15398984
000140 28 0a 17 3e 8f e3 b0 3b fb 89 47 bd a5 64 81 be
       0.14749968 0.005398221 -0.048715573 -0.25272098
000150 bb 76 61 be 4a 5d 09 be 1b 5c 1e be f8 d8 f9 3d
       -0.22017948 -0.13414493 -0.15464823 0.12199587
000160 94 13 aa bd bc aa 8c be d7 9c e9 bd be a1 f2 3c
       -0.083045155 -0.2747401 -0.11406868 0.02961814
000170 fe e9 42 3e ab 40 41 3e 47 66 1f 3e 47 c2 43 3e
       0.19034573 0.18872325 0.1556636 0.1911708
000180 bb 89 20 3d a2 04 84 3d f7 d9 7f bd ff 70 07 be
       0.03919385 0.06446196 -0.062463727 -0.13226698
000190 f2 2a b3 bd d6 8a e5 bd 07 41 de bd 38 69 a7 be
       -0.087484255 -0.112081215 -0.10852247 -0.32697463
0001a0 04 3f 28 3d d5 cb 01 3e 45 c4 68 3d 83 47 5e 3e
       0.04107572 0.12675412 0.056827802 0.21706967
0001b0 8d 30 44 be 1b 31 a7 3d 3d 93 06 3e f1 43 5e bd
       -0.19159146 0.08163663 0.13142104 -0.054264013
0001c0 8a 22 cb bb 78 ad 56 be e0 76 6f be fb 5d 16 be
       -0.0061991857 -0.2096461 -0.23385191 -0.14684288
0001d0 9a e4 5b be 66 61 a1 bd 25 65 76 be e7 b2 25 be
       -0.21473923 -0.078799054 -0.24062021 -0.16181527
0001e0 ee bd 41 be 44 2c b2 bd b1 9e 12 be ac 8f 66 3e
       -0.18920109 -0.08699849 -0.14318348 0.22515744
0001f0 be 1d 44 be b8 6d 50 3e 52 55 f7 bd 04 cc 8b 3d
       -0.1915197 0.20354354 -0.120768204 0.06826022
000200 37 eb 9a 3d ee 19 03 be 2f b9 61 3e 35 bb 52 3e
       0.07564395 -0.1280286 0.22043298 0.20579226
000210 66 0d 73 be fa fd 3d be a2 d8 2a 3e 41 39 37 3e
       -0.2373558 -0.18553916 0.16684201 0.17892934
000220 5f b1 8b bc c2 08 6b 3d 6f 5e 2d 3e 04 2f 28 be
       -0.01705235 0.0573814 0.16930555 -0.16424185
000230 04 f2 27 3e bb 42 ee 3d f8 ac 29 be 40 5c f2 bb
       0.16400915 0.116338216 -0.16569889 -0.007396251
000240 22 90 22 3d 9b 30 bc bd dd 1e 3a be ff 97 e9 bc
       0.039688237 -0.09188958 -0.18175836 -0.02851486
000250 ce ff 5b bb 0b 48 8a be 73 48 e4 bd a1 5d 45 3e
       -0.003356922 -0.2700809 -0.11146631 0.19273998
000260 c0 fc 22 3d 8f c3 40 be 8a cd 1f be 2c c1 cb 3d
       0.039791822 -0.188246 -0.1560575 0.09948954
000270 fc 42 29 be 14 97 32 bd 9a 72 14 be 5e 5f 19 3d
       -0.16529459 -0.04360111 -0.14496842 0.037444465
000280 f4 83 25 be 1c f1 39 3e c7 f5 00 bd 1d 4b b1 3b
       -0.16163617 0.18158382 -0.03148439 0.0054105655
000290 79 b4 76 be 7b 63 66 3e c7 a8 1e be 64 59 bf 3d
       -0.24092282 0.22498886 -0.15494071 0.09343222
0002a0 d5 6b 39 be 4f af 0e be 4e be 25 3d df 65 ba bc
       -0.18107541 -0.13934062 0.04046469 -0.022753654
0002b0 0f 78 01 3e bf 4b a8 3c 52 12 20 3e d6 8a 2e 3d
       0.12643455 0.020543931 0.15631989 0.042612873
0002c0 7a 16 e2 3d 9d c1 31 bd 1f ba 49 3e a5 e5 77 3e
       0.11039443 -0.043397535 0.19699906 0.24208696
0002d0 86 f4 c8 bd ab c9 31 3d 81 c9 56 3c 7d 2e 3a be
       -0.09812264 0.043405216 0.013109566 -0.18181796
0002e0 4f 24 8c be 39 dd 7d 3d d0 1a 56 be 82 6f a2 3d
       -0.2737145 0.061978552 -0.20908666 0.07931425
0002f0 ce dc ba 3c 4d 9f 7f 3d a7 e2 fd bd ad 76 4a be
       0.022810366 0.06240778 -0.12396746 -0.19771834
000300 8c 7c 74 3d 5c 8d 19 be 02 3b 9e 3d fb 26 26 3e
       0.05968909 -0.1499533 0.077260986 0.16225807
000310 0a 14 8e 3c b9 75 c6 bd 52 bb 22 be 39 03 23 be
       0.01734354 -0.096904226 -0.1589177 -0.15919198
000320 a6 84 f0 bd 3b 6a 05 be 8d 49 66 bd 88 11 9e 3d
       -0.11744051 -0.13028805 -0.056222487 0.077181876
000330 2e 91 0b 3e 17 c4 55 be 6f 69 c6 bd f5 18 e0 3d
       0.136296 -0.20875584 -0.096880786 0.1094226
000340 3f e6 ec bd fc cd 33 be 49 59 60 bd 27 db 4f 3e
       -0.115673535 -0.17559046 -0.05477265 0.20298444
000350 69 c4 ec bd 41 cd 41 3e 64 87 a3 bc 58 f4 80 3d
       -0.115609 0.18925954 -0.01996202 0.06296605
000360 77 51 90 3e d4 34 75 3d af 38 a1 bd 75 43 36 3e
       0.28187153 0.059864834 -0.0787214 0.1779917
000370 e5 5d 36 be 61 7b 8f be 1c b3 71 3e 5b 6c 43 3e
       -0.17809255 -0.28023818 0.23603481 0.19084303
000380 07 56 59 be e3 81 16 be 5b ba 42 be 2f c9 21 be
       -0.21224223 -0.14697985 -0.19016401 -0.15799402
000390 9c d3 e5 3d 84 b3 23 be 13 d4 57 3e 91 f0 08 3e
       0.11222002 -0.15986449 0.21076994 0.13373019
0003a0 dc 43 a4 bd 67 da e3 bc a9 b7 e7 bd 46 a4 84 be
       -0.08020756 -0.027814103 -0.11314327 -0.2590658
0003b0 b6 2a c9 3d 06 71 27 3e 1d 89 2b 3e 35 f3 2f 3e
       0.098225996 0.16351709 0.16751523 0.1718262
0003c0 18 79 71 bd a4 30 22 be 82 f3 75 3b 5f 40 16 be
       -0.058953375 -0.15838867 0.0037529175 -0.14672993
0003d0 e6 e7 9e 3d 21 35 5e 3d 07 b4 0e 3d 11 4c e6 3d
       0.07759075 0.054249886 0.034839656 0.11244977
0003e0 ff bc 31 3e 23 67 c5 3d 60 bb 1e be 5e c6 ae bd
       0.17357253 0.096388124 -0.15501165 -0.08533929
0003f0 00 7e 3b be d9 6c ca bd f3 72 39 3d f6 68 98 bd
       -0.18309784 -0.09884042 0.04527564 -0.07441895

linear_relu_stack.2.weight f4 [128, 512]
000000 52 69 9b bb 6a fa 08 3d 70 6b 08 3d b2 b3 fd 3c
       -0.00474278 0.03344194 0.033305585 0.030969474
000010 a9 e3 08 bd 01 3c 8a 3b fb bc a0 38 6f 26 b5 bc
       -0.03342024 0.004218579 7.664595e-05 -0.022113053
000020 b8 bf 56 bc 23 13 ed 3c 63 34 c1 bc b5 d4 82 bc
       -0.013107233 0.02893979 -0.02358455 -0.015970567
000030 b5 ed 4d bd 9c 8a 22 bd 25 5f 3a b9 af 21 2a 3d
       -0.050275523 -0.03968297 -0.00017773786 0.04153603
000040 08 66 cb 3c 8f fc 01 bc 2f 40 7e bb 2b 5e 1f bd
       0.024828926 -0.00793375 -0.003879558 -0.038908165
000050 3e d0 65 3c 0e 56 f3 bc f1 77 c4 3c bd f9 cd bc
       0.0140267 -0.02970412 0.023982974 -0.025143499
000060 1f cf 08 bd c5 64 6c 3c 5a 25 25 bc b4 ce 56 3c
       -0.03340065 0.014428322 -0.010079706 0.013110805
000070 1e fc 2b bb 7a 2a 56 bd e6 65 25 bc fd d5 b4 bc
       -0.0026242803 -0.052286603 -0.010095095 -0.022074694
000080 9f b3 f8 3c b6 eb f3 bc 3d 43 22 bd f0 48 29 3c
       0.030359088 -0.029775482 -0.039614905 0.010332331
000090 0c 1c fa bc d2 16 98 bc 52 50 01 3d c8 5a 8a bc
       -0.030530952 -0.01856557 0.03157074 -0.016888991
0000a0 24 3d 0f 3d 55 17 e5 3a eb 40 16 bd 8a 48 51 3c
       0.034970418 0.0017478267 -0.036683004 0.012773642
0000b0 0d 13 34 3d f3 c3 c9 3b 53 ab 81 3c 5d ff 9a bb
       0.04396348 0.006157392 0.015828764 -0.0047301487
0000c0 e4 5f de bc b2 3a 2e 3d 66 07 f7 3b 5f 15 d1 bc
       -0.027145334 0.042536445 0.0075387238 -0.025522886
0000d0 2a 2f 12 bc 3b 2f 87 bc c2 2a 0e 3d da e6 42 bd
       -0.008922378 -0.016502013 0.034708746 -0.04758344
0000e0 8b ed f4 3b 4d b5 da bc 5d f9 d2 39 27 ab 36 bc
       0.0074746064 -0.02669778 0.0004024011 -0.011149204
0000f0 58 78 c5 3c 6c e1 0a bd b6 d7 81 bb 52 ef 2c bc
       0.024105236 -0.033906385 -0.0039624823 -0.010555105
000100 3f 96 22 bd 27 ff 80 36 33 5b e7 bb 48 57 fd 3c
       -0.039694067 3.844401e-06 -0.0070604323 0.030925408
000110 e8 72 b0 3c 00 1c 8e 3c 25 ee 62 3c b7 1e 48 3b
       0.021539167 0.017347336 0.013850723 0.0030535886
000120 fc 75 71 bc e4 e6 86 bc 04 7d 3e bd 19 ff 7b bb
       -0.014737602 -0.01646752 -0.046505943 -0.003845161
000130 f7 8e 1b 3d 39 2e e3 bc 51 e9 43 3c 52 f4 93 3a
       0.03797814 -0.027732002 0.011957482 0.0011288023
000140 55 4d 49 3c 44 db 05 3d 5a 08 09 3d 75 d0 22 bd
       0.012286504 0.03267981 0.03345523 -0.03974958
000150 07 7e 1e 3b a6 fd 28 bc d9 1d a3 3b 42 ae 83 3c
       0.0024184005 -0.010314381 0.0049779234 0.016074304
000160 16 39 8c bc 6d ca c3 3c cd f8 ea bc 7b 67 c3 bc
       -0.017117064 0.023900235 -0.02868309 -0.023853054
000170 43 ea 84 3c 9f 5a 59 bd f8 03 25 bd a1 de 8d 3c
       0.016224986 -0.05306494 -0.040286988 0.017318072
000180 72 95 d1 bc dc 7a bc 3c 8f 71 9b bc 83 6c cf bc
       -0.025583956 0.023007803 -0.018975047 -0.025320297
000190 80 06 81 3c 3a d0 e0 bc 27 f8 d1 bc 5f 5c 0d bd
       0.01575017 -0.02744304 -0.025631024 -0.03451192
0001a0 a8 48 e2 bc 5b 53 08 bb 31 15 22 bd 44 32 d2 bb
       -0.027622536 -0.0020801637 -0.03957099 -0.0064146835
0001b0 70 85 f7 bc 0d 82 09 bd f5 fa 21 bc 69 d3 cf bc
       -0.030214995 -0.03357129 -0.009886493 -0.025369363
0001c0 a7 2a 16 3d c7 9a 04 3d d0 0c 06 bd c8 62 36 bd
       0.03666177 0.03237417 -0.032727063 -0.0445278
0001d0 ce c0 89 3c fe 4a 38 bd f6 eb ed bb cf 0a a8 3c
       0.01681557 -0.044993393 -0.0072607948 0.020512966
0001e0 c4 6e 1e bc 37 a5 a3 3c a8 29 d9 3c a4 95 66 bc
       -0.009669963 0.019976242 0.026509121 -0.014073763
0001f0 93 8b 8c 3c f4 d6 ab bc 36 29 92 bc a1 5b f8 3b
       0.017156398 -0.020976521 -0.017841917 0.0075792824
000200 50 37 ae 3b f1 e8 83 bb 29 1c b2 39 2b e2 b5 3c
       0.0053166524 -0.0040255715 0.00033971787 0.022202572
000210 12 ba 58 bd 52 be f7 bc 4c 1b 59 bb 1c 78 08 3d
       -0.052911825 -0.030242119 -0.0033127842 0.03331767
000220 d8 27 88 3c 3c c0 0d bd f1 69 37 bc b2 6e 41 bd
       0.016620561 -0.034607157 -0.011194692 -0.047224708
000230 97 b0 a9 3c 4b 7d 58 bd a6 f8 d9 3c c2 c6 a4 3c
       0.020714087 -0.052853864 0.026607823 0.020114306
000240 98 c3 ae bc d6 e2 dd 3c fc 3b c7 3c 79 fc da bc
       -0.0213335 0.027085703 0.024320595 -0.026731716
000250 80 54 f7 bb 00 86 ae ba be ce 6b 3b 37 8a 19 bd
       -0.007547915 -0.0013315082 0.0035981382 -0.037485328
000260 28 45 90 3c fd fe 13 bd 89 3a 0b bd b7 5b 43 3b
       0.017611101 -0.036131848 -0.03399137 0.0029809305
000270 ab 2e 2e bc 6d 14 1d bd 7a d3 12 bd 85 76 f0 bc
       -0.010631244 -0.038349558 -0.03584621 -0.02935339
000280 20 56 09 3c ac 20 d0 bc d6 5b e8 bc f3 f4 b3 bc
       0.00838235 -0.025406204 -0.028364103 -0.021967387
000290 f0 24 f8 bc c4 77 05 3c 92 75 ea 3c 80 7a cc bc
       -0.03029105 0.00814623 0.028620515 -0.024960756
0002a0 cb 13 0d bd 0f 27 30 bd 7a 95 86 3c 1c 22 01 bb
       -0.034442704 -0.043006 0.016428698 -0.0019704169
0002b0 b1 f4 de bc e5 c2 29 3d 05 21 32 3c ba 80 d3 3c
       -0.027216287 0.04144563 0.01087213 0.025818218
0002c0 d1 50 b7 bc 2f e2 a4 3c 9a b3 74 bc 9f fb be 3c
       -0.022377403 0.020127384 -0.0149353985 0.023313342
0002d0 d4 2e 21 bd 6e 8d bc 3b 6a 3e be bc 33 d3 e9 3c
       -0.0393513 0.0057541644 -0.02322312 0.02854309
0002e0 cf 43 0d bb de 53 05 bd f8 80 59 bc 3c 36 e9 bc
       -0.002155531 -0.032550685 -0.013275377 -0.028468244
0002f0 b2 4c 03 3d 40 49 6c bb 51 e7 3f bd 7a 6e 23 bd
       0.032055564 -0.0036054403 -0.04685146 -0.03990028
000300 a9 1e 40 bd 1c e3 5a bd 5d 9b 50 bc b1 3f 04 bb
       -0.04690424 -0.053439245 -0.012732354 -0.0020179565
000310 df 92 0b 3d d6 e3 49 3d da 3a 0b 3d e3 4b dd 3c
       0.034075614 0.049289547 0.033991672 0.027013725
000320 17 5f 95 bc dd 06 ae bc ad 60 00 3d ec e6 9d 3c
       -0.018233819 -0.021243507 0.031342197 0.019275151
000330 53 72 32 bd 39 63 8a 3c e5 4d 0e bd e9 20 b6 3c
       -0.04356606 0.016893016 -0.034742255 0.02223249
000340 b6 e5 1e 3d 8d 43 93 bc d8 d8 84 3c 7a 7d c9 bc
       0.03879329 -0.017976547 0.01621668 -0.024595965
000350 b9 49 e6 bb c6 ce 52 3c db 69 f8 bc 0a c1 d8 bc
       -0.0070278314 0.012866681 -0.030323913 -0.026459236
000360 4a 89 72 b9 3f 82 0c bd 4c 88 c6 3c 2b a2 e7 bb
       -0.00023130063 -0.0343039 0.024234913 -0.0070688925
000370 e6 f9 06 3c 20 52 c1 bb 9b 87 67 bc 1f f5 f3 bb
       0.008238291 -0.0058996826 -0.014131452 -0.007444992
000380 1f 42 00 bd 64 5c 10 3c e1 f7 94 bc dc 3d d5 3c
       -0.031313058 0.00881109 -0.018184604 0.026030473
000390 1a 9c f9 3c 05 58 92 bb 19 06 80 bc 61 a3 3c bd
       0.030469943 -0.004466059 -0.015627908 -0.046054248
0003a0 ad 60 9a 3b dc 6a 07 3d c4 1f 21 3d df 0f d7 bc
       0.0047112317 0.033060893 0.039336935 -0.026252685
0003b0 7c 62 39 bd e0 f8 f7 3c 80 af e3 3c 3b b6 1c bd
       -0.045259938 0.03027004 0.027793646 -0.038259726
0003c0 4d 1e 00 bd b1 a3 7a bc 6e 90 c9 3c 91 85 c9 bc
       -0.031278897 -0.015297816 0.024605002 -0.024599822
0003d0 bd 4e 5c 39 b3 39 50 3b 72 67 b3 ba 5c 9c 31 bd
       0.00021010167 0.0031772673 -0.0013687445 -0.043362007
0003e0 97 f1 3a bd 65 32 12 3d ee 77 19 3b 1c 08 94 bc
       -0.045640554 0.03569259 0.002341743 -0.018070273
0003f0 ea 66 fa 3c 3c d6 f1 bc f3 c6 95 3c c0 e6 d3 3b
       0.030566651 -0.0295211 0.018283343 0.0064667165

linear_relu_stack.2.bias f4 [128]
000000 ca c0 4b bd 0c da ee bc 76 61 4e bc bb 00 dc 3c
       -0.049744405 -0.029156707 -0.012596479 0.026855817
000010 07 0b 40 3d 63 d0 30 bc 4f 60 e4 bb d6 f3 e3 3c
       0.046885516 -0.010791871 -0.0069694887 0.027826231
000020 52 90 b4 3c 5c 37 0b 3c 0f 31 a2 bc 51 ef 4b 3b
       0.022041474 0.008497085 -0.019798784 0.0031117985
000030 89 70 c6 bc 7c 09 56 bc a7 70 9e 3c d6 3f 4c bd
       -0.024223583 -0.013063785 0.019340826 -0.049865566
000040 fa 72 41 3d b9 cf e2 3c 7c 95 18 3d 70 f1 e1 3c
       0.04722879 0.02768694 0.037251934 0.027580947
000050 b7 8b 11 3d bb 4c 06 3d e6 d1 9e 3c 80 2d e7 bc
       0.035533633 0.03278802 0.019387197 -0.028219938
000060 1b ff c6 bb 09 de 17 bc 54 e7 15 bc d3 1b 1b 3c
       -0.0060728914 -0.009269246 -0.009149391 0.009467083
000070 09 3d 27 3d b7 a4 12 3d 21 65 44 3d ae 48 96 3c
       0.040829692 0.035801616 0.047948007 0.018345203
000080 16 3a 33 bd 92 d4 08 3d 03 10 5f bc 3d 30 13 bc
       -0.043756567 0.033405848 -0.013614657 -0.008983669
000090 19 5d 5a 3b 17 10 0d bd 03 ef e6 3c 98 e0 fd 3c
       0.003331965 -0.034439173 0.028190142 0.030990884
0000a0 db cb 6a 3d 5a dd b9 bd 29 8d 94 bc ba 6d 6b 3c
       0.057323318 -0.090754226 -0.018133717 0.014369423
0000b0 cc 21 f7 3c ca 87 63 3b 4c 43 92 3c 01 c9 d0 bc
       0.030167483 0.0034718388 0.017854355 -0.025486471
0000c0 6c 87 eb bb 3b e2 7b 3a c6 74 3c 3d d6 29 14 3d
       -0.0071877744 0.0009608601 0.0460098 0.03617271
0000d0 47 54 f4 b9 e9 64 c4 bc 76 29 56 3d 1b 7a 46 bd
       -0.00046602098 -0.023973899 0.052285634 -0.048456293
0000e0 37 3d 39 bd 65 d2 3e 3d 12 b5 87 bc 76 78 bd bc
       -0.045224395 0.046587367 -0.016565833 -0.02312873
0000f0 a8 4d b4 3c 83 5e 41 bd 62 95 4e bc 77 30 c2 3c
       0.022009686 -0.047209274 -0.012608858 0.02370475
000100 4d 4e 2c bd bf b4 5f bd f4 8a 14 bc f9 c1 6d bc
       -0.04206686 -0.054615732 -0.009066332 -0.014511579
000110 84 3a 10 bd 32 e1 c4 ba f8 f8 34 bb 53 ca 09 3d
       -0.035212055 -0.0015020727 -0.0027614217 0.033640217
000120 7b 5b ba bc 50 b9 24 3c c2 a5 3b bd 27 7a a0 bc
       -0.0227487 0.010053948 -0.045812376 -0.019589497
000130 d3 bb 2f bc aa 83 19 3c 11 f9 e8 bc 36 1c e6 3c
       -0.010725933 0.00936977 -0.028439077 0.028089624
000140 3c d2 cb 3c 37 57 60 bd 62 49 3f bc 13 fc d2 bc
       0.024880521 -0.054770675 -0.011675211 -0.025754964
000150 bc bc 07 bd e1 c8 89 3c fd b3 41 bb 77 52 d7 3c
       -0.033138976 0.01681942 -0.0029556744 0.02628444
000160 d9 3c 7f bc b7 8e 2c 3c 71 30 f6 bb 9c 3c c3 3c
       -0.015578472 0.010532073 -0.007513099 0.023832612
000170 2c 03 67 3c ae ad c5 3c fa 7c d2 3c 47 25 d8 3c
       0.014099877 0.024130668 0.02569436 0.026384963
000180 20 b8 5f 3d 71 84 60 bd b3 11 9c 3c 40 fe 5f bc
       0.054618955 -0.054813806 0.019051408 -0.013671458
000190 ba bc fa 3c ed 40 fa 3c 2b af f6 3c 83 6e b9 3b
       0.03060757 0.030548537 0.030112823 0.005658926
0001a0 3b ea 33 bd c8 ce d7 bc bf 21 3a 3d 98 89 18 bd
       -0.04392455 -0.026343718 0.04544234 -0.037240595
0001b0 e5 83 4d 3d 21 2d db ba 22 5c e9 bc 7b c4 81 3d
       0.050174613 -0.0016721823 -0.028486315 0.06336304
0001c0 e6 37 23 bb 14 f5 bc 3b 31 15 e8 ba 03 fa eb 3c
       -0.0024905144 0.0057665203 -0.0017706511 0.028805738
0001d0 77 37 d5 bb c5 23 e2 bb 99 4b 03 3d c1 e1 d3 3c
       -0.006506856 -0.0069012367 0.032054517 0.025864484
0001e0 0e 1a c6 bc a3 f5 0a 3d 6d 65 18 bd 3e 62 c0 bc
       -0.024182346 0.033925664 -0.037206102 -0.023484346
0001f0 32 dc 0b 3d 78 06 45 bd 8b 63 97 3c c4 f4 14 3c
       0.03414554 -0.048101872 0.018480083 0.00909156

linear_relu_stack.4.weight f4 [10, 128]
000000 8e 97 4f bd c6 47 80 bc 4f 8c c3 3d d0 bd 3f 3d
       -0.050681643 -0.015659224 0.09548246 0.04681188
000010 c6 1e 44 bd 85 99 28 3e 4d 9e 5f 3c df 0e 2d 3d
       -0.04788091 0.16464813 0.013648582 0.04225051
000020 e0 86 12 3d 5e e2 f8 3d b9 f0 71 3c 4d c6 27 3e
       0.035773158 0.12152551 0.014766865 0.1638424
000030 18 40 e5 3b 09 ba ae 3d 46 0a 88 3d ac 92 7d bd
       0.006996166 0.08531577 0.066425845 -0.061907455
000040 eb 16 9f 3d 44 f7 11 3d d7 a5 76 bd c0 4e 89 3b
       0.07768043 0.0356362 -0.06021675 0.004190296
000050 44 f5 ef 3c e0 1d 63 bd 90 0e 74 3d ff 6d 78 bd
       0.029291756 -0.055448413 0.0595842 -0.060651775
000060 58 d5 5a 3d 0c 8b c0 bd 98 1e 82 3e d7 9a c6 bd
       0.053426117 -0.09401521 0.25413966 -0.09697502
000070 4a 0f 56 3e 30 e5 f0 bd a1 a7 63 3d 3d 42 b3 3d
       0.2090427 -0.11762464 0.055579785 0.08752868
000080 ca bc 67 bd 46 9f 08 be 6f 09 16 bd 6a 02 b6 bd
       -0.056576528 -0.13342008 -0.03663009 -0.08887179
000090 f2 46 53 bd f2 20 0f be 46 89 2e 3d 28 56 36 3e
       -0.05158133 -0.13977411 0.042611383 0.17806304
0000a0 8d ff ea 3d 16 3c f9 3d ea 28 7f bd db 89 c5 3c
       0.11474524 0.121696636 -0.062294878 0.024113586
0000b0 6f 15 5e 3d 60 23 5b 3e e3 54 2a 3d 83 3d c4 3c
       0.05421966 0.21400213 0.04158486 0.023955112
0000c0 e7 ee 83 bd 15 8e fb 3c 5f ef 80 3d 6c ff f9 bc
       -0.064420514 0.030707398 0.062956564 -0.030517302
0000d0 f8 78 5b bd db 9d 54 3c 7f 97 2c bd c4 98 0e 3d
       -0.05358216 0.012977089 -0.042136665 0.034813657
0000e0 aa b6 be bc 48 63 1d 3e 3e c8 1b 3d ae bc 69 bc
       -0.02328046 0.15369904 0.038032763 -0.014266176
0000f0 b2 66 89 bd 93 84 96 3d 3d 6a b3 bd 93 88 47 3d
       -0.06709041 0.07349505 -0.08760498 0.04871423
000100 a6 85 2a 3d 8f fb c9 bc 3f 37 4e bc 4e 94 8d bd
       0.041631363 -0.024656085 -0.012586414 -0.069130525
000110 cc 43 35 3d b1 25 07 be d5 40 31 bd 8c 33 92 3d
       0.04425411 -0.13197972 -0.04327472 0.07138738
000120 4c 11 18 3d 90 06 5b 3e c6 3d 99 3d f8 c1 7c 3d
       0.03712587 0.21389222 0.074824855 0.06170842
000130 52 7a b0 bc ec d2 8b bd dd 9c 68 3e 9c 6f ae bd
       -0.021542702 -0.068273395 0.22716089 -0.085173815
000140 2f 00 c7 3d f6 cc b2 bd 32 b4 0c 3d 03 d7 0d bd
       0.09716832 -0.087304994 0.034351535 -0.03462888
000150 ba b9 f8 3c 44 c8 14 3e 8f 09 88 bc 60 11 f5 3b
       0.030361999 0.1452952 -0.01660612 0.007478878
000160 c7 ce fa bd 6d da 51 3d 80 9e 8b bd fc 93 8b bd
       -0.12246471 0.051233698 -0.06817341 -0.06815335
000170 8c 1c 65 3d 55 e1 b3 3d 26 ec 44 bd 39 cc 37 3d
       0.055935428 0.08783213 -0.04807677 0.044872496
000180 d1 0e f5 bc 23 65 63 3e 1f 6b 40 bd 94 d3 b1 bd
       -0.029914292 0.2220655 -0.04697716 -0.086829334
000190 53 35 5e 3d 2c 3d fd bd d0 da 75 bd f8 6e de bd
       0.054250073 -0.12365183 -0.06002313 -0.10861009
0001a0 17 23 63 bd 7a 5e 37 bd 5d 9d 86 bc 49 ba 66 3d
       -0.055453386 -0.044767834 -0.016432459 0.05633
0001b0 00 a0 31 bd 61 51 12 be 8b d2 a5 bd 27 a5 1d 3d
       -0.04336548 -0.14288856 -0.080967985 0.03848758
0001c0 dc 83 1d bd c5 08 fc bc 24 84 51 3c 81 ee 8f bd
       -0.03845583 -0.0307659 0.012787852 -0.07027913
0001d0 58 95 b0 bc a1 57 00 3e 00 e4 f4 bc e2 13 53 3d
       -0.021555588 0.12533428 -0.029893875 0.051532634
0001e0 be 85 3c 3d 9c 09 49 3d 0c 5c 68 3d 7d 1c 79 bc
       0.046025984 0.04908143 0.056728408 -0.015204546
0001f0 e8 99 ef bc 48 a4 0f 3c c9 8c 79 3d 45 55 a9 bc
       -0.029248193 0.008767195 0.06092528 -0.020670542
000200 9a 6a 01 3d 40 eb 69 3c 45 af 37 bd 78 c6 4c 3d
       0.031595804 0.014277279 -0.044844884 0.049993962
000210 3f c3 3f bd 4a 22 95 bd 65 0d 6c 3d c8 37 f9 bd
       -0.04681706 -0.07281931 0.05762996 -0.121688426
000220 c4 e8 16 3d 68 25 8f 3d dd 84 21 bd 44 00 e6 ba
       0.036843076 0.069895566 -0.03943335 -0.0017547687
000230 55 c5 b1 bd 80 87 40 3a 2c 81 6e 3d 08 2e 13 3d
       -0.08680216 0.000734441 0.058228657 0.03593257
000240 7c a0 94 bd c9 8b 2e bd cb d5 d8 bb 15 a9 76 3c
       -0.072571725 -0.04261378 -0.006617283 0.015054961
000250 d1 4f 63 bd 5a 71 a5 bd ed bb 4e 3d 1a 31 c3 bc
       -0.05549604 -0.08078261 0.05047219 -0.023827124
000260 63 a9 9d bd f8 4e 96 3d bf 7b 5a 3d 8d 85 2a 3c
       -0.076983236 0.07339281 0.05334067 0.010407818
000270 4d 02 9e 3c 43 f3 26 bc 6a 32 eb 3c 61 50 0a 3d
       0.019288206 -0.010189834 0.028710563 0.03376806
000280 05 12 48 3d e0 d1 88 3c a5 9f 81 bd c2 76 d9 bc
       0.04884531 0.016701639 -0.06329278 -0.026545886
000290 e7 aa a8 bd 9e 9a 7a 3c 14 fe bb bd 3c bf b5 bd
       -0.08235722 0.015295653 -0.09179321 -0.08874366
0002a0 3e c0 e5 bd 11 76 54 bd 4f 8d a0 3d 46 6f 95 bd
       -0.11218308 -0.05187041 0.078394525 -0.07296614
0002b0 f0 46 f2 3c da 02 3b bd b8 b5 03 3c 00 fa 67 3c
       0.029574841 -0.045657016 0.008038931 0.014158726
0002c0 0e 9e c8 3c 9e 96 56 bd 7f be 14 be 8e 99 1e 3d
       0.024489429 -0.052389733 -0.14525793 0.03872066
0002d0 d6 80 9e bd c1 ef 36 bd e9 95 20 3d bc 12 dc 3c
       -0.07739417 -0.04466224 0.039205465 0.026864402
0002e0 30 52 b8 bb 1b 38 6b ba b3 d0 a9 bd bf b7 1d bd
       -0.005625032 -0.0008972899 -0.08291759 -0.038505312
0002f0 a4 f9 de bc ec 5c 04 bd 67 73 fb bb fa 4f c2 bd
       -0.027218647 -0.03231518 -0.007673669 -0.094879106
000300 1f 2c 5f 3c 59 44 9f 3c 08 8f c6 bc 6a b8 a7 3c
       0.013621359 0.01944177 -0.024238124 0.020473678
000310 20 fa 94 3c e5 06 78 3c 18 5b 4a bc a3 eb ba bd
       0.018185675 0.015138363 -0.01235082 -0.091269754
000320 22 a8 77 3d 78 e9 8f bd df ac 91 bd 76 ac 13 bc
       0.06046308 -0.070269525 -0.07113051 -0.009013286
000330 cf a2 65 3d f2 82 01 bd 09 60 fb 3b ed 9b 5b bd
       0.05606347 -0.03161902 0.0076713604 -0.0536155
000340 34 f6 bd bd be 5f 91 3b e8 d3 e5 3c 50 5d 1a bd
       -0.09275475 0.004436462 0.028055146 -0.037686646
000350 77 26 b2 bd c0 b4 79 bc e8 7b 8a 3b 63 6d ac bd
       -0.08698743 -0.015240848 0.0042261966 -0.08419301
000360 e5 0f 9b bd 9a 28 35 bd e0 5e a0 bd fe f8 a5 bb
       -0.07571391 -0.044228174 -0.07830596 -0.0050650826
000370 33 fa 8c bc cc 23 9b bd 3b c6 0c bc 2b ba 84 bd
       -0.017209148 -0.07575187 -0.008592184 -0.06480821
000380 35 47 31 3d dc aa 1a 39 36 ea df 3c eb 69 9a 3d
       0.0432808 0.00014750235 0.02733336 0.075397335
000390 01 22 88 3d 3c 3b 35 bd 31 95 11 3c 77 9b 2b bd
       0.06647111 -0.044245943 0.008885668 -0.04189631
0003a0 06 46 b2 3b b2 78 27 bd d6 58 16 bd f6 d5 9d bd
       0.0054404764 -0.04088659 -0.036705814 -0.077068254
0003b0 f2 5a 8c 3d 68 2a db 3b b6 93 30 3d 04 68 74 bd
       0.06853284 0.006688405 0.043109618 -0.05966951
0003c0 90 fa 89 3d 71 4f d0 3c 4c 95 96 3c 5d 9d e1 bc
       0.06737244 0.025428506 0.018381737 -0.027540857
0003d0 30 58 6a 3d 14 28 91 bb a3 4b 7d 3d 7a 47 84 3c
       0.05721301 -0.0044298265 0.06183971 0.016147364
0003e0 9f 3a 3d bd 32 9a 43 3d e1 0e 28 3d 5f 56 a6 3d
       -0.046198484 0.047754474 0.041029815 0.08121943
0003f0 da 08 24 3d 70 c4 be bc e3 7e 90 bd 41 34 3e 3a
       0.040047504 -0.023287028 -0.07055452 0.0007255711

linear_relu_stack.4.bias f4 [10]
000000 8c 7b ec 3c 74 cb 9a bd 6a d0 db bc 9e 88 10 bd
       0.028867505 -0.07558337 -0.026832778 -0.03528654
000010 75 0a 99 3d 8d 63 c0 bc 07 42 93 3d e2 22 e0 b9
       0.07472698 -0.02348497 0.07190328 -0.000427506
000020 85 55 26 3d 35 12 33 3d
       0.0406089 0.043718535

linear_relu_stack.6.weight f4 [1, 10]
000000 66 6d b5 be 38 cb 4a be 9b c5 e1 3a 42 dd 5d be
       -0.35435027 -0.19804084 0.0017225029 -0.21666434
000010 e0 58 85 be 0d c5 bf 3e f6 1a 05 bd a6 df fe 3d
       -0.2604437 0.37455025 -0.032496415 0.12445001
000020 c9 0f 63 be 26 a8 11 be
       -0.2217399 -0.142243

exp_avg f4 [512, 16]
000000 78 14 8d bc 8c ec 14 3d 0e 17 be bd d9 9c 44 3d
       -0.017221674 0.0363584 -0.09281741 0.048001144
000010 04 a4 dd 3c 2a 58 de bc d5 3e 9f 3c 13 fe 3e 3d
       0.027055748 -0.02714165 0.01943914 0.046629023
000020 41 62 3e 3d de 88 6d 3d ed 22 ce 3c e0 b5 fc 3b
       0.04648042 0.057991855 0.025163138 0.007712111
000030 96 52 4a 3d 8f d6 31 3d ba d6 55 bc d4 85 07 3d
       0.049395166 0.04341751 -0.013051683 0.033086613
000040 75 5c e6 3d c7 4d 55 bd 96 15 a7 3d f4 d1 85 bc
       0.112481035 -0.052076127 0.08158414 -0.016335465
000050 53 3d f2 bc 65 f5 c3 3d 4e 23 be bc e0 8c ca bd
       -0.029570257 0.0956829 -0.023210194 -0.09890151
000060 bb 61 7e 3d 63 fd 7f bd fb 38 96 3d 30 bd 8a 3b
       0.06210492 -0.062497508 0.07335087 0.0042339787
000070 4c 09 97 bd a7 18 ca bd 0d 9e 0f 3b 97 16 4f bd
       -0.0737482 -0.09867983 0.0021914274 -0.050558653
000080 61 35 9a 3c 3a e6 77 3d 62 27 7a bd 92 2d af 3d
       0.018824281 0.060522296 -0.061072715 0.08553614
000090 b3 69 73 3d f8 0e 94 3c d4 55 d9 3c a1 66 66 3d
       0.059426975 0.018073544 0.026530184 0.05625022
0000a0 c8 1f 62 3d b4 f8 6a 3d 3e 9c 41 3d a9 09 32 3b
       0.05520609 0.057366088 0.047268145 0.0027166402
0000b0 e7 a2 c4 ba a8 fa 06 3c 30 30 bf bc 71 48 4d 3c
       -0.0015002162 0.008238472 -0.023338407 0.012529478
0000c0 cc eb 27 bc 01 07 90 bd fc c3 6c 3e 32 51 10 be
       -0.010249089 -0.07032586 0.23121637 -0.14093474
0000d0 de bb ad bd 44 0b 40 bd 54 02 59 bd 2b 5b 4c be
       -0.084830984 -0.046885744 -0.052980736 -0.19956653
0000e0 e8 3a 46 be 1f f1 66 be 1c 9a 07 be 0e bd 9b bc
       -0.19358408 -0.22552918 -0.13242382 -0.019011047
0000f0 50 b1 0c be ed 93 07 be 7d 67 6a bc bf cd ce bd
       -0.13739514 -0.13240023 -0.0143069 -0.10097837
000100 6a b8 9b bc 07 64 01 3d 38 55 9d bd 92 87 62 3d
       -0.019008834 0.031589534 -0.0768227 0.05530507
000110 70 ba 04 3d 7d 05 e0 bb b2 3c 2b 3d 3b 1d 75 3d
       0.032404363 -0.0068365918 0.04180593 0.05984233
000120 b1 1c d7 3d 58 1e 76 3d 4d cb b7 3d 8a ed 6e 3b
       0.10503519 0.06008753 0.089743234 0.0036457502
000130 8d 63 ee 3c cf e9 27 3d 18 49 f8 bb 86 6c 28 3d
       0.029100204 0.04099446 -0.007577073 0.04111912
000140 11 ab ac ba 6f e6 d8 bc 91 28 85 3c 75 1b be bc
       -0.001317354 -0.026477067 0.016254695 -0.023206452
000150 16 74 91 bc 9c 6b 38 bc 4e e9 e6 3b 45 66 6d bc
       -0.01775555 -0.011256125 0.007046855 -0.014489715
000160 00 d3 72 bb 54 ed 5d bc c9 c5 d6 3b b2 85 ce ba
       -0.0037052035 -0.013545353 0.0065543395 -0.0015756397
000170 1b a9 45 bc 97 c6 ab bc 14 6f bc bb 6f e7 c5 bc
       -0.012064244 -0.020968718 -0.005750546 -0.024158208
000180 f2 12 06 3b bb 8d 5b 3c f7 39 d3 bd 85 74 1d 3d
       0.002045807 0.01340049 -0.1031379 0.0384412
000190 c6 24 8b 3c 1a 44 41 bc 13 95 40 3d b8 ba a1 3d
       0.016985308 -0.011796022 0.04701717 0.07896942
0001a0 d5 2f 8d 3d 2b 5b af 3d f9 8d 4b 3d 2d b5 c4 3b
       0.06893889 0.08562311 0.049695943 0.006003043
0001b0 41 08 3c 3d 95 33 36 3d ad 3d 80 bc 29 3b 0e 3d
       0.04590631 0.044482786 -0.01565441 0.03472439
0001c0 26 ac 97 bd ff 06 dc 3d 0e dc 3e bd f0 0d f9 3d
       -0.074058816 0.10743522 -0.04659658 0.121608615
0001d0 fd 11 d9 3d 9e e7 4d bd a7 86 29 bc 4a 98 35 3c
       0.10599134 -0.050269715 -0.010347045 0.011083672
0001e0 ad c9 14 bd 50 ac 87 bb 28 10 21 bd d6 62 9c ba
       -0.036325146 -0.0041404143 -0.03932205 -0.0011931311
0001f0 8e 72 66 3c e1 ed 04 3d 6c 2d f3 bc 56 2b b6 3c
       0.014065398 0.03245342 -0.029684745 0.022237461
000200 57 f8 a8 bc da 2a 17 3d 22 e7 f4 bc f7 7e 1f 3d
       -0.02062623 0.0369061 -0.029895369 0.038939442
000210 31 8b 00 3d e2 9f 2d 3b 82 db 73 3c 7c b8 03 3d
       0.031382743 0.0026493003 0.014883878 0.03215836
000220 fd aa 93 3c 5f 61 0a 3d 47 00 73 3c f1 9c e3 3a
       0.01802587 0.033784267 0.014831609 0.0017365498
000230 82 41 52 3c 32 79 2f 3c 1d 50 ff bb 5e 25 00 3c
       0.012833001 0.010710048 -0.0077915327 0.007821409
000240 db 09 84 bb dd a6 0f 3d 30 96 82 3c 43 12 0b 3d
       -0.004029495 0.035071243 0.015940756 0.033952963
000250 12 0a fb 3c 08 7c 93 3c cf ff 27 bc bd 8b 2d 3d
       0.03064445 0.018003479 -0.010253861 0.042369593
000260 d9 ae 8a 3d 48 85 47 3d ff a5 80 3d 09 f1 c8 3b
       0.06771631 0.04871109 0.06281661 0.0061322493
000270 cf dd fb 3c 74 3a 02 3d 4e 7a 80 3b 33 8b 88 3c
       0.030745415 0.031794026 0.00392083 0.016667938
000280 d8 73 4b 3c 1c 6e 5c bd b9 65 78 3d 01 fb ac bd
       0.012417756 -0.053815946 0.060643885 -0.08446313
000290 ad 40 7e bd dc 74 89 b9 ac a8 4a bc 84 15 08 bc
       -0.0620734 -0.00026217743 -0.012369316 -0.008305911
0002a0 7b d8 e8 bc 85 ef 54 bc ff 86 83 bc b7 37 08 bb
       -0.028423538 -0.012996559 -0.016055582 -0.0020785162
0002b0 6b 50 1f bc d8 96 98 bc 92 cf fc 3a 70 2c 16 bd
       -0.009723763 -0.018626615 0.0019287935 -0.036663473
0002c0 73 04 e4 3c 16 e1 84 bd 45 8a 7b 3d 08 9a e1 bd
       0.027834153 -0.06488244 0.06141116 -0.11015707
0002d0 84 61 aa bd 3c ab 65 bc 2c 57 81 bc a0 d6 c9 bc
       -0.08319381 -0.014017876 -0.015788637 -0.024638474
0002e0 11 ab c9 bc 2f ef d4 bc f6 89 04 bd 16 7d 05 bb
       -0.024617704 -0.025992958 -0.032358132 -0.0020368746
0002f0 57 73 f3 3a 96 a8 a1 3b 66 12 e7 ba 79 8b 76 bc
       0.0018573803 0.004933427 -0.0017629385 -0.015047901
000300 cb 10 e4 bc 45 cf 2e 3d 03 2b 29 bd e8 41 de 3c
       -0.027840039 0.042678136 -0.041300785 0.027131036
000310 2d 3f b2 3c f0 e4 ce bc 80 a1 46 3b 0e c0 ee 3d
       0.02175864 -0.02525565 0.0030308664 0.11657725
000320 28 de d1 3c c8 6c e9 3d a8 57 bf 3b e6 f6 82 3b
       0.025618628 0.113977015 0.005839307 0.0039967177
000330 b5 6c 3f 3d e4 5d 1c 3d fb 03 7f 3b 20 d6 98 3c
       0.04673453 0.03817548 0.0038912285 0.01865679
000340 e3 23 91 bb bb 86 0f 3c f0 18 28 bd 28 8d af 3c
       -0.004429327 0.00876015 -0.041039407 0.021429613
000350 02 cf 52 3c cf b2 92 3b ec 6e dc 3b 15 a4 a0 3b
       0.012866737 0.004476882 0.00672709 0.0049023726
000360 4f 9a 83 3c 2d de b5 3b 87 58 79 3c ab f6 82 3a
       0.016064791 0.005550167 0.0152188605 0.0009991726
000370 3e 46 0b bb 31 fa 74 bb 9a 84 02 bc a8 51 d3 3b
       -0.0021251584 -0.003738057 -0.007966185 0.006448943
000380 0b 30 99 3b 1c cd 3a bb 34 0c 85 3c 40 66 2e bc
       0.0046749166 -0.0028503602 0.01624117 -0.0106444955
000390 ab d9 11 bc b4 95 fb bb 79 a3 1a 3b a4 d2 35 bb
       -0.008901994 -0.007677758 0.0023595972 -0.002774396
0003a0 bc 00 c2 bb 1f 2f 55 bb 47 36 cf bb d5 82 ce 39
       -0.0059204977 -0.0032529307 -0.006323609 0.0003938886
0003b0 71 6a 67 3c b2 42 70 3c e1 47 8a 39 7d 84 48 3b
       0.014124499 0.014664339 0.00026374965 0.0030596547
0003c0 69 2d 57 3d 9b 9a 05 be 74 5b d4 3d 3b 59 69 be
       0.05253354 -0.13047259 0.10369006 -0.22787945
0003d0 c4 0e 39 be ab 3a c1 bc d0 09 c7 bc 53 10 47 be
       -0.18072039 -0.023587545 -0.024296671 -0.19439821
0003e0 c4 41 c2 bd 4e 53 4e be 05 9c 99 bd ce 1e d5 ba
       -0.094852 -0.20148966 -0.075004615 -0.0016259791
0003f0 bb cb c2 bc 5c 8d 9a bc 54 23 15 3d ef 00 74 bc
       -0.023778787 -0.018866234 0.036410645 -0.014892801

exp_avg_sq f4 [512, 16]
000000 cb 2e ff 3c e1 54 8b 3c cf 24 e8 3d 0c 88 bf 3c
       0.031150242 0.017008247 0.11335146 0.023380302
000010 5c 42 66 3c cb 1f 0e 3d 17 b8 50 3d 4e c2 f0 3c
       0.014053907 0.03469829 0.05095681 0.029389527
000020 18 76 aa 3d a3 5d 1a 3d 69 8c d1 3d 09 83 1b 3a
       0.08323306 0.037686955 0.10231859 0.00059323065
000030 11 31 9c 3c 58 77 e1 3c 6b 91 21 3d dc f5 d9 3b
       0.019066365 0.027522728 0.039445322 0.006651623
000040 e3 7f 44 3f e0 6a ad 3f 32 4e ce 3e e8 4c ba 3f
       0.7675764 1.3548241 0.40294033 1.455472
000050 f8 a9 b2 3f 3c 0f c3 3e 7b 6e 34 3f 18 cf 54 3f
       1.395812 0.3809756 0.7048108 0.831285
000060 80 da 4b 3f 58 77 59 3f a6 a5 86 3f 1a ef df 3b
       0.7963028 0.8494773 1.0519302 0.006833923
000070 a7 71 3f 3e ee 51 61 3e ed 4d 55 3b 57 6c 98 3d
       0.18695699 0.2200391 0.0032547668 0.07442539
000080 70 78 b6 3d 64 71 25 3e d8 b5 06 3d d1 9b 3c 3e
       0.089096904 0.16156536 0.032888263 0.18418814
000090 7a 68 2e 3e 90 ba 9b 3c 68 43 62 3c 66 cc 80 3d
       0.17032042 0.019009858 0.013810016 0.06288986
0000a0 35 69 62 3d b7 df 93 3d 22 e2 71 3d 48 db 00 3a
       0.055276114 0.072204046 0.059053548 0.0004915488
0000b0 4a fd c1 3c fc ca 50 3d 92 2c 80 3d b0 f4 52 3c
       0.023680348 0.05097483 0.06258501 0.012875721
0000c0 b9 73 21 3e 00 18 64 3e 31 a0 c2 3e 06 76 88 3e
       0.15766801 0.2227478 0.3801284 0.26652545
0000d0 db 3c 5d 3e 3b 8a b1 3d 75 47 fe 3d f5 e3 2e 3e
       0.21605246 0.086689435 0.12415973 0.17079146
0000e0 8f 43 a1 3e a0 5d 5c 3e a6 9c b3 3e 07 0e 09 3b
       0.31496856 0.2152009 0.3508045 0.0020912902
0000f0 b6 b7 74 3d 1d 90 8b 3d 27 07 84 3a ef 37 52 3d
       0.059745513 0.06814597 0.0010072932 0.051322874
000100 14 d3 9b 3d ed 91 f4 3d e7 a4 f0 3c 33 13 05 3e
       0.07608619 0.11941896 0.029375507 0.12995605
000110 ac cd f6 3d 2b 9f 3d 3d e0 16 86 3c 3e 22 80 3d
       0.120509475 0.046294373 0.01636833 0.06256531
000120 35 05 30 3d f2 c2 9a 3d b8 fa 18 3d a9 f8 e0 39
       0.042973716 0.07556714 0.03734848 0.00042909876
000130 ea fd 97 3c a0 e6 23 3d f4 a0 8e 3c b0 92 71 3c
       0.018553693 0.040014863 0.017410733 0.014744446
000140 5f 58 e5 3c 71 1b 52 3d f6 70 c4 3c d5 00 6e 3d
       0.02799624 0.0512957 0.023979645 0.058106262
000150 5d ff 55 3d 93 8b 12 3c f5 df e0 3c d4 dc a5 3c
       0.052245487 0.00894441 0.027450541 0.0202469
000160 58 c5 1e 3d f3 ef c2 3c 19 2e 52 3d ba e1 75 39
       0.03876242 0.023796057 0.051313493 0.0002344911
000170 0b 5e 27 3c cd 9d b1 3c 96 6b 8f 3c 90 b0 fd 3b
       0.010215293 0.02168169 0.017507356 0.007741995
000180 4b 12 da 3c 82 82 86 3c 02 1d aa 3d c7 b0 9f 3c
       0.02662005 0.016419653 0.08306314 0.019493474
000190 ef 88 4e 3c b8 24 f1 3c 51 1e 5c 3d 78 7c 07 3d
       0.01260589 0.029436454 0.05373985 0.033077687
0001a0 d8 64 3d 3d 11 17 27 3d 17 ac 40 3d d0 ed f6 39
       0.04623875 0.040793482 0.047039118 0.0004709796
0001b0 44 58 8b 3c 25 e4 fa 3c 3c 26 96 3d 48 80 c0 3b
       0.017009862 0.030626366 0.073315114 0.0058746673
0001c0 f0 60 24 3e ce 5f 8f 3e 2b 75 bd 3d 7f 3e 9b 3e
       0.16052604 0.2800278 0.09250864 0.30321118
0001d0 91 dc 92 3e 95 6f ac 3d 35 34 91 3d 34 68 05 3e
       0.28683904 0.0841972 0.07090036 0.13028032
0001e0 18 11 23 3e c8 50 09 3e 24 3c 5e 3e d8 84 be 3a
       0.1592449 0.13409722 0.2170263 0.001453544
0001f0 42 26 25 3d 26 64 73 3d 61 a5 bf 3c ef ea d6 3c
       0.04031969 0.05942168 0.023394288 0.026235072
000200 f9 8e c5 3b a5 29 04 3c 20 eb 16 3c 5c 43 12 3c
       0.0060290066 0.008066569 0.009211332 0.008927193
000210 be 86 02 3c 0b 53 44 3b 26 70 09 3c fc be 08 3c
       0.007966695 0.0029956724 0.008388555 0.0083463155
000220 94 30 fb 3b d6 f3 1b 3c af 63 df 3b 3d 7e 81 38
       0.007665703 0.009518584 0.006817303 6.174713e-05
000230 af 38 15 3b ed 8e 4f 3b 3f 5e 81 3c bc 44 32 3a
       0.0022769382 0.0031670884 0.01579201 0.00068004034
000240 38 01 8e 3c 81 1d 0f 3c 9a bb cd 3c 10 32 de 3b
       0.017334566 0.008735062 0.02511387 0.0067808703
000250 0a 40 c8 3b 51 02 f6 3c d3 b2 0b 3d 67 7d 9c 3d
       0.0061111497 0.030030401 0.034106087 0.07641106
000260 8c 5b b2 3c 33 9a a3 3d 0b 43 75 3c f8 e3 56 39
       0.021772169 0.079883955 0.014969598 0.00020493555
000270 a2 23 d2 3b 5f a2 9d 3b 76 8d cb 38 02 26 29 3b
       0.006412939 0.004810616 9.7061435e-05 0.0025810008
000280 d9 c7 5f 3d 13 6a d9 3d 51 e8 37 3d e4 5c ee 3d
       0.05463395 0.10615935 0.04489929 0.11638811
000290 d8 70 d7 3d 02 57 78 3c bc 30 83 3c dc 9d 01 3d
       0.1051957 0.015157463 0.01601445 0.031644687
0002a0 fe 97 1e 3d 1d 9e 16 3d db 3e 44 3d a7 76 ba 39
       0.03871917 0.036771882 0.047911506 0.00035565087
0002b0 6b a0 5b 3c 54 aa c8 3c 20 f6 c9 3b 2e 7d 3f 3c
       0.013404946 0.024495281 0.0061633736 0.01168756
0002c0 98 8d 04 3d 4c 72 83 3d 0d b4 df 3c d4 34 91 3d
       0.032361597 0.06418285 0.027307535 0.07090154
0002d0 fe 44 8e 3d 9f e5 e9 3b 34 ab 8f 3b 9f cb a0 3c
       0.06946753 0.0071379687 0.0043844227 0.019628344
0002e0 11 b2 73 3c a9 e5 b6 3c 0a 3b 3f 3c c4 9c 33 39
       0.014873997 0.022326307 0.011671791 0.0001712917
0002f0 67 fc d7 3b 59 f0 4a 3c 6a 4e b6 38 55 72 ea 3b
       0.006591368 0.012386405 8.693042e-05 0.0071547427
000300 0f f3 46 3d 94 22 ee 3c 32 ed 6d 3d f2 4b 04 3d
       0.048571642 0.029069223 0.058087535 0.03229899
000310 80 00 bc 3c 39 5f 81 3d 22 79 87 3d c2 00 88 3d
       0.022949457 0.063169904 0.06614901 0.066407695
000320 8b 89 ae 3d c4 52 96 3d 7d 7d d0 3d 47 8d 50 3a
       0.08522328 0.07340005 0.10180185 0.0007955622
000330 7a b4 b6 3c ed 21 c1 3c a6 3c c9 39 9b 6e b8 3c
       0.022302855 0.023575747 0.00038382894 0.022513678
000340 08 e5 ec 3b ca 9f 5f 3c 90 ce 66 3c 5a 5d 76 3c
       0.007229451 0.0136489365 0.014087334 0.015036905
000350 12 72 5c 3c 1a 1d 11 3b 9f a8 be 3a 4c cb 0d 3c
       0.013454931 0.002214259 0.0014546103 0.008654427
000360 7f a5 86 3b 29 b0 15 3c 7b 6c 73 3b df 21 6f 38
       0.004109084 0.009136238 0.0037143517 5.7013585e-05
000370 1f e6 f5 3a 4b 6e 30 3b 51 c0 b0 3b af 9e 78 3a
       0.0018760598 0.0026921208 0.0053940197 0.0009484095
000380 50 68 35 3c 5e 3d 6d 3c 88 d3 44 3b af c4 79 3c
       0.011072233 0.014479963 0.003003331 0.015244647
000390 90 cd 78 3c 25 8d 2a 3c 68 45 95 3a 9f 06 41 3c
       0.015185729 0.010409628 0.0011388483 0.011781364
0003a0 1f ae c6 3a c2 9c 46 3c d9 5e f1 3a 41 35 5f 38
       0.0015158093 0.012122335 0.0018415108 5.321694e-05
0003b0 e2 7b 6e 3b a8 46 d0 3b a3 77 46 3c e0 7c a5 3a
       0.0036389758 0.006356079 0.012113485 0.0012625717
0003c0 68 3f 35 3e aa 9b bc 3e d5 af 00 3e 9f 4c ca 3e
       0.17699969 0.36837512 0.12567075 0.39511582
0003d0 ed 1f b7 3e 1f 45 74 3d 74 39 1c 3e 75 fb 08 3e
       0.35766545 0.05963623 0.15256292 0.13377173
0003e0 fc 60 25 3e 63 5d 14 3e cc b9 40 3e c3 73 cc 3a
       0.16150278 0.14488749 0.18820876 0.0015598465
0003f0 71 cc 3b 3d f5 32 21 3d 5b 80 6f 3d 0c f9 97 3c
       0.045849267 0.039355237 0.05847202 0.018551372
