Solvation_1/Runs/Macro_TESA_Lin7/ep_90.pt (torch, 915476 bytes, 21 tensors)

linear_relu_stack.0.weight f4 [512, 16]
0	0x3e6f3ff9	0.23364247
1	0xbd5b72c6	-0.053576253
2	0x3d1794c8	0.037007123
3	0xbe5c8645	-0.21535595
4	0x3d6dba0c	0.058038756
5	0xbdf19eef	-0.11797892
6	0xbd1aed44	-0.03782393
7	0xbe3c7d9e	-0.18407294
8	0xbe461056	-0.19342169
9	0xbd40c4a0	-0.047062516
10	0x3e1365ee	0.14394352
11	0xbdc7eee5	-0.097623624
12	0xbdd848d6	-0.10560767
13	0x3dd71e64	0.105038434
14	0x3e03ca9d	0.1287026
15	0xbef83b4b	-0.48482737
16	0x3d5c8929	0.053841744
17	0x3e5d46c6	0.21609029
18	0xbe31c54d	-0.1736042
19	0xbdcf6a12	-0.10127653
20	0xba362dea	-0.0006949591
21	0x3cd75369	0.02628489
22	0x3e08c4a4	0.13356262
23	0x3ebf6941	0.3738499
24	0x3eb2927f	0.34877393
25	0xbe640eef	-0.22271322
26	0x3dc10cf8	0.09426302
27	0xbb2c23e4	-0.002626651
28	0xbd95fa64	-0.07323149
29	0x3c80a2bd	0.0157026
30	0xbde627b6	-0.11238043
31	0xbd2409dd	-0.04004847
32	0xbde8a086	-0.113587424
33	0xbdc92655	-0.098217644
34	0xbe382a06	-0.1798478
35	0x3e18f6c9	0.14937891
36	0x3d8d9597	0.069132976
37	0xbe2a3090	-0.16620088
38	0xbe4ec08b	-0.20190637
39	0xbe7957ff	-0.24349974
40	0x3e3c7592	0.18404225
41	0x3e1a1a53	0.15049104
42	0xbe11829e	-0.14209983
43	0x3e8fd30b	0.280907
44	0x3ddeaefb	0.108732186
45	0x3df3b0fd	0.11898992
46	0xbcf2dbda	-0.029645849
47	0xbe4110b4	-0.18854028
48	0x3e2a855c	0.16652435
49	0xbdca4965	-0.0987728
50	0x3e55a58d	0.20863934
51	0xbdad146c	-0.08451161
52	0xbd3935d9	-0.04521737
53	0xbe70c89d	-0.23514028
54	0xbc931810	-0.01795581
55	0x3ddc2a9d	0.10750315
56	0x3e4e918a	0.20172706
57	0xbea6c0c5	-0.32568946
58	0x3e3c5027	0.1838995
59	0x3d346e2f	0.04405039
60	0xbe5086ef	-0.20363973
61	0xbdfbdf8e	-0.12298499
62	0xbdb7766c	-0.08958134
63	0x3e4e6bfd	0.20158382
64	0xbe42f259	-0.19037761
65	0x3e49123b	0.1963586
66	0xbe6c9109	-0.23102202
67	0xbd63b802	-0.055595405
68	0x3ad460ca	0.0016203162
69	0x3e3df312	0.18549755
70	0xbdfaa334	-0.1223816
71	0xbe8947fc	-0.26812732
72	0xbe1aa4b0	-0.15101886
73	0x3e1c7638	0.15279472
74	0xbe551a6d	-0.20810862
75	0x3e7d5dc4	0.247428
76	0x3e5ff4e2	0.21870759
77	0x3e4b5712	0.19857433
78	0x3e02b986	0.12766084
79	0xbe519989	-0.20468725
80	0xbe132f0e	-0.14373419
81	0xbe3fde98	-0.18737257
82	0x3c8ee822	0.017444674
83	0x3ceba006	0.028762829
84	0x3d87af29	0.06625206
85	0xbdf55474	-0.11978999
86	0x3e49e893	0.19717626
87	0xbcba722f	-0.022759525
88	0x3dbdcdbc	0.09267756
89	0xbe8ea88a	-0.2786296
90	0x3d69dab8	0.057093352
91	0xbe81e97c	-0.25373447
92	0x3e25437c	0.16139024
93	0xbd553207	-0.052049663
94	0x3d7b28c7	0.061318185
95	0x3c9575e2	0.018244687
96	0x3e6f17e8	0.23348963
97	0xbe14dd9b	-0.14537661
98	0x3d4157b5	0.047202785
99	0xbdbbc806	-0.09169011
100	0xbe7ee62a	-0.24892488
101	0xbe463ec2	-0.19359878
102	0x3e44fd3e	0.19237229
103	0xbe0a26a1	-0.13491298
104	0xbe743148	-0.23846924
105	0xbd3e6363	-0.0464815
106	0x3d939825	0.07206754
107	0x3e02a539	0.1275834
108	0xbd947a06	-0.072498366
109	0x3e2fe528	0.1717726
110	0x3e4d257f	0.20033835
111	0xbea21fd5	-0.3166491
112	0x3be8601d	0.0070915357
113	0x3df5f305	0.12009243
114	0xbd8c0c5f	-0.06838297
115	0xbe4e4331	-0.20142819
116	0x3df0449f	0.117318384
117	0x3da8f6a9	0.08250172
118	0xbe2b31e3	-0.16718249
119	0xbe4c6840	-0.19961643
120	0x3e5f11b2	0.21784094
121	0x3e694709	0.22781004
122	0x3e56c062	0.20971826
123	0x3eb5bd49	0.35495976
124	0xbe8f9f99	-0.2805145
125	0x3e755211	0.23957087
126	0x3c90c2f1	0.01767108
127	0xbc6b7fb3	-0.014373708
128	0xbd95d1a2	-0.07315375
129	0xbe71e442	-0.2362223
130	0xbda6864e	-0.08131085
131	0x3d9c97dc	0.076461524
132	0x3e17b91f	0.14816712
133	0xbcc8927a	-0.024483908
134	0x3dc4455c	0.09583542
135	0xbd68ab72	-0.056804128
136	0xbcd9c517	-0.026583238
137	0x3d730bde	0.05933749
138	0xbe04fca1	-0.12986995
139	0x3e033cf7	0.12816225
140	0xbe5ce1c2	-0.21570495
141	0xbc95406e	-0.018219199
142	0x3e1c54f2	0.15266779
143	0xbe0e6205	-0.13904579
144	0x3e1d39f5	0.1535414
145	0xbdddb804	-0.10826114
146	0x3d72800e	0.059204154
147	0xbea47e6b	-0.321277
148	0xbe45d213	-0.19318418
149	0x3e1ba0fc	0.1519813
150	0x3bb1d127	0.005426544
151	0x3e2836b2	0.16427115
152	0x3d74dea2	0.05978263
153	0xbdcd8b56	-0.10036342
154	0xbea331bd	-0.31873885
155	0xbe2870d4	-0.1644929
156	0xbe19f849	-0.1503612
157	0xbddde3da	-0.10834475
158	0xbdc86851	-0.09785522
159	0xbe7970c0	-0.24359417
160	0xbe049571	-0.12947632
161	0x3e0351c2	0.12824157
162	0x3e0a72e0	0.13520384
163	0x3d3ab519	0.045582864
164	0xbe43f0d8	-0.19134843
165	0xbdb4d29a	-0.088292316
166	0xbd9ff33c	-0.07810065
167	0x3d6da5a5	0.0580193
168	0x3e5ab184	0.2135678
169	0xbe8c4b15	-0.27401033
170	0xbd842f57	-0.06454342
171	0xbe9aa184	-0.30201352
172	0x3afe6912	0.0019409976
173	0xbd35ae95	-0.044355948
174	0x3dae2453	0.08503022
175	0x3c9b673f	0.01897013
176	0xbd833cd2	-0.06408085
177	0x3cb92b1b	0.022603562
178	0x3dc6046f	0.096688144
179	0xbe239c0b	-0.15977494
180	0x3e174f4a	0.1477634
181	0xbe2c8cf3	-0.16850643
182	0xbe2c6c0d	-0.16838093
183	0x3b61607f	0.0034389792
184	0xbec6a8a6	-0.38800544
185	0xbe1b2120	-0.15149355
186	0xbdc43c86	-0.095818564
187	0xbe9915bd	-0.29899397
188	0xbd8ab4b0	-0.06772745
189	0x3de98f97	0.11404341
190	0xbe02dd13	-0.12779646
191	0x3aa08a43	0.0012248236
192	0x3dbc62a2	0.091985
193	0xbd97a239	-0.074039884
194	0xbe779201	-0.2417679
195	0xbe11aeb7	-0.14226805
196	0xbe638e39	-0.22222222
197	0x3e0b04f7	0.13576113
198	0xbe4aa7ac	-0.19790524
199	0xbe6990bb	-0.22809117
200	0x3dd157c9	0.10221822
201	0x3e6ac335	0.22926028
202	0xbd3e8b00	-0.04651928
203	0x3e804b23	0.25057325
204	0xbe4ac5de	-0.19802043
205	0xbe4a7a76	-0.19773278
206	0xbd8bb64c	-0.0682188
207	0x3e5e2c31	0.21696545
208	0xbd21cb4b	-0.039500516
209	0x3e27b801	0.16378786
210	0x3c084039	0.008316093
211	0x3dfd3847	0.1236425
212	0xbd10fcec	-0.035397455
213	0xbde07e07	-0.10961538
214	0xbd96adbc	-0.07357356
215	0xbd997e5b	-0.074948035
216	0xbe2ae667	-0.16689454
217	0x3e0ede2c	0.1395194
218	0xbd8d2156	-0.06891124
219	0x3e5655ba	0.2093114
220	0x3de148f0	0.1100024
221	0x3e4d9727	0.20077191
222	0x3e337dfe	0.17528531
223	0x3e188980	0.14896202
224	0x3e507287	0.20356189
225	0x3e75ad72	0.23991945
226	0x3b94de54	0.004543105
227	0xbcd2517a	-0.025673617
228	0x3d524eb3	0.051344585
229	0x3ce31368	0.027719215
230	0xbe7c903c	-0.24664396
231	0x3e61bd47	0.2204486
232	0x3e20f6ac	0.15719098
233	0x3d8fc646	0.070202395
234	0xbe5ee12a	-0.21765581
235	0xbd87e8d1	-0.06636203
236	0x3da2e772	0.07954301
237	0x3e4fa0cd	0.20276184
238	0xbd92e3d6	-0.071723625
239	0x3ce0bc76	0.027433615
240	0x3da3c3c9	0.079963274
241	0x3e184896	0.1487144
242	0xbdb8f2fd	-0.09030721
243	0xbc84b6b8	-0.016200408
244	0xbd6f53e7	-0.058429625
245	0xbe6aa811	-0.22915675
246	0x3dd51159	0.104036994
247	0x3e4db574	0.2008875
248	0xbe62919d	-0.2212586
249	0xbe87d22a	-0.2652753
250	0x3e6acaf5	0.22928984
251	0xbebadddb	-0.36497387
252	0xbd2c6d4c	-0.04209642
253	0xbd8fb9d4	-0.07017866
254	0x3e2b85e5	0.16750295
255	0xbe39564b	-0.18099324

linear_relu_stack.0.bias f4 [512]
0	0xbe171672	-0.14754656
1	0x3c531c16	0.012885114
2	0x3e121a29	0.14267792
3	0xbd728279	-0.05920646
4	0x3e2cbad8	0.1686815
5	0xbe1df20c	-0.15424365
6	0x3dbab864	0.09117201
7	0x3e1bcef0	0.15215659
8	0x3e0cc4c7	0.1374694
9	0xbe695fff	-0.22790526
10	0x3e4ef839	0.20211877
11	0xbe8306da	-0.25591165
12	0x3e1767b5	0.14785655
13	0x3e274247	0.16333877
14	0xbe580222	-0.21094564
15	0xbcd884bc	-0.02643048
16	0x3dcdf4a3	0.100564264
17	0xbd6bdd06	-0.05758383
18	0xbddf5cbd	-0.1090636
19	0xbe6bd10b	-0.23028962
20	0xbdd7404a	-0.10510309
21	0xbe1a3e0f	-0.15062736
22	0x3d72e43c	0.059299693
23	0xbd3f568d	-0.0467134
24	0xbe636f5b	-0.22210447
25	0xbbcc8868	-0.006241847
26	0xbe6ab0ea	-0.2291905
27	0xbdc19b0e	-0.094534025
28	0xbd3219db	-0.04348169
29	0x3c6e4b0a	0.014544258
30	0x3e264e14	0.16240722
31	0x3d4a3357	0.049365368
32	0xbe438e9a	-0.19097367
33	0xbe026bc0	-0.12736416
34	0xbe5c1d50	-0.21495557
35	0x3e54db6e	0.20786831
36	0xbe9c3fd7	-0.30517456
37	0x3e024f82	0.12725642
38	0x3dfac404	0.12244418
39	0xbe9d0ad0	-0.30672312
40	0xbe04713a	-0.12933818
41	0xbddaf881	-0.106919296
42	0xbe90c543	-0.282755
43	0xbe8054e9	-0.2506478
44	0xbdb78571	-0.08960999
45	0x3dbe5822	0.09294154
46	0xbe2fe527	-0.17177258
47	0x3da3724c	0.07980785
48	0xbd1c74f6	-0.03819748
49	0xbe9c2d68	-0.30503392
50	0xbe50a48e	-0.20375273
51	0xbe612b77	-0.21989237
52	0xbe3996e8	-0.18123972
53	0x3dca6aa2	0.0988362
54	0x3c71138d	0.014714134
55	0x3dfe49f5	0.1241645
56	0x3e1e98dc	0.15487999
57	0xbe52d52f	-0.20589136
58	0x3e817706	0.2528612
59	0x3e5f9a04	0.21836096
60	0xbe21e2e9	-0.15809216
61	0xbe9ef17a	-0.31043607
62	0x3e022038	0.12707603
63	0xbdd3ee54	-0.10348192
64	0x3d8cad1a	0.06868954
65	0xbdbe2bb3	-0.09285679
66	0xbdd8c292	-0.10583986
67	0xbd943d5d	-0.072382666
68	0xbd860cc0	-0.065454006
69	0x3a9d45cd	0.0011998952
70	0x3dc200c3	0.094728015
71	0xbe80ca45	-0.2515432
72	0xbd7c7c0c	-0.061641738
73	0xbe469ca0	-0.19395685
74	0x3d05ef0b	0.032698672
75	0x3d8958a3	0.06706359
76	0x3d71f0d1	0.05906755
77	0xbe14bde4	-0.14525563
78	0xbe7f3490	-0.24922395
79	0xbe263853	-0.16232423
80	0x3dfd3d34	0.12365189
81	0xbba200a5	-0.0049439245
82	0xbd595fab	-0.05306975
83	0xbe8a5bd4	-0.27023184
84	0xbe60b821	-0.2194524
85	0xbe0232f5	-0.12714751
86	0xbe29f344	-0.16596705
87	0x3dfd1e07	0.12359243
88	0xbdc1efef	-0.09469592
89	0xbe9225ee	-0.28544563
90	0xbdeafd3c	-0.11474082
91	0xb9af3cf6	-0.0003342402
92	0x3e41ec3e	0.18937775
93	0x3e37fe08	0.17967999
94	0x3e1f25b9	0.15541734
95	0x3e40d8d3	0.18832712
96	0x3d03cbbd	0.03217672
97	0x3d7b788b	0.061394256
98	0xbd95e8d6	-0.073198006
99	0xbe12b313	-0.14326124
100	0xbdbe22f8	-0.092840135
101	0xbdf048d1	-0.117326386
102	0xbde2b810	-0.110702634
103	0xbeb10790	-0.34576082
104	0x3d0e4a6b	0.03473894
105	0x3dfed8cb	0.12443694
106	0x3d4ce8db	0.050026756
107	0x3e5941d5	0.21216519
108	0xbe4578e7	-0.19284402
109	0x3da77b0b	0.081777655
110	0x3e08fade	0.13376948
111	0xbd5fc4cf	-0.05463105
112	0xbc75588f	-0.014974727
113	0xbe50150e	-0.20320532
114	0xbe76e907	-0.2411233
115	0xbe1cfc0c	-0.15330523
116	0xbe5e4d5d	-0.21709199
117	0xbd6c0116	-0.057618223
118	0xbe7d5b17	-0.2474178
119	0xbe27fe2c	-0.16405553
120	0xbe3e54e2	-0.18587068
121	0xbdbe3274	-0.09286967
122	0xbe1b5459	-0.15168895
123	0x3e694e95	0.22783883
124	0xbe5dab0a	-0.21647277
125	0x3e47b1fa	0.19501486
126	0xbde17519	-0.11008663
127	0x3d8a3ddf	0.06750082
128	0x3d9f0ae7	0.07765751
129	0xbe033e2d	-0.12816687
130	0x3e6315e0	0.22176313
131	0x3e4bf88d	0.19919033
132	0xbe7ed355	-0.24885304
133	0xbe39f57f	-0.18160056
134	0x3e310a60	0.17289114
135	0x3e35df6b	0.17761008
136	0xbce3e5d8	-0.027819559
137	0x3d40ff74	0.04711862
138	0x3e2831e1	0.16425277
139	0xbe2dbf58	-0.16967523
140	0x3e289070	0.16461349
141	0x3de10e0d	0.10989008
142	0xbe33ae84	-0.17547041
143	0xbc9c42d4	-0.019074835
144	0x3d32856a	0.043584265
145	0xbdb907ee	-0.090347156
146	0xbe38020e	-0.17969534
147	0xbd21e17f	-0.03952169
148	0xbb7d1d41	-0.0038622173
149	0xbe86fe0e	-0.26365703
150	0xbde532b8	-0.111913145
151	0x3e3c70dc	0.18402427
152	0x3d1b7de8	0.03796187
153	0xbe3f2652	-0.18666962
154	0xbe25a834	-0.16177446
155	0x3dc4143a	0.095741704
156	0xbe3711e4	-0.17877918
157	0xbd24956a	-0.040181555
158	0xbe16b175	-0.14716132
159	0x3d18053b	0.037114363
160	0xbe273027	-0.16326962
161	0x3e37af1e	0.17937896
162	0xbd004b4c	-0.03132181
163	0x3c05fc19	0.008177781
164	0xbe7c846f	-0.24659894
165	0x3e6601d1	0.2246163
166	0xbe1a4043	-0.15063576
167	0x3db3863a	0.08765836
168	0xbe3a63d6	-0.18202147
169	0xbe1246b5	-0.14284785
170	0x3b8eae10	0.004354246
171	0xbcedda3f	-0.029034732
172	0x3dec8492	0.11548723
173	0x3ca5a1f9	0.020218836
174	0x3e1a9ff9	0.15100087
175	0x3ced435f	0.02896279
176	0x3dde092c	0.10841593
177	0xbd4b83e0	-0.049686313
178	0x3e4558a4	0.19272095
179	0x3e74488d	0.23855801
180	0xbdcd885e	-0.100357756
181	0x3d25d5c3	0.040487062
182	0x3adc3990	0.0016801823
183	0xbe4522cc	-0.19251555
184	0xbe8e64da	-0.2781132
185	0x3d4ad955	0.04952367
186	0xbe5aeebc	-0.21380132
187	0x3d9eb619	0.07749576
188	0x3cb891cd	0.02253046
189	0x3d84ac93	0.064782284
190	0xbdeea22a	-0.11652024
191	0xbe4aaa3a	-0.19791499
192	0x3d7decdb	0.06199346
193	0xbe19ad08	-0.15007412
194	0x3d9b1933	0.07573166
195	0x3e200abb	0.15629093
196	0x3c181f1f	0.009284764
197	0xbdc85f7b	-0.097838365
198	0xbe20bc7a	-0.15696898
199	0xbe23e784	-0.16006285
200	0xbde02030	-0.10943639
201	0xbe0eb75e	-0.13937137
202	0xbd7e289f	-0.062050458
203	0x3d8f3aef	0.069936626
204	0x3e0d23bc	0.13783163
205	0xbe5d6009	-0.21618666
206	0xbdf014ff	-0.11722755
207	0x3dd66d95	0.1047012
208	0xbe04c557	-0.12965904
209	0xbe330188	-0.17481053
210	0xbd5a1dc0	-0.053251028
211	0x3e4fea72	0.20304278
212	0xbe088d7d	-0.13335223
213	0x3e3a152d	0.1817214
214	0xbcc04e69	-0.023474889
215	0x3d84b432	0.06479682
216	0x3e91933f	0.28432652
217	0x3d63af27	0.05558696
218	0xbda1eb4e	-0.07906209
219	0x3e1f1b1b	0.15537684
220	0xbe3936ba	-0.18087283
221	0xbe9251fc	-0.28578174
222	0x3e75c1d1	0.23999716
223	0x3e43a973	0.19107608
224	0xbe5bb6c0	-0.21456432
225	0xbe175879	-0.14779843
226	0xbe41e4dd	-0.1893496
227	0xbe349b0a	-0.17637268
228	0x3dfd9f76	0.123839304
229	0xbe259851	-0.16171385
230	0x3e50d27b	0.20392792
231	0x3e0a2c02	0.1349335
232	0xbdc1f7b4	-0.09471074
233	0xbd0e9608	-0.03481105
234	0xbde62e60	-0.11239314
235	0xbe88382c	-0.26605356
236	0x3dab4e27	0.08364516
237	0x3e1d887c	0.15384096
238	0x3e20f2a4	0.1571756
239	0x3e2c0de9	0.16802181
240	0xbd91d14d	-0.07119999
241	0xbe25abbc	-0.16178793
242	0xbc101950	-0.0087950975
243	0xbe1b048a	-0.1513845
244	0x3d963e0e	0.07336055
245	0x3d50a6d4	0.05094035
246	0x3cd93c16	0.026517909
247	0x3de25dfe	0.11053084
248	0x3e2f72d2	0.17133644
249	0x3dbde62c	0.092724174
250	0xbe18f263	-0.14936213
251	0xbdc3fe96	-0.09570043
252	0xbe43c3c3	-0.19117646
253	0xbdc8307b	-0.09774872
254	0x3d41ae86	0.04728558
255	0xbd95d932	-0.07316817

linear_relu_stack.2.weight f4 [128, 512]
0	0xbb9b6952	-0.00474278
1	0x3d08fa6a	0.03344194
2	0x3d086b70	0.033305585
3	0x3cfdb3b2	0.030969474
4	0xbd08e3a9	-0.03342024
5	0x3b8a3c01	0.004218579
6	0x38a0bcfb	7.664595e-05
7	0xbcb5266f	-0.022113053
8	0xbc56bfb8	-0.013107233
9	0x3ced1323	0.02893979
10	0xbcc13463	-0.02358455
11	0xbc82d4b5	-0.015970567
12	0xbd4dedb5	-0.050275523
13	0xbd228a9c	-0.03968297
14	0xb93a5f25	-0.00017773786
15	0x3d2a21af	0.04153603
16	0x3ccb6608	0.024828926
17	0xbc01fc8f	-0.00793375
18	0xbb7e402f	-0.003879558
19	0xbd1f5e2b	-0.038908165
20	0x3c65d03e	0.0140267
21	0xbcf3560e	-0.02970412
22	0x3cc477f1	0.023982974
23	0xbccdf9bd	-0.025143499
24	0xbd08cf1f	-0.03340065
25	0x3c6c64c5	0.014428322
26	0xbc25255a	-0.010079706
27	0x3c56ceb4	0.013110805
28	0xbb2bfc1e	-0.0026242803
29	0xbd562a7a	-0.052286603
30	0xbc2565e6	-0.010095095
31	0xbcb4d5fd	-0.022074694
32	0x3cf8b39f	0.030359088
33	0xbcf3ebb6	-0.029775482
34	0xbd22433d	-0.039614905
35	0x3c2948f0	0.010332331
36	0xbcfa1c0c	-0.030530952
37	0xbc9816d2	-0.01856557
38	0x3d015052	0.03157074
39	0xbc8a5ac8	-0.016888991
40	0x3d0f3d24	0.034970418
41	0x3ae51755	0.0017478267
42	0xbd1640eb	-0.036683004
43	0x3c51488a	0.012773642
44	0x3d34130d	0.04396348
45	0x3bc9c3f3	0.006157392
46	0x3c81ab53	0.015828764
47	0xbb9aff5d	-0.0047301487
48	0xbcde5fe4	-0.027145334
49	0x3d2e3ab2	0.042536445
50	0x3bf70766	0.0075387238
51	0xbcd1155f	-0.025522886
52	0xbc122f2a	-0.008922378
53	0xbc872f3b	-0.016502013
54	0x3d0e2ac2	0.034708746
55	0xbd42e6da	-0.04758344
56	0x3bf4ed8b	0.0074746064
57	0xbcdab54d	-0.02669778
58	0x39d2f95d	0.0004024011
59	0xbc36ab27	-0.011149204
60	0x3cc57858	0.024105236
61	0xbd0ae16c	-0.033906385
62	0xbb81d7b6	-0.0039624823
63	0xbc2cef52	-0.010555105
64	0xbd22963f	-0.039694067
65	0x3680ff27	3.844401e-06
66	0xbbe75b33	-0.0070604323
67	0x3cfd5748	0.030925408
68	0x3cb072e8	0.021539167
69	0x3c8e1c00	0.017347336
70	0x3c62ee25	0.013850723
71	0x3b481eb7	0.0030535886
72	0xbc7175fc	-0.014737602
73	0xbc86e6e4	-0.01646752
74	0xbd3e7d04	-0.046505943
75	0xbb7bff19	-0.003845161
76	0x3d1b8ef7	0.03797814
77	0xbce32e39	-0.027732002
78	0x3c43e951	0.011957482
79	0x3a93f452	0.0011288023
80	0x3c494d55	0.012286504
81	0x3d05db44	0.03267981
82	0x3d09085a	0.03345523
83	0xbd22d075	-0.03974958
84	0x3b1e7e07	0.0024184005
85	0xbc28fda6	-0.010314381
86	0x3ba31dd9	0.0049779234
87	0x3c83ae42	0.016074304
88	0xbc8c3916	-0.017117064
89	0x3cc3ca6d	0.023900235
90	0xbceaf8cd	-0.02868309
91	0xbcc3677b	-0.023853054
92	0x3c84ea43	0.016224986
93	0xbd595a9f	-0.05306494
94	0xbd2503f8	-0.040286988
95	0x3c8ddea1	0.017318072
96	0xbcd19572	-0.025583956
97	0x3cbc7adc	0.023007803
98	0xbc9b718f	-0.018975047
99	0xbccf6c83	-0.025320297
100	0x3c810680	0.01575017
101	0xbce0d03a	-0.02744304
102	0xbcd1f827	-0.025631024
103	0xbd0d5c5f	-0.03451192
104	0xbce248a8	-0.027622536
105	0xbb08535b	-0.0020801637
106	0xbd221531	-0.03957099
107	0xbbd23244	-0.0064146835
108	0xbcf78570	-0.030214995
109	0xbd09820d	-0.03357129
110	0xbc21faf5	-0.009886493
111	0xbccfd369	-0.025369363
112	0x3d162aa7	0.03666177
113	0x3d049ac7	0.03237417
114	0xbd060cd0	-0.032727063
115	0xbd3662c8	-0.0445278
116	0x3c89c0ce	0.01681557
117	0xbd384afe	-0.044993393
118	0xbbedebf6	-0.0072607948
119	0x3ca80acf	0.020512966
120	0xbc1e6ec4	-0.009669963
121	0x3ca3a537	0.019976242
122	0x3cd929a8	0.026509121
123	0xbc6695a4	-0.014073763
124	0x3c8c8b93	0.017156398
125	0xbcabd6f4	-0.020976521
126	0xbc922936	-0.017841917
127	0x3bf85ba1	0.0075792824
128	0x3bae3750	0.0053166524
129	0xbb83e8f1	-0.0040255715
130	0x39b21c29	0.00033971787
131	0x3cb5e22b	0.022202572
132	0xbd58ba12	-0.052911825
133	0xbcf7be52	-0.030242119
134	0xbb591b4c	-0.0033127842
135	0x3d08781c	0.03331767
136	0x3c8827d8	0.016620561
137	0xbd0dc03c	-0.034607157
138	0xbc3769f1	-0.011194692
139	0xbd416eb2	-0.047224708
140	0x3ca9b097	0.020714087
141	0xbd587d4b	-0.052853864
142	0x3cd9f8a6	0.026607823
143	0x3ca4c6c2	0.020114306
144	0xbcaec398	-0.0213335
145	0x3cdde2d6	0.027085703
146	0x3cc73bfc	0.024320595
147	0xbcdafc79	-0.026731716
148	0xbbf75480	-0.007547915
149	0xbaae8600	-0.0013315082
150	0x3b6bcebe	0.0035981382
151	0xbd198a37	-0.037485328
152	0x3c904528	0.017611101
153	0xbd13fefd	-0.036131848
154	0xbd0b3a89	-0.03399137
155	0x3b435bb7	0.0029809305
156	0xbc2e2eab	-0.010631244
157	0xbd1d146d	-0.038349558
158	0xbd12d37a	-0.03584621
159	0xbcf07685	-0.02935339
160	0x3c095620	0.00838235
161	0xbcd020ac	-0.025406204
162	0xbce85bd6	-0.028364103
163	0xbcb3f4f3	-0.021967387
164	0xbcf824f0	-0.03029105
165	0x3c0577c4	0.00814623
166	0x3cea7592	0.028620515
167	0xbccc7a80	-0.024960756
168	0xbd0d13cb	-0.034442704
169	0xbd30270f	-0.043006
170	0x3c86957a	0.016428698
171	0xbb01221c	-0.0019704169
172	0xbcdef4b1	-0.027216287
173	0x3d29c2e5	0.04144563
174	0x3c322105	0.01087213
175	0x3cd380ba	0.025818218
176	0xbcb750d1	-0.022377403
177	0x3ca4e22f	0.020127384
178	0xbc74b39a	-0.0149353985
179	0x3cbefb9f	0.023313342
180	0xbd212ed4	-0.0393513
181	0x3bbc8d6e	0.0057541644
182	0xbcbe3e6a	-0.02322312
183	0x3ce9d333	0.02854309
184	0xbb0d43cf	-0.002155531
185	0xbd0553de	-0.032550685
186	0xbc5980f8	-0.013275377
187	0xbce9363c	-0.028468244
188	0x3d034cb2	0.032055564
189	0xbb6c4940	-0.0036054403
190	0xbd3fe751	-0.04685146
191	0xbd236e7a	-0.03990028
192	0xbd401ea9	-0.04690424
193	0xbd5ae31c	-0.053439245
194	0xbc509b5d	-0.012732354
195	0xbb043fb1	-0.0020179565
196	0x3d0b92df	0.034075614
197	0x3d49e3d6	0.049289547
198	0x3d0b3ada	0.033991672
199	0x3cdd4be3	0.027013725
200	0xbc955f17	-0.018233819
201	0xbcae06dd	-0.021243507
202	0x3d0060ad	0.031342197
203	0x3c9de6ec	0.019275151
204	0xbd327253	-0.04356606
205	0x3c8a6339	0.016893016
206	0xbd0e4de5	-0.034742255
207	0x3cb620e9	0.02223249
208	0x3d1ee5b6	0.03879329
209	0xbc93438d	-0.017976547
210	0x3c84d8d8	0.01621668
211	0xbcc97d7a	-0.024595965
212	0xbbe649b9	-0.0070278314
213	0x3c52cec6	0.012866681
214	0xbcf869db	-0.030323913
215	0xbcd8c10a	-0.026459236
216	0xb972894a	-0.00023130063
217	0xbd0c823f	-0.0343039
218	0x3cc6884c	0.024234913
219	0xbbe7a22b	-0.0070688925
220	0x3c06f9e6	0.008238291
221	0xbbc15220	-0.0058996826
222	0xbc67879b	-0.014131452
223	0xbbf3f51f	-0.007444992
224	0xbd00421f	-0.031313058
225	0x3c105c64	0.00881109
226	0xbc94f7e1	-0.018184604
227	0x3cd53ddc	0.026030473
228	0x3cf99c1a	0.030469943
229	0xbb925805	-0.004466059
230	0xbc800619	-0.015627908
231	0xbd3ca361	-0.046054248
232	0x3b9a60ad	0.0047112317
233	0x3d076adc	0.033060893
234	0x3d211fc4	0.039336935
235	0xbcd70fdf	-0.026252685
236	0xbd39627c	-0.045259938
237	0x3cf7f8e0	0.03027004
238	0x3ce3af80	0.027793646
239	0xbd1cb63b	-0.038259726
240	0xbd001e4d	-0.031278897
241	0xbc7aa3b1	-0.015297816
242	0x3cc9906e	0.024605002
243	0xbcc98591	-0.024599822
244	0x395c4ebd	0.00021010167
245	0x3b5039b3	0.0031772673
246	0xbab36772	-0.0013687445
247	0xbd319c5c	-0.043362007
248	0xbd3af197	-0.045640554
249	0x3d123265	0.03569259
250	0x3b1977ee	0.002341743
251	0xbc94081c	-0.018070273
252	0x3cfa66ea	0.030566651
253	0xbcf1d63c	-0.0295211
254	0x3c95c6f3	0.018283343
255	0x3bd3e6c0	0.0064667165

linear_relu_stack.2.bias f4 [128]
0	0xbd4bc0ca	-0.049744405
1	0xbceeda0c	-0.029156707
2	0xbc340caf	-0.010989352
3	0x3cefa175	0.029251793
4	0x3d3ab68c	0.045584247
5	0xbc967816	-0.018367808
6	0xbbe4604f	-0.0069694887
7	0x3ceb0a03	0.028691297
8	0x3cb49052	0.022041474
9	0x3c2be254	0.010490973
10	0xbca2310f	-0.019798784
11	0x3ba90dab	0.0051591
12	0xbcc67089	-0.024223583
13	0xbc56097c	-0.013063785
14	0x3cdd290e	0.026997115
15	0xbd4c3fd6	-0.049865566
16	0x3d51733f	0.051135298
17	0x3ceffbe1	0.02929491
18	0x3d11d8ee	0.03560727
19	0x3ce1f170	0.027580947
20	0x3d1fb9f0	0.038995683
21	0x3d064cbb	0.03278802
22	0x3c9ed1e6	0.019387197
23	0xbce72d80	-0.028219938
24	0xbbc6ff1b	-0.0060728914
25	0xbc17de09	-0.009269246
26	0xbb361186	-0.002778144
27	0x3c15aab3	0.009134936
28	0x3d1dcfa6	0.038528107
29	0x3d1769e9	0.03696624
30	0x3d498d4c	0.049207017
31	0x3c9648ae	0.018345203
32	0xbd333a16	-0.043756567
33	0x3d16d541	0.03682447
34	0xbc79e6d5	-0.015252789
35	0xbc13303d	-0.008983669
36	0x3affe6a6	0.0019523695
37	0xbd2895a1	-0.041158322
38	0x3cec0ddd	0.028815204
39	0x3d0d12e4	0.034441844
40	0x3d771718	0.06032476
41	0xbdce57d3	-0.10075345
42	0xbc948d29	-0.018133717
43	0x3c6b6dba	0.014369423
44	0x3cf721cc	0.030167483
45	0x3bb96102	0.005657316
46	0x3c92434c	0.017854355
47	0xbcd0c901	-0.025486471
48	0xbbeb876c	-0.0071877744
49	0x3c063a4a	0.008192608
50	0x3d45c085	0.048279304
51	0x3d1429d6	0.03617271
52	0xb9f45447	-0.00046602098
53	0xbccdfea0	-0.025145829
54	0x3d50fa34	0.051019862
55	0xbd467a1b	-0.048456293
56	0xbd393d37	-0.045224395
57	0x3d5b88d4	0.053597286
58	0xbc823916	-0.015896361
59	0xbcbd7876	-0.02312873
60	0x3cb44da8	0.022009686
61	0xbd415e83	-0.047209274
62	0xbc47933d	-0.0121811
63	0x3cc23077	0.02370475
64	0xbd2c4e4d	-0.04206686
65	0xbd4c8f4e	-0.049941353
66	0xbc148af4	-0.009066332
67	0xbc6dc1f9	-0.014511579
68	0xbd103a84	-0.035212055
69	0x3b34ac52	0.0027568531
70	0xbb34f8f8	-0.0027614217
71	0x3d19111d	0.037369836
72	0xbcba5b7b	-0.0227487
73	0x3c4aa623	0.012368712
74	0xbd3b68f1	-0.045754377
75	0xbc8dd3c5	-0.017312894
76	0xbc535b96	-0.012900254
77	0x3c1983aa	0.00936977
78	0xbcdcf628	-0.026972845
79	0x3ce61c36	0.028089624
80	0x3d0ab831	0.033867065
81	0xbd931b0b	-0.071828924
82	0xbc3f4962	-0.011675211
83	0xbcd2fc13	-0.025754964
84	0xbd07bcbc	-0.033138976
85	0x3cb113ac	0.021615826
86	0xbb7925e1	-0.0038016962
87	0x3cd75277	0.02628444
88	0xbcb890d7	-0.022530003
89	0x3c2c8eb7	0.010532073
90	0xbbf63071	-0.007513099
91	0x3cc33c9c	0.023832612
92	0x3c864094	0.016388215
93	0x3cd55e74	0.026046015
94	0x3cbc584e	0.022991326
95	0x3d0013fc	0.03126906
96	0x3d5c9d21	0.053860787
97	0xbd6a0d3e	-0.057141535
98	0x3c59fe9b	0.013305332
99	0xbc822422	-0.01588637
100	0x3cfe58cb	0.0310482
101	0x3cf64915	0.030064145
102	0x3cf6af2b	0.030112823
103	0x3b830e44	0.0039995033
104	0xbd33ea3b	-0.04392455
105	0xbcd7cec8	-0.026343718
106	0x3d2e8ad0	0.04261285
107	0xbd14b69c	-0.036306962
108	0x3d4ee6df	0.050513145
109	0xbc107b5f	-0.008818476
110	0xbce95c22	-0.028486315
111	0x3d978884	0.07399085
112	0xbb2337e6	-0.0024905144
113	0x3bbcf514	0.0057665203
114	0xbae81531	-0.0017706511
115	0x3cdbb502	0.02681971
116	0xbbd53777	-0.006506856
117	0xbb49197c	-0.0030685356
118	0x3cfd3388	0.030908361
119	0x3cd23691	0.025660785
120	0xbcc247ec	-0.023715936
121	0x3d0af5a3	0.033925664
122	0xbd127e93	-0.03576524
123	0xbcc0623e	-0.023484346
124	0x3d0bdc32	0.03414554
125	0xbd450678	-0.048101872
126	0x3c97638b	0.018480083
127	0x3c14f4c4	0.00909156

linear_relu_stack.4.weight f4 [10, 128]
0	0xbd4f978e	-0.050681643
1	0xbc8047c6	-0.015659224
2	0x3db95e30	0.09051168
3	0x3d4d4a3f	0.050119635
4	0xbd2df298	-0.042467684
5	0x3e3153fd	0.17317195
6	0x3c5f9e4d	0.013648582
7	0x3d1fc20d	0.03900342
8	0x3d1286e0	0.035773158
9	0x3dea05a1	0.11426855
10	0x3c71f0b9	0.014766865
11	0x3e2b042e	0.16700813
12	0x3be54018	0.006996166
13	0x3daeba09	0.08531577
14	0x3d84f3da	0.064918235
15	0xbd7d92ac	-0.061907455
16	0x3d9ce84a	0.07661493
17	0x3d03c2e9	0.032168303
18	0xbd62c79e	-0.05536615
19	0x3b894ec0	0.004190296
20	0x3d048707	0.032355335
21	0xbd631de0	-0.055448413
22	0x3d740e90	0.0595842
23	0xbd786dff	-0.060651775
24	0x3d5ad558	0.053426117
25	0xbdc08b0c	-0.09401521
26	0x3e9288d0	0.28620005
27	0xbdc7a4ad	-0.09748206
28	0x3e669a09	0.22519697
29	0xbdf797ac	-0.12089476
30	0x3d497044	0.04917933
31	0x3db3423d	0.08752868
32	0xbd67bcca	-0.056576528
33	0xbe0d1d78	-0.13780773
34	0xbd0401c1	-0.032228235
35	0xbdb6026a	-0.08887179
36	0xbd4e26d7	-0.05033001
37	0xbe1a649a	-0.15077439
38	0x3d4175c4	0.04723145
39	0x3e3de375	0.18543799
40	0x3deddc3e	0.116142735
41	0x3e154db2	0.1458042
42	0xbd7f28ea	-0.062294878
43	0x3cc589db	0.024113586
44	0x3d5e156f	0.05421966
45	0x3e7034e6	0.23457679
46	0x3d2a54e3	0.04158486
47	0x3cc43d83	0.023955112
48	0xbd83eee7	-0.064420514
49	0x3d0a6bfc	0.03379439
50	0x3d769b22	0.06020654
51	0xbcf9ff6c	-0.030517302
52	0xbd5b78f8	-0.05358216
53	0x3c98dca2	0.018659893
54	0xbd119353	-0.03554089
55	0x3d0e98c4	0.034813657
56	0xbcbeb6aa	-0.02328046
57	0x3e1f7318	0.15571249
58	0x3d28c727	0.04120555
59	0xbc69bcae	-0.014266176
60	0xbd8966b2	-0.06709041
61	0x3d968493	0.07349505
62	0xbdbbe8be	-0.091752514
63	0x3d478893	0.04871423
64	0x3d2a85a6	0.041631363
65	0xbcdf798c	-0.027279638
66	0xbc4e373f	-0.012586414
67	0xbd8d944e	-0.069130525
68	0x3d3543cc	0.04425411
69	0xbe0bf9d4	-0.1366952
70	0xbd3140d5	-0.04327472
71	0x3d9ba8da	0.07600565
72	0x3d18114c	0.03712587
73	0x3e5d91ee	0.21637699
74	0x3d8c6680	0.06855488
75	0x3d705896	0.058678232
76	0xbc80ad3d	-0.015707606
77	0xbd8bd2ec	-0.068273395
78	0x3e849cf8	0.25901008
79	0xbdae6f9c	-0.085173815
80	0x3dcf1399	0.1011116
81	0xbde1c1f9	-0.110233255
82	0x3d0cb432	0.034351535
83	0xbd0dd703	-0.03462888
84	0x3cf8b9ba	0.030361999
85	0x3e164588	0.14674962
86	0xbc5ce6ea	-0.013482789
87	0x3bf51160	0.007478878
88	0xbe0689c0	-0.13138485
89	0x3d51da6d	0.051233698
90	0xbd8b9e80	-0.06817341
91	0xbd8b93fc	-0.06815335
92	0x3d59820e	0.053102545
93	0x3dbc0467	0.09180527
94	0xbd369c5f	-0.04458272
95	0x3d568bc9	0.052379403
96	0xbcc6c1ed	-0.024262393
97	0x3e6990c1	0.22809125
98	0xbd83b6a7	-0.064313225
99	0xbda55344	-0.08072522
100	0x3d7105e4	0.05884351
101	0xbdf2ef25	-0.118620194
102	0xbd75dad0	-0.06002313
103	0xbe13bae7	-0.14426766
104	0xbd632317	-0.055453386
105	0xbd375e7a	-0.044767834
106	0xbc55fca1	-0.01306072
107	0x3d76609b	0.060150724
108	0xbd2c7880	-0.042107105
109	0xbe1dc426	-0.15406856
110	0xbda5d28b	-0.080967985
111	0x3d283f33	0.041075896
112	0xbd1d83dc	-0.03845583
113	0xbcfc08c5	-0.0307659
114	0x3c518424	0.012787852
115	0xbd82ce74	-0.06387034
116	0xbcb09558	-0.021555588
117	0x3e020b5b	0.12699644
118	0xbcc9a99d	-0.02461701
119	0x3d685d98	0.056729883
120	0x3d48adc6	0.04899385
121	0x3d49099c	0.04908143
122	0x3d59ab22	0.05314172
123	0xbc791c7d	-0.015204546
124	0xbcef99e8	-0.029248193
125	0x3c0fa448	0.008767195
126	0x3d798cc9	0.06092528
127	0xbca95545	-0.020670542
128	0x3d016a9a	0.031595804
129	0x3c69eb40	0.014277279
130	0xbd37af45	-0.044844884
131	0x3d4cc678	0.049993962
132	0xbd3fc33f	-0.04681706
133	0xbd95224a	-0.07281931
134	0x3d6c0d65	0.05762996
135	0xbdf937c8	-0.121688426
136	0x3d16e8c4	0.036843076
137	0x3d8f2568	0.069895566
138	0xbd2184dd	-0.03943335
139	0xbae60044	-0.0017547687
140	0xbdb1c555	-0.08680216
141	0x3a408780	0.000734441
142	0x3d6e812c	0.058228657
143	0x3d132e08	0.03593257
144	0xbd94a07c	-0.072571725
145	0xbd2e8bc9	-0.04261378
146	0xbbd8d5cb	-0.006617283
147	0x3c76a915	0.015054961
148	0xbd634fd1	-0.05549604
149	0xbda5715a	-0.08078261
150	0x3d4ebbed	0.05047219
151	0xbcc3311a	-0.023827124
152	0xbd9da963	-0.076983236
153	0x3d964ef8	0.07339281
154	0x3d5a7bbf	0.05334067
155	0x3c2a858d	0.010407818
156	0x3c9e024d	0.019288206
157	0xbc26f343	-0.010189834
158	0x3ceb326a	0.028710563
159	0x3d0a5061	0.03376806
160	0x3d481205	0.04884531
161	0x3c88d1e0	0.016701639
162	0xbd819fa5	-0.06329278
163	0xbcd976c2	-0.026545886
164	0xbda8aae7	-0.08235722
165	0x3c7a9a9e	0.015295653
166	0xbdbbfe14	-0.09179321
167	0xbdb5bf3c	-0.08874366
168	0xbde5c03e	-0.11218308
169	0xbd547611	-0.05187041
170	0x3da08d4f	0.078394525
171	0xbd956f46	-0.07296614
172	0x3cf246f0	0.029574841
173	0xbd3b02da	-0.045657016
174	0x3c03b5b8	0.008038931
175	0x3c67fa00	0.014158726
176	0x3cc89e0e	0.024489429
177	0xbd56969e	-0.052389733
178	0xbe14be7f	-0.14525793
179	0x3d1e998e	0.03872066
180	0xbd9e80d6	-0.07739417
181	0xbd36efc1	-0.04466224
182	0x3d2095e9	0.039205465
183	0x3cdc12bc	0.026864402
184	0xbbb85230	-0.005625032
185	0xba6b381b	-0.0008972899
186	0xbda9d0b3	-0.08291759
187	0xbd1db7bf	-0.038505312
188	0xbcdef9a4	-0.027218647
189	0xbd045cec	-0.03231518
190	0xbbfb7367	-0.007673669
191	0xbdc24ffa	-0.094879106
192	0x3c5f2c1f	0.013621359
193	0x3c9f4459	0.01944177
194	0xbcc68f08	-0.024238124
195	0x3ca7b86a	0.020473678
196	0x3c94fa20	0.018185675
197	0x3c7806e5	0.015138363
198	0xbc4a5b18	-0.01235082
199	0xbdbaeba3	-0.091269754
200	0x3d77a822	0.06046308
201	0xbd8fe978	-0.070269525
202	0xbd91acdf	-0.07113051
203	0xbc13ac76	-0.009013286
204	0x3d65a2cf	0.05606347
205	0xbd0182f2	-0.03161902
206	0x3bfb6009	0.0076713604
207	0xbd5b9bed	-0.0536155
208	0xbdbdf634	-0.09275475
209	0x3b915fbe	0.004436462
210	0x3ce5d3e8	0.028055146
211	0xbd1a5d50	-0.037686646
212	0xbdb22677	-0.08698743
213	0xbc79b4c0	-0.015240848
214	0x3b8a7be8	0.0042261966
215	0xbdac6d63	-0.08419301
216	0xbd9b0fe5	-0.07571391
217	0xbd35289a	-0.044228174
218	0xbda05ee0	-0.07830596
219	0xbba5f8fe	-0.0050650826
220	0xbc8cfa33	-0.017209148
221	0xbd9b23cc	-0.07575187
222	0xbc0cc63b	-0.008592184
223	0xbd84ba2b	-0.06480821
224	0x3d314735	0.0432808
225	0x391aaadc	0.00014750235
226	0x3cdfea36	0.02733336
227	0x3d9a69eb	0.075397335
228	0x3d882201	0.06647111
229	0xbd353b3c	-0.044245943
230	0x3c119531	0.008885668
231	0xbd2b9b77	-0.04189631
232	0x3bb24606	0.0054404764
233	0xbd2778b2	-0.04088659
234	0xbd1658d6	-0.036705814
235	0xbd9dd5f6	-0.077068254
236	0x3d8c5af2	0.06853284
237	0x3bdb2a68	0.006688405
238	0x3d3093b6	0.043109618
239	0xbd746804	-0.05966951
240	0x3d89fa90	0.06737244
241	0x3cd04f71	0.025428506
242	0x3c96954c	0.018381737
243	0xbce19d5d	-0.027540857
244	0x3d6a5830	0.05721301
245	0xbb912814	-0.0044298265
246	0x3d7d4ba3	0.06183971
247	0x3c84477a	0.016147364
248	0xbd3d3a9f	-0.046198484
249	0x3d439a32	0.047754474
250	0x3d280ee1	0.041029815
251	0x3da6565f	0.08121943
252	0x3d2408da	0.040047504
253	0xbcbec470	-0.023287028
254	0xbd907ee3	-0.07055452
255	0x3a3e3441	0.0007255711

linear_relu_stack.4.bias f4 [10]
0	0x3cffce09	0.031226175
1	0xbd9acb74	-0.07558337
2	0xbcdbd06a	-0.026832778
3	0xbd10889e	-0.03528654
4	0x3d990a75	0.07472698
5	0xbcb9ce41	-0.022681357
6	0x3d934207	0.07190328
7	0x3a807580	0.0009800643
8	0x3d2e8eb3	0.042616557
9	0x3d331235	0.043718535

linear_relu_stack.6.weight f4 [1, 10]
0	0xbeb7e8c5	-0.35919777
1	0xbe4acb38	-0.19804084
2	0x3ae1c59b	0.0017225029
3	0xbe5ddd42	-0.21666434
4	0xbe8558e0	-0.2604437
5	0x3ec22d3d	0.3792514
6	0xbd051af6	-0.032496415
7	0x3e0b207c	0.1358661
8	0xbe679883	-0.22616772
9	0xbe11a826	-0.142243

exp_avg f4 [512, 16]
0	0x3c86cd7b	0.016455403
1	0xbcda4990	-0.026646405
2	0xbd43c7fb	-0.047798138
3	0x3c2fbc52	0.010726051
4	0x3b8df342	0.004331977
5	0x3c4e9d21	0.012610705
6	0x3d318db3	0.043348026
7	0xbc1bfbf3	-0.009520519
8	0xbd86e825	-0.06587247
9	0xbca5454c	-0.020174645
10	0xbd941a4b	-0.072315775
11	0x3a9143b3	0.0011082798
12	0x3c92c4a3	0.01791603
13	0x3c9dee9f	0.019278822
14	0x3c8f4143	0.017487174
15	0x3c193c59	0.009352767
16	0xbc3822a4	-0.011238728
17	0x3e27e3ea	0.16395536
18	0x3eb8b140	0.3607273
19	0x3da43846	0.08018546
20	0x3dad4707	0.08460813
21	0xbcbe49d3	-0.023228562
22	0xbe9cf197	-0.30653068
23	0xbe649acf	-0.2232468
24	0x3e680761	0.22659065
25	0xbe3e7749	-0.18600191
26	0x3e9dc3aa	0.30813342
27	0x3bed47c0	0.0072412193
28	0xbd52c0e0	-0.05145347
29	0xbdaa7d1c	-0.08324644
30	0x3b0f95af	0.0021909287
31	0xbc75bf9a	-0.014999295
32	0x3c111841	0.00885588
33	0xbcb9cc3c	-0.022680394
34	0xbcfc3a74	-0.030789591
35	0xbce04ba7	-0.027379824
36	0xbcbe9f3a	-0.023269285
37	0xb5d90245	-1.616842e-06
38	0x3cc73e83	0.0243218
39	0x3d4e2001	0.05032349
40	0xbc962593	-0.018328464
41	0x3d40755a	0.046986915
42	0xbcfa0ad1	-0.030522736
43	0xba79a854	-0.0009523679
44	0x3ca5054b	0.020144125
45	0x3d0d0018	0.034423918
46	0x3cb9579f	0.022624789
47	0xbc302cf0	-0.010752901
48	0x3d02965d	0.03188168
49	0xbce82245	-0.028336653
50	0xbd7df1f7	-0.061998334
51	0x3b864053	0.0040970235
52	0xbc87d6b8	-0.016581878
53	0x3b209945	0.0024505418
54	0x3c2eb0f5	0.010662307
55	0x3c9c51f6	0.01908205
56	0x3df57eb9	0.11987061
57	0x3d243c3c	0.040096506
58	0x3dfbaf70	0.122893214
59	0xbadeec50	-0.0017007682
60	0xbd1284b5	-0.03577109
61	0xbd4e40cf	-0.050354775
62	0xbb084075	-0.0020790373
63	0xbcc3a5b0	-0.023882717
64	0x3c9a8244	0.018860944
65	0xbd23a2d4	-0.039950207
66	0xbc960f66	-0.01831789
67	0xbd285274	-0.04109426
68	0xbd1bd1bb	-0.03804181
69	0x3d5a7340	0.053332567
70	0xbc827ea5	-0.01592953
71	0x3d8ab4be	0.06772755
72	0xbc17e5fa	-0.009271139
73	0x3d6e8f46	0.058242105
74	0xbcc54d0c	-0.02408459
75	0xbbf7f752	-0.0075673247
76	0xbc944460	-0.01809901
77	0x3902fe58	0.00012492517
78	0x3b98c963	0.004662679
79	0xbc1bbe00	-0.009505749
80	0xbbd1b45e	-0.0063996753
81	0x3b7389ab	0.0037160914
82	0xbc3a3b8c	-0.011366736
83	0x3c808cab	0.015692076
84	0x3c4df02e	0.01256947
85	0xb9290be2	-0.00016121523
86	0x3ac87506	0.0015293665
87	0x3b915d94	0.004436204
88	0x3c524318	0.012833379
89	0x3c47c077	0.012191883
90	0x3c508fce	0.012729598
91	0x38b8a5c0	8.804677e-05
92	0xbc845157	-0.016152067
93	0xbcd6282a	-0.026142199
94	0x3beb9d1f	0.007190361
95	0xbc07711f	-0.008266716
96	0x3c614523	0.013749394
97	0xbcf7fa35	-0.030270675
98	0xbcaadc9c	-0.020857148
99	0xbc96c56f	-0.01840469
100	0xbc974ac3	-0.018468266
101	0x3cc93f53	0.024566328
102	0x3d242113	0.040070605
103	0x3c8beae2	0.017079774
104	0xbd212885	-0.039345283
105	0x3c1443a6	0.009049332
106	0xbd53f616	-0.051748358
107	0xbb4a6ce4	-0.0030887658
108	0x3bdea009	0.00679398
109	0x3cc63b2b	0.024198135
110	0x3c6c0b79	0.014407032
111	0x35df8ca3	1.6655725e-06
112	0x3ce37fc5	0.027770886
113	0xbd9ca3bb	-0.076484166
114	0xbe065409	-0.13117994
115	0xbc0e99a6	-0.008703625
116	0xbca781bc	-0.020447604
117	0x3d822dd5	0.06356398
118	0x3d0b2eae	0.033980064
119	0x3df2b6e3	0.11851289
120	0xbde159dc	-0.110034674
121	0x3dd6194e	0.10454045
122	0xbe147b36	-0.14500126
123	0x38578262	5.1381423e-05
124	0x3d1a0ac7	0.037607934
125	0x3d357c50	0.044308007
126	0x3cfd8deb	0.03095146
127	0x3bbd486f	0.005776457
128	0xbbf75476	-0.0075479103
129	0x3c028a4d	0.007967544
130	0x3c70ab41	0.014689268
131	0xbc013107	-0.007885224
132	0xbb2aa1fa	-0.0026036487
133	0xbbc4ed94	-0.006009767
134	0xbb9593ac	-0.004564723
135	0xbbbf0f66	-0.005830693
136	0xbc4f78a5	-0.012663041
137	0xbc0955a7	-0.0083822375
138	0xbc1e7e28	-0.009673633
139	0xba177616	-0.0005777789
140	0x3a7dfaff	0.00096885854
141	0x3abecfd6	0.001455779
142	0x3bead62e	0.0071666455
143	0xba6526bb	-0.0008741428
144	0xbc854085	-0.016266117
145	0x3d311b9b	0.043239217
146	0x3d756f5e	0.05992066
147	0x3c82b615	0.015955964
148	0x3ccbfb59	0.024900125
149	0x3ce0997f	0.027416943
150	0xbd1a8ad1	-0.037730042
151	0xbd01c622	-0.031683095
152	0xbc2bc270	-0.010483369
153	0xbceeb34e	-0.029138234
154	0x3c12d0e2	0.008960934
155	0x3b6f38ab	0.0036502283
156	0x3c26a924	0.010172162
157	0x3bbce645	0.005764755
158	0x3af1e622	0.0018455426
159	0x3c05669e	0.008142142
160	0xbcd6eb96	-0.026235383
161	0x3d47d34a	0.048785485
162	0x3cca1867	0.02466984
163	0x3d08ed0f	0.0334292
164	0x3d0c082d	0.034187485
165	0xbc38a42a	-0.0112696085
166	0xbd05c468	-0.03265801
167	0x3afcfe6c	0.0019301898
168	0x3d5e722e	0.05430811
169	0x3c340442	0.010987343
170	0x3d890a42	0.0669141
171	0xba73b22f	-0.0009296266
172	0xbd2bedb6	-0.041974746
173	0xbd486ec7	-0.04893377
174	0xbb5e14d7	-0.0033886933
175	0xbcd50b0b	-0.026006242
176	0xbd169ede	-0.0367726
177	0x3d16a0b3	0.03677435
178	0xbc605462	-0.013691993
179	0x3d3e501c	0.046463117
180	0x3d2060a6	0.03915467
181	0xbc62d76a	-0.013845304
182	0xbc233e58	-0.009963594
183	0x3d057149	0.03257874
184	0x3b976f3a	0.0046214135
185	0x3ce02899	0.027363108
186	0xba4e36bc	-0.00078664324
187	0xb9ef9f81	-0.00045704472
188	0xbc8bc316	-0.017060798
189	0xbcbe05b4	-0.023196079
190	0xbaaeb416	-0.0013328816
191	0xbba62948	-0.005070839
192	0x3ceaf558	0.028681442
193	0xbd030c39	-0.03199408
194	0xbdb9d0a1	-0.09072996
195	0x3bed1f01	0.007236362
196	0xbbc1b922	-0.005911962
197	0x3d72362d	0.059133697
198	0x3d0d2b5f	0.03446519
199	0x3d4f85a9	0.050664578
200	0xbdbabdea	-0.091182545
201	0x3d4bd951	0.049767796
202	0xbdef3919	-0.116808124
203	0xba163002	-0.00057291996
204	0xbbaffae9	-0.005370487
205	0xbcd5b09c	-0.02608519
206	0x3a533305	0.0008056614
207	0xbcca2da2	-0.024679963
208	0xbb324ce3	-0.0027206473
209	0xbb7b3be2	-0.0038335253
210	0x3b8ccb54	0.0042966995
211	0xbaaaea94	-0.001303988
212	0x39dd4542	0.00042204006
213	0xbc036fe6	-0.008022284
214	0x3b95c6ac	0.0045708027
215	0xbbd06698	-0.0063598864
216	0xbae3b97f	-0.0017374008
217	0xbbfeb9eb	-0.007773628
218	0xbb401bd4	-0.0029313462
219	0xbaaad854	-0.0013034442
220	0x3b5f2831	0.0034051056
221	0x3bf7ce84	0.0075624604
222	0x3be324cb	0.0069318763
223	0x3ac13b8c	0.0014742478
224	0xbcc97120	-0.024590075
225	0x3ccf2f66	0.025291156
226	0x3cad5cc5	0.0211624
227	0x3c80feb8	0.01574646
228	0x3c9778b1	0.018490167
229	0xbd30861e	-0.043096654
230	0x3be198df	0.0068846787
231	0xbce717dc	-0.02820962
232	0x3990cbc5	0.0002761764
233	0xbcf37459	-0.029718565
234	0x3c51fd82	0.012816789
235	0x3ae41d39	0.0017403729
236	0x3bb53c18	0.0055308454
237	0x3c05312b	0.008129398
238	0x3a57c47e	0.0008230879
239	0xba808f73	-0.0009808376
240	0xbdb95457	-0.0904929
241	0x3e0cd3eb	0.13752715
242	0x3e2462ba	0.16053286
243	0x3db74e92	0.08950533
244	0x3dd1243e	0.10211991
245	0xbd249132	-0.04017753
246	0xbe0ecce0	-0.13945341
247	0xbcf2af79	-0.029624688
248	0x3de4b3d8	0.11167115
249	0xbcaa405c	-0.020782642
250	0x3e05207d	0.13000675
251	0xbafad2a2	-0.001913626
252	0xbd8a1deb	-0.06743988
253	0xbda09b46	-0.07842116
254	0xbd27ebbb	-0.040996294
255	0xbcdd9518	-0.027048633

exp_avg_sq f4 [512, 16]
0	0x3cede4c4	0.029039748
1	0x3c87f223	0.016594952
2	0x3de3d040	0.11123705
3	0x3cb9812e	0.022644605
4	0x3c5be452	0.013421135
5	0x3d12df75	0.035857636
6	0x3d3d4754	0.046210602
7	0x3cd2a9be	0.025715705
8	0x3da804d8	0.08204049
9	0x3d077807	0.03307345
10	0x3dd104d4	0.10205999
11	0x3a16ee4a	0.0005757554
12	0x3c931bbc	0.01795756
13	0x3cc0a74f	0.023517279
14	0x3cd9a6a5	0.02656872
15	0x3bd56be7	0.006513107
16	0x3f57c4c6	0.8428463
17	0x3fc01aa5	1.5008131
18	0x3ee94b41	0.45565227
19	0x3fcecf51	1.6157018
20	0x3fc62c84	1.5482335
21	0x3ec9c0b5	0.39404836
22	0x3f4cb6bb	0.79966325
23	0x3f7bcab9	0.98356205
24	0x3f5057c8	0.81383944
25	0x3f815ecb	1.0107054
26	0x3f8abe65	1.0839354
27	0x3bea1362	0.007143424
28	0x3e59109c	0.21197742
29	0x3e7e17a7	0.2481371
30	0x3b5e86c6	0.0033954843
31	0x3da74484	0.08167365
32	0x3dad5ad4	0.0846459
33	0x3e24ab8a	0.16081062
34	0x3d030eb7	0.031996455
35	0x3e3cb590	0.18428636
36	0x3e2d1fe1	0.16906692
37	0x3c92aab7	0.017903669
38	0x3c52665f	0.01284179
39	0x3d8074e8	0.06272298
40	0x3d6587ef	0.05603784
41	0x3d95394b	0.072863184
42	0x3d70e5ca	0.058812894
43	0x39f40864	0.00046545558
44	0x3cbc2136	0.022965055
45	0x3d47b5f0	0.048757493
46	0x3d2f6289	0.04281858
47	0x3c5b85a2	0.01339856
48	0x3e1dd3fd	0.15412898
49	0x3e667cc4	0.22508532
50	0x3ed69d44	0.4191686
51	0x3e87e55e	0.2654218
52	0x3e5a6811	0.2132876
53	0x3daf1ca4	0.08550385
54	0x3e039064	0.1284805
55	0x3e4140f8	0.1887244
56	0x3ea74261	0.3266783
57	0x3e78fbd9	0.24314822
58	0x3eb19958	0.34687304
59	0x3b0b0617	0.0021213347
60	0x3d809a2d	0.06279407
61	0x3d9286a9	0.07154591
62	0x3a84b2f9	0.0010124139
63	0x3d6c4958	0.057687134
64	0x3dac72df	0.084203474
65	0x3e0e16a4	0.13875824
66	0x3d06f240	0.03294587
67	0x3e1987b3	0.14993171
68	0x3e0e160d	0.13875599
69	0x3d67515b	0.05647407
70	0x3c8e1623	0.01734454
71	0x3d9695a5	0.07352761
72	0x3d47b28d	0.048754264
73	0x3db4c62e	0.08826862
74	0x3d322054	0.04348786
75	0x39f8650e	0.00047377538
76	0x3cae2c7d	0.021261448
77	0x3d35de3c	0.044401392
78	0x3c3926c0	0.011300743
79	0x3c8727f3	0.016498541
80	0x3ce73649	0.028224127
81	0x3d59819f	0.053102132
82	0x3cba1277	0.022713883
83	0x3d781af1	0.06057257
84	0x3d5e519a	0.05427704
85	0x3c0af42c	0.008481067
86	0x3cd733f1	0.026269885
87	0x3c9dbe09	0.019255655
88	0x3d1d4cad	0.0384032
89	0x3cbb6216	0.02287392
90	0x3d500291	0.050783698
91	0x396ae950	0.00022402895
92	0x3c210335	0.009827425
93	0x3cac0596	0.020998757
94	0x3c2df6bf	0.010617911
95	0x3bf8fbc6	0.007598373
96	0x3cab4c49	0.020910399
97	0x3c65c270	0.014023408
98	0x3d9ad957	0.075609855
99	0x3c88e850	0.016712338
100	0x3c2eb2c3	0.010662737
101	0x3cc694d2	0.024240885
102	0x3d3c6f5f	0.04600465
103	0x3cef0396	0.029176515
104	0x3d26632f	0.040621933
105	0x3d1452b6	0.03621169
106	0x3d2929ba	0.04129956
107	0x39d5bda6	0.00040767825
108	0x3c664134	0.014053632
109	0x3cc4c279	0.024018513
110	0x3d3ded85	0.046369094
111	0x3ba24836	0.004952456
112	0x3e4c7079	0.1996478
113	0x3eb31ebb	0.34984383
114	0x3df8c770	0.12147415
115	0x3ec1d450	0.37857294
116	0x3eb7a23f	0.3586597
117	0x3ded5982	0.11589338
118	0x3db9f757	0.090803795
119	0x3e3529d4	0.17691737
120	0x3e412afa	0.1886405
121	0x3e3c65f9	0.18398274
122	0x3e844932	0.25837094
123	0x3ae10f0a	0.001717062
124	0x3d5dd5dc	0.05415903
125	0x3d9ecf45	0.07754377
126	0x3cc368a7	0.023853613
127	0x3d162b4b	0.03666238
128	0x3bb6bcef	0.005576722
129	0x3bfcb181	0.00771159
130	0x3c0a7154	0.008449871
131	0x3c095548	0.008382149
132	0x3bf8796b	0.0075828335
133	0x3b2ab5e9	0.0026048368
134	0x3c01019a	0.007873917
135	0x3bfc53fc	0.0077004414
136	0x3bedf863	0.007262276
137	0x3c0fbf64	0.008773658
138	0x3bdd2144	0.0067483503
139	0x385f3b70	5.32227e-05
140	0x3af2a22b	0.0018511465
141	0x3b1a61c2	0.0023556803
142	0x3c21f73c	0.009885605
143	0x3a1ca627	0.00059756864
144	0x3ca9607f	0.020675896
145	0x3c2e4993	0.010637659
146	0x3ce9ade9	0.02852531
147	0x3c065099	0.008197927
148	0x3bf0dd32	0.0073505873
149	0x3d0da2b0	0.03457898
150	0x3d2aafa4	0.04167141
151	0x3dc2822a	0.09497483
152	0x3d05fa0a	0.03270916
153	0x3dd0569a	0.10172768
154	0x3cae85fc	0.021304123
155	0x39814ac6	0.00024660508
156	0x3bf8456b	0.0075766346
157	0x3bc2fdaa	0.0059506493
158	0x38f235df	0.000115494935
159	0x3b456d2f	0.0030124893
160	0x3d6e1ec8	0.058134824
161	0x3dee8508	0.116464674
162	0x3d48d3e3	0.049030196
163	0x3e0409a9	0.1289431
164	0x3def6a87	0.1169024
165	0x3c7ad15e	0.015308706
166	0x3c87dcc1	0.016584756
167	0x3d109ee7	0.03530779
168	0x3d2b3cba	0.04180596
169	0x3d288d71	0.041150514
170	0x3d509798	0.05092582
171	0x39bddba2	0.00036212528
172	0x3c7c1dd5	0.015387972
173	0x3ce38e52	0.027777825
174	0x3b749efe	0.0037326212
175	0x3c679096	0.014133593
176	0x3d153e79	0.03643653
177	0x3d9ab769	0.07554514
178	0x3cdeae5e	0.027182754
179	0x3dac5a14	0.084156185
180	0x3da73057	0.08163517
181	0x3bf58bb4	0.0074934606
182	0x3b9945c2	0.004677505
183	0x3ca51810	0.020153075
184	0x3c78fdf8	0.01519727
185	0x3cba9181	0.02277446
186	0x3c443453	0.011975366
187	0x39430c3e	0.0001860121
188	0x3bf483a3	0.0074619814
189	0x3c5db7c8	0.013532586
190	0x38bff4e0	9.153201e-05
191	0x3c10b43a	0.008832032
192	0x3d3f8b3f	0.046763655
193	0x3ceec24e	0.029145386
194	0x3d82d3da	0.06388064
195	0x3d038ff7	0.032119717
196	0x3cbf6cbb	0.023367276
197	0x3d78578b	0.060630362
198	0x3da6a9dd	0.081378676
199	0x3d953561	0.07285572
200	0x3dae4831	0.08509863
201	0x3da25502	0.0792637
202	0x3dd9eba7	0.1064065
203	0x3a5743e2	0.00082117144
204	0x3cc18186	0.023621332
205	0x3ccae64f	0.024768023
206	0x39ccc0c2	0.00039053528
207	0x3cc66225	0.02421672
208	0x3bd6be5d	0.006553455
209	0x3c4ef6f8	0.012632124
210	0x3c557098	0.013027333
211	0x3c648039	0.013946586
212	0x3c4c0c97	0.0124541735
213	0x3b042a34	0.0020166757
214	0x3aadedfd	0.0013269779
215	0x3c0fa560	0.008767456
216	0x3b7da7ff	0.003870487
217	0x3c169b9a	0.009192372
218	0x3b68dcda	0.0035532028
219	0x3858bc40	5.1673735e-05
220	0x3aeeb48f	0.001821177
221	0x3b345f2b	0.0027522545
222	0x3b8108e6	0.0039378284
223	0x3a66a608	0.00087985443
224	0x3c7a00a8	0.0152589455
225	0x3ca9a91b	0.020710519
226	0x3b72d2ac	0.003705184
227	0x3cb28915	0.021793881
228	0x3cb0b8d1	0.021572502
229	0x3c69395d	0.014234868
230	0x3abfc0f1	0.0014629645
231	0x3c83d869	0.016094403
232	0x3aefe64c	0.0018302887
233	0x3c87e809	0.016590135
234	0x3b186ed2	0.0023259413
235	0x388e9d36	6.8003705e-05
236	0x3b844fa8	0.004037816
237	0x3be02df2	0.0068414146
238	0x3be7d573	0.0070750057
239	0x3aad891c	0.0013239714
240	0x3e5b6072	0.2142351
241	0x3ee2d60e	0.44303936
242	0x3e21f216	0.15815005
243	0x3eeff936	0.4686982
244	0x3edb0b04	0.42781842
245	0x3d8c96df	0.06864714
246	0x3e424b3a	0.18974009
247	0x3e31fe97	0.17382275
248	0x3e455f7e	0.19274709
249	0x3e417196	0.18890986
250	0x3e608461	0.21925499
251	0x3aeacfef	0.0017914752
252	0x3d5c2f7b	0.05375622
253	0x3d382572	0.044957586
254	0x3d50c60c	0.050970122
255	0x3cb07390	0.02153948
